results/firstTest/My Behavior/checkpoint.pt (torch, 549154 bytes, 36 tensors)

network_body._body_endoder.seq_layers.0.weight f4 [128, 41]
000000 9f 7e 2f be f5 53 b4 3c b9 1b 7c be 91 2b 9c 3d
       -0.17138146 0.02201269 -0.2461995 0.07625497
000010 8f de 57 be a1 7e 99 3c 50 47 c6 be 4e 8b 40 be
       -0.21080993 0.01873714 -0.38726282 -0.1880314
000020 5c dd cb bd 0d 23 d6 bd 3a 60 7f be 3f 9d 0c be
       -0.0995433 -0.10455904 -0.24939051 -0.1373186
000030 c7 49 34 3e 5a 0e 25 be 40 37 58 3e e4 e1 7f be
       0.17606269 -0.16118756 0.21114826 -0.24988514
000040 f4 3d 5e be d9 63 39 3d 29 86 12 3d 0e ab 7f 3d
       -0.2170332 0.045261238 0.035772476 0.06241899
000050 5f 32 8f 3e ba ef 7d 3d 34 0f 54 bc 96 ae ae 3e
       0.27968118 0.0619962 -0.012943078 0.34117573
000060 08 d4 8f bd 8d af 89 be aa e3 a9 3d db df 09 3e
       -0.070228636 -0.26891747 0.082953766 0.134643
000070 62 6a 9e 3d 34 dd 3f 3d 64 fd 97 3d eb b3 35 3e
       0.07735135 0.046841815 0.07421377 0.17744415
000080 86 32 74 be ce e8 7f bc 9c 81 a6 3c 93 95 50 3b
       -0.23847398 -0.01561947 0.020325474 0.0031827434
000090 a8 ab d8 3d e4 c3 10 be f2 60 04 be 99 de 98 3e
       0.10579616 -0.14137226 -0.12927607 0.2985733
0000a0 50 ef 7e 3e 06 87 b8 3c 9e 2c 21 3d 57 c1 d0 bd
       0.24895978 0.022525322 0.03934919 -0.10193127
0000b0 d3 cc 23 bd 10 cb d6 3d d7 bc 9c bd dd 87 29 bd
       -0.039990257 0.1048795 -0.07653206 -0.041389335
0000c0 fe 0b ad 3d 6c e3 6c be 77 1d 1b 3e cf 95 48 3e
       0.08449553 -0.2313363 0.15147959 0.19588397
0000d0 27 a2 29 be 39 41 c8 3d 6d 67 47 3d 88 97 9f be
       -0.16565762 0.09778065 0.04868262 -0.31170297
0000e0 32 93 32 bd c0 3e e2 bc d2 81 d9 bb e9 c5 8f 3b
       -0.043597408 -0.027617812 -0.0066377902 0.0043876064
0000f0 6e dd 9c 3d d4 52 ef 3c 15 7a 1d be e1 48 ca 3c
       0.07659422 0.0292143 -0.15378602 0.024692954
000100 b2 af 72 be 98 51 a3 3d 9e 1a 6a be c3 7e ee bd
       -0.23699835 0.07974547 -0.22861716 -0.11645272
000110 16 f6 25 be 45 9b 95 3e c3 29 13 be fc 35 19 be
       -0.16207156 0.29220024 -0.143714 -0.14962
000120 95 6d fb 3d 9a 2e 63 be 81 fb 82 bd 6f a3 24 ba
       0.122767605 -0.22185746 -0.06395627 -0.0006280457
000130 77 c7 61 3d f7 a4 63 3d c5 18 02 3d 50 5a 1a 3e
       0.055121865 0.055577245 0.031761903 0.15073514
000140 5a f1 69 bd f9 2a 5e 3e cb 82 68 3d cb 04 81 bd
       -0.057114936 0.2169608 0.05676536 -0.06299742
000150 14 56 3e 3e 0c c9 c8 bd 53 a2 9b 3d 08 b2 e4 bd
       0.18587524 -0.09803972 0.0759932 -0.11166769
000160 c3 90 b4 be fb 92 43 3d ca c4 04 3d bc a5 b7 3d
       -0.35266694 0.047747593 0.032414235 0.08967158
000170 88 1e 8d 3d c5 1f e8 bd 3d e2 a2 bd 5e 46 c7 3d
       0.06890589 -0.113341846 -0.07953308 0.09730218
000180 16 b5 2b be 4f d4 c4 3d de 99 74 be ef 85 2d 3e
       -0.16768298 0.09610807 -0.2388682 0.16945623
000190 d3 d9 7d be aa d6 11 3e 06 6f b6 bd 36 86 70 bd
       -0.24790125 0.14242044 -0.08907895 -0.058721744
0001a0 b7 e9 e4 3d ae c9 b8 3d c4 a1 9a bd e0 a3 91 be
       0.1117739 0.09022842 -0.075503856 -0.2844534
0001b0 5f 7e e3 bd 26 d9 44 be 91 cc 35 3e 59 17 a2 bd
       -0.11108088 -0.1922346 0.17753817 -0.079146095
0001c0 d7 5f e7 bc 2a bb 30 bd 5d c9 bf 3e 46 7b 1d be
       -0.028243942 -0.043147244 0.37458315 -0.15379056
0001d0 b2 6b f4 3d ad 73 a9 3d 4f d1 02 bd 95 50 16 bd
       0.11934604 0.082740165 -0.031937893 -0.036697943
0001e0 43 f9 7a 3e 69 34 26 3e f7 17 41 be 5d 96 28 3e
       0.24509148 0.1623093 -0.18856798 0.16463609
0001f0 53 fa 30 be 64 79 bf bd 36 19 36 be 81 19 32 3b
       -0.17282991 -0.09349325 -0.17783055 0.0027175846
000200 64 34 48 3e a4 8e 0d bd 9a 59 43 bd da 3b a3 bc
       0.19551235 -0.03455986 -0.047692873 -0.019926
000210 99 8c 45 be 32 25 f2 bc 80 cd 00 3e 93 54 d3 be
       -0.19291915 -0.029558752 0.12578392 -0.41275463
000220 40 0b 06 3e 71 3d 85 3e d1 71 69 3e cf de b9 bc
       0.13090229 0.2602344 0.22797324 -0.022689251
000230 42 dd 18 bd 1d dd 4c bd 8f 7d 1e 3e 5d 77 a7 3d
       -0.037320383 -0.050015558 0.15477584 0.081770636
000240 bf 99 07 3e 26 fc a0 3c d9 f6 93 3d 57 aa 48 3d
       0.13242243 0.019651484 0.07224817 0.048990574
000250 04 a0 d5 bd e6 a9 85 3e a9 2a 65 3d c6 9b 9a 3d
       -0.10430911 0.26106185 0.055948887 0.07549243
000260 d3 2e c8 bd c7 94 85 3a cd e4 b7 bc 88 02 02 3e
       -0.09774556 0.0010191434 -0.022447968 0.12696278
000270 ea 2a 6c bb a3 16 8f be eb a2 fb be 40 4f 1a be
       -0.003603632 -0.27946958 -0.49147734 -0.15069294
000280 a3 19 1d bd 28 a8 9e 3e 4e 3e cb 3d e9 5c b5 bd
       -0.038354527 0.30987668 0.09923993 -0.08855612
000290 b7 17 03 3e d5 02 6c be f1 70 c4 bc 4a eb 37 bc
       0.12802015 -0.23047955 -0.023979636 -0.011225531
0002a0 9a d2 70 3d 45 72 31 be e1 2e 8d 3d fa 69 54 3c
       0.058794595 -0.17328747 0.06893707 0.01296472
0002b0 1a ef 37 3d 77 3e 09 be a8 c1 fb 3d 95 f4 a3 bd
       0.04490576 -0.13402735 0.122927964 -0.08005635
0002c0 7a 3e a2 3e 15 08 dc bc 01 42 18 be f5 be 36 bb
       0.3168829 -0.026859323 -0.14868928 -0.0027884815
0002d0 83 87 1f bd c0 73 6a 3e cf 35 08 3f 2f da 6b 3e
       -0.038947593 0.22895718 0.53207105 0.23032449
0002e0 6c c0 aa bd fe b8 23 be 1b 02 c5 be 72 d2 10 bc
       -0.08337483 -0.15988538 -0.3847817 -0.008839237
0002f0 a6 72 46 bd 18 8d 97 bc fb 43 b4 3c 3a d0 f4 3d
       -0.04844918 -0.018499896 0.022005072 0.119537786
000300 87 a1 5d be f2 99 1e be 13 88 81 3e 8b 66 af bd
       -0.21643649 -0.15488413 0.2529913 -0.085644804
000310 4b 04 e3 bc c9 98 e8 bd d5 6c f1 bd c2 cc c5 be
       -0.027712008 -0.113572665 -0.11788336 -0.3863278
000320 e4 0b 1c be 48 3b c7 bd 66 1c df 3e c4 86 18 3d
       -0.15238911 -0.09728104 0.43576354 0.037237898
000330 fa b9 a1 3d ef 5c 9e 3d ea 27 aa 3d 8b d2 a8 bd
       0.078968 0.077325694 0.08308394 -0.08243283
000340 a4 50 67 bd d0 74 3c bc 1c bb 23 3c ef a7 bc 3d
       -0.05647339 -0.01150246 0.009993341 0.09211718
000350 d9 90 27 bd cf 2a 00 3e e7 6f 4b 3e 40 de 0a bb
       -0.040909622 0.1251633 0.19866906 -0.00211896
000360 26 05 0e 3e 66 e4 b7 bc b1 51 e5 bc c4 99 8f 3e
       0.13869151 -0.022447776 -0.027993055 0.28047
000370 64 22 1f bd 6d 00 16 bd 71 e3 b1 3c 40 57 66 bd
       -0.038851157 -0.0366215 0.021714898 -0.05623555
000380 dc 4a d6 bd c5 8c 6c bd 7b f9 a0 3b b1 db 7f 3d
       -0.10463497 -0.057751436 0.004912553 0.062465373
000390 a4 51 50 bd 34 54 54 3e 35 13 a2 be 6d 79 93 be
       -0.05085911 0.20735246 -0.3165528 -0.28803578
0003a0 d1 fd 24 bd 8e 25 15 3e cc df d4 bc 45 24 59 3e
       -0.04028112 0.14565107 -0.02598562 0.21205242
0003b0 66 e2 3d 3e 90 6c 7c 3c f6 12 93 be 97 d6 1a 3d
       0.18543395 0.015406743 -0.28725404 0.037802305
0003c0 8b 35 05 3e 4d 72 02 be 36 5b cb bd cc 00 82 3d
       0.13008706 -0.12738915 -0.099295065 0.06347808
0003d0 7d 12 8f bd 05 ee 46 be 6e 68 ca bd ab 82 59 3d
       -0.06985948 -0.19426735 -0.098832 0.05310313
0003e0 5a a5 86 bd 34 21 6b 3d 3b 9b 49 3d 30 e4 18 3d
       -0.06574507 0.05740471 0.049220305 0.03732699
0003f0 65 e1 7f bd 98 70 53 3c 33 ef 36 bd d3 22 d4 3c
       -0.062470812 0.012905262 -0.044661712 0.025895512

network_body._body_endoder.seq_layers.0.bias f4 [128]
000000 eb 86 87 3c 20 a8 92 3a 87 57 80 bc 6c 30 73 3b
       0.016543826 0.0011189021 -0.015666736 0.003710772
000010 1d ac 8e 3c 0e 23 dc 3c 08 35 9e 3c 6c ef a2 3c
       0.017416054 0.026872184 0.019312397 0.019889556
000020 b1 b7 90 3c 34 5d 0a 3b 73 8b 19 bc e3 01 d2 3c
       0.017665716 0.0021112682 -0.009371626 0.025635665
000030 56 7d 45 bb 58 7f a8 3c 20 72 38 bb 54 bf 6f bb
       -0.003013452 0.020568535 -0.0028144196 -0.0036582546
000040 da 2f 0c bc 4c e3 14 bc 2c 58 e4 bb a4 a9 5c bc
       -0.008556331 -0.009087395 -0.0069685187 -0.01346818
000050 a6 6f d4 bb 88 b1 12 3c 80 f5 97 3b 1f af 2a 3c
       -0.006483036 0.00895346 0.00463742 0.010417729
000060 a0 6d 92 ba 4a bf 3c bc d1 4b 7a 3a a0 5e e9 3a
       -0.0011171587 -0.011520216 0.00095480407 0.001780469
000070 99 bc b3 ba e7 9f 7c bc 36 94 f1 3b 18 ed a7 3c
       -0.0013712823 -0.015418983 0.0073724044 0.020498797
000080 71 89 ed 3b 26 6c 02 3b ec cd 46 bb 72 cf 52 3c
       0.0072490503 0.0019900887 -0.0030335141 0.012866842
000090 70 e0 8f bc 1a 4f 71 3c a7 5c 07 bc 55 c0 3f bb
       -0.017563075 0.014728332 -0.008261836 -0.0029258926
0000a0 81 2c 98 3b 73 99 85 3c 57 0f 06 bc 57 d3 2f 3c
       0.004643977 0.016308522 -0.008182368 0.01073154
0000b0 cc 77 c7 bb 33 22 00 3a e8 58 ae bb 88 b7 57 bc
       -0.006087279 0.00048879086 -0.005320657 -0.013166316
0000c0 69 75 04 3c e6 0d 89 3c ee ec d9 3a c3 07 8e 3c
       0.008084633 0.01673026 0.0016626397 0.017337685
0000d0 73 23 c3 bb 8d 77 73 3a c2 1f 29 3c b9 c8 7e bb
       -0.0059551536 0.0009287529 0.010322513 -0.0038876964
0000e0 47 18 fd 3b a6 3b 83 3c 61 eb e2 3b b5 55 47 bc
       0.0077238414 0.016019654 0.006925032 -0.01216643
0000f0 35 c8 a6 3c 73 05 f6 ba 4c b3 03 3c 8a b2 53 bc
       0.020359138 -0.0018769935 0.008038353 -0.012920985
000100 a2 27 55 3c 49 a4 ff 3b 66 c9 25 bb 54 cd 5e bc
       0.0130099375 0.0078015667 -0.0025297045 -0.013598759
000110 59 ed 92 bc 20 01 f3 bb f6 14 b5 3b a4 f2 fb 3b
       -0.017935442 -0.0074159056 0.0055261804 0.007688837
000120 8e 87 96 3b 3d ee 70 3b 6c b5 61 3c 49 bb 6d 3c
       0.004593796 0.0036763095 0.0137761645 0.014509984
000130 23 55 12 3c 33 50 2e bb f5 9f 0b bc e8 7d 42 3c
       0.008931431 -0.0026598095 -0.008522023 0.011870839
000140 c4 b1 12 3b 35 4b a8 3c 9c b1 8e bc 10 3a 71 3c
       0.0022383789 0.020543674 -0.017418675 0.014723316
000150 72 1a 43 3b 81 ca 8f 3c f9 f5 51 3b 4e c1 86 3b
       0.0029770401 0.017552616 0.003203748 0.004112399
000160 eb 80 12 3b 3a e7 54 3c 87 36 0c bc d0 b9 80 bc
       0.0022354673 0.012994582 -0.008557922 -0.015713602
000170 49 15 ee 3b 46 d9 bb bc dd a0 23 bc ce bd 25 3c
       0.007265721 -0.022930752 -0.009987083 0.010116054
000180 98 95 38 bb e6 a2 93 bb 48 80 72 3c ab e7 85 3b
       -0.0028165337 -0.004505503 0.014801092 0.004086455
000190 15 08 db 3b 50 b8 16 3b 89 8f e0 3b 16 b5 ba bb
       0.006684313 0.0022998042 0.006853048 -0.0056978567
0001a0 df 0b 77 bc 67 f8 8f bb cb 16 e4 b9 0d 9a 09 3c
       -0.015078514 -0.0043936255 -0.0004350453 0.008398545
0001b0 db ea 3a bc d1 2f b9 3a 39 9a 67 bc d5 9f c9 3a
       -0.011408533 0.001412863 -0.014135891 0.0015382717
0001c0 a6 3a e5 bb b1 f7 81 bc 82 0e 45 3b 9e da 3d bc
       -0.006995517 -0.015865179 0.0030068462 -0.011587767
0001d0 16 d8 8c bc 00 e1 9a 3c 57 85 a5 3c 6f f8 ca 3b
       -0.017192882 0.018906116 0.020205183 0.0061941664
0001e0 aa 84 7f bb 5d f5 06 bc f4 7f 87 3c ff 58 2a 3c
       -0.0038988986 -0.00823721 0.016540505 0.010397195
0001f0 87 b4 8f 3c 2b 26 c3 3a ae e5 08 bb a0 9d 56 3c
       0.017542137 0.0014888694 -0.0020888853 0.013099104

network_body._body_endoder.seq_layers.2.weight f4 [128, 128]
000000 cc 2b 3a bd 66 7a 71 3d da 9f 9a 3c 02 10 82 3c
       -0.045451924 0.05895462 0.018875051 0.015876774
000010 ad 7d ad 3d d4 e2 d1 3d 41 f3 0d 3c 03 e3 8f 3d
       0.084712364 0.10248342 0.008663953 0.07025721
000020 b3 72 84 bd a3 ae 1f 3c d2 31 c4 3d a6 c5 9e 3d
       -0.0646719 0.0097462265 0.09579815 0.07752542
000030 b1 4b 99 bd fa 99 00 be a3 93 35 bd ff c4 7d bd
       -0.0748514 -0.12558737 -0.04433025 -0.06195545
000040 73 80 dc bc 9c 37 19 3d e0 a1 3c 3d 6b 3f 11 be
       -0.026916718 0.03740655 0.046052814 -0.14184348
000050 6f cd 2e 3e 63 1c 2a bc f1 66 e6 3d 00 a7 01 3d
       0.17070554 -0.0103827445 0.11250103 0.031653404
000060 2c 71 6c 3e 96 ef 55 3d 8a 58 d5 bd da aa 8b bc
       0.23090047 0.05223044 -0.10417278 -0.017049242
000070 47 6a c4 3c c2 c8 05 bd 3d 39 1c 3a 87 3e 73 bb
       0.023976458 -0.03266216 0.0005959457 -0.0037116127
000080 8c eb 59 bd d7 ec f7 3d f4 46 ad 3c 17 b8 19 3e
       -0.05320315 0.121057205 0.021151997 0.15011631
000090 5b 98 b6 bd 2e ed 47 3c ff b6 98 bd 88 43 47 3c
       -0.08915778 0.012202544 -0.07456779 0.012162097
0000a0 4c d1 de 3d 30 89 ea 3c d3 13 80 bd 07 3d 31 3d
       0.10879764 0.02862987 -0.06253781 0.04327109
0000b0 9b b1 96 3d cf a3 37 bd 16 74 ae bd 36 d7 b9 bd
       0.07358094 -0.044833954 -0.085182354 -0.09074251
0000c0 91 2f 93 3d 47 68 c3 3d e7 42 87 3c 49 82 ab 3b
       0.07186807 0.09541374 0.016511394 0.005234037
0000d0 9b 7f f8 bd 16 9c ea 3d b8 f8 da 3b 2c 01 6b 3e
       -0.12133714 0.11455552 0.0066824816 0.22949666
0000e0 df 88 07 bd b3 a3 6d 3c 44 d8 1f be 07 95 29 3e
       -0.033089515 0.014504361 -0.15609843 0.16560756
0000f0 2f ed e1 3d da 12 6e 3b f6 51 7b bd bd 27 3a 3c
       0.11031567 0.0036327154 -0.06135746 0.011362013
000100 7a e3 9f bd 2c 21 9d 3d 8d 6e 29 3d 10 44 f9 bc
       -0.078070596 0.07672343 0.041365195 -0.030427963
000110 27 00 07 be 94 b2 6f 3d ce 4a 76 bd 83 4a 39 bd
       -0.13183652 0.058519915 -0.060129933 -0.045237076
000120 8a 58 93 3d 1b 13 a9 3d ad c4 ad 3c cd 12 88 bb
       0.07194622 0.08255597 0.021211946 -0.004152632
000130 d7 d1 2a 3e 10 7c 21 bd 20 cf 4b bd c1 b6 a6 3d
       0.1668161 -0.039424956 -0.049758077 0.08140326
000140 4d 0b 25 3d 4a 0b a5 3d 68 43 81 bc ee b3 27 3e
       0.04029398 0.08058794 -0.015779212 0.16377231
000150 77 fe f0 3d cb 6e d6 bd 09 4d 48 3a 30 cb b1 3d
       0.11767285 -0.10470351 0.00076408737 0.08681333
000160 5e 9e 7f 39 ad d0 4e bc 4a 43 80 bd 10 8b 31 3c
       0.00024377691 -0.012622994 -0.06262834 0.010836378
000170 82 66 cf bd cf 9b 1a bd 36 49 53 bc e5 61 e5 3c
       -0.10126974 -0.037746247 -0.012895873 0.028000781
000180 29 58 24 3e cd 93 a1 3d e5 d1 b8 3d db 79 95 bc
       0.16049255 0.07889519 0.09024409 -0.018246582
000190 b6 bc 83 3d 5f 49 ce 3c 0f 6e ec bc 08 fe 4a 3d
       0.06432478 0.02518147 -0.028861074 0.04955867
0001a0 1c 19 c2 bd 21 ca 0a 3e 9b ad 1f bd 0b 30 2c 3e
       -0.094774455 0.13553669 -0.038983922 0.16815202
0001b0 b7 bc 1a bc 50 46 27 be cc fd ad bd 1f b3 f2 bd
       -0.009444407 -0.16335416 -0.084956735 -0.11850571
0001c0 6c d9 af bd 64 37 7d 3d 97 9b 06 bd ad 61 05 bd
       -0.08586392 0.061820403 -0.032863226 -0.032563854
0001d0 fd 43 05 3e 3e fb 1b 3d 45 27 1d bc b7 b0 bd bd
       0.13014217 0.0380814 -0.009591882 -0.09262221
0001e0 92 d6 1f bd 3d 2e 95 bd 90 a9 b3 bd a7 a9 d4 3c
       -0.03902299 -0.0728421 -0.08772576 0.025959803
0001f0 9d 6d 6b 3d bd b8 11 be 1b 2a 4c 3e be f6 f9 bd
       0.057477582 -0.14230628 0.19937937 -0.122052655
000200 6a 98 8c 3d 2a 81 1b bc a8 29 21 3e 90 88 85 3c
       0.06865008 -0.009491244 0.15738547 0.01630047
000210 9b fe 10 bd 6b e5 26 bd 39 01 43 bd 61 c4 a0 3d
       -0.03539906 -0.040746134 -0.047608588 0.07849956
000220 ed 9a dc 3d f0 d5 b4 bd 72 95 1a 3d fe c3 5f 3e
       0.10771737 -0.08829868 0.03774018 0.21852109
000230 28 e3 fe 3c 7e 1d 4b 3d c3 20 36 3e 7b 17 0b 3c
       0.031114176 0.049588673 0.17785935 0.008489485
000240 cb 90 88 3d fc e6 87 bd 99 b6 0f 3d 3c 44 7c be
       0.06668242 -0.06635854 0.035086248 -0.24635404
000250 8d b9 2e bd 1d b7 17 3c 9c ec 00 bd 1e bc c5 3c
       -0.042657424 0.009259966 -0.03147565 0.024137553
000260 21 58 fe 3c 8d f5 d1 38 86 86 26 3e 61 de 0f be
       0.031047883 0.00010011634 0.16262254 -0.14049675
000270 56 f1 38 bd 94 6c 08 3e e2 2c ec bb a5 24 31 bd
       -0.04515203 0.1332267 -0.007207499 -0.043247838
000280 09 d7 3a 3d 2a ff a3 bd 1c 77 21 bd f8 4a 77 3d
       0.04561523 -0.08007653 -0.039420232 0.06037423
000290 be 3b 22 bd 1c 6f 2d bc 3f 6e 2b be 05 d7 67 3b
       -0.039607756 -0.010585573 -0.16741274 0.0035375964
0002a0 89 ab 17 be 39 1f aa bd 46 b3 a0 3d c6 3f a0 bc
       -0.14811529 -0.083067365 0.07846694 -0.01956166
0002b0 53 f1 19 bc 5e a8 e0 bb d3 e4 09 bc 4b aa f1 3c
       -0.009395915 -0.0068560084 -0.008416372 0.029500147
0002c0 ae 39 22 3e 6d 6d 13 be 6d f1 f0 bd b2 f9 0c 3c
       0.15842316 -0.14397211 -0.11764798 0.008604454
0002d0 a4 e1 27 bc bb 89 94 3d 57 80 32 3e 6f 30 26 3d
       -0.010246668 0.072528325 0.1743177 0.040573534
0002e0 dd 7f a6 be 4f bc df 3c 62 90 15 3c 2d 9b 50 3d
       -0.32519427 0.027311472 0.009128662 0.050929237
0002f0 32 e5 18 3e 35 05 53 bd fa 80 d7 bc 23 7a 23 be
       0.14931181 -0.051518638 -0.026306618 -0.1596456
000300 55 2f 0a bd 69 72 0b 3e 0d 63 e8 3d 6d 0e 72 bd
       -0.033736546 0.13617863 0.113470174 -0.05909579
000310 f7 53 84 bb 0b 11 80 3d b1 56 1b 3d ae 79 9a 3d
       -0.0040383297 0.06253251 0.037924472 0.0754274
000320 1b 69 9b ba 2d 55 da 3d ba f1 be bc 44 09 9b 3d
       -0.0011856885 0.10660777 -0.023308624 0.07570127
000330 93 b8 68 3d bd 42 9a bc 4d 22 80 3c 27 8f fa 3c
       0.05681665 -0.018830651 0.015641356 0.030585838
000340 58 c7 81 bd a2 1a 72 3d a8 5c de 3c 7e 45 82 bd
       -0.0633685 0.05910743 0.027143791 -0.06360911
000350 3d 9f 37 3d 64 e6 02 be fc 3e dc 3d 5e 4d 90 be
       0.044829596 -0.127832 0.10754201 -0.28184026
000360 09 a7 03 3d 26 80 5b be 3e f0 65 be 8d 1d fe bd
       0.03214172 -0.21435603 -0.22454926 -0.1240798
000370 d6 12 87 bd 1d 40 55 be c8 1f de 3d b5 f8 05 be
       -0.065953895 -0.20825239 0.108459055 -0.13083155
000380 ee 8a de 3c 46 a0 f8 bd d9 96 aa bd d9 96 45 bc
       0.027165856 -0.12139945 -0.08329553 -0.012059891
000390 fe 80 fd 3c 3d 2f 13 bc b0 eb 4e bc 0a 6e f2 bd
       0.030945297 -0.00898343 -0.0126294345 -0.118373945
0003a0 4a 76 8f 3d 78 39 da 3d 2a 6b 27 bd f7 a8 f9 bc
       0.07004984 0.106554925 -0.040873684 -0.030476077
0003b0 55 a6 1f 3e c5 01 ce 3c 64 c5 50 bd 22 42 b4 bd
       0.15590794 0.025147328 -0.050969496 -0.08801676
0003c0 d1 13 07 bd 9a d0 5e bd 25 ad 68 bc 0a d3 bd bd
       -0.032977883 -0.054398157 -0.014201437 -0.09268768
0003d0 cb 17 64 bd 54 42 d0 bc 60 13 dc bc c9 40 13 be
       -0.055686753 -0.025422253 -0.026864707 -0.14380182
0003e0 73 40 fd bd ed d6 83 3d c9 52 0c 3e 0b 07 70 3d
       -0.12365808 0.06437478 0.13703455 0.058600467
0003f0 e9 20 1b be 8c ca 92 3d ed 7c 45 bd ac bf 29 3d
       -0.15149273 0.07167539 -0.04821484 0.04144256

network_body._body_endoder.seq_layers.2.bias f4 [128]
000000 ad 9a 8b 3a c0 86 be 3c 33 3e 87 bb 64 d3 8c 3c
       0.0010650955 0.023257613 -0.004127288 0.017190643
000010 01 4a 3b bc 91 b6 05 3b f3 83 b4 3c 04 00 a5 bb
       -0.011431218 0.0020403008 0.022035575 -0.0050354023
000020 7b 29 e1 bb 6f 51 0d bc 46 1b c9 ba 5d ce 9d bc
       -0.0068714 -0.008625372 -0.0015343211 -0.01926344
000030 f6 9f 85 bc ba 53 93 bc 5e 2e 6f 3c 8c fe 8a bb
       -0.016311627 -0.01798426 0.014598457 -0.00424177
000040 5e 54 97 bb 86 4c f3 ba 24 59 9e bc 3d a9 09 3c
       -0.0046182116 -0.0018562234 -0.019329615 0.008402166
000050 db 7e 99 bb 67 7b d2 3b 83 47 16 3b 52 8d b7 ba
       -0.004684312 0.006423402 0.0022930808 -0.0014003909
000060 d1 69 25 3c 68 a8 34 bc a8 f2 a2 3c 59 40 a2 bc
       0.010096029 -0.011026479 0.019891098 -0.019806074
000070 5d ff ed bb a3 64 88 bc 6d 3f cc bb 49 1a 37 bc
       -0.0072631077 -0.01664955 -0.006233147 -0.0111757
000080 34 3c 94 3c 66 c3 cd ba 27 11 5a bc 8b 77 37 bc
       0.018095113 -0.0015698492 -0.0133097535 -0.011197935
000090 ca 4c 82 3c 85 37 81 3a cf 01 ce bb c1 60 79 3c
       0.015905757 0.0009858465 -0.0062868367 0.015220822
0000a0 c4 f6 e4 3a 2c be 48 bc 6c 3a b0 3c 09 9b 12 bb
       0.0017468561 -0.012252372 0.021512233 -0.002237024
0000b0 08 4c 13 3c 57 7b 3e 3c 83 61 2b bc b6 15 07 bc
       0.008990295 0.011626086 -0.01046026 -0.008244922
0000c0 f6 97 3b 3c 12 bd 80 3c 54 d1 a2 3c 90 d0 93 bb
       0.0114498045 0.015715156 0.019875206 -0.0045109466
0000d0 22 c8 83 3c 6f 31 4c bc 11 13 11 bc e2 67 0b 3c
       0.016086642 -0.012462958 -0.008854643 0.008508654
0000e0 4d 63 05 3b 7b 6a d3 3c 45 36 8b 3c 5f 1e c6 bb
       0.0020353377 0.02580761 0.016993651 -0.006046101
0000f0 dd 26 6f bc 0a 6d c9 3b 2b 6b c5 bb 23 c7 74 3c
       -0.014596668 0.0061470317 -0.0060247383 0.014940056
000100 76 56 20 3c 68 10 84 bc 31 1b 22 bc 35 70 7f bc
       0.009786239 -0.016121104 -0.009894178 -0.015590717
000110 01 4c d2 bb 20 9c a3 3b 4a 22 88 bc 0f af 94 3c
       -0.006417752 0.004992977 -0.016617913 0.01814988
000120 ae 1c 38 bb 2d d9 4a bc e9 30 b6 bb e5 cd 48 bc
       -0.0028093266 -0.01238088 -0.0055600298 -0.01225612
000130 6b a3 5b bc f9 7e fb bb 34 e3 56 bc d8 29 15 3c
       -0.013405661 -0.0076750484 -0.013115693 0.009104215
000140 f5 b6 4a 3c 07 a3 9e 3a b7 8c 8e bc a2 f7 9e 3c
       0.012372722 0.0012103029 -0.017401082 0.01940519
000150 de 92 9b 3b 78 92 82 3c 6f 49 af 3c 6f 7b 8b bc
       0.0047477325 0.015938982 0.02139732 -0.017026631
000160 30 02 ba b7 32 c1 e6 bb f7 9e bf bb 38 0a 93 bc
       -2.2173946e-05 -0.0070420736 -0.0058478075 -0.017949209
000170 7a 65 96 bc ae 7a a8 b9 50 81 55 39 c0 af 3b bc
       -0.018358935 -0.0003213486 0.00020361436 -0.011455476
000180 73 93 8f 3b 8d ba d8 bb 38 f9 30 3c 10 17 70 3c
       0.004381591 -0.0066140355 0.010801606 0.014653936
000190 0a 66 35 3c 0b 9c 0c 3c ad 60 4b 3c 35 9a 73 3c
       0.011071691 0.008582125 0.012413186 0.014868309
0001a0 e2 2b 37 3c f4 29 6c bc e5 8f 20 bb e9 59 3e bc
       0.011179896 -0.014414299 -0.002449983 -0.011618116
0001b0 e0 68 70 3c 22 00 9e bc d3 05 68 3c e9 24 3d 3b
       0.014673442 -0.019287173 0.014161545 0.0028861111
0001c0 af f2 9e bc b5 23 8b 3b 36 92 38 3c fa de 54 3c
       -0.01940283 0.0042462 0.011265328 0.012992615
0001d0 7f dd 6b bc ed fe 2c bb 41 a4 5d 3c 5b ad a3 39
       -0.0143960705 -0.0026397065 0.013527931 0.00031218943
0001e0 6b 16 45 bc e5 5c 81 3c 7c 1b 80 3c 8d 16 16 3c
       -0.012029271 0.015791366 0.015638106 0.00916065
0001f0 e4 0b b2 b9 48 8c 85 bc 9f f8 4b 3c d8 fa a2 bc
       -0.00033959665 -0.016302243 0.012449413 -0.019895002

action_model._continuous_distribution.log_sigma f4 [1, 2]
000000 8e 83 22 3b d4 97 e2 bb
       0.002479765 -0.006915072

action_model._continuous_distribution.mu.weight f4 [2, 128]
000000 fb 80 58 ba 8e 17 70 3c 54 ad 84 3c 40 1a 19 3d
       -0.00082589657 0.014654053 0.01619593 0.03737855
000010 08 52 40 bb 35 d1 0c 3b 97 cf 37 3d cb 4e 55 bc
       -0.002934577 0.0021487002 0.044875707 -0.013019274
000020 8b d5 a3 bc 3a f6 28 bc ea b3 94 3c d3 55 06 bd
       -0.019999286 -0.010312611 0.018152196 -0.032796692
000030 68 57 eb bc 98 05 15 bd d0 df 52 3d 09 bc a0 ba
       -0.028728202 -0.036382288 0.051482975 -0.001226307
000040 6f 4d 8f bb 55 8b ac bc a9 19 9f bc 58 08 31 3d
       -0.0043732445 -0.021062532 -0.019421415 0.043220848
000050 09 3f 0a bc 17 95 d0 3b ef ac 90 3b c6 78 e1 bc
       -0.00843788 0.006365429 0.0044151465 -0.02752341
000060 89 67 03 3d f1 3c ba bc 17 68 ed 3c 82 7c 13 bd
       0.03208116 -0.022734137 0.028980298 -0.03600741
000070 b3 be ce bc d5 65 95 bc d7 f6 b5 bc 93 be 25 bd
       -0.025237417 -0.018237034 -0.022212429 -0.04046495
000080 84 7a 7c 3d ba 35 d2 bb 7c 03 7f bc 39 1f 86 bc
       0.061640278 -0.006415096 -0.015564796 -0.01637231
000090 87 18 99 3b 54 f5 2f bb 1a 76 ee bc e2 27 b0 3c
       0.0046721133 -0.0026849108 -0.02910905 0.021503393
0000a0 47 b9 2a bc a5 af fd bc a5 76 63 3c 7d d9 33 bc
       -0.01042015 -0.030967543 0.0138832675 -0.010977146
0000b0 ad 02 5a 3d 1a ad 47 3c 39 c1 53 bc 3a 5a 02 bb
       0.053225208 0.012187267 -0.012924486 -0.0019890205
0000c0 dd ac 9f 3b bf 74 3e 3d 88 38 00 3d 1b 80 6d 3c
       0.004872902 0.046498057 0.031303912 0.014495875
0000d0 c1 11 81 3c 85 a2 83 bc 85 3b 1f bd 24 29 32 3d
       0.015755536 -0.016068706 -0.03887512 0.043496266
0000e0 b2 56 fd 3b d5 ac 8f 3c 6d 64 3a 3c ba 8c db 3b
       0.007731282 0.017538467 0.011376482 0.0067001255
0000f0 a2 8a 65 bc 67 51 30 3d c7 5d 0a 39 2f 3c 0a 3d
       -0.014010103 0.04304638 0.0001319564 0.0337488
000100 2a 0b 01 3b 7a 7f 84 bc 4d dc 54 bc 87 7c 8e bc
       0.0019690492 -0.016174067 -0.012991977 -0.017393364
000110 b3 8f 5f bb 2b fd 27 3d 7f 3f 91 bc 29 dd b4 3c
       -0.003411275 0.041012924 -0.017730473 0.022078114
000120 54 a0 67 3a 65 ae 89 bc 15 38 90 bb 4b 3e 00 bd
       0.00088358414 -0.01680679 -0.0044012167 -0.031309407
000130 d3 2b 08 bc 15 68 fc 3b 9a d7 03 bd ec 8f 1b 3c
       -0.00831123 0.007702837 -0.032188036 0.009494763
000140 2c 90 d8 3c 87 c4 4f 3b 82 a3 6d bc 3c 18 2e 3d
       0.026435934 0.0031702833 -0.014504315 0.04250358
000150 00 0e e0 bb 68 e5 b1 3c 35 e2 d3 3c e5 a0 8c bc
       -0.0068376064 0.021715835 0.0258647 -0.017166564
000160 bd 25 16 bc 9b 28 9d bc 23 4e fc 3b 24 d8 39 bc
       -0.009164271 -0.019184401 0.0076997443 -0.011343036
000170 9e e3 bd bc 44 12 ee bc e9 7a eb 3b 6b 26 d4 bc
       -0.023179825 -0.029061444 0.007186283 -0.025897225
000180 47 1f 36 3b c9 c6 8b bc f7 0e 7e 3b 1a b2 c6 3c
       0.002778964 -0.017062562 0.0038766244 0.024254847
000190 31 a4 5c 3b e1 39 e5 3b 37 fd e3 3c 22 f2 e0 3c
       0.0033667202 0.006995425 0.027830703 0.027459208
0001a0 71 e8 6f 3c 44 07 13 bd 27 41 b7 bc aa 9b af bb
       0.014642821 -0.0358956 -0.022369934 -0.005359133
0001b0 92 be 00 3c 7b f1 c0 bc 7b d6 c1 3c d1 54 57 bb
       0.0078579355 -0.023552647 0.023661843 -0.003285695
0001c0 31 35 f7 bc 02 67 c4 3b 01 cd 26 3d df 2f 89 3d
       -0.03017673 0.005993725 0.04072285 0.06698584
0001d0 cb 93 be bc e6 d8 d5 bb 9b a8 5e 3c e9 ca 22 bc
       -0.023263833 -0.0065261004 0.013590003 -0.009936073
0001e0 ad 7e 1c bd 4d d3 12 3d b0 f0 57 3c 33 c3 bd 3c
       -0.038206745 0.035846043 0.013179943 0.023164367
0001f0 e0 b2 1c 3c 4f 53 34 bc 32 d4 aa 3c c0 da d4 bc
       0.0095641315 -0.01100619 0.020853136 -0.025983214
000200 c2 7c 57 bb 34 fa 91 3c 1c dc ff bc ae 6d 01 3d
       -0.0032880758 0.017819501 -0.031232886 0.03159874
000210 e0 de 04 bd f6 29 a4 3c 8e 5c d8 3c d5 c2 cd 3b
       -0.032439113 0.02003954 0.026411321 0.0062793293
000220 4a b9 87 3b 21 2d 21 bc 75 21 c7 bc 14 2b 19 bc
       0.004141961 -0.00983742 -0.024307946 -0.0093486495
000230 b9 5b a4 bc ff e3 24 bc 09 41 be bb 6f 33 b6 bc
       -0.020063268 -0.010064124 -0.0058060926 -0.022241322
000240 2d 3e 5a bc 1d e7 94 3c d4 5b c8 39 f1 8b c0 bc
       -0.013320488 0.01817661 0.0003821539 -0.02350423
000250 54 83 bb 3a e6 d9 3f 3c fa 09 11 bc c4 11 dc 3c
       0.0014306107 0.011709666 -0.008852476 0.02686394
000260 86 8b 96 ba 96 60 c0 bb d8 49 14 3d eb fc 66 bc
       -0.0011485673 -0.005870889 0.036203235 -0.014098386
000270 0a 84 45 3c 6b 32 86 bc e7 4b 2e 3a dd 15 70 3b
       0.012055406 -0.016381463 0.00066488836 0.0036634125
000280 d2 07 00 bb 0d 03 21 bc 19 69 da bc 2c e3 38 bc
       -0.0019535911 -0.0098273875 -0.026661443 -0.011284631
000290 ce c9 bb 3b c6 af a4 3c c1 49 cf 3b 17 1d d7 3a
       0.005730844 0.020103347 0.006325931 0.0016411868
0002a0 50 fc ac bb c0 11 08 bb e7 d1 ee 3b c0 e6 8c bb
       -0.0052791014 -0.0020762533 0.007288206 -0.0042999685
0002b0 2d 52 25 bc f8 df 59 3c 6a 10 fe bc 64 dd ea bc
       -0.010090393 0.013298027 -0.031013686 -0.02867002
0002c0 9b a0 60 3c f4 2a 13 bb ca 25 df 3b 49 c0 5d bc
       0.013710166 -0.0022456022 0.0068099247 -0.013534614
0002d0 71 6a e1 3b f9 70 75 bc 7e c6 88 3c c6 d0 9a bc
       0.006879144 -0.014980548 0.016696211 -0.018898379
0002e0 de ac 08 bc 52 c7 96 3c 50 62 90 3c 92 92 ca bc
       -0.008341996 0.01840559 0.017625004 -0.024728093
0002f0 21 f5 6f bc 5e ed 98 bc ab e9 32 bd ff a3 08 3c
       -0.014645846 -0.018667873 -0.043679874 0.008339881
000300 b1 56 1e 3d 9a a0 f4 3b 2d 01 08 3c 63 43 81 bc
       0.038656894 0.0074654343 0.008301062 -0.015779203
000310 eb eb 16 bd 6b 21 19 bd 6f cb 86 bc fa 10 47 3b
       -0.036846083 -0.037385385 -0.016454427 0.003037511
000320 bb 12 28 3c d4 80 81 bc d2 16 b9 bc 73 b6 b3 bb
       0.010258372 -0.0158085 -0.02259389 -0.005484396
000330 68 68 37 bc d9 69 cc bc 0c c7 f1 3b fc 7f 13 3d
       -0.011194326 -0.024952816 0.0073784646 0.036010727
000340 20 fc 89 3b f1 1b 9d 3c 8a 9a 7a 3b 06 79 10 3c
       0.004210964 0.019178363 0.0038239085 0.008817917
000350 42 71 2e 3d 84 1a e6 3c c1 5d 70 3c c2 04 79 bc
       0.04258848 0.028088816 0.01467079 -0.015198888
000360 f6 c9 ec 3c 7f 57 06 3c 14 30 60 bc 2a c1 8f bb
       0.028904896 0.008199572 -0.013683338 -0.0043870406
000370 64 31 3f bc e1 4d 4f 3d 67 91 43 bc dc 7a 3d bd
       -0.0116694905 0.05061138 -0.011936522 -0.046259746
000380 c3 7e d7 3c cb b3 3f 3b ff 5c c6 3c 0c 8d f0 3c
       0.026305562 0.0029251452 0.024214266 0.029364131
000390 42 b2 54 bb 7f 1b af 3c 7c a9 56 bc 93 9b 14 3b
       -0.0032454883 0.021375416 -0.013101932 0.0022675737
0003a0 96 2b 0c 3d a2 c5 a5 bb 5a 91 bd 3b f0 c4 98 bc
       0.034221254 -0.00505896 0.0057851495 -0.018648595
0003b0 6b f7 2e 3d 24 67 bb bb 4f 2c 0e 3c ed a8 c9 3b
       0.042716425 -0.0057190824 0.008677556 0.0061541707
0003c0 7e 9e a0 bc 02 6c 46 3b c5 ba 8f bb b0 86 4b bc
       -0.019606825 0.003027678 -0.0043862783 -0.012422249
0003d0 1a 46 b7 bc 55 3c 83 ba 56 8b 04 3b c0 f9 bb 3c
       -0.022372294 -0.0010012487 0.0020224652 0.022946239
0003e0 75 f7 fa ba ff a0 ce ba c1 e6 a2 3c 06 64 d0 bb
       -0.0019147234 -0.0015764533 0.019885423 -0.00635958
0003f0 d7 7d 65 bc 2d 0a 4d bb af 06 c1 3c 33 79 f5 bb
       -0.014007053 -0.0031286583 0.023562757 -0.0074912547

action_model._continuous_distribution.mu.bias f4 [2]
000000 5e aa 70 3c f9 a6 04 3c
       0.014689056 0.00809645

exp_avg f4 [128, 41]
000000 e6 68 3b b7 69 98 ea 33 00 00 00 00 91 4a ac 37
       -1.1170492e-05 1.09241974e-07 0.0 2.053872e-05
000010 18 bd b7 37 00 f0 6e 32 24 db e9 33 00 00 00 00
       2.1903354e-05 1.3907993e-08 1.08897694e-07 0.0
000020 f6 f1 1c 37 f5 e5 3f 37 0c 10 c9 b7 18 c5 f0 36
       9.3546605e-06 1.1438028e-05 -2.396854e-05 7.175502e-06
000030 00 00 00 00 74 5f dc 37 b9 04 b6 37 02 35 ce b6
       0.0 2.6270493e-05 2.169829e-05 -6.1454493e-06
000040 50 87 87 36 00 00 00 00 3d 58 42 37 74 13 04 37
       4.039066e-06 0.0 1.1583846e-05 7.872342e-06
000050 ee d3 b4 b7 12 25 d9 36 00 00 00 00 5d 0b ce 37
       -2.155636e-05 6.4714195e-06 0.0 2.4562405e-05
000060 b7 5d b1 37 28 18 b1 37 a0 e0 3b b7 00 00 00 00
       2.1143684e-05 2.1111293e-05 -1.1198368e-05 0.0
000070 ce c8 e9 b4 c6 4e 15 36 4b 5c a0 35 52 90 13 37
       -4.3545737e-07 2.2248582e-06 1.194779e-06 8.795485e-06
000080 00 00 00 00 28 a7 09 b5 32 51 18 37 34 64 67 35
       0.0 -5.127972e-07 9.078811e-06 8.620002e-07
000090 00 00 00 00 00 00 00 00 00 00 00 00 00 00 00 00
       0.0 0.0 0.0 0.0
0000a0 00 00 00 00 18 8b a5 37 98 a4 74 b3 00 00 00 00
       0.0 1.9734303e-05 -5.6960374e-08 0.0
0000b0 6c fe 9a b7 c8 9b 95 b7 59 80 90 37 78 7a 85 b3
       -1.8476705e-05 -1.7834725e-05 1.7225904e-05 -6.215572e-08
0000c0 00 00 00 00 85 e8 85 b7 1d 5d 7f b7 58 9c 78 37
       0.0 -1.596311e-05 -1.5220864e-05 1.48183535e-05
0000d0 60 de 94 b4 00 00 00 00 b2 d0 5f b7 b0 55 90 b7
       -2.7728947e-07 0.0 -1.3340426e-05 -1.7206039e-05
0000e0 58 a6 92 36 53 db 55 36 00 00 00 00 9c 4a d5 b6
       4.370504e-06 3.1867137e-06 0.0 -6.3565803e-06
0000f0 35 3b 31 b7 1b d6 10 37 3b f1 48 36 00 00 00 00
       -1.0563807e-05 8.632919e-06 2.9942737e-06 0.0
000100 b4 ed 2e b7 d9 ee 8a b7 93 72 8e b7 59 7a 97 37
       -1.0426553e-05 -1.6562104e-05 -1.6981072e-05 1.8057575e-05
000110 00 00 00 00 af 49 05 34 64 d0 09 b6 71 94 1e 36
       0.0 1.2413396e-07 -2.053589e-06 2.363024e-06
000120 68 f6 78 34 00 00 00 00 16 22 bb b5 ae 37 51 b7
       2.3186442e-07 0.0 -1.3942506e-06 -1.2470335e-05
000130 a8 5c eb 36 00 00 00 00 00 00 00 00 00 00 00 00
       7.0143324e-06 0.0 0.0 0.0
000140 00 00 00 00 00 00 00 00 29 a9 e9 37 98 75 e7 b2
       0.0 0.0 2.7854536e-05 -2.6945415e-08
000150 00 00 00 00 f4 75 0a b8 e3 b0 06 b8 5c 12 b6 37
       0.0 -3.3011616e-05 -3.211283e-05 2.170464e-05
000160 ed 70 12 b3 00 00 00 00 c0 45 e1 b7 54 11 d9 b7
       -3.409598e-08 0.0 -2.685457e-05 -2.5876485e-05
000170 a6 a2 b0 37 c8 11 18 b5 00 00 00 00 b2 5e d7 b7
       2.1056574e-05 -5.665029e-07 0.0 -2.5674093e-05
000180 3a 71 02 b8 59 6e 36 36 a1 ec 6e 36 00 00 00 00
       -3.1099866e-05 2.7184344e-06 3.56025e-06 0.0
000190 f8 4f 40 b7 d6 0a 98 b7 24 5e 60 37 b1 df 51 36
       -1.1462711e-05 -1.8124858e-05 1.3373359e-05 3.1273632e-06
0001a0 00 00 00 00 a0 e7 b5 b7 a0 e1 fc b7 54 5c fe b7
       0.0 -2.168474e-05 -3.0145806e-05 -3.0322153e-05
0001b0 58 0c d4 37 00 00 00 00 c6 4d 16 b4 67 97 81 b6
       2.5278117e-05 0.0 -1.3998132e-07 -3.862125e-06
0001c0 58 84 2c b6 88 1c 99 b4 00 00 00 00 04 3d 1c b6
       -2.5707031e-06 -2.851923e-07 0.0 -2.3281327e-06
0001d0 ba c3 ae b7 66 be 40 37 00 00 00 00 00 00 00 00
       -2.0833559e-05 1.1488422e-05 0.0 0.0
0001e0 00 00 00 00 00 00 00 00 00 00 00 00 72 e9 1f b9
       0.0 0.0 0.0 -0.00015250387
0001f0 66 6e db b2 00 00 00 00 74 e0 42 39 44 97 38 39
       -2.5545159e-08 0.0 0.00018584897 0.00017603958
000200 8b 21 0c b9 b5 b8 6e 32 00 00 00 00 f9 0d 2f 39
       -0.00013363936 1.3895421e-08 0.0 0.00016694506
000210 c1 40 23 39 02 b4 8b b8 60 a6 8a b7 00 00 00 00
       0.00015569014 -6.6615656e-05 -1.6528356e-05 0.0
000220 ee 3d f4 38 0e 3b 31 39 d6 27 7c 37 ac c9 1e b8
       0.00011646362 0.00016902035 1.50296455e-05 -3.7857957e-05
000230 00 00 00 00 56 80 6b 38 73 27 eb 38 3a 81 7a b7
       0.0 5.614789e-05 0.00011213021 -1.4931249e-05
000240 08 18 3b b8 00 00 00 00 7a bc c2 38 d8 d3 2b 39
       -4.4606655e-05 0.0 9.2857474e-05 0.00016386749
000250 12 55 31 39 5f a9 0d b9 00 00 00 00 2f 8b 3b b5
       0.00016911727 -0.00013509904 0.0 -6.986547e-07
000260 2b ac 05 38 a5 4e 4c 38 6d d0 04 b8 00 00 00 00
       3.1870015e-05 4.8710634e-05 -3.1665364e-05 0.0
000270 ca 84 88 37 99 48 07 39 d9 23 be b8 00 00 00 00
       1.6274298e-05 0.00012901648 -9.066583e-05 0.0
000280 00 00 00 00 00 00 00 00 00 00 00 00 00 00 00 00
       0.0 0.0 0.0 0.0
000290 15 49 9c b8 0c 89 87 33 00 00 00 00 01 50 11 39
       -7.452272e-05 6.311356e-08 0.0 0.00013858081
0002a0 a5 b9 0d 39 69 7b 7f b8 f3 80 93 33 00 00 00 00
       0.00013515966 -6.0911672e-05 6.868677e-08 0.0
0002b0 d3 08 03 39 bf 83 fe 38 de d3 07 b8 5c b1 ca b5
       0.00012496421 0.000121362034 -3.2383825e-05 -1.5101791e-06
0002c0 00 00 00 00 83 8d cd 38 13 1c 09 39 69 cf 35 37
       0.0 9.80152e-05 0.00013075797 1.0836732e-05
0002d0 3a c1 2f b7 00 00 00 00 0b b7 85 38 fb 70 c7 38
       -1.0475802e-05 0.0 6.3760286e-05 9.510104e-05
0002e0 9e d1 59 b7 6a 33 3a b7 00 00 00 00 70 f9 b8 38
       -1.2983013e-05 -1.1098435e-05 0.0 8.820265e-05
0002f0 56 dd 04 39 5d 89 09 39 29 78 8b b8 00 00 00 00
       0.00012670955 0.0001311651 -6.650418e-05 0.0
000300 8e e0 10 b5 38 dc 07 38 3e 1a 8a 38 95 7a b0 b6
       -5.397095e-07 3.2391603e-05 6.585241e-05 -5.259479e-06
000310 00 00 00 00 8c c7 6c 36 2f fd c3 38 12 7c 7a b8
       0.0 3.5282892e-06 9.345484e-05 -5.9720194e-05
000320 00 00 00 00 00 00 00 00 00 00 00 00 00 00 00 00
       0.0 0.0 0.0 0.0
000330 00 00 00 00 fe 09 0a b9 fc 6e ba 35 00 00 00 00
       0.0 -0.00013164428 1.3890381e-06 0.0
000340 80 92 ae 39 02 3e ae 39 9f b8 77 b8 8c ab c5 35
       0.00033297017 0.00033234066 -5.906133e-05 1.472757e-06
000350 00 00 00 00 58 79 88 39 83 2b 89 39 be 56 d0 b8
       0.0 0.0002603035 0.00026163095 -9.93437e-05
000360 8a 0d 86 37 00 00 00 00 c5 fc 95 39 fa aa a9 39
       1.598035e-05 0.0 0.00028607823 0.0003236158
000370 13 3e 9a 38 78 8c 3b b7 00 00 00 00 9c 29 13 39
       7.3548545e-05 -1.1178774e-05 0.0 0.00014034513
000380 22 dc 44 39 72 ab 42 b8 36 61 07 b7 00 00 00 00
       0.00018774022 -4.6412875e-05 -8.069261e-06 0.0
000390 67 d8 86 39 3e eb a5 39 a0 09 a9 39 83 28 f7 b8
       0.00025719704 0.00031646522 0.00032241363 -0.00011785424
0003a0 00 00 00 00 85 8f f7 b5 24 1a 95 38 d7 4d 47 39
       0.0 -1.8444704e-06 7.109743e-05 0.00019007116
0003b0 90 39 c1 36 00 00 00 00 3e 07 e7 36 ca 57 56 39
       5.7585494e-06 0.0 6.8851796e-06 0.00020441334
0003c0 c4 d4 f7 b8 00 00 00 00 00 00 00 00 00 00 00 00
       -0.000118175085 0.0 0.0 0.0
0003d0 00 00 00 00 00 00 00 00 ea e8 2f b8 4f bb ef 34
       0.0 0.0 -4.194017e-05 4.4653504e-07
0003e0 00 00 00 00 4e 50 15 38 dd af 0d 38 07 79 0c b8
       0.0 3.5599158e-05 3.3780805e-05 -3.3491317e-05
0003f0 02 ca f3 34 00 00 00 00 9c b0 e3 37 81 4d d3 37
       4.5409257e-07 0.0 2.7142749e-05 2.518925e-05

exp_avg_sq f4 [128, 41]
000000 94 77 53 31 65 8f f2 2f 00 00 00 00 2b 0d db 32
       3.0772513e-09 4.4121432e-10 0.0 2.5500944e-08
000010 d6 d4 e9 32 7a 43 2b 31 76 11 eb 2f 00 00 00 00
       2.7221557e-08 2.492213e-09 4.2758658e-10 0.0
000020 51 97 e3 32 38 97 eb 32 50 70 6a 31 ce 7b f9 2f
       2.6495089e-08 2.7426367e-08 3.4115324e-09 4.5380805e-10
000030 00 00 00 00 2e 2b da 32 55 32 e6 32 e5 45 0e 31
       0.0 2.5398176e-08 2.6798412e-08 2.070345e-09
000040 77 99 79 30 00 00 00 00 e7 d9 e3 32 bf 34 e9 32
       9.080376e-10 0.0 2.6525369e-08 2.7148756e-08
000050 4d 45 9a 31 ce 43 90 30 00 00 00 00 cf fb c9 32
       4.4898685e-09 1.049665e-09 0.0 2.3513989e-08
000060 c8 ed d6 32 f1 15 35 31 50 d9 a9 30 00 00 00 00
       2.502101e-08 2.6351439e-09 1.2358132e-09 0.0
000070 3d 05 da 32 05 e9 e1 32 be 5c 21 32 6b b4 22 31
       2.5380922e-08 2.6299412e-08 9.3925205e-09 2.3676658e-09
000080 00 00 00 00 0b 71 96 32 d9 78 ab 32 65 e8 27 32
       0.0 1.7513704e-08 1.9961975e-08 9.77352e-09
000090 00 00 00 00 00 00 00 00 00 00 00 00 00 00 00 00
       0.0 0.0 0.0 0.0
0000a0 00 00 00 00 32 bb 92 30 3f cb 74 2f 00 00 00 00
       0.0 1.0676102e-09 2.2263878e-10 0.0
0000b0 bf 76 bc 30 bf dc 00 31 6c 31 2b 30 eb d3 57 2f
       1.371255e-09 1.8751931e-09 6.227967e-10 1.9629424e-10
0000c0 00 00 00 00 86 59 fd 30 9a e4 09 31 69 0f cd 30
       0.0 1.8433617e-09 2.0066069e-09 1.4920093e-09
0000d0 15 4f 0c 2f 00 00 00 00 73 cb 91 30 41 30 d6 30
       1.2761021e-10 0.0 1.0607962e-09 1.5584264e-09
0000e0 77 3e 2b 30 22 27 55 2f 00 00 00 00 8b 44 f4 30
       6.2298205e-10 1.938614e-10 0.0 1.7772818e-09
0000f0 11 e4 07 31 4a f0 c7 30 28 c3 c1 2f 00 00 00 00
       1.9774726e-09 1.454745e-09 3.5245162e-10 0.0
000100 7a 3b 79 30 3c 2b bc 30 d4 0a 1c 30 bb 91 80 2f
       9.0670194e-10 1.3691088e-09 5.6767857e-10 2.3386612e-10
000110 00 00 00 00 0a 2a ff 30 b1 78 08 31 8b 89 aa 30
       0.0 1.856564e-09 1.985921e-09 1.240822e-09
000120 eb 92 39 30 00 00 00 00 18 0c 5d 30 4b b1 b1 30
       6.751139e-10 0.0 8.041652e-10 1.2928835e-09
000130 61 85 a0 30 00 00 00 00 00 00 00 00 00 00 00 00
       1.1679441e-09 0.0 0.0 0.0
000140 00 00 00 00 00 00 00 00 68 7c f7 30 a4 43 17 2f
       0.0 0.0 1.8006974e-09 1.3757401e-10
000150 00 00 00 00 7b e1 8c 31 9e dd 9d 31 55 8d fc 30
       0.0 4.1001704e-09 4.5944963e-09 1.8375582e-09
000160 96 93 bf 2e 00 00 00 00 ec a0 8c 31 b3 dc 9c 31
       8.711891e-11 0.0 4.092831e-09 4.565288e-09
000170 50 66 d6 30 a7 aa 7a 2f 00 00 00 00 b2 10 8f 31
       1.5599628e-09 2.2797995e-10 0.0 4.163746e-09
000180 e9 2d 9d 31 82 64 09 31 9e 71 1f 2f 00 00 00 00
       4.5745208e-09 1.9993256e-09 1.450133e-10 0.0
000190 04 bb 84 31 20 c4 94 31 ff 41 b8 30 ce 2b e7 2f
       3.862967e-09 4.3296637e-09 1.3406519e-09 4.204978e-10
0001a0 00 00 00 00 37 29 93 31 fb c2 9c 31 91 3a ec 30
       0.0 4.2829487e-09 4.5623643e-09 1.7187906e-09
0001b0 6c de f1 2f 00 00 00 00 1b 75 84 31 6a 97 90 31
       4.3995685e-10 0.0 3.855019e-09 4.2081654e-09
0001c0 b4 54 0a 31 cb 69 3f 30 00 00 00 00 54 76 61 31
       2.0129791e-09 6.9635736e-10 0.0 3.280907e-09
0001d0 97 65 83 31 82 7e 2a 31 00 00 00 00 00 00 00 00
       3.824151e-09 2.4810167e-09 0.0 0.0
0001e0 00 00 00 00 00 00 00 00 00 00 00 00 62 6e 1d 33
       0.0 0.0 0.0 3.6654804e-08
0001f0 e2 5f d5 31 00 00 00 00 23 69 1c 33 0b fc 43 33
       6.2100165e-09 0.0 3.64172e-08 4.5631207e-08
000200 4c 66 35 33 10 79 cb 31 00 00 00 00 92 2f 0c 33
       4.2235385e-08 5.921841e-09 0.0 3.2639555e-08
000210 48 75 2e 33 65 b8 cd 32 a3 9d 64 32 00 00 00 00
       4.06192e-08 2.3948994e-08 1.3307189e-08 0.0
000220 20 94 2d 33 5c 56 4b 33 43 7d 2b 33 fd 4c 3a 32
       4.041442e-08 4.7343164e-08 3.9927965e-08 1.084413e-08
000230 00 00 00 00 e8 13 f4 32 6e 10 1e 33 40 30 ca 32
       0.0 2.841439e-08 3.6802184e-08 2.3537837e-08
000240 01 4c 72 32 00 00 00 00 12 95 28 33 94 2b 45 33
       1.4103535e-08 0.0 3.9251127e-08 4.590727e-08
000250 7c fa 13 33 f8 f2 88 32 00 00 00 00 00 5a e8 32
       3.445392e-08 1.5942973e-08 0.0 2.7049282e-08
000260 78 07 0f 33 4a 97 0d 33 79 87 79 32 00 00 00 00
       3.3301575e-08 3.2966717e-08 1.45245105e-08 0.0
000270 a2 55 04 33 05 c1 27 33 fb 5f 09 33 00 00 00 00
       3.0811528e-08 3.9058268e-08 3.1985092e-08 0.0
000280 00 00 00 00 00 00 00 00 00 00 00 00 00 00 00 00
       0.0 0.0 0.0 0.0
000290 e3 55 fe 31 e4 84 6c 30 00 00 00 00 0d ec 34 32
       7.402137e-09 8.604515e-10 0.0 1.0531051e-08
0002a0 8e b5 63 32 7b d5 98 31 f6 36 8c 30 00 00 00 00
       1.325442e-08 4.448052e-09 1.0201961e-09 0.0
0002b0 ab 60 66 32 3b 9a 74 32 48 7d 0d 32 2d da 82 30
       1.3409742e-08 1.4237737e-08 8.235766e-09 9.520754e-10
0002c0 00 00 00 00 7f 7e 1f 32 b4 f0 4c 32 85 44 a3 31
       0.0 9.28378e-09 1.1929092e-08 4.751714e-09
0002d0 8d cb b8 30 00 00 00 00 ec a8 52 32 a2 ec 6a 32
       1.3445615e-09 0.0 1.2262017e-08 1.3674397e-08
0002e0 13 e6 0c 32 bd eb a2 30 00 00 00 00 bf f6 18 32
       8.201385e-09 1.1854052e-09 0.0 8.903668e-09
0002f0 6f a2 3f 32 d3 18 06 32 91 66 00 31 00 00 00 00
       1.1154596e-08 7.805471e-09 1.8684754e-09 0.0
000300 06 4d 21 32 51 38 43 32 8d 57 44 32 6e e3 c8 30
       9.3889465e-09 1.1363299e-08 1.1428608e-08 1.4616555e-09
000310 00 00 00 00 69 52 c5 31 a2 a7 18 32 9c 2d 09 32
       0.0 5.7428236e-09 8.88568e-09 7.98482e-09
000320 00 00 00 00 00 00 00 00 00 00 00 00 00 00 00 00
       0.0 0.0 0.0 0.0
000330 00 00 00 00 cd 8a a4 33 c4 cf b2 32 00 00 00 00
       0.0 7.662093e-08 2.0816408e-08 0.0
000340 75 9e 0c 34 33 0d 2e 34 fa 26 8f 33 34 99 cd 32
       1.3096162e-07 1.6209815e-07 6.666046e-08 2.393481e-08
000350 00 00 00 00 c7 d0 15 34 82 d2 2a 34 f6 90 9c 33
       0.0 1.3952659e-07 1.5909066e-07 7.290684e-08
000360 f8 91 04 33 00 00 00 00 67 1e 09 34 bf fe 27 34
       3.0866403e-08 0.0 1.277018e-07 1.5645763e-07
000370 aa 18 9d 33 cd 19 fa 32 00 00 00 00 b7 af 08 34
       7.3153686e-08 2.9115563e-08 0.0 1.2729912e-07
000380 54 ad 20 34 2a bc 9c 33 21 87 26 33 00 00 00 00
       1.4964218e-07 7.298543e-08 3.8772786e-08 0.0
000390 04 78 01 34 0f 71 1f 34 b8 ad a7 33 25 01 01 33
       1.2057723e-07 1.484916e-07 7.808143e-08 3.0036194e-08
0003a0 00 00 00 00 86 b2 05 34 39 9e 19 34 3f 6b eb 33
       0.0 1.2451537e-07 1.4306796e-07 1.0962548e-07
0003b0 66 be 38 33 00 00 00 00 07 29 aa 33 f5 13 f9 33
       4.3014005e-08 0.0 7.923705e-08 1.1598596e-07
0003c0 f7 47 cb 33 00 00 00 00 00 00 00 00 00 00 00 00
       9.4660145e-08 0.0 0.0 0.0
0003d0 00 00 00 00 00 00 00 00 45 63 7c 31 30 15 13 31
       0.0 0.0 3.6727255e-09 2.140336e-09
0003e0 00 00 00 00 5c b4 61 31 b6 e5 91 31 03 c0 4b 31
       0.0 3.2844332e-09 4.2461705e-09 2.9649534e-09
0003f0 9d b9 25 31 00 00 00 00 c3 80 81 31 61 e5 99 31
       2.411617e-09 0.0 3.7690326e-09 4.4789634e-09

exp_avg f4 [128]
000000 60 01 1f 37 99 25 a1 35 72 f2 ad b6 9b c0 0b 38
       9.477459e-06 1.2006377e-06 -5.184026e-06 3.331956e-05
000010 cf 78 86 38 de 8f 54 39 22 c9 c5 b6 df 77 bc 37
       6.41212e-05 0.0002027149 -5.8944725e-06 2.2467166e-05
000020 a2 6a d9 38 8c 96 1e 37 b4 3f 4a 36 32 1c 71 39
       0.00010367228 9.452586e-06 3.0137426e-06 0.00022994055
000030 94 51 86 b6 22 52 db 38 26 0f af 38 60 e9 cb b7
       -4.003008e-06 0.00010458032 8.347472e-05 -2.430816e-05
000040 46 38 a9 b7 5a 7a 19 b8 12 bb 13 b8 82 c3 bf b7
       -2.0172574e-05 -3.659199e-05 -3.5221754e-05 -2.2860015e-05
000050 de 5d c2 b8 47 52 33 38 f2 b1 7d 37 5c 4b c6 b6
       -9.268125e-05 4.2753552e-05 1.5121406e-05 -5.909633e-06
000060 d2 4f 04 38 a0 0f 10 33 ae 0e bf 37 d6 b9 13 37
       3.154559e-05 3.3541824e-08 2.277581e-05 8.805151e-06
000070 84 7a dd b7 4a 35 52 36 5c 80 9a 37 b3 0b f1 37
       -2.6402304e-05 3.1323457e-06 1.8418003e-05 2.8734887e-05
000080 25 8e 9a 36 5f 11 2d 37 34 c3 38 b6 02 97 9b b6
       4.6061054e-06 1.0315648e-05 -2.753176e-06 -4.6369396e-06
000090 64 fb 09 38 e4 fc f3 38 10 9d f4 35 84 98 59 b5
       3.289747e-05 0.000116342475 1.8225128e-06 -8.106074e-07
0000a0 ee 44 fd 36 f2 ae 62 38 2b 56 de b7 ae 9b 7e 37
       7.548012e-06 5.404553e-05 -2.6504587e-05 1.5175827e-05
0000b0 f1 e4 4d b7 02 41 03 b8 6f 1a 0c b7 81 e2 91 b6
       -1.2272257e-05 -3.1293377e-05 -8.350805e-06 -4.3477053e-06
0000c0 2f dc b7 38 88 58 94 b6 66 72 c8 b6 37 71 3f 38
       8.7671324e-05 -4.42105e-06 -5.973782e-06 4.5643388e-05
0000d0 7f dd f7 36 0d 4b f2 36 04 1f 72 37 9a 56 e6 b6
       7.386959e-06 7.220899e-06 1.4431545e-05 -6.864616e-06
0000e0 6c 3c 4a b7 0d aa 16 39 42 30 39 b7 80 96 78 34
       -1.2054206e-05 0.00014368464 -1.1038095e-05 2.3151551e-07
0000f0 a8 5f 51 38 96 93 a4 37 af 87 9b 37 38 e1 05 b6
       4.991857e-05 1.9619049e-05 1.8540622e-05 -1.994964e-06
000100 4c e7 55 b7 10 13 09 39 da 64 2f 37 b4 16 1c b8
       -1.2749642e-05 0.0001307244 1.0454294e-05 -3.7214442e-05
000110 ac 65 86 b7 8f 49 35 38 0a 8d d3 35 22 22 90 37
       -1.602139e-05 4.322227e-05 1.5761773e-06 1.7182032e-05
000120 38 3c 78 b6 3c f4 55 b7 d2 52 7f 36 60 5f a4 38
       -3.6989932e-06 -1.2752655e-05 3.8046169e-06 7.8378944e-05
000130 42 ae 56 38 2a 5e e9 36 54 60 a4 37 eb 88 af 37
       5.1183866e-05 6.9549033e-06 1.959518e-05 2.0925383e-05
000140 22 6a b9 b6 22 02 d3 38 48 e9 6f b8 22 9c 47 38
       -5.525785e-06 0.00010061661 -5.71993e-05 4.7590707e-05
000150 18 55 26 b7 e4 5f e6 36 0b a7 a0 36 e9 f0 07 b8
       -9.9141835e-06 6.8656973e-06 4.787818e-06 -3.2410873e-05
000160 50 94 90 b4 0b ac 08 b8 81 3c a6 b8 f3 23 7a b8
       -2.6930002e-07 -3.2585154e-05 -7.9267666e-05 -5.9638125e-05
000170 1c 83 52 38 f2 b7 20 38 c6 4f a2 b6 9b e4 0a b7
       5.0190007e-05 3.8318285e-05 -4.837263e-06 -8.278667e-06
000180 a8 61 14 b5 45 f3 02 b6 51 77 9f 37 01 e4 7c 37
       -5.5276405e-07 -1.951311e-06 1.9009838e-05 1.5073457e-05
000190 e8 07 cb 35 a2 8c a8 b5 80 3c 16 39 7c e0 3a b8
       1.512698e-06 -1.2557905e-06 0.00014327653 -4.4554923e-05
0001a0 bd 1a e2 b7 7b 99 be 37 34 28 44 b6 c5 24 40 37
       -2.695375e-05 2.2721235e-05 -2.9229677e-06 1.1452653e-05
0001b0 2c ca c6 b7 63 a9 71 37 a9 37 80 37 36 b2 40 b7
       -2.3697583e-05 1.4404158e-05 1.5284708e-05 -1.1485585e-05
0001c0 0e 0d 27 37 6f d4 8b b8 07 03 2d 37 39 77 c2 b7
       9.957015e-06 -6.667605e-05 1.0312308e-05 -2.318212e-05
0001d0 78 1d d9 b7 aa 0a 12 38 56 31 d8 38 12 b4 0d b8
       -2.5882138e-05 3.4819044e-05 0.00010308872 -3.3784723e-05
0001e0 90 63 86 b8 12 5e 17 b8 d8 df 88 b5 f2 03 21 37
       -6.408163e-05 -3.6088815e-05 -1.0197937e-06 9.597266e-06
0001f0 a6 76 c4 38 2c 4e 53 b7 02 e7 54 36 d3 15 e5 38
       9.368108e-05 -1.2594781e-05 3.1724926e-06 0.00010923636

exp_avg_sq f4 [128]
000000 e7 8c fc 32 f2 e8 36 31 ed 0f d0 31 6f 4b ab 33
       2.9400736e-08 2.66169e-09 6.0554073e-09 7.976529e-08
000010 85 9d 9e 32 de 33 75 34 6a 96 1c 32 ca d8 87 33
       1.8465252e-08 2.2836272e-07 9.114595e-09 6.325861e-08
000020 38 94 a9 33 d4 58 12 34 3d 4f 96 31 dc aa 2b 34
       7.8966366e-08 1.3629625e-07 4.374583e-09 1.5987774e-07
000030 dc 9d dc 32 ea 65 27 34 a4 63 35 33 f7 4a 82 33
       2.5683157e-08 1.5590163e-07 4.223297e-08 6.067233e-08
000040 b2 11 08 32 82 dc d5 32 c4 f9 b3 32 05 f7 1c 32
       7.920265e-09 2.4896739e-08 2.0951923e-08 9.136561e-09
000050 8c 3e c2 32 89 d3 b4 32 b7 9e 70 31 36 42 69 31
       2.2613015e-08 2.1050953e-08 3.5014815e-09 3.39436e-09
000060 81 c0 6d 32 9e ec 6f 32 15 1e ae 32 6e cf f6 30
       1.3838986e-08 1.39654315e-08 2.0269946e-08 1.7957811e-09
000070 67 bd bb 32 77 c3 3c 32 a0 af 9e 31 2b 0e 81 32
       2.1855795e-08 1.0987484e-08 4.6183715e-09 1.502402e-08
000080 15 56 91 32 9c 40 c5 31 b5 1e c2 32 e5 44 4f 31
       1.6919367e-08 5.7408e-09 2.2598536e-08 3.0161627e-09
000090 ef e2 9b 32 56 2a cb 33 fb 62 f6 31 95 2e b9 32
       1.8147572e-08 9.460625e-08 7.170795e-09 2.1558018e-08
0000a0 39 22 c2 32 fd ac e0 33 d6 03 9b 32 b0 b7 af 33
       2.2600135e-08 1.0462279e-07 1.804612e-08 8.182485e-08
0000b0 30 41 19 32 8b eb bd 32 2a 71 f4 32 7e aa e3 31
       8.920594e-09 2.2109608e-08 2.84568e-08 6.6259522e-09
0000c0 16 4f 15 34 aa 42 59 33 50 c5 5f 31 3b 4f 08 34
       1.3905478e-07 5.058488e-08 3.256293e-09 1.2694811e-07
0000d0 e5 96 99 31 61 22 9c 30 88 2b bf 31 5b 8b 6d 33
       4.470041e-09 1.1360265e-09 5.5637805e-09 5.5307606e-08
0000e0 2d f0 3c 32 d3 1a 2e 34 22 ab 1d 33 d7 73 c5 31
       1.099765e-08 1.6214771e-07 3.6710055e-08 5.746624e-09
0000f0 30 b2 c6 32 13 71 95 30 f9 8e a0 30 d2 e1 84 33
       2.3131264e-08 1.0873314e-09 1.1682167e-09 6.1878055e-08
000100 70 5a 79 34 90 3b 1e 33 0f 53 81 32 df 04 2f 31
       2.3222833e-07 3.6841413e-08 1.5055347e-08 2.546862e-09
000110 f7 c2 61 31 2a 6f 08 32 9a 10 c1 32 34 75 d1 31
       3.2852634e-09 7.941518e-09 2.2475707e-08 6.096025e-09
000120 95 a5 d9 31 05 67 24 32 b1 97 99 31 d3 27 05 34
       6.3343557e-09 9.56948e-09 4.4701314e-09 1.2401078e-07
000130 82 35 98 32 ab b7 84 32 1e ba 0d 32 a3 7b 5a 33
       1.7719461e-08 1.5450345e-08 8.249598e-09 5.0869527e-08
000140 32 0a b5 31 df e1 3a 33 73 5a b4 33 78 9d 4f 32
       5.2689524e-09 4.351193e-08 8.398356e-08 1.208479e-08
000150 7c 3e 2b 32 7b fe c3 33 b6 7c cd 31 7b 6d 00 32
       9.967717e-09 9.126685e-08 5.9804632e-09 7.475474e-09
000160 3d e6 ed 30 72 71 15 32 70 9d 00 33 da 33 8c 32
       1.7309457e-09 8.698736e-09 2.994551e-08 1.6321724e-08
000170 01 41 b2 33 81 02 2a 32 5a 3f 00 32 12 35 38 31
       8.300595e-08 9.895872e-09 7.464985e-09 2.680569e-09
000180 e8 2a ef 31 7d 24 5b 31 78 1a 14 34 ec 11 fa 32
       6.9606934e-09 3.1889436e-09 1.3793203e-07 2.911198e-08
000190 35 54 bb 31 b4 b8 45 30 84 db f7 33 5e d4 a4 32
       5.4519895e-09 7.193066e-10 1.15417635e-07 1.9188686e-08
0001a0 0c 43 d9 31 1d 57 51 33 37 13 75 32 2b ea 87 32
       6.3231536e-09 4.8740834e-08 1.4265246e-08 1.5822556e-08
0001b0 4d b2 eb 31 41 ce b3 33 a2 83 6a 32 cb c0 30 32
       6.8596706e-09 8.3728544e-08 1.36505225e-08 1.0288384e-08
0001c0 d1 8d ef 31 0c 38 09 33 24 e3 59 31 f9 dc f2 33
       6.971938e-09 3.1948773e-08 3.170677e-09 1.1309198e-07
0001d0 00 a2 93 32 db 06 92 32 76 14 83 34 5f 69 31 32
       1.7186721e-08 1.6999754e-08 2.441554e-07 1.0326715e-08
0001e0 5c 5a 28 33 e2 8b 83 31 6a 0f 9e 31 6e 40 79 31
       3.919773e-08 3.8285046e-09 4.6001576e-09 3.6270893e-09
0001f0 5c e4 68 34 f9 57 6f 31 2b 3b c2 31 d2 f3 b4 33
       2.168976e-07 3.4829084e-09 5.6528697e-09 8.426254e-08
