results/firstTest/My Behavior/My Behavior-496000.pt (torch, 541818 bytes, 40 tensors)

discrete_act_size_vector f4 [1, 2]
00000000: 0000 4040 0000 4040
3.0 3.0

network_body._body_endoder.seq_layers.0.weight f4 [128, 36]
00000000: 463f d73d 485d 013f 750d 1c3e dd52 9b3e
00000010: a858 063d a7e2 84bd 937d 723e 64f2 06be
00000020: 8123 8cbe ba97 8a3e 5e32 933e 12a4 26bd
00000030: 0a07 953d 8566 a73d 8a72 7ebe f308 233e
00000040: 128b 4b3c 1cec 6bbe 80ec 84be 4432 a03e
00000050: 89a9 fe3c 9947 aabe 6f6a 373e 56a9 5fbd
00000060: 6b09 87be 1701 653e 0718 7dbe fc53 da3d
00000070: 80aa ccbd b802 443e e09e e8bd f9ad 1c3e
00000080: 659e a13c c4ee 92be a891 443c 5f9e babd
00000090: ca7e d33d 39ae 83be 68fa 813e b1dc 073a
000000a0: e19d ffbc f817 433d de06 dfbe 8479 e6bb
000000b0: 9da4 07bd 869e 973d ec2f 5b3c f10f 5e3c
000000c0: 7e8d 4bbe c16d 123d 2f12 c3bc 8686 d3bd
000000d0: ce5b e6bd 0ac0 58be 66a4 0ebe ee53 573d
000000e0: 9c05 81bc d602 edbd 166b 81bc 2581 94be
000000f0: 848e 8dbd 3e47 82be 2507 55bd 6779 8bbd
00000100: 2e4c 9d3d 72f7 103e 3f2b b7bd 250a 083d
00000110: 527d df3c 1d96 fe3c f901 493e d38c 15be
00000120: 31bd da3d 7a12 383d c78e b03d d90d 203d
00000130: 023c 9b3d 6527 b3bd 66ef 533c ec6a 2cbd
00000140: 8230 4dbc b002 85bd 1c3d d13d eca5 e33d
00000150: 9675 fdbd d667 0d3e 3606 3cbe 11bf ee3d
00000160: 6c93 143e 0e2c d8be e113 2bbe bb74 10be
00000170: 4147 70be 204c 213e c348 f43d 896e 89be
00000180: 44cd b93c b067 213c 4628 0e3d 7e2a 91be
00000190: d00a a33d 0ef1 19bd a484 7abe 7050 9cbd
000001a0: 3002 af39 a246 86be efba f2bc 18fa 873d
000001b0: ed82 073f 4ce8 05be e553 1bbd 5cd0 633c
000001c0: 40ea 3f3c d481 ce3d 99e8 ef3d 203a a13e
000001d0: 0e91 8fbd 0350 123d 9b13 febd 6b1a ffbd
000001e0: 8822 cbbc 5009 263d 76ac 4dbe 8745 e4bd
000001f0: 0b93 85be 3298 8d3d 28d8 983e 1273 cc3d
00000200: fbc7 38bd 1ef4 4e3e 387d 10be 0808 73be
00000210: 587b b1bd bfd8 4fbe ed0e 8f3e 264e 0cbd
00000220: 41cb 943e 9ac1 b33e c24c 2b3b e638 b6be
00000230: 720f fcbd f214 d63d 3556 4e3e 90de d23d
00000240: 3286 32bd 9dfb afbe f765 31be 7aa4 7dbd
00000250: 031d 043b 09fe 26be 6643 90bd e0d5 1fbe
00000260: c74e aa3c 70dd d8bd 9d66 143e 4b1e 81bd
00000270: 565b 0c3e 724a 8f3d 05b6 30be 2e22 e5bd
00000280: 2593 d03b 0c59 babd 2611 443d 3979 7abd
00000290: 3548 44bd a45d 203e c353 05bf 771c 04be
000002a0: 1107 09bf ce3e 7d3d 5992 333c c3ef 793e
000002b0: 3a86 8f3c a707 aabc 1727 c3be 122d 8b3a
000002c0: 8b31 503e c724 c2bd c234 593d ce58 a6bc
000002d0: 4385 1bbe 2e4d 273d 3a42 183d db1a bfbd
000002e0: 1668 573d c2f7 55be eae8 f83d 602c 1b3e
000002f0: cfe7 773e 65a5 b03d 1379 4a3d 083c e03d
00000300: 4735 55bb 19b7 95be e83f 9ebd 8d5a 80be
00000310: b778 a13d d2be 0c3e bcf0 cb3d c0b3 5fbe
00000320: 62ea 943d 101f 03be f67c 27be 9399 7a3e
00000330: 81cb 423e 9418 ca3d 3b2e 64be eb0c 033e
00000340: 2df1 013d 00f6 123e 2bb1 66bd b71f 23bb
00000350: 72f3 fbbd 19c0 303e 288e 31bd 71b0 d03d
00000360: 7e6c 3dbe 8772 583d dba9 c6bd e91e 903e
00000370: c7ce 95bd 1a40 0c3e 2a08 673d 08ae 383d
00000380: 3a8a 9e3e 3ac2 21be 5951 63bd ec86 9f3d
00000390: 8c15 293a f4a4 8cbd bf89 8bbe 08ec 72bd
000003a0: 0aec c2bd 4390 49bd 5b64 f53a ce78 983d
000003b0: 426e a33d 55c6 903d 8ac3 36be 9b68 de3d
000003c0: ddc1 60be dfcb 3abe 581c 573e 3423 1ebe
000003d0: f4f1 a93e 0d11 0d3c fa04 e4bd d6bb 92be
000003e0: 6269 f93d 2f34 abbd 6490 de3c d89b 90bb
000003f0: 82a0 1bbe 1a5c 0cbd 6423 5abd 785a 5abd
0.10510115 0.5053296 0.15239508 0.30336657 0.032799393 -0.06488543 0.23680715 -0.13178402
-0.27370837 0.27068883 0.28749365 -0.040683813 0.07276733 0.08173851 -0.2484838 0.15921383
0.012423294 -0.23039287 -0.25961685 0.3128835 0.0310867 -0.3325775 0.17911695 -0.05460485
-0.26374373 0.22363697 -0.24716197 0.1066055 -0.09993458 0.19141662 -0.11358428 0.1530074
0.019728849 -0.2869779 0.011997618 -0.09112238 0.103269175 -0.2571886 0.25386357 0.0005182727
-0.031203212 0.04763028 -0.43559927 -0.0070335288 -0.03311597 0.07403283 0.013378125 0.013553605
-0.19878194 0.0357492 -0.023812382 -0.10328393 -0.11247979 -0.21167007 -0.139299 0.052570276
-0.015749745 -0.115728065 -0.015798133 -0.2900478 -0.06911948 -0.25444978 -0.052008767 -0.06810265
0.07680546 0.14156893 -0.089437954 0.0332128 0.027281437 0.031077439 0.19629659 -0.14604501
0.10680617 0.044939496 0.086209826 0.039075706 0.07579805 -0.08747748 0.012935495 -0.042094156
-0.012523772 -0.06494653 0.10216734 0.111156315 -0.12375943 0.13809142 -0.18361744 0.11657537
0.14509362 -0.4222111 -0.16706802 -0.14107029 -0.23464681 0.15751696 0.11927941 -0.26842144
0.022680886 0.009851381 0.034706376 -0.2835273 0.07961047 -0.037583403 -0.24464661 -0.0763253
0.0003338023 -0.26225764 -0.029630153 0.066394985 0.5293415 -0.13076895 -0.037921805 0.013904657
0.011713564 0.100833565 0.11714286 0.31489658 -0.07010089 0.035720836 -0.12406083 -0.12456211
-0.02479674 0.040536225 -0.2008532 -0.11146074 -0.26088747 0.069137946 0.29852414 0.099828854
-0.04511259 0.20210311 -0.14110267 -0.23733532 -0.08666104 -0.20297526 0.27941075 -0.034254216
0.2906132 0.35108644 0.002613828 -0.35590285 -0.123076335 0.10453214 0.20150073 0.10296357
-0.04358501 -0.34371653 -0.17324053 -0.061924435 0.0020158894 -0.16307844 -0.07044105 -0.1560893
0.020789517 -0.10589111 0.14492269 -0.06304606 0.13706717 0.06996621 -0.17256935 -0.1118816
0.0063651972 -0.090990156 0.047867917 -0.061150763 -0.047920424 0.15660721 -0.52080935 -0.12901483
-0.5352641 0.061827473 0.010960185 0.24407868 0.017520059 -0.020755602 -0.3811576 0.001061829
0.20331399 -0.09479671 0.05302883 -0.020306017 -0.15187554 0.04084509 0.037172534 -0.09331294
0.0525895 -0.20895293 0.121538 0.15153646 0.24209522 0.086252965 0.04943187 0.1094895
-0.0032532976 -0.29241255 -0.07727033 -0.25069085 0.07884353 0.13744667 0.09958026 -0.21845913
0.072712675 -0.12804818 -0.16356263 0.24472646 0.19022943 0.09867969 -0.2228326 0.12797897
0.031724144 0.14351654 -0.056321304 -0.002489073 -0.12302293 0.1726078 -0.04334846 0.101899035
-0.18498418 0.052843597 -0.09700366 0.28148583 -0.0731483 0.13696328 0.05640427 0.045087844
0.30964833 -0.15796748 -0.0554975 0.07789406 0.0006450049 -0.068674 -0.2725353 -0.05930713
-0.09517677 -0.049209844 0.0018721925 0.07444917 0.079800144 0.07069079 -0.1784803 0.10859796
-0.21948953 -0.18241833 0.21006906 -0.15443116 0.33192408 0.008610022 -0.11133762 -0.28658932
0.12178303 -0.083595626 0.02716846 -0.0044131093 -0.15197948 -0.034267522 -0.053256407 -0.053308934

network_body._body_endoder.seq_layers.0.bias f4 [128]
00000000: cc00 213b 8acd a3bb 18f8 4abc f49f 893c
00000010: 7b9d 593c 36ef 1cba 948b 48bb 6fd8 11bc
00000020: 1cf1 afbb 4c30 da3c 807c 52bc 7cbd 3d3c
00000030: 3f83 2a3b bf60 553c dd46 213b 643d 6c3a
00000040: d7ef 62bb a15f 8e3c 2014 d63b 4746 3c3c
00000050: 0f1c 273b b22f 70bc 5d30 bd3b e02f 3cbb
00000060: c76b 363c 7816 14bc 593d 88bb 78ca a43b
00000070: e4a4 f2bb 7ba5 abbb 114c 593c 29f1 83bc
00000080: 7d14 953b 0387 2ebb 7efe 3b3c 72f3 fa3a
00000090: ca4d 76bc f1a7 813c 68e7 9d3c 443a 993c
000000a0: 961b a6ba 7ecc 393c df0f 903c a85f 553b
000000b0: 1e53 363c 974a a33c fd76 a33b d783 4bbb
000000c0: b858 03bc 1e4d 17bc c42d a5bb 72c9 adbb
000000d0: 29ac d33b 6ae0 07bb f02f a03b 6866 523c
000000e0: b1f1 56bb 4795 c83c f5ff 11bb 4f1f 893c
000000f0: 1789 343c 4653 a2bc 9219 cc3b 408b 4fbc
00000100: 847a 9c3c e8a3 af3c 0a1e bb3c f754 703c
00000110: 1391 9a3b e8c3 be3a ef01 74bb 23db a6ba
00000120: 3e2c 9dbc a20a c5bb 00e9 573c f601 703c
00000130: d0d1 32bc 88b3 90bb fb3b c5bc 8ff9 7c3c
00000140: 5313 d4bc a16c 693a 0bce 6bb8 75f4 f53b
00000150: b956 2b3c 49aa a6b9 71cf 343c 1b5c 52bc
00000160: 82e5 23bc 3422 043c 84c2 e3ba a455 f0bb
00000170: b867 65bc 4a46 adbb 5392 d0ba 1765 333a
00000180: e99e 223a 79d7 d53b 0434 6fbb 09c5 11bc
00000190: 78aa 413c d640 26bc a83e 8e3c db48 ce3b
000001a0: 1eb6 5ebc 60ad 063c a43a 71bc 71aa 2f3b
000001b0: 7779 1a3c 6c7d ca3b 68ca ae3a f5ee 883c
000001c0: 0414 a93c cd63 d53c bb53 293b cdcb f73a
000001d0: 5418 253c f9e7 153c 3f4b 06bc ee27 543c
000001e0: 5169 b73c fed4 99bc bc97 41ba 2187 913c
000001f0: 64d7 03bc 00ac 86bc 1304 683b 4993 523c
0.0024567125 -0.0049988674 -0.012388252 0.016799904 0.013282175 -0.0005986573 -0.0030600773 -0.008901699
-0.0053693186 0.026634358 -0.012847066 0.011580821 0.002601817 0.013023554 0.0024608888 0.00090118335
-0.003462782 0.017379584 0.006533161 0.011491365 0.0025498902 -0.014659809 0.0057735876 -0.002871506
0.011134095 -0.00903856 -0.004157704 0.005029019 -0.0074049104 -0.0052382327 0.013262765 -0.016106205
0.0045495615 -0.0026630766 0.01147425 0.0019146039 -0.015033195 0.015827151 0.019275382 0.018704541
-0.0012673016 0.011340259 0.017585693 0.0032558236 0.011128215 0.019933028 0.0049885497 -0.0031053924
-0.008016758 -0.009234695 -0.005040856 -0.005303555 0.006459732 -0.0020733126 0.004888527 0.012841798
-0.0032797868 0.024485243 -0.0022277806 0.016738562 0.011019013 -0.019815098 0.006228634 -0.012667477
0.019101389 0.021440461 0.022841472 0.014668695 0.004717001 0.0014554234 -0.0037232598 -0.0012730103
-0.019186135 -0.0060132304 0.01317811 0.014648905 -0.010914281 -0.004415933 -0.024076452 0.015440359
-0.02588812 0.00089044316 -5.622026e-05 0.007505948 0.010457688 -0.0003178886 0.011035786 -0.0128393425
-0.010003449 0.008064795 -0.0017376696 -0.007334428 -0.014001779 -0.00528792 -0.0015912749 0.00068433717
0.0006203489 0.0065259305 -0.003649951 -0.0088970745 0.011820428 -0.010147294 0.017363861 0.006295306
-0.013593225 0.008220047 -0.014723454 0.0026804472 0.009428374 0.0061795022 0.0013335468 0.016715506
0.020639427 0.026048565 0.002583726 0.0018905342 0.010076601 0.009149545 -0.008196651 0.012948973
0.022389086 -0.01877832 -0.0007384976 0.01776463 -0.008046959 -0.016439438 0.003540282 0.012852498

network_body._body_endoder.seq_layers.2.weight f4 [128, 128]
00000000: d54d 7ebd 5aa9 c83c ad8d 373e 4116 3b3e
00000010: b5cc dabd cfac eaba 9e46 de3d 09ab 40be
00000020: 57e1 c2bd e699 823d ec63 3b3e 6006 bc3d
00000030: 8b92 63bd a32b d53b 3b93 f1bd 869b d6bd
00000040: 575e 02bd 8677 06bd de5b 54be b501 10bd
00000050: bbda 3ebe f70b ffbc b4b3 88bd d710 d33d
00000060: ab09 25bd da87 b63d db72 16be ff71 623d
00000070: aba4 2a3c 78fb 013e 0ce5 f4bc fd0d 793e
00000080: bad5 5c3b f8a2 b8bd 0efe d1bb f04d 743b
00000090: 1c29 08bd c6be a83c f0a3 0abe 4c7a 59be
000000a0: 5367 403d 7ef4 ce3b 4a90 283d 4ae2 743d
000000b0: 9d8c 82bd 2dbb b23d 37ea 7e3e f64d 31bd
000000c0: 7135 94bd 15ce b43b 23eb 0b3e 9097 e13d
000000d0: 247f 81bd c8d0 24bd c913 f1bd 834f 91bd
000000e0: 1eb5 87bd dad2 5f3d 6b30 c1bd 95b2 c33d
000000f0: 5c97 ae3b 1dd5 263d 5a7e c6bc 2030 593c
00000100: ec92 8d3b 9f4d ccbd f58d 21bd 651f acbd
00000110: 6d85 863d 3137 293e 30ab 14bd 9218 51be
00000120: 5bd4 893c 0706 d73d 06c6 2b3c bbed 7fbd
00000130: a2ab 013e 46eb 6bbb 7fff 733e 260a 9cbd
00000140: efb0 20bb c7eb 8c3e 67a0 a6bd 8408 c7bd
00000150: 7172 953c 34bb d3bc 9992 973d c105 12be
00000160: f451 fa3d ba97 4bbc 046e 143d 0466 ac3d
00000170: 793d 133d 899e 2c3e fc7e 46bd c9bb 773b
00000180: 4b53 52bd e2aa 9e3d 9636 c4bd 5c1e 43bd
00000190: ad89 fcbd 7d69 2e3c 859e 06bd 2373 dfbc
000001a0: 456f 053e 2ad5 413d dfc9 aa3d b89e db3c
000001b0: b683 dabd 1b15 0ebb 8de3 843d 4e95 3fbe
000001c0: 5319 bbbc a304 ddbc 7003 0fbe 09fa 5dbd
000001d0: ddd2 92bd 38ee 5c3c 559b 27bc 1475 cfbd
000001e0: f887 ac3d 71e6 52bc 7bf9 013e d3a5 fe3b
000001f0: 1fd0 62bd b16f 833c 993f afbc a9ae acbd
00000200: 54cb 8ebd 53ac d2bd 1a2d 523e ab44 853d
00000210: 19f8 013e f0bb f83d b936 583c fa85 48bd
00000220: abeb bc3d 5a4a 443d 3e8c 273e db0d 92bb
00000230: 24eb 123d 5bf9 7f3c 0083 183d 4695 3e3d
00000240: 38ab 093e c53e 08bc 50fd 40bd d54b 9b3c
00000250: b761 6b3d 7235 25b9 e0ca aabd 39d4 9b3d
00000260: 1f70 46bc 303d 1e3d 6cc7 823d 45fe 4ebd
00000270: 789c 69bd 1827 1e3d 7c72 7c3d 2229 6dbd
00000280: d6bf a03b 4f30 6b3e 09cc 69bd a9dd ba3d
00000290: edeb f73c 2040 eb3d adbb 74bd 36e9 49bd
000002a0: 122b ad3c 3517 663d 0043 e5bc 2343 c3bc
000002b0: 6eb1 e9bc e20f 0fbd c313 e1bd 3608 493e
000002c0: a60b 6d3e 5377 4e3c a6bd 9a3c e9b4 02be
000002d0: be7a 9cbc fcb0 41bc 3148 cb3d 1874 debd
000002e0: af98 a9bb 6bbc d5bc f663 cebd 7a50 bcbd
000002f0: 64da 9a3d d31a 373d 49ca 09be b570 a73c
00000300: a49f 7d3d 8f5f 5dbe 0855 cc3d 39f4 0f3e
00000310: 3e73 27bd b16e 98bd c92f efbc 19dc 2d3b
00000320: cbe6 693d 4994 743d fcfd 8b3c fc24 73bb
00000330: b482 ae3c 7c6a e83d 182d e53d 4b2b 043e
00000340: fe91 4b3d c8a4 b03d 9a89 cf3d fccc df3d
00000350: ba3d ed3d 2258 c03d 9a00 bd3c 587f bc3d
00000360: b32a bbbd 330c fbbb 378e 2e3d 1a10 a7b9
00000370: 51e5 d3bd 6dd4 b63c d1a0 b5bd 7cea 863d
00000380: 77ab 173d 01d4 583e e78d acbd 132f 48bd
00000390: eb9e f2bd 4687 0c3e ee20 233d 996c ec3c
000003a0: deaa 4f3d b7f2 43bd c8db ac3d c4a3 82bd
000003b0: b396 14bd 686c b23c a06e 48bd 709b 8e3d
000003c0: bf2f 7f3d 2efe dc3b 1a61 d53d 5975 cd3d
000003d0: 8588 13be c2d5 49bc ddc8 913d 35ba 9fbc
000003e0: 03d6 953d 4454 a4bd e5d4 48bc 2a08 b93d
000003f0: 749d 4dbd 3d87 1ebd 1233 e43c 98f1 483d
-0.062085945 0.024494816 0.17925139 0.18270208 -0.10683576 -0.0017904284 0.10853313 -0.18815245
-0.095156364 0.0637701 0.18299836 0.091809034 -0.055559676 0.006505446 -0.1179566 -0.104788825
-0.03182825 -0.03282883 -0.2073817 -0.035157878 -0.18638127 -0.031133635 -0.06674901 0.10305946
-0.040292423 0.089126304 -0.14692251 0.055284496 0.010415236 0.12693584 -0.029894374 0.24321742
0.0033696727 -0.09015459 -0.0064084595 0.00372779 -0.03324233 0.02059878 -0.135391 -0.21238059
0.046973538 0.006315767 0.04115323 0.05978612 -0.06374476 0.08727107 0.24894033 -0.04328724
-0.07236756 0.005517731 0.13663916 0.110152364 -0.06323078 -0.04023817 -0.11771352 -0.07095244
-0.06626342 0.054644443 -0.09433063 0.09555546 0.005328102 0.040730584 -0.024230171 0.013256103
0.004320493 -0.099757425 -0.03944202 -0.084044255 0.06568418 0.1652496 -0.03629607 -0.20419529
0.016824892 0.104991965 0.010484224 -0.062482577 0.12663129 -0.0035998388 0.23827933 -0.07619123
-0.0024519523 0.27523634 -0.08136063 -0.09718421 0.018243046 -0.025846101 0.07401008 -0.14260007
0.122226626 -0.012426311 0.03623773 0.084178954 0.035947297 0.16857351 -0.048460945 0.0037801138
-0.051348966 0.07747437 -0.09580724 -0.047636375 -0.12330947 0.010645268 -0.03286602 -0.027276581
0.13030727 0.04732243 0.08339285 0.026809081 -0.10669653 -0.002168006 0.06488714 -0.18709299
-0.022839224 -0.02697975 -0.13966155 -0.05419353 -0.07169125 0.01348453 -0.010229905 -0.10129753
0.084243715 -0.012872324 0.12692825 0.0077712326 -0.05537426 0.01604447 -0.02139263 -0.08431751
-0.069723755 -0.102867745 0.20525017 0.06507238 0.12692298 0.12145221 0.013196641 -0.048955895
0.092246376 0.04792247 0.16362092 -0.004457218 0.03586878 0.015623416 0.037234306 0.046529077
0.13444221 -0.008315747 -0.047116578 0.018957058 0.057466235 -0.00015755536 -0.083394766 0.07608838
-0.012111693 0.03863257 0.06385693 -0.05053546 -0.057033986 0.0386115 0.06163262 -0.057900555
0.004905681 0.22967647 -0.05707935 0.091243096 0.030263865 0.1148684 -0.059749294 -0.049294673
0.021138702 0.056174476 -0.02798605 -0.023835724 -0.028526988 -0.034927256 -0.109900974 0.19632038
0.23148975 0.012601691 0.01888926 -0.12764324 -0.019101497 -0.0118219815 0.09925879 -0.10861987
-0.005175672 -0.026090821 -0.1007766 -0.09195037 0.07561186 0.044703316 -0.13456072 0.020439485
0.061919823 -0.21618484 0.09977156 0.14058007 -0.040881388 -0.07442988 -0.02919759 0.0026528894
0.057104867 0.05971173 0.017088883 -0.0037100902 0.021302558 0.11348435 0.111902416 0.1290714
0.049699776 0.086251795 0.10133667 0.109277695 0.11584039 0.0939181 0.023071576 0.092039764
-0.091390036 -0.0076613664 0.042616095 -0.0003186472 -0.10346473 0.02231809 -0.08868564 0.06587693
0.037028756 0.21174623 -0.08425503 -0.04887302 -0.118467174 0.13723478 0.039826326 0.028860377
0.05070006 -0.047838893 0.084403574 -0.06378892 -0.03627653 0.021780208 -0.048933625 0.06963241
0.062301394 0.006744168 0.10418911 0.10032148 -0.14407547 -0.01231903 0.0711839 -0.01949797
0.0731621 -0.08023885 -0.012257789 0.0903476 -0.050198987 -0.038703192 0.027856383 0.049058527

network_body._body_endoder.seq_layers.2.bias f4 [128]
00000000: b674 45bc 8a6d 11bc e177 223c 0dd6 35ba
00000010: bf69 9638 2696 1dbc 3fb1 1a3c 1a65 02bc
00000020: ce28 76ba 39fc 1b3b 7978 1dbc 37fe c33b
00000030: 4499 82bb e073 3bbb 3286 b0bb 6c7f b13b
00000040: 7090 1ebc a1a8 99ba 969c 6c3b ec6c 4bba
00000050: a202 a63a d72d c03b 6215 c3bb a501 bdbb
00000060: fb85 0fbc 8ebb 9f3b 0930 0fbc fa9b c8bb
00000070: 0b58 2cbb 90c8 91bc 33d7 09bc 487b 2c3b
00000080: 56c5 e739 e309 0a3d cb4f 2f3c 4751 debb
00000090: ed9b 173c 07e9 c0bb 7f5d 4e3c 794b 443b
000000a0: 48b8 c73a 2068 243c d97f 263c d83d 83bb
000000b0: 177e 533c 2444 243c 0f76 56bb 967b e43b
000000c0: 6e9e 55bc 79a4 ba3c bccc e03b 8c2b 063c
000000d0: 9966 423c 980f 343c 97a1 623c c45d 36bc
000000e0: c61d bf3c 5ca6 943c 7f6d ba3c 8ccd 833b
000000f0: 5aaf 263c ee0d 813c a223 913c 48ed a53a
00000100: 56fe 04bc fa87 02bc cff3 62bc e4f0 b43c
00000110: b0a4 9bbb b2b2 833c a04c 29bc 0e45 e73a
00000120: 8424 37bb 3601 c2bb 1385 35bb 98ce e0bb
00000130: 0e56 07bc c302 543c 6c5c 043b d169 4bbc
00000140: e8f0 273c 3894 11bc 34cd f6ba e0c4 a33c
00000150: 3b21 d9bb f58a da3b dc42 c43b a8be 5abb
00000160: 29fc 09bb d607 c53c f901 dd3b c1b5 25ba
00000170: debc da3c 5b30 66bb 6255 06bc 7628 22bc
00000180: 0876 dcbb 98d2 88bc 6571 ac38 34ac 23bb
00000190: 18a7 923c a29f 193b 2997 0fbc 1974 273c
000001a0: ed70 383a f3d8 de3b d02d 003b 8ef3 ac39
000001b0: 8b35 073c ac81 77bc a705 35ba 8c5b 273c
000001c0: 62f1 2b3c 1bc7 f03b a4fd 033c d330 ca3a
000001d0: 7bce 3d3c 4a6a 053c 7b23 423b 15f4 95bb
000001e0: 39c2 b33c cc1f 743c 2220 6a3c e7a3 c3bb
000001f0: 634d 7cbb 2b65 52bc a39e a03b ce89 3b39
-0.012051752 -0.008876214 0.009916277 -0.0006936498 7.172254e-05 -0.009618318 0.009441673 -0.007958675
-0.00093902356 0.002380146 -0.009611242 0.0059812325 -0.003985556 -0.0028603002 -0.005387091 0.005416801
-0.009677991 -0.0011723229 0.0036104075 -0.0007760066 0.001266558 0.0058648395 -0.0059534768 -0.0057680183
-0.008759971 0.004874653 -0.00873948 -0.0061221095 -0.0026297595 -0.017795831 -0.008413124 0.0026318599
0.0004420678 0.033700835 0.0107001765 -0.0067845914 0.009253484 -0.005887154 0.012595533 0.0029952212
0.0015237415 0.010034591 0.010162317 -0.004005175 0.01290848 0.010026012 -0.0032724177 0.0069727404
-0.013038261 0.022783505 0.0068603437 0.008189093 0.0118652815 0.010990046 0.013832471 -0.011130754
0.023329627 0.018145733 0.02275729 0.004022306 0.010173643 0.015753713 0.017717186 0.0012659216
-0.008117279 -0.00796699 -0.013852074 0.022087522 -0.004749857 0.01607642 -0.01033321 0.0017644481
-0.002794535 -0.0059205545 -0.0027697727 -0.0068605654 -0.008260263 0.012940112 0.002019669 -0.012415365
0.010250308 -0.008885436 -0.0018829466 0.019991338 -0.006626276 0.006669397 0.0059894156 -0.00333778
-0.002105484 0.024051588 0.00674462 -0.0006321334 0.026701387 -0.0035124037 -0.008199068 -0.009897342
-0.0067279376 -0.016701981 8.2227205e-05 -0.0024974467 0.017901942 0.0023441096 -0.008764067 0.010220551
0.000703587 0.0068007647 0.0019558556 0.0003298786 0.008252512 -0.0151066 -0.00069054443 0.010214698
0.010494562 0.007347954 0.008056078 0.0015425928 0.011584873 0.008143017 0.0029623199 -0.004576216
0.021943199 0.014900159 0.014289888 -0.0059704664 -0.0038498275 -0.012841503 0.0049017235 0.00017885046

action_model._discrete_distribution.branches.0.weight f4 [3, 128]
00000000: 34e3 38bc 49f3 e1bb 6fab babc dbe3 983c
00000010: 8cb3 77bc 7da3 123d 932a 91bc 7329 2b3b
00000020: f596 f23a 28b4 6ebc 8076 65b9 9335 0dbd
00000030: 16dd 643c 721f 1dbc a9f5 ad3c 0139 dcbc
00000040: 801d 0cbb c209 833c 99a3 153d 88ff f53b
00000050: a151 28bb dfd5 10bc 1c12 48bc 02ec 673c
00000060: 1775 be3a 2e1c bcbc af26 6dbc d0fd d53b
00000070: 5120 55bb 4546 973b 9ab1 873c 2927 a5bb
00000080: 7596 d1bb d8fb bfbb ec2b 50bc d2ed d9bb
00000090: 1af9 663c 91c8 33b8 6560 b0bc 38b9 c03c
000000a0: 0eb6 e0bc 97c4 823a c8f1 bc3c 867c 02bb
000000b0: 7352 a3bc 54a6 a63a 3ec8 13bc 46c7 2bbc
000000c0: ab65 313c b398 8fbc 4d91 b6bc e0d5 c3b9
000000d0: 0c2e ecbb a0c0 3e3b df48 6fba 052a 463c
000000e0: 1104 bcbc 16bc b3bb 9c8b 6cbc f1a6 b9bc
000000f0: 5032 4dbc 7f18 843b 0eec d039 6ed9 b9bc
00000100: fcbe 533b 3ab9 3a3b 71c4 8739 04bb 36bc
00000110: b222 2e3c 3a6e efbc d435 82ba efa9 d33c
00000120: 093d df3c 0a95 37bc cd15 613b 2496 8bbb
00000130: 8c51 1c3c 5eae bebc c69b 993b 33a8 d2b9
00000140: 657f 5bbc 4cad ae3c 53f0 f23c d9a7 dabb
00000150: c5ce ba3b 4ccc 5ebc e243 85bc 4f10 8c3c
00000160: 4aed 183a 8e6d 19bc 67d1 2cbb b952 4fbc
00000170: 740d 55bc 8fc1 c03c 4763 223c 4616 773b
00000180: f96c 963c 2dc2 063c 1170 fa3c 3af4 853c
00000190: acd8 723a 3372 713c 7112 64bc 321f 143c
000001a0: 7db6 21bb c6ed 983c 7239 c33c d9b7 f3ba
000001b0: 3012 c13c 5eb7 6abc c4c7 74bb 44c2 123c
000001c0: ffb7 7b38 28d5 4f3c abb2 15bc 2195 e63b
000001d0: b16b 83bc 3e3a 47bb dd66 45b9 b534 0c3c
000001e0: 305a 74bb 6b9d 00bc aa1d 33bb d6e1 f33c
000001f0: 38a1 55bc 31e2 55bb 7f7b aa3c 4d4c 17bc
00000200: c23c 16bc a831 c03b 1286 56bc 4f3d d43b
00000210: 13a3 2fbc 13a8 48bc 7e50 113d 58ea 42bc
00000220: 988b 86bc ea1e 303c c8d5 75ba 3d0b 053c
00000230: 83fe dabc 65a2 6b3b 2410 c7bc 1a6e c63c
00000240: 5948 693b 2928 293b 901b 64bc 3781 c73c
00000250: 0105 f6bb 43d8 d83c 1570 f1bb 2341 f3bc
00000260: 7c72 bbbc 75cc 353c cc97 8ebb 6618 43ba
00000270: 80ef 1a3c 8a65 bdb8 f85a 36bc fc1c ea3b
00000280: 256e 2abc bb3a 4f3c 49a5 d93c 614b b5bc
00000290: 9a42 a43c 1ea2 483c 544f 573c 841c 31bc
000002a0: 0632 9d3b dd86 a93c e801 ecbb ae95 f4bb
000002b0: dc68 e83c 367c e9bb bb75 52bc f533 3f3c
000002c0: ce5f b3bc 09e9 303d d5cd b8ba dc26 d8bb
000002d0: b3a4 86bb 9ece e83b 0229 9e3b c4a4 38bc
000002e0: 63a9 c53c 2421 9d3c 826f 223c f01e d83b
000002f0: 9104 e33c e8c1 ea3c 4e45 513c a496 21bc
00000300: a196 8fbc 709c 293a d476 d3bb d9d9 063d
00000310: af11 82bc aa36 123d 32d6 193b f32f 9abc
00000320: 4b3e a7bc e73e 5ebc 31f1 fd3a c4bd 1ebc
00000330: 4d1f 6fbc 45cb 213d b64b 0a3c 8519 8abc
00000340: c8af 5a3c 3c6d ecbc 96e9 8c3c 6255 0d3d
00000350: aa74 83bb c5b0 a83c df45 14bc b42d 07bc
00000360: 1c9f 3abc bedb 933c 9958 9f3c 4ae5 283c
00000370: 0f12 e73c 0120 3cbc d90b ccba 3217 45bc
00000380: edd1 d6bc d89c 75bc 4875 aebc b8d0 a0bc
00000390: 1fd0 043c fe4b bebc fd8c 21bc f051 b039
000003a0: a45e 81ba 1bc6 bd3b e0d0 8ebc 3fe4 993c
000003b0: 1a21 fcbb 5e94 cdbc f42e 0cbc e194 d8bb
000003c0: af5e c3ba 5f18 61b9 e11e 4ebb d664 3dbc
000003d0: dd80 533c 7883 b33a df4e 9f3c 50d3 c6bc
000003e0: 342f 203c a4ec cd3c 5850 d43c 52d6 fcbb
000003f0: e41e 613c 5eb7 923b 4f5a a33c 5969 5e3c
-0.011284638 -0.006895457 -0.022786824 0.018663337 -0.015118491 0.035800446 -0.017720496 0.0026117235
0.0018508123 -0.01456932 -0.00021883287 -0.03447492 0.013968727 -0.009590017 0.021235304 -0.02688265
-0.0021379888 0.015995864 0.036532972 0.0075072683 -0.002568342 -0.008840053 -0.012211349 0.01415539
0.0014530745 -0.022962656 -0.014474555 0.006530501 -0.0032520483 0.004616531 0.01656418 -0.0050400686
-0.0063961097 -0.0058588795 -0.012705784 -0.006650665 0.014097476 -4.2863718e-05 -0.02153034 0.02352582
-0.02743056 0.0009976801 0.023064509 -0.0019910648 -0.019936776 0.0012714365 -0.009019909 -0.010484522
0.010827462 -0.017528867 -0.022286082 -0.00037352648 -0.0072076377 0.0029106513 -0.0009127985 0.012094979
-0.022951158 -0.005485068 -0.014437582 -0.022662612 -0.0125242025 0.0040312405 0.00039848726 -0.022686686
0.003230988 0.0028491751 0.00025895567 -0.011152986 0.010628389 -0.029227365 -0.0009934255 0.025837867
0.027250784 -0.011204967 0.003434527 -0.0042598415 0.009540927 -0.023276504 0.004687759 -0.0004017964
-0.013397072 0.021322869 0.029655611 -0.006672841 0.0057009184 -0.013598513 -0.01626772 0.01709762
0.00058336987 -0.009364499 -0.002636993 -0.012654 -0.013003696 0.023529796 0.009911365 0.0037702485
0.01836251 0.008225006 0.030571016 0.016351808 0.0009263854 0.0147367 -0.013920412 0.009040641
-0.0024675422 0.018668067 0.023831103 -0.001859422 0.023568243 -0.014325945 -0.0037350515 0.008957449
6.0014423e-05 0.012685098 -0.009136836 0.0070368205 -0.016042562 -0.0030399705 -0.00018825704 0.008557488
-0.0037285201 -0.007850031 -0.0027330914 0.029770773 -0.013038926 -0.0032636041 0.02081084 -0.0092345
-0.009169759 0.0058652945 -0.013093488 0.006477035 -0.010720032 -0.012247103 0.035477154 -0.011896692
-0.016423985 0.010749558 -0.0009377864 0.008120355 -0.026732689 0.003595495 -0.024299689 0.024222422
0.00355961 0.002581129 -0.013922587 0.024353607 -0.0075079207 0.02647031 -0.0073680975 -0.029694146
-0.022881739 0.01109611 -0.0043515917 -0.00074422953 0.009456515 -9.0311354e-05 -0.011130087 0.0071445685
-0.010402237 0.01264828 0.026568072 -0.02213067 0.02005129 0.012245683 0.013141472 -0.010810021
0.004797223 0.02069419 -0.0072023757 -0.0074641323 0.028370313 -0.007125403 -0.012845452 0.011670102
-0.02189627 0.04319099 -0.0014099429 -0.0065964293 -0.004108989 0.007104709 0.004826666 -0.011269752
0.024128621 0.019180842 0.009914281 0.006595485 0.027712138 0.028656915 0.012772871 -0.009862576
-0.01752788 0.00064701494 -0.0064533744 0.0329226 -0.015877573 0.035696663 0.0023473618 -0.018821692
-0.020415446 -0.013564802 0.0019374249 -0.009688798 -0.014594865 0.039500494 0.008440902 -0.016857872
0.013347574 -0.02886068 0.017201226 0.034505256 -0.00401171 0.020592103 -0.009049862 -0.008250643
-0.011390474 0.018049117 0.019451426 0.010308573 0.028206853 -0.01148224 -0.0015567496 -0.012029456
-0.026223147 -0.014991008 -0.021296158 -0.019630775 0.008106261 -0.023229595 -0.009860274 0.00033630384
-0.0009870124 0.0057914383 -0.017433584 0.018785594 -0.0076943757 -0.025095161 -0.008556116 -0.0066095446
-0.0014905537 -0.00021466751 -0.003145151 -0.011559686 0.012909141 0.0013695797 0.019446788 -0.024270684
0.009776879 0.025137253 0.025917217 -0.0077159787 0.013740275 0.0044774255 0.019940523 0.0135749215

action_model._discrete_distribution.branches.0.bias f4 [3]
00000000: d289 11bc 8f54 303c ff20 2cbb
-0.008882957 0.010762348 -0.0026264784

action_model._discrete_distribution.branches.1.weight f4 [3, 128]
00000000: 1f22 6a3c 071b 383c 8e1d 96bc 71b3 023b
00000010: 8e1b a43c d8d1 883b 9cdb b9bb c304 413c
00000020: 20a1 ddbb b43b f83b 01dc d03c b645 a23b
00000030: aafd 953c 55c6 a9bb 57f7 753c cb87 c13b
00000040: aa78 363c 7740 81bb 3b4e 9cbb 1d3f 543c
00000050: 1dc4 b4bb e741 663c c7e6 64bb b586 983b
00000060: b196 b33a 1658 1dbc 6454 273c 7fa1 c0ba
00000070: 1c20 31bb 5113 1d3c 49f3 d3bb 7b2d 1fbc
00000080: 3948 633c 109d 02bd 467e 9abb b91d 653c
00000090: bbbd 4fbc 8c1d b03b 4143 aabc fb20 653b
000000a0: 4a32 a63c 1a7c 63bc 5862 af3a 14bb 5c3c
000000b0: 5031 22bc 8c6a 4d3c d4a9 e53c 563b b43b
000000c0: 2672 723c 12fd 08bc 0fdc 1bba bab2 953c
000000d0: 50bb 21bc 5465 b1bc 470a 89bc e792 043d
000000e0: a2b0 13bd 8bec febc 75e4 dcbc 4d33 403c
000000f0: b1e3 4ebc 4bff d4bc 7ae6 3cbd 12ec 79bb
00000100: 9efe 9b3c b13d b13c ce7f 2c3c 14a9 00bd
00000110: 1915 5b3c a720 53bc a10e 70bc c4b2 8cbc
00000120: 623b 12bb a2ce 353c da7a 92bc 7d30 b63c
00000130: 1195 98bb 7307 49bc cd72 a8bc 755c 8d3c
00000140: abe5 92bc f2ea f03b 5025 ee3b 20f7 35bc
00000150: ff8a 0b3c 20b1 d03b b9ee 3cbc 21b1 51bc
00000160: 20b6 b63c f206 ecbc 83db b7bb 21e0 e33b
00000170: bf4d f5bc b030 ebbb b093 e93c f3ef 1c3c
00000180: 0bcf a23c d0dc c13c 9149 52bb 917f d63b
00000190: 56ee 7dbc 3588 88bc 7db3 8b3c 4227 aebc
000001a0: 4748 863c 1378 7bbc 34a6 733c 1dd1 eabc
000001b0: deb0 8bbb 17ce b43c 5a80 013c 429b d1bc
000001c0: 177c bebc ccfe 8dbc 491b 51bd 1592 b2bb
000001d0: f1fb 25bc 843e 84ba f751 d53c c131 843c
000001e0: bace afbc a8cc a4bc 36ef 3a3c 4cdf 0e3c
000001f0: 04da 263c ced6 9dba 4b6b 9abc 210e 79bb
00000200: 388d 7d3c 5bfb e13b 38cd a93b 6c13 8ebc
00000210: cfdb 76bb cbc1 45bb d62a ac3b f31f 11ba
00000220: 0d32 d0bb 3b80 e33a 7f97 45bb 9b22 77bb
00000230: 2ba4 a4bc 2d29 0b3c ffc6 343a 00b6 1ebc
00000240: 2921 b3bb eb3e 823c 1392 cebb 815e f63a
00000250: 48c6 b5bc fa3a 11bc 9d05 6fbc 1e84 033a
00000260: a253 83bc 110a adbb 391e 243c 79f4 b8bb
00000270: 4cce e83b c3d6 883b b4da 5cbb f2c3 45bc
00000280: 2ece 56bc 3448 8f3c ae90 25bb bb22 70bc
00000290: 52e3 db3b 4c0f 1b3c 3bdc b7ba b07e a2bc
000002a0: 76a3 6fbb 7266 bdb8 e655 efb9 bc8e 14bc
000002b0: 5a8c e33c 4898 b1bc 4eb9 81bc 8c7a 083c
000002c0: 9dd7 b8bc eaf2 d03c 9f6c 5fbb 6e3e 9abc
000002d0: ba9d 67bc cd19 603c 9733 98bc 781e 0abc
000002e0: 94ec 943b 8c6d babc bdcb 9a3c bae4 bd36
000002f0: b95e 7c3c d070 0b3c 5276 903a e75e 1fbc
00000300: fc74 a0ba 0602 4a3c f1bf f43b 7dc0 083d
00000310: 9dec 17bc 1707 aa3c 1627 9337 dd30 b1bc
00000320: c615 b2ba dc53 81bc d64f f5bb 5a4c 0e3c
00000330: fa48 933a 8e87 333c 3cc8 fe3c e6c1 473c
00000340: 39b7 e2bb 1ef7 8bbc 6005 953c 0373 f73b
00000350: 1e7e 9fba 54a5 52bb 63db 35bc 1ba4 22bc
00000360: 3661 bf3b 7bbb e2bb f7a6 6c3c 46f0 d33b
00000370: ee0b 493b b37e 15bc 091c f1bb 9f8d aabb
00000380: 26a7 8bbb d77a 77bc ea18 8dbc 1125 28bc
00000390: df70 3abc 8c31 b03a 3431 823c 6091 85bb
000003a0: 5f24 86bc 53c1 e0bb 87d6 07bd 4010 38bc
000003b0: 7186 e8bb 94f6 8f3a d640 de3a 9074 56bc
000003c0: 5680 8e3a 6474 54bb 15f4 3abb c5f5 e6bb
000003d0: 782c 1d3c b370 41bc 20a9 983c 309c 323c
000003e0: 4301 803c 8cc4 803c b697 903c 4e3d ec3b
000003f0: fcf7 c439 0a8a fa3b bf82 803c 9657 d03b
0.014290362 0.011236913 -0.01832464 0.0019943381 0.02003267 0.004175406 -0.0056719314 0.01178092
-0.0067635924 0.0075754765 0.025495531 0.004952158 0.018309433 -0.0051811137 0.015012584 0.0059060804
0.011137167 -0.0039444524 -0.004770068 0.0129545005 -0.0055165426 0.014053798 -0.0034927593 0.00465473
0.0013701526 -0.009603521 0.010212991 -0.0014696567 -0.0027027195 0.009587125 -0.006468211 -0.009715433
0.0138722 -0.031888068 -0.00471476 0.013984137 -0.012679513 0.005374616 -0.020784022 0.0034962285
0.020287652 -0.013884569 0.0013380749 0.013472337 -0.009899452 0.01253761 0.028035082 0.0055002375
0.014797723 -0.008361118 -0.0005945572 0.0182737 -0.009871319 -0.021654762 -0.016728533 0.03236666
-0.036057122 -0.031118652 -0.026964406 0.011730981 -0.012627528 -0.02600064 -0.046118237 -0.0038135094
0.01904231 0.021635862 0.010528518 -0.031411245 0.013371729 -0.012886203 -0.014651925 -0.017175086
-0.0022313227 0.011096628 -0.017880846 0.022239918 -0.004656442 -0.012269842 -0.020562554 0.017256001
-0.01793178 0.0073522264 0.0072676316 -0.0111062825 0.008517026 0.006368771 -0.011531525 -0.0127985785
0.02230364 -0.028811906 -0.0056108846 0.0069542085 -0.029944299 -0.007177435 0.028512806 0.009578693
0.019874116 0.023664862 -0.0032087306 0.006545969 -0.015498718 -0.016666511 0.01705336 -0.021258954
0.016391886 -0.015348452 0.014871169 -0.028664166 -0.0042630276 0.022070928 0.007904137 -0.025586728
-0.02325253 -0.01733341 -0.05105141 -0.0054495432 -0.010130868 -0.0010089432 0.02604006 0.016137006
-0.02146088 -0.020117119 0.011409571 0.00872023 0.010183815 -0.0012042166 -0.01884999 -0.0038002806
0.015475564 0.006896419 0.0051819347 -0.017343245 -0.0037667637 -0.0030175324 0.00525413 -0.0005536072
-0.006353623 0.0017356941 -0.0030150113 -0.0037709835 -0.020097813 0.008493704 0.0006896108 -0.009686947
-0.0054665995 0.015899142 -0.0063040345 0.0018796475 -0.022189274 -0.008864159 -0.014588741 0.00050169404
-0.01603109 -0.005280741 0.010016971 -0.005644378 0.0071046706 0.004175992 -0.0033699693 -0.012070643
-0.0131106805 0.017490484 -0.0025263238 -0.014656718 0.0067104483 0.009464096 -0.0014027426 -0.0198358
-0.0036565936 -9.031304e-05 -0.00045649632 -0.009067234 0.027776886 -0.021679059 -0.01583543 0.008329999
-0.02256375 0.025506455 -0.0034091843 -0.018828597 -0.014136726 0.013678026 -0.018579287 -0.008430116
0.004544804 -0.022757314 0.018895978 5.659266e-06 0.015403443 0.008510783 0.001102159 -0.009727216
-0.0012241895 0.012329584 0.0074691703 0.033386696 -0.009272722 0.020755334 1.7541966e-05 -0.021629745
-0.0013586811 -0.015787058 -0.007486324 0.008685196 0.0011236959 0.010957612 0.031101339 0.012192225
-0.0069188145 -0.017085608 0.01819104 0.0075515523 -0.0012168323 -0.0032142 -0.011099669 -0.009926821
0.005840446 -0.006919322 0.014444104 0.006467852 0.0030677277 -0.009124446 -0.0073580784 -0.005204871
-0.004261869 -0.015104971 -0.017223794 -0.010262744 -0.01137945 0.00134425 0.015892603 -0.004076168
-0.016374765 -0.0068589835 -0.033163574 -0.011234343 -0.007096105 0.001098352 0.0016956578 -0.013089314
0.0010871987 -0.0032418007 -0.0028526832 -0.007048341 0.009593122 -0.011806655 0.018635333 0.010901496
0.015625602 0.01571872 0.017650466 0.0072094565 0.00037568796 0.00764585 0.015687345 0.0063580973

action_model._discrete_distribution.branches.1.bias f4 [3]
00000000: a7c0 a0bb ee31 51bb 6a9d 1c3c
-0.0049057784 -0.003192063 0.009559015

exp_avg f4 [128, 36]
00000000: 405e 5d82 4a0d 4f00 0000 0000 a283 6537
00000010: a283 6537 9b48 3982 06a9 c180 0000 0000
00000020: a283 6537 a283 6537 b4e9 5e82 0009 4f00
00000030: 0000 0000 a283 6537 a283 6537 d30b 4382
00000040: a9fe 8580 0000 0000 a283 6537 a283 6537
00000050: dd04 0084 f055 3203 0000 0000 a283 6537
00000060: a283 6537 ad4e 1e82 2880 6781 0000 0000
00000070: a283 6537 a283 6537 3289 7482 8508 3183
00000080: 0000 0000 a383 6537 a383 6537 48fe dcb6
00000090: afad 2082 7eaa 5100 0000 0000 3427 d837
000000a0: 3427 d837 405a 1782 8a8d 1300 0000 0000
000000b0: 3427 d837 3427 d837 4778 1b82 e8a8 5100
000000c0: 0000 0000 3427 d837 3427 d837 5a0f 7e80
000000d0: d3b5 0482 0000 0000 3427 d837 3427 d837
000000e0: 3608 7203 e628 f082 0000 0000 3427 d837
000000f0: 3427 d837 e344 d302 0aba 0f83 0000 0000
00000100: 3427 d837 3427 d837 3c52 c002 ac71 9400
00000110: 0000 0000 3627 d837 3627 d837 0c37 2eb4
00000120: 95d4 1082 5b21 3d00 0000 0000 26d9 7c36
00000130: 26d9 7c36 f6fd 0882 2a68 0500 0000 0000
00000140: 26d9 7c36 26d9 7c36 b0fc 0f82 031c 3d00
00000150: 0000 0000 26d9 7c36 26d9 7c36 d0b9 bd00
00000160: 8f5f 2082 0000 0000 26d9 7c36 26d9 7c36
00000170: 7ba3 0003 f308 c682 0000 0000 26d9 7c36
00000180: 26d9 7c36 edc8 3f03 689e 6283 0000 0000
00000190: 26d9 7c36 26d9 7c36 110b 3a02 925e 6a81
000001a0: 0000 0000 38d9 7c36 38d9 7c36 9ce3 24b5
000001b0: 8381 5880 041d 3b01 0000 0000 3ee0 d638
000001c0: 3ee0 d638 9eac f400 a12b 4b00 0000 0000
000001d0: 3ee0 d638 3ee0 d638 6453 0880 661d 3b01
000001e0: 0000 0000 3ee0 d638 3ee0 d638 3eaa 5f00
000001f0: e899 f200 0000 0000 3ee0 d638 3ee0 d638
00000200: ae4b 8b83 2e97 3301 0000 0000 3ee0 d638
00000210: 3ee0 d638 cd21 9f82 e20f b502 0000 0000
00000220: 3ee0 d638 3ee0 d638 9ba6 0883 de17 2083
00000230: 0000 0000 3ce0 d638 3ce0 d638 acc1 a4b6
00000240: 3aa3 8e01 3cd5 9d00 0000 0000 ac26 0e37
00000250: ac26 0e37 6df3 b801 3cfb 0680 0000 0000
00000260: ac26 0e37 ac26 0e37 1fa0 8f01 4ed4 9d00
00000270: 0000 0000 ac26 0e37 ac26 0e37 a3b7 2502
00000280: dc10 9581 0000 0000 ac26 0e37 ac26 0e37
00000290: b39d 1983 3a0a a401 0000 0000 ac26 0e37
000002a0: ac26 0e37 79e3 0e02 d67e 4e81 0000 0000
000002b0: ac26 0e37 ac26 0e37 6a1f ac81 73ae d682
000002c0: 0000 0000 aa26 0e37 aa26 0e37 94d9 2db6
000002d0: 8d84 4002 7a86 0401 0000 0000 c088 fe38
000002e0: c088 fe38 9cf1 6c02 2a09 3680 0000 0000
000002f0: c088 fe38 c088 fe38 e6cd 4002 c485 0401
00000300: 0000 0000 c088 fe38 c088 fe38 7a42 8102
00000310: fa17 0a81 0000 0000 c088 fe38 c088 fe38
00000320: dc93 b583 c7a1 1a02 0000 0000 c088 fe38
00000330: c088 fe38 e837 8f02 bfad 8281 0000 0000
00000340: c088 fe38 c088 fe38 3690 7382 1241 9e82
00000350: 0000 0000 c588 fe38 c588 fe38 f822 fdb7
00000360: f2a7 2b80 aa0a 7601 0000 0000 5a52 8e38
00000370: 5a52 8e38 a5e4 3f01 3354 4b00 0000 0000
00000380: 5a52 8e38 5a52 8e38 1a59 1080 d10a 7601
00000390: 0000 0000 5a52 8e38 5a52 8e38 746c 9301
000003a0: 848f 8780 0000 0000 5a52 8e38 5a52 8e38
000003b0: 76a4 b481 02bf 1382 0000 0000 5a52 8e38
000003c0: 5a52 8e38 d222 dd01 6808 5781 0000 0000
000003d0: 5a52 8e38 5a52 8e38 67e9 5180 6119 9082
000003e0: 0000 0000 5952 8e38 5952 8e38 f3da dbb6
000003f0: bebc ee82 0cf5 8a00 0000 0000 9828 9f34
-1.6263564e-37 7.259771e-39 0.0 1.3680112e-05 1.3680112e-05 -1.361249e-37 -1.7784885e-38 0.0
1.3680112e-05 1.3680112e-05 -1.6377054e-37 7.258233e-39 0.0 1.3680112e-05 1.3680112e-05 -1.4329731e-37
-1.2305476e-38 0.0 1.3680112e-05 1.3680112e-05 -1.504856e-36 5.240815e-37 0.0 1.3680112e-05
1.3680112e-05 -1.1630586e-37 -4.2519947e-38 0.0 1.3680112e-05 1.3680112e-05 -1.7965662e-37 -5.2025405e-37
0.0 1.3680113e-05 1.3680113e-05 -6.586113e-06 -1.1804788e-37 7.499836e-39 0.0 2.5767462e-05
2.5767462e-05 -1.1119628e-37 1.795649e-39 0.0 2.5767462e-05 2.5767462e-05 -1.1422119e-37 7.499267e-39
0.0 2.5767462e-05 2.5767462e-05 -1.157678e-38 -9.750009e-38 0.0 2.5767462e-05 2.5767462e-05
7.1126834e-37 -3.5288305e-37 0.0 2.5767462e-05 2.5767462e-05 3.1043203e-37 -4.2237485e-37 0.0
2.5767462e-05 2.5767462e-05 2.8259065e-37 1.3632431e-38 0.0 2.5767466e-05 2.5767466e-05 -1.6225039e-07
-1.0640457e-37 5.613931e-39 0.0 3.7677323e-06 3.7677323e-06 -1.0064585e-37 4.96545e-40 0.0
3.7677323e-06 3.7677323e-06 -1.0578499e-37 5.612014e-39 0.0 3.7677323e-06 3.7677323e-06 1.7423566e-38
-1.1782367e-37 0.0 3.7677323e-06 3.7677323e-06 3.7803486e-37 -2.9098622e-37 0.0 3.7677323e-06
3.7677323e-06 5.6360507e-37 -6.6597272e-37 0.0 3.7677323e-06 3.7677323e-06 1.3668298e-37 -4.3046863e-38
0.0 3.7677364e-06 3.7677364e-06 -6.1425976e-07 -8.127984e-39 3.4367293e-38 0.0 0.000102460835
0.000102460835 2.2469784e-38 6.903313e-39 0.0 0.000102460835 0.000102460835 -7.64599e-40 3.4367568e-38
0.0 0.000102460835 0.000102460835 8.785444e-39 2.2279401e-38 0.0 0.000102460835 0.000102460835
-8.187061e-37 3.2985574e-38 0.0 0.000102460835 0.000102460835 -2.338235e-37 2.6604676e-37 0.0
0.000102460835 0.000102460835 -4.015806e-37 -4.704717e-37 0.0 0.00010246082 0.00010246082 -4.9101272e-06
5.239678e-38 1.4494667e-38 0.0 8.472864e-06 8.472864e-06 6.7940224e-38 -6.41139e-40 0.0
8.472864e-06 8.472864e-06 5.2759666e-38 1.4494333e-38 0.0 8.472864e-06 8.472864e-06 1.2174987e-37
-5.475815e-38 0.0 8.472864e-06 8.472864e-06 -4.514369e-37 6.025876e-38 0.0 8.472864e-06
8.472864e-06 1.0497794e-37 -3.7927225e-38 0.0 8.472864e-06 8.472864e-06 -6.32279e-38 -3.1544603e-37
0.0 8.472862e-06 8.472862e-06 -2.5905656e-06 1.4143972e-37 2.4341053e-38 0.0 0.000121371355
0.000121371355 1.740788e-37 -4.962404e-39 0.0 0.000121371355 0.000121371355 1.4165022e-37 2.4340543e-38
0.0 0.000121371355 0.000121371355 1.8993002e-37 -2.53638e-38 0.0 0.000121371355 0.000121371355
-1.0672171e-36 1.1360561e-37 0.0 0.000121371355 0.000121371355 2.104405e-37 -4.800377e-38 0.0
0.000121371355 0.000121371355 -1.7894207e-37 -2.3253362e-37 0.0 0.00012137139 0.00012137139 -3.0176234e-05
-4.009174e-39 4.5190715e-38 0.0 6.786427e-05 6.786427e-05 3.5245204e-38 6.917867e-39 0.0
6.786427e-05 6.786427e-05 -1.501332e-39 4.5190825e-38 0.0 6.786427e-05 6.786427e-05 5.4154894e-38
-1.2449276e-38 0.0 6.786427e-05 6.786427e-05 -6.6357547e-38 -1.0854671e-37 0.0 6.786427e-05
6.786427e-05 8.1232543e-38 -3.9495295e-38 0.0 6.786427e-05 6.786427e-05 -7.522404e-39 -2.1173465e-37
0.0 6.786426e-05 6.786426e-05 -6.5521976e-06 -3.507929e-37 1.2761205e-38 0.0 2.9645594e-07

exp_avg_sq f4 [128, 36]
00000000: da93 b530 a7c9 b130 0000 0000 835c b031
00000010: 35f0 b431 c7a2 f430 3c39 9430 0000 0000
00000020: 170a aa31 31fa b731 e04b 4e30 8d98 1631
00000030: 0000 0000 0de0 a131 0dd9 a631 5ce7 8d31
00000040: d3a4 e32f 0000 0000 ea8c 5231 af08 a231
00000050: 7ca3 f430 ae17 0b31 0000 0000 ba36 8031
00000060: b230 8b31 bdbd 9431 9954 ca2f 0000 0000
00000070: 0797 4031 fc29 9431 20c0 2c31 92bb 0431
00000080: 0000 0000 4021 5931 d79d 7631 dee9 8831
00000090: 5e4b c42f 01a5 862e 0000 0000 d72a a231
000000a0: 8bf3 a231 4fa0 fd2f c3f9 b12c 0000 0000
000000b0: ba82 a131 2da8 a231 c9d3 562f 5696 7e2f
000000c0: 0000 0000 5466 a131 b359 a231 ed91 1130
000000d0: ad88 432e 0000 0000 e251 9d31 2bf7 a031
000000e0: bfc9 502f afb6 ab2f 0000 0000 a98d 9e31
000000f0: ed77 a031 762e fd2f bf1a 012f 0000 0000
00000100: 9dce 9c31 a36e a031 3982 792f 214e 952f
00000110: 0000 0000 0b8c 9e31 0f83 a131 84a7 0731
00000120: ee4d 0130 10cf c12f 0000 0000 6d43 a830
00000130: 474d ae30 3c10 4230 3672 162f 0000 0000
00000140: 9581 a330 dd4f ac30 b133 872f ef69 2630
00000150: 0000 0000 255a a030 c4d4 a630 e65c 8630
00000160: 83ce 132f 0000 0000 8394 7f30 c723 9e30
00000170: 733e 2a2f ed6c 4d30 0000 0000 bc74 9930
00000180: c962 a530 fd56 7130 3df7 8d2f 0000 0000
00000190: 2f56 7c30 f207 9730 b98d b32f befd 2b30
000001a0: 0000 0000 0b71 9330 14e4 a330 b9e2 6e30
000001b0: 54a7 0630 bbf0 8b2f 0000 0000 fb0f 3b33
000001c0: f44b 3b33 9c83 3130 d922 ed2d 0000 0000
000001d0: 6ef9 3a33 f574 3b33 a5b3 8a2f f12d 1530
000001e0: 0000 0000 6ace 3a33 5b19 3b33 acc9 3e30
000001f0: b24b 2a2f 0000 0000 cd1f 3a33 1c3a 3b33
00000200: d0fa c52f 6b15 1f30 0000 0000 c40a 3a33
00000210: 2196 3a33 929b 3430 1556 b92f 0000 0000
00000220: 9bba 3933 3ffd 3a33 ed68 4630 8499 ca2f
00000230: 0000 0000 0879 3933 266e 3a33 2ecd 8e32
00000240: ccb6 8b2f c72e 832e 0000 0000 5555 0430
00000250: 4bb3 0530 4dea 942f d98f 242e 0000 0000
00000260: 5ad7 0430 5053 0630 bc59 4f2f 02a4 522f
00000270: 0000 0000 e811 e32f f620 e72f 978f aa2f
00000280: 2741 332e 0000 0000 e04c ea2f ec85 0430
00000290: c336 de2e 729b a82f 0000 0000 da3a c92f
000002a0: 95ff d52f 2902 b12f 4beb 852e 0000 0000
000002b0: 6e9f d72f c1d1 0030 014a 2b2e f154 c62f
000002c0: 0000 0000 d422 d12f 1ea4 ea2f 5ccd c22f
000002d0: ee68 a82f 0036 2030 0000 0000 0ed2 5033
000002e0: f93f 5133 c4b9 0930 2775 0230 0000 0000
000002f0: b6e2 5033 c9a1 5133 3b5b bc2f fdf9 5030
00000300: 0000 0000 2031 4f33 de98 4f33 be84 fa30
00000310: 5fc2 e02f 0000 0000 2afe 4a33 af00 4f33
00000320: b8bb 6330 3bc9 1a30 0000 0000 b656 4e33
00000330: add5 4e33 64da 0b31 c89a c52f 0000 0000
00000340: d7eb 4933 b1a2 4d33 44cb be30 cf6d 1830
00000350: 0000 0000 92d7 4b33 da3e 4d33 b560 a832
00000360: dce5 4c2f 07ce d12f 0000 0000 73d6 bf32
00000370: 6b39 c032 bd4e 0030 a16b a92e 0000 0000
00000380: 6cd9 bf32 c3a6 c032 5271 072f b545 1f30
00000390: 0000 0000 d6ba be32 0729 bf32 57d2 2b30
000003a0: be7e 352f 0000 0000 ab96 bd32 1b45 c032
000003b0: ae72 9a2f 3c17 2430 0000 0000 1006 bd32
000003c0: 3dda bd32 716e ff2f d7ba e62f 0000 0000
000003d0: aacf bc32 517a bf32 18b1 2c30 2450 c52f
000003e0: 0000 0000 c0a5 bb32 3b39 bd32 8a38 1432
000003f0: 9b5c 312f 745a bd2f 0000 0000 b466 242e
1.3211505e-09 1.2935758e-09 0.0 5.1327915e-09 5.265998e-09 1.7799601e-09 1.0784684e-09 0.0
4.9487983e-09 5.3544444e-09 7.505019e-10 2.1914588e-09 0.0 4.7111883e-09 4.8559117e-09 4.1299426e-09
4.1408174e-10 0.0 3.0639122e-09 4.7158077e-09 1.7799802e-09 2.0240623e-09 0.0 3.731512e-09
4.0509684e-09 4.3289377e-09 3.6803696e-10 0.0 2.8025526e-09 4.31214e-09 2.5138505e-09 1.931515e-09
0.0 3.1596556e-09 3.5887433e-09 3.9847086e-09 3.5705744e-10 6.122925e-11 0.0 4.719691e-09
4.742508e-09 4.6134338e-10 5.0583717e-12 0.0 4.7005786e-09 4.73394e-09 1.9538428e-10 2.3154575e-10
0.0 4.69735e-09 4.725018e-09 5.2958066e-10 4.445926e-11 0.0 4.5786104e-09 4.6847126e-09
1.8989164e-10 3.1234523e-10 0.0 4.61451e-09 4.670247e-09 4.6053444e-10 1.1741984e-10 0.0
4.5636868e-09 4.669191e-09 2.2692682e-10 2.7158456e-10 0.0 4.6143263e-09 4.7006163e-09 1.9740307e-09
4.704067e-10 3.5253622e-10 0.0 1.2242772e-09 1.268213e-09 7.059986e-10 1.3682996e-10 0.0
1.189664e-09 1.2537346e-09 2.4593086e-10 6.054099e-10 0.0 1.1667153e-09 1.2138561e-09 9.776187e-10
1.344294e-10 0.0 9.297951e-10 1.1506182e-09 1.5483596e-10 7.473336e-10 0.0 1.1165393e-09
1.2033406e-09 8.7798907e-10 2.5823424e-10 0.0 9.179954e-10 1.0988954e-09 3.266061e-10 6.2570027e-10
0.0 1.0727786e-09 1.1924635e-09 8.690609e-10 4.8986704e-10 2.5455002e-10 0.0 4.3553865e-08
4.360841e-08 6.4579253e-10 2.6959256e-11 0.0 4.3533355e-08 4.3645702e-08 2.52297e-10 5.427117e-10
0.0 4.3494232e-08 4.356239e-08 6.940819e-10 1.5488302e-10 0.0 4.3335422e-08 4.359218e-08
3.6012304e-10 5.78743e-10 0.0 4.331629e-08 4.344304e-08 6.57047e-10 3.371247e-10 0.0
4.3243386e-08 4.3536826e-08 7.218109e-10 3.6852665e-10 0.0 4.3183746e-08 4.340668e-08 1.662428e-08
2.5413838e-10 5.9654996e-11 0.0 4.8142584e-10 4.863991e-10 2.7087524e-10 3.7417045e-11 0.0
4.8327353e-10 4.886731e-10 1.885842e-10 1.9157656e-10 0.0 4.1303783e-10 4.2042075e-10 3.1024847e-10
4.0757755e-11 0.0 4.2618975e-10 4.8211635e-10 1.0105119e-10 3.0669473e-10 0.0 3.6603504e-10
3.8926076e-10 3.2197647e-10 6.089936e-11 0.0 3.9221554e-10 4.6864207e-10 3.8946627e-11 3.6076345e-10
0.0 3.8041625e-10 4.2680964e-10 3.543431e-10 3.063358e-10 5.82844e-10 0.0 4.8619818e-08
4.8719787e-08 5.01043e-10 4.746021e-10 0.0 4.8634966e-08 4.8808747e-08 3.4261824e-10 7.6025214e-10
0.0 4.8240622e-08 4.8334975e-08 1.8227622e-09 4.0883472e-10 0.0 4.726295e-08 4.8196565e-08
8.2848883e-10 5.631084e-10 0.0 4.8041976e-08 4.815745e-08 2.0351303e-09 3.594407e-10 0.0
4.7013454e-08 4.787825e-08 1.3882091e-09 5.5453325e-10 0.0 4.746068e-08 4.7787445e-08 1.9601751e-08
1.8635354e-10 3.816327e-10 0.0 2.2332847e-08 2.2377852e-08 4.667802e-10 7.704349e-11 0.0
2.2334198e-08 2.2427576e-08 1.2318438e-10 5.794292e-10 0.0 2.2203874e-08 2.2253984e-08 6.250835e-10
1.6506882e-10 0.0 2.2071012e-08 2.2383167e-08 2.8093922e-10 5.969587e-10 0.0 2.2005253e-08
2.2101739e-08 4.6462703e-10 4.1969514e-10 0.0 2.1980515e-08 2.229095e-08 6.28249e-10 3.5891035e-10
0.0 2.184504e-08 2.2028521e-08 8.627589e-09 1.6130956e-10 3.444317e-10 0.0 3.73805e-11

exp_avg f4 [128]
00000000: a083 6537 3327 d837 32d9 7c36 3fe0 d638
00000010: aa26 0e37 c288 fe38 5952 8e38 9a28 9f34
00000020: 68c3 3038 1edb 1138 69a9 3d37 fc56 58b8
00000030: e9fb 1e39 da84 4bb8 35ac ab37 a445 a537
00000040: 2a6e 9d37 014e 7db8 9ae6 c738 aad1 eeb7
00000050: 8ba3 2338 4de5 4938 d5ed 6238 46fc 57b7
00000060: 161e 42b7 a68f d6b7 2fd3 c438 64d8 86b8
00000070: 71c2 a338 b07b be37 92de 6e36 c25a e7b6
00000080: 6062 fbb8 c4b0 6538 cc11 02b8 f267 c735
00000090: 18aa 8cb6 eef7 00b9 b1b0 24b9 7ee6 9438
000000a0: 21de e4b8 3484 3db7 c8db 60b8 7de5 2639
000000b0: 768e 1b38 accc 8b37 0c97 ca36 05e8 19b7
000000c0: 0063 a838 cfc7 a337 7f65 8c38 c105 3c37
000000d0: 2dc0 c437 8ec3 8ab5 3069 f7b7 eef4 94b7
000000e0: 0c29 3738 d313 f0b8 ccca bcb8 2959 abb7
000000f0: 6351 f8b8 0f2a a535 10f2 3237 2e76 9d36
00000100: 3733 d8b7 abbf a8b8 c82a 6bb9 df79 d0b8
00000110: 8dd4 a237 7b46 a3b8 cd82 bcb6 4c71 2039
00000120: b1c7 d335 eb02 28b9 bacd 7bb8 6a73 d436
00000130: 13f8 abb6 ecae 2e39 8d47 2d38 c5a7 f637
00000140: 44dc b536 fef6 6b37 6d1a 9e34 2da0 39b6
00000150: e2f5 6bb8 6a61 3fb7 5ddc 7db8 3035 8a37
00000160: 6339 2138 d2a9 b4b8 c652 cf37 888f a237
00000170: 71e8 3c38 1c88 5538 a1c2 6eb8 658a d3b8
00000180: 09f2 3139 20da c636 59f8 cd36 66ef 6c38
00000190: 6ceb b2b7 3fa2 5e38 ad69 d138 18ca 43b8
000001a0: a355 4535 1fdf 8836 5357 0036 3337 39b7
000001b0: b56b 9738 c6af d3b7 a856 f638 0988 1bb8
000001c0: 70f7 2db8 3606 31b8 ccef 6737 2232 39b8
000001d0: 3465 63b7 6d0f 08b9 a061 10b7 31e2 00b9
000001e0: 42f9 87b7 7e65 9d38 0c2a 1635 2880 fdb8
000001f0: afba f037 e7ce 8d38 fec6 8538 3305 23b9
1.368011e-05 2.576746e-05 3.767735e-06 0.00010246084 8.472862e-06 0.00012137137 6.786426e-05 2.96456e-07
4.2143656e-05 3.4774763e-05 1.1304722e-05 -5.1579424e-05 0.00015161898 -4.85227e-05 2.0464979e-05 1.9701962e-05
1.8767158e-05 -6.0392547e-05 9.532012e-05 -2.8469443e-05 3.901454e-05 4.8135687e-05 5.4104097e-05 -1.2873736e-05
-1.1570306e-05 -2.557768e-05 9.385344e-05 -6.429924e-05 7.808663e-05 2.2707361e-05 3.5594317e-06 -6.894902e-06
-0.000119869364 5.476248e-05 -3.101099e-05 1.4856907e-06 -4.1921267e-06 -0.00012299392 -0.00015706081 7.1001225e-05
-0.00010913262 -1.1296059e-05 -5.361045e-05 0.00015916485 3.7087557e-05 1.6665399e-05 6.0376533e-06 -9.173532e-06
8.0293044e-05 1.9524157e-05 6.694625e-05 1.1207013e-05 2.345451e-05 -1.0338715e-06 -2.9493676e-05 -1.775703e-05
4.3668828e-05 -0.00011447784 -9.0023124e-05 -2.0426307e-05 -0.00011840721 1.2305699e-06 1.0665986e-05 4.6927225e-06
-2.5773055e-05 -8.046565e-05 -0.00022427284 -9.940913e-05 1.9410882e-05 -7.785574e-05 -5.618064e-06 0.00015300995
1.5778843e-06 -0.00016022816 -6.003466e-05 6.3315283e-06 -5.1250768e-06 0.00016659097 4.131305e-05 2.9403609e-05
5.4198626e-06 1.4064599e-05 2.944902e-07 -2.7660383e-06 -5.6257362e-05 -1.1407168e-05 -6.052513e-05 1.647565e-05
3.8438837e-05 -8.6147e-05 2.4714867e-05 1.9378742e-05 4.503917e-05 5.090992e-05 -5.6924884e-05 -0.00010087042
0.000169702 5.926253e-06 6.1383876e-06 5.6489742e-05 -2.132888e-05 5.3080028e-05 9.98558e-05 -4.6679837e-05
7.3512837e-07 4.0790906e-06 1.9124316e-06 -1.1039711e-05 7.220303e-05 -2.5235011e-05 0.00011746335 -3.7081572e-05
-4.147686e-05 -4.2205873e-05 1.3824505e-05 -4.4154127e-05 -1.3553818e-05 -0.00012975717 -8.605799e-06 -0.00012291294
-1.6209324e-05 7.505248e-05 5.594054e-07 -0.00012087851 2.869716e-05 6.7619425e-05 6.3789994e-05 -0.00015546828
