results/firstTest/My Behavior/My Behavior-499984.pt (torch, 185634 bytes, 12 tensors)

network_body._body_endoder.seq_layers.0.weight f4 [128, 41]
00000000: a7b4 563c 0cb3 fe3c fbd9 023d 74f9 0f3e
00000010: e753 1e3e 7a20 e5bc 663f 96bd 348e fbbd
00000020: 72cb e03c 80e1 0cbd 2fe2 23be bf09 54bc
00000030: 21ee babd 0f7a ffbc a7ef 993e 6fe8 d0bc
00000040: 66d6 673d b8a4 803d 39f6 0a3e bfcf 50be
00000050: e57d cf3b 9230 d93d 8b74 4bbe 078d df3d
00000060: 9b81 1cbe 899b 23bc ec93 083e 982f 803d
00000070: a6de e8bc 71d6 4c3e 02b2 44bd 64ed 883d
00000080: 8a98 143e 87ed 2cbd 7a0a aebd e49a 0c3d
00000090: a23f 2fbe 418e d13d c911 3d3d 9628 9c3d
000000a0: 8d06 a83c c27a 2dbe 7b16 1dbe 152f 193e
000000b0: 2567 983e f59f 13be 73e0 12be 5691 ea3d
000000c0: 80aa 93bd b912 103e 5d84 8d3d b8dc 303e
000000d0: 19ee e8bb d30d b1bc 92c5 3fbe 742c 443e
000000e0: 1f8e a7be 5177 bdbc 7f0a 84be e50f a73e
000000f0: 63ec 50be 7193 1e3e dfc2 14be 40ba 99be
00000100: bce0 943d 28ea 6d3e d4a6 cb3c a254 f7bd
00000110: fe27 3c3e c666 823d 6211 263e 8696 5f3e
00000120: b86f f1bc cbc1 86be ade7 ca3c 499f 4abe
00000130: a08d c9bd a7bb 60be 1c8b 893d 83be 073e
00000140: f3e8 10be 74e8 9e3b c22b 583d 000d bb3b
00000150: d44d 5bbe 6539 923d 045b 1c3d 0011 b0bd
00000160: 31e6 52be 6584 bbbe 6b41 cbbd fe94 5abd
00000170: bb20 8e3d 407d 72bd 1347 9d3e 5e8a 883d
00000180: 091a a4bd fab6 043d f14b e23e 89e6 21bd
00000190: 186c 4bbd d62d 4ebd 6954 5d3e dc7e a6bd
000001a0: 6bb5 43bd 4879 163e 0e6a e63d 7965 833e
000001b0: b861 bcbc 66ee 313c ce14 a93c 8c8f 123e
000001c0: 992d 233e f0f8 04bd 492f 9d3c c817 68be
000001d0: f960 b03d 0513 00be 50ad 003e 1ebe 0fbd
000001e0: e404 6f3d a41d bebe 13b4 aabd 5490 f8bc
000001f0: ecb1 b73c 2227 7d3e ac80 863d 699e e73d
00000200: 0409 35be 4d69 48be e5dd a23b 38e2 b5bd
00000210: 304d 33be cd05 5dbd 98b6 2d3e 5abb 073e
00000220: 57d0 053e 8952 15bd 861d 9abd e46b 4f3c
00000230: 94b6 52be fab7 95be 62c4 90be 6a17 0ebe
00000240: 4194 98bd 0b68 9f3d 4e78 afbd 0868 0f3e
00000250: f8d7 85be e639 b2bd b862 843d dd99 83be
00000260: 57f4 97bd 90b3 5abb 63b4 843d 58a7 913e
00000270: c92a 86be e2a4 36bd 665a 9f3d 2974 3a3e
00000280: 92df 83be 3986 9b3d 22e2 c53d 2eaf 843d
00000290: f9e9 403e 929d 133e 7aa4 7abd 6e81 8f3e
000002a0: c47d 2a3e 269a bcbd 0230 633e 2b25 ebbd
000002b0: 10ee 5d3e b6a2 38bd ff34 993d 17f2 d03e
000002c0: f0bb 15bd de24 cebc 80a2 cbbd a6ac 27be
000002d0: fddb 063e 01a3 3dbe e2c7 2abd f92d 2dbe
000002e0: de7b b6bd 9515 233d 710e 613d 4aad 85bc
000002f0: 0e16 8a3e b7cc 7a3e 5e4a 423e 38b3 c03d
00000300: ae35 8d3e c8e3 963e cb2f 86be 9bfd b03d
00000310: ffd8 843d c42a 36be 8ae9 26be a9a8 0c3d
00000320: 3fd2 a83e fad3 373d 5a4c adbd a27b 453d
00000330: 8203 3f3d 2a4d c53e 0ab1 9e3d 0595 98be
00000340: aa47 e0bd 4c4a 6f3e 5096 25be d277 993d
00000350: a090 79be af38 bdbd cf98 953d f839 c33c
00000360: bdb5 9abd ca7d 86bd 29da 3a3e 4531 aabd
00000370: 01b4 d13d 6fa4 613d 32ec 1dbe 4ee1 ea3d
00000380: e53f 88bd 4b66 84bc 4144 99bd c459 663d
00000390: bfdc 4abe 39bd 093c ae85 b5be 96a9 fe3d
000003a0: 4979 fcbd 22ef 093d f23c fdbd 01e3 103d
000003b0: c1ed c43d 467e f1bd a046 e53d 6fe7 983d
000003c0: 1103 13be 4b4e 863e 74c9 783e 763b 6e3c
000003d0: 6a8f b43d d6a3 0fbe 5caf d03d 498d cebd
000003e0: 3568 ec3c bee1 c73c 4263 1bbe 1b95 263e
000003f0: 20b2 2ebe 3fdb 8b3e e2be 4cbd 7ad8 97bd
0.013104594 0.031091236 0.031946164 0.14060003 0.15461694 -0.027969588 -0.07336311 -0.122829825
0.02744076 -0.03439474 -0.16004251 -0.012941777 -0.09127451 -0.031186132 0.30065653 -0.025501458
0.05660095 0.062814176 0.13570489 -0.20391749 0.0063321465 0.10604967 -0.19868676 0.10915571
-0.15283816 -0.009985813 0.13337678 0.06259078 -0.02842648 0.20003678 -0.048021324 0.06685904
0.14511314 -0.04221871 -0.08498092 0.034327403 -0.17114118 0.10232211 0.04615954 0.07624929
0.020510936 -0.1694136 -0.15340607 0.14959367 0.29766193 -0.14416488 -0.14343433 0.11453502
-0.07210255 0.14069642 0.06910012 0.17271698 -0.0071084616 -0.021613037 -0.18727711 0.19157583
-0.32725617 -0.023128184 -0.25789258 0.32629314 -0.20402674 0.15485932 -0.14527462 -0.3002491
0.07269427 0.23233855 0.024859823 -0.12076689 0.18374631 0.06367259 0.16217569 0.21834764
-0.029472217 -0.26319727 0.024768675 -0.19787325 -0.09841466 -0.21946584 0.06715986 0.13256268
-0.14151363 0.004849488 0.052776106 0.005708337 -0.21416408 0.071398534 0.038172737 -0.085969925
-0.20595624 -0.36624447 -0.09924587 -0.053364746 0.069398366 -0.05920148 0.30718288 0.066670164
-0.08012778 0.032401063 0.44198564 -0.039526496 -0.049663633 -0.05033668 0.21614231 -0.08129665
-0.047780436 0.14694703 0.11250697 0.25663355 -0.022995815 0.010860061 0.020639803 0.14312571
0.15935363 -0.032463968 0.019187586 -0.22665322 0.08612246 -0.12507255 0.12566113 -0.03509342
0.058354273 -0.3713199 -0.08335128 -0.030342259 0.022423707 0.24721959 0.06567511 0.11309511
-0.1767922 -0.19571419 0.0049702995 -0.088810384 -0.17509913 -0.05396061 0.16964185 0.13255063
0.13067757 -0.036455665 -0.075251624 0.0126600005 -0.2057746 -0.29241925 -0.28274828 -0.1387612
-0.07450152 0.077835165 -0.08567868 0.14004529 -0.26141334 -0.087024495 0.064641416 -0.25703326
-0.07419651 -0.0033371188 0.064797185 0.28447986 -0.26204517 -0.04459084 0.07780914 0.18208374
-0.25756508 0.0759396 0.09662272 0.064787254 0.18839253 0.14415577 -0.061192013 0.28028435
0.16649538 -0.09209089 0.22186282 -0.114816986 0.21672845 -0.04507705 0.07480811 0.408097
-0.036556184 -0.025164064 -0.09943104 -0.16374454 0.13169856 -0.18519212 -0.04169453 -0.16912068
-0.089103445 0.039815504 0.054945413 -0.016317982 0.2696995 0.24492155 0.18973681 0.09409183
0.27580017 0.29470658 -0.26208338 0.086421214 0.06486701 -0.17789751 -0.16300026 0.034340534
0.32972905 0.04487989 -0.084618285 0.04821361 0.046634205 0.38535434 0.07748611 -0.29801193
-0.10951169 0.23368186 -0.16170621 0.07493557 -0.24371576 -0.09239327 0.073045366 0.023831353
-0.07554195 -0.06566961 0.18247284 -0.08310179 0.10239411 0.055088457 -0.15422133 0.11468755
-0.06652812 -0.016162058 -0.074837215 0.05623795 -0.1981077 0.008406931 -0.35453552 0.1243469
-0.12327821 0.03367532 -0.1236514 0.035372738 0.096156605 -0.11791663 0.11195111 0.074660175
-0.14356638 0.26231608 0.24295598 0.014540544 0.088164166 -0.14027342 0.10189697 -0.10085542
0.028858284 0.024399634 -0.15174583 0.16267817 -0.17060137 0.2731571 -0.049986728 -0.074143365

network_body._body_endoder.seq_layers.0.bias f4 [128]
00000000: cc00 213b 8acd a3bb 18f8 4abc f49f 893c
00000010: 7b9d 593c 36ef 1cba 948b 48bb 6fd8 11bc
00000020: 1cf1 afbb 4c30 da3c 807c 52bc 7cbd 3d3c
00000030: 3f83 2a3b bf60 553c dd46 213b 643d 6c3a
00000040: d7ef 62bb a15f 8e3c 2014 d63b 4746 3c3c
00000050: 0f1c 273b b22f 70bc 5d30 bd3b e02f 3cbb
00000060: c76b 363c 7816 14bc 593d 88bb 78ca a43b
00000070: e4a4 f2bb 7ba5 abbb 114c 593c 29f1 83bc
00000080: 7d14 953b 0387 2ebb 7efe 3b3c 72f3 fa3a
00000090: ca4d 76bc f1a7 813c 68e7 9d3c 443a 993c
000000a0: 961b a6ba 7ecc 393c df0f 903c a85f 553b
000000b0: 1e53 363c 974a a33c fd76 a33b d783 4bbb
000000c0: b858 03bc 1e4d 17bc c42d a5bb 72c9 adbb
000000d0: 29ac d33b 6ae0 07bb f02f a03b 6866 523c
000000e0: b1f1 56bb 4795 c83c f5ff 11bb 4f1f 893c
000000f0: 1789 343c 4653 a2bc 9219 cc3b 408b 4fbc
00000100: 847a 9c3c e8a3 af3c 0a1e bb3c f754 703c
00000110: 1391 9a3b e8c3 be3a ef01 74bb 23db a6ba
00000120: 3e2c 9dbc a20a c5bb 00e9 573c f601 703c
00000130: d0d1 32bc 88b3 90bb fb3b c5bc 8ff9 7c3c
00000140: 5313 d4bc a16c 693a 0bce 6bb8 75f4 f53b
00000150: b956 2b3c 49aa a6b9 71cf 343c 1b5c 52bc
00000160: 82e5 23bc 3422 043c 84c2 e3ba a455 f0bb
00000170: b867 65bc 4a46 adbb 5392 d0ba 1765 333a
00000180: e99e 223a 79d7 d53b 0434 6fbb 09c5 11bc
00000190: 78aa 413c d640 26bc a83e 8e3c db48 ce3b
000001a0: 1eb6 5ebc 60ad 063c a43a 71bc 71aa 2f3b
000001b0: 7779 1a3c 6c7d ca3b 68ca ae3a f5ee 883c
000001c0: 0414 a93c cd63 d53c bb53 293b cdcb f73a
000001d0: 5418 253c f9e7 153c 3f4b 06bc ee27 543c
000001e0: 5169 b73c fed4 99bc bc97 41ba 2187 913c
000001f0: 64d7 03bc 00ac 86bc 1304 683b 4993 523c
0.0024567125 -0.0049988674 -0.012388252 0.016799904 0.013282175 -0.0005986573 -0.0030600773 -0.008901699
-0.0053693186 0.026634358 -0.012847066 0.011580821 0.002601817 0.013023554 0.0024608888 0.00090118335
-0.003462782 0.017379584 0.006533161 0.011491365 0.0025498902 -0.014659809 0.0057735876 -0.002871506
0.011134095 -0.00903856 -0.004157704 0.005029019 -0.0074049104 -0.0052382327 0.013262765 -0.016106205
0.0045495615 -0.0026630766 0.01147425 0.0019146039 -0.015033195 0.015827151 0.019275382 0.018704541
-0.0012673016 0.011340259 0.017585693 0.0032558236 0.011128215 0.019933028 0.0049885497 -0.0031053924
-0.008016758 -0.009234695 -0.005040856 -0.005303555 0.006459732 -0.0020733126 0.004888527 0.012841798
-0.0032797868 0.024485243 -0.0022277806 0.016738562 0.011019013 -0.019815098 0.006228634 -0.012667477
0.019101389 0.021440461 0.022841472 0.014668695 0.004717001 0.0014554234 -0.0037232598 -0.0012730103
-0.019186135 -0.0060132304 0.01317811 0.014648905 -0.010914281 -0.004415933 -0.024076452 0.015440359
-0.02588812 0.00089044316 -5.622026e-05 0.007505948 0.010457688 -0.0003178886 0.011035786 -0.0128393425
-0.010003449 0.008064795 -0.0017376696 -0.007334428 -0.014001779 -0.00528792 -0.0015912749 0.00068433717
0.0006203489 0.0065259305 -0.003649951 -0.0088970745 0.011820428 -0.010147294 0.017363861 0.006295306
-0.013593225 0.008220047 -0.014723454 0.0026804472 0.009428374 0.0061795022 0.0013335468 0.016715506
0.020639427 0.026048565 0.002583726 0.0018905342 0.010076601 0.009149545 -0.008196651 0.012948973
0.022389086 -0.01877832 -0.0007384976 0.01776463 -0.008046959 -0.016439438 0.003540282 0.012852498

network_body._body_endoder.seq_layers.2.weight f4 [128, 128]
00000000: d54d 7ebd 5aa9 c83c ad8d 373e 4116 3b3e
00000010: b5cc dabd cfac eaba 9e46 de3d 09ab 40be
00000020: 57e1 c2bd e699 823d ec63 3b3e 6006 bc3d
00000030: 8b92 63bd a32b d53b 3b93 f1bd 869b d6bd
00000040: 575e 02bd 8677 06bd de5b 54be b501 10bd
00000050: bbda 3ebe f70b ffbc b4b3 88bd d710 d33d
00000060: ab09 25bd da87 b63d db72 16be ff71 623d
00000070: aba4 2a3c 78fb 013e 0ce5 f4bc fd0d 793e
00000080: bad5 5c3b f8a2 b8bd 0efe d1bb f04d 743b
00000090: 1c29 08bd c6be a83c f0a3 0abe 4c7a 59be
000000a0: 5367 403d 7ef4 ce3b 4a90 283d 4ae2 743d
000000b0: 9d8c 82bd 2dbb b23d 37ea 7e3e f64d 31bd
000000c0: 7135 94bd 15ce b43b 23eb 0b3e 9097 e13d
000000d0: 247f 81bd c8d0 24bd c913 f1bd 834f 91bd
000000e0: 1eb5 87bd dad2 5f3d 6b30 c1bd 95b2 c33d
000000f0: 5c97 ae3b 1dd5 263d 5a7e c6bc 2030 593c
00000100: ec92 8d3b 9f4d ccbd f58d 21bd 651f acbd
00000110: 6d85 863d 3137 293e 30ab 14bd 9218 51be
00000120: 5bd4 893c 0706 d73d 06c6 2b3c bbed 7fbd
00000130: a2ab 013e 46eb 6bbb 7fff 733e 260a 9cbd
00000140: efb0 20bb c7eb 8c3e 67a0 a6bd 8408 c7bd
00000150: 7172 953c 34bb d3bc 9992 973d c105 12be
00000160: f451 fa3d ba97 4bbc 046e 143d 0466 ac3d
00000170: 793d 133d 899e 2c3e fc7e 46bd c9bb 773b
00000180: 4b53 52bd e2aa 9e3d 9636 c4bd 5c1e 43bd
00000190: ad89 fcbd 7d69 2e3c 859e 06bd 2373 dfbc
000001a0: 456f 053e 2ad5 413d dfc9 aa3d b89e db3c
000001b0: b683 dabd 1b15 0ebb 8de3 843d 4e95 3fbe
000001c0: 5319 bbbc a304 ddbc 7003 0fbe 09fa 5dbd
000001d0: ddd2 92bd 38ee 5c3c 559b 27bc 1475 cfbd
000001e0: f887 ac3d 71e6 52bc 7bf9 013e d3a5 fe3b
000001f0: 1fd0 62bd b16f 833c 993f afbc a9ae acbd
00000200: 54cb 8ebd 53ac d2bd 1a2d 523e ab44 853d
00000210: 19f8 013e f0bb f83d b936 583c fa85 48bd
00000220: abeb bc3d 5a4a 443d 3e8c 273e db0d 92bb
00000230: 24eb 123d 5bf9 7f3c 0083 183d 4695 3e3d
00000240: 38ab 093e c53e 08bc 50fd 40bd d54b 9b3c
00000250: b761 6b3d 7235 25b9 e0ca aabd 39d4 9b3d
00000260: 1f70 46bc 303d 1e3d 6cc7 823d 45fe 4ebd
00000270: 789c 69bd 1827 1e3d 7c72 7c3d 2229 6dbd
00000280: d6bf a03b 4f30 6b3e 09cc 69bd a9dd ba3d
00000290: edeb f73c 2040 eb3d adbb 74bd 36e9 49bd
000002a0: 122b ad3c 3517 663d 0043 e5bc 2343 c3bc
000002b0: 6eb1 e9bc e20f 0fbd c313 e1bd 3608 493e
000002c0: a60b 6d3e 5377 4e3c a6bd 9a3c e9b4 02be
000002d0: be7a 9cbc fcb0 41bc 3148 cb3d 1874 debd
000002e0: af98 a9bb 6bbc d5bc f663 cebd 7a50 bcbd
000002f0: 64da 9a3d d31a 373d 49ca 09be b570 a73c
00000300: a49f 7d3d 8f5f 5dbe 0855 cc3d 39f4 0f3e
00000310: 3e73 27bd b16e 98bd c92f efbc 19dc 2d3b
00000320: cbe6 693d 4994 743d fcfd 8b3c fc24 73bb
00000330: b482 ae3c 7c6a e83d 182d e53d 4b2b 043e
00000340: fe91 4b3d c8a4 b03d 9a89 cf3d fccc df3d
00000350: ba3d ed3d 2258 c03d 9a00 bd3c 587f bc3d
00000360: b32a bbbd 330c fbbb 378e 2e3d 1a10 a7b9
00000370: 51e5 d3bd 6dd4 b63c d1a0 b5bd 7cea 863d
00000380: 77ab 173d 01d4 583e e78d acbd 132f 48bd
00000390: eb9e f2bd 4687 0c3e ee20 233d 996c ec3c
000003a0: deaa 4f3d b7f2 43bd c8db ac3d c4a3 82bd
000003b0: b396 14bd 686c b23c a06e 48bd 709b 8e3d
000003c0: bf2f 7f3d 2efe dc3b 1a61 d53d 5975 cd3d
000003d0: 8588 13be c2d5 49bc ddc8 913d 35ba 9fbc
000003e0: 03d6 953d 4454 a4bd e5d4 48bc 2a08 b93d
000003f0: 749d 4dbd 3d87 1ebd 1233 e43c 98f1 483d
-0.062085945 0.024494816 0.17925139 0.18270208 -0.10683576 -0.0017904284 0.10853313 -0.18815245
-0.095156364 0.0637701 0.18299836 0.091809034 -0.055559676 0.006505446 -0.1179566 -0.104788825
-0.03182825 -0.03282883 -0.2073817 -0.035157878 -0.18638127 -0.031133635 -0.06674901 0.10305946
-0.040292423 0.089126304 -0.14692251 0.055284496 0.010415236 0.12693584 -0.029894374 0.24321742
0.0033696727 -0.09015459 -0.0064084595 0.00372779 -0.03324233 0.02059878 -0.135391 -0.21238059
0.046973538 0.006315767 0.04115323 0.05978612 -0.06374476 0.08727107 0.24894033 -0.04328724
-0.07236756 0.005517731 0.13663916 0.110152364 -0.06323078 -0.04023817 -0.11771352 -0.07095244
-0.06626342 0.054644443 -0.09433063 0.09555546 0.005328102 0.040730584 -0.024230171 0.013256103
0.004320493 -0.099757425 -0.03944202 -0.084044255 0.06568418 0.1652496 -0.03629607 -0.20419529
0.016824892 0.104991965 0.010484224 -0.062482577 0.12663129 -0.0035998388 0.23827933 -0.07619123
-0.0024519523 0.27523634 -0.08136063 -0.09718421 0.018243046 -0.025846101 0.07401008 -0.14260007
0.122226626 -0.012426311 0.03623773 0.084178954 0.035947297 0.16857351 -0.048460945 0.0037801138
-0.051348966 0.07747437 -0.09580724 -0.047636375 -0.12330947 0.010645268 -0.03286602 -0.027276581
0.13030727 0.04732243 0.08339285 0.026809081 -0.10669653 -0.002168006 0.06488714 -0.18709299
-0.022839224 -0.02697975 -0.13966155 -0.05419353 -0.07169125 0.01348453 -0.010229905 -0.10129753
0.084243715 -0.012872324 0.12692825 0.0077712326 -0.05537426 0.01604447 -0.02139263 -0.08431751
-0.069723755 -0.102867745 0.20525017 0.06507238 0.12692298 0.12145221 0.013196641 -0.048955895
0.092246376 0.04792247 0.16362092 -0.004457218 0.03586878 0.015623416 0.037234306 0.046529077
0.13444221 -0.008315747 -0.047116578 0.018957058 0.057466235 -0.00015755536 -0.083394766 0.07608838
-0.012111693 0.03863257 0.06385693 -0.05053546 -0.057033986 0.0386115 0.06163262 -0.057900555
0.004905681 0.22967647 -0.05707935 0.091243096 0.030263865 0.1148684 -0.059749294 -0.049294673
0.021138702 0.056174476 -0.02798605 -0.023835724 -0.028526988 -0.034927256 -0.109900974 0.19632038
0.23148975 0.012601691 0.01888926 -0.12764324 -0.019101497 -0.0118219815 0.09925879 -0.10861987
-0.005175672 -0.026090821 -0.1007766 -0.09195037 0.07561186 0.044703316 -0.13456072 0.020439485
0.061919823 -0.21618484 0.09977156 0.14058007 -0.040881388 -0.07442988 -0.02919759 0.0026528894
0.057104867 0.05971173 0.017088883 -0.0037100902 0.021302558 0.11348435 0.111902416 0.1290714
0.049699776 0.086251795 0.10133667 0.109277695 0.11584039 0.0939181 0.023071576 0.092039764
-0.091390036 -0.0076613664 0.042616095 -0.0003186472 -0.10346473 0.02231809 -0.08868564 0.06587693
0.037028756 0.21174623 -0.08425503 -0.04887302 -0.118467174 0.13723478 0.039826326 0.028860377
0.05070006 -0.047838893 0.084403574 -0.06378892 -0.03627653 0.021780208 -0.048933625 0.06963241
0.062301394 0.006744168 0.10418911 0.10032148 -0.14407547 -0.01231903 0.0711839 -0.01949797
0.0731621 -0.08023885 -0.012257789 0.0903476 -0.050198987 -0.038703192 0.027856383 0.049058527

network_body._body_endoder.seq_layers.2.bias f4 [128]
00000000: b674 45bc 8a6d 11bc e177 223c 0dd6 35ba
00000010: bf69 9638 2696 1dbc 3fb1 1a3c 1a65 02bc
00000020: ce28 76ba 39fc 1b3b 7978 1dbc 37fe c33b
00000030: 4499 82bb e073 3bbb 3286 b0bb 6c7f b13b
00000040: 7090 1ebc a1a8 99ba 969c 6c3b ec6c 4bba
00000050: a202 a63a d72d c03b 6215 c3bb a501 bdbb
00000060: fb85 0fbc 8ebb 9f3b 0930 0fbc fa9b c8bb
00000070: 0b58 2cbb 90c8 91bc 33d7 09bc 487b 2c3b
00000080: 56c5 e739 e309 0a3d cb4f 2f3c 4751 debb
00000090: ed9b 173c 07e9 c0bb 7f5d 4e3c 794b 443b
000000a0: 48b8 c73a 2068 243c d97f 263c d83d 83bb
000000b0: 177e 533c 2444 243c 0f76 56bb 967b e43b
000000c0: 6e9e 55bc 79a4 ba3c bccc e03b 8c2b 063c
000000d0: 9966 423c 980f 343c 97a1 623c c45d 36bc
000000e0: c61d bf3c 5ca6 943c 7f6d ba3c 8ccd 833b
000000f0: 5aaf 263c ee0d 813c a223 913c 48ed a53a
00000100: 56fe 04bc fa87 02bc cff3 62bc e4f0 b43c
00000110: b0a4 9bbb b2b2 833c a04c 29bc 0e45 e73a
00000120: 8424 37bb 3601 c2bb 1385 35bb 98ce e0bb
00000130: 0e56 07bc c302 543c 6c5c 043b d169 4bbc
00000140: e8f0 273c 3894 11bc 34cd f6ba e0c4 a33c
00000150: 3b21 d9bb f58a da3b dc42 c43b a8be 5abb
00000160: 29fc 09bb d607 c53c f901 dd3b c1b5 25ba
00000170: debc da3c 5b30 66bb 6255 06bc 7628 22bc
00000180: 0876 dcbb 98d2 88bc 6571 ac38 34ac 23bb
00000190: 18a7 923c a29f 193b 2997 0fbc 1974 273c
000001a0: ed70 383a f3d8 de3b d02d 003b 8ef3 ac39
000001b0: 8b35 073c ac81 77bc a705 35ba 8c5b 273c
000001c0: 62f1 2b3c 1bc7 f03b a4fd 033c d330 ca3a
000001d0: 7bce 3d3c 4a6a 053c 7b23 423b 15f4 95bb
000001e0: 39c2 b33c cc1f 743c 2220 6a3c e7a3 c3bb
000001f0: 634d 7cbb 2b65 52bc a39e a03b ce89 3b39
-0.012051752 -0.008876214 0.009916277 -0.0006936498 7.172254e-05 -0.009618318 0.009441673 -0.007958675
-0.00093902356 0.002380146 -0.009611242 0.0059812325 -0.003985556 -0.0028603002 -0.005387091 0.005416801
-0.009677991 -0.0011723229 0.0036104075 -0.0007760066 0.001266558 0.0058648395 -0.0059534768 -0.0057680183
-0.008759971 0.004874653 -0.00873948 -0.0061221095 -0.0026297595 -0.017795831 -0.008413124 0.0026318599
0.0004420678 0.033700835 0.0107001765 -0.0067845914 0.009253484 -0.005887154 0.012595533 0.0029952212
0.0015237415 0.010034591 0.010162317 -0.004005175 0.01290848 0.010026012 -0.0032724177 0.0069727404
-0.013038261 0.022783505 0.0068603437 0.008189093 0.0118652815 0.010990046 0.013832471 -0.011130754
0.023329627 0.018145733 0.02275729 0.004022306 0.010173643 0.015753713 0.017717186 0.0012659216
-0.008117279 -0.00796699 -0.013852074 0.022087522 -0.004749857 0.01607642 -0.01033321 0.0017644481
-0.002794535 -0.0059205545 -0.0027697727 -0.0068605654 -0.008260263 0.012940112 0.002019669 -0.012415365
0.010250308 -0.008885436 -0.0018829466 0.019991338 -0.006626276 0.006669397 0.0059894156 -0.00333778
-0.002105484 0.024051588 0.00674462 -0.0006321334 0.026701387 -0.0035124037 -0.008199068 -0.009897342
-0.0067279376 -0.016701981 8.2227205e-05 -0.0024974467 0.017901942 0.0023441096 -0.008764067 0.010220551
0.000703587 0.0068007647 0.0019558556 0.0003298786 0.008252512 -0.0151066 -0.00069054443 0.010214698
0.010494562 0.007347954 0.008056078 0.0015425928 0.011584873 0.008143017 0.0029623199 -0.004576216
0.021943199 0.014900159 0.014289888 -0.0059704664 -0.0038498275 -0.012841503 0.0049017235 0.00017885046

action_model._continuous_distribution.log_sigma f4 [1, 2]
00000000: 0000 0000 0000 0000
0.0 0.0

action_model._continuous_distribution.mu.weight f4 [2, 128]
00000000: f2ad 2b3a 8b2e 11bc b072 6c3b 3f05 3b3c
00000010: d8bb d6bc dfc3 a2bb 57a3 efbb 39fc b93b
00000020: 1c88 063c 665f 1abd 049f 133c e3f1 6439
00000030: 33c3 63b9 bb3d d43b 0586 583c 3f15 913c
00000040: 9300 773b 6393 dcbb 4baa 01bd 702c 6f3c
00000050: 5d29 9e3c ac0b 15bc a33f ca3b 0fa1 933c
00000060: 5262 1ebd a252 93bc be5e 1c3b 0243 153c
00000070: 5d8e e6bc 2a28 c2bc 411d b8bc 6d1e fabb
00000080: c514 06bb 48b9 b6bb 7f9f a8ba 4bc7 fe3b
00000090: b890 793b 3dc2 043d c0a3 0a3c 74da 0ebd
000000a0: 0d4f 433b f2bb 94bc 62b2 6c3c df2a 353a
000000b0: eb5b 19bd 7366 8dbc 729b 96bc 632f cabc
000000c0: 1f26 11bc b347 9d3c 284a f2bb bc10 ccbc
000000d0: 7f9b 743b 93bc e23b 1fb2 f23c 2501 9a3b
000000e0: 93ba c3ba 4b17 5abb 8322 f03c 8520 233c
000000f0: edb9 5d3b 187b ec3c d3c1 3e3c d300 6d3c
00000100: fb0d 1dbc d32f 3fbb 6924 99bb d953 b4ba
00000110: 6a84 65ba 2994 9bbc 35df 723b 1626 283b
00000120: 2aab e43b 001f 4f3c 4a7a 7bbc 4c9e 1d3b
00000130: 4175 b9bc 9849 cdbb d843 7c3b f36f a1bb
00000140: 289b 3ebc 9e03 c43b ef42 b3bc 407b ef3c
00000150: e840 21bd 966b 37bc 770c 433c 7fc7 ecbb
00000160: 7ff9 523a f7dd 6bbc 3eac 1d3c 1792 133a
00000170: 6514 dabb 8bdf 4b3d ead4 4fbc f31a 7c3b
00000180: 5069 de38 64cf 3f3c f21c 1f3d 18b9 64b8
00000190: 273f bcbb 69a7 083b c75a 91bc 5db1 64bc
000001a0: 0787 103c b75c 6c3c e572 5fbc cfe6 afbc
000001b0: 3e42 30bc 3c2d a13c 3255 d5bc 1063 f93b
000001c0: 7809 e2bb eb2a 863c dbb1 9e38 2752 843b
000001d0: 9a88 f3bb 83a3 76bc 7b24 25bd 0806 553c
000001e0: 5389 57bc 0759 20ba cbe7 8fbb db23 42bc
000001f0: 0300 b93c 31e1 9cbc 1777 553c 5294 4abc
00000200: d79f af3c 4a62 c3bc e3d9 c73c 9bd7 25bb
00000210: 50d3 593b 7b3f 603b dbf8 c0bc cf1e e33a
00000220: e27c 17bb c51d f73c 52dc f23b d1b6 b3bc
00000230: 3341 6c3c 6e83 c73c 71ee 3bbc f56b 59bc
00000240: 5305 5ebc 51f8 bdbc d74a 153d 49b7 1b3d
00000250: 459c 82bc 7cdb 973b 4be1 e13c 03c4 99bc
00000260: 3340 ee3b 7099 d2bc 5714 abbb 63fb dd3c
00000270: 0300 1abd 1a76 793b c0e9 a8bc ea8f 7abd
00000280: e916 bfbb 9c3d 963c adda b83a 33e2 b3bb
00000290: a718 d7bc 1074 143d 39ce 41bb bd7b 203b
000002a0: 1dd8 643b f123 893c 7e59 213d cbc4 91bc
000002b0: 2865 5f3b 8634 05bc 77ee f2bb bfc3 20bc
000002c0: 5bdf 2fbb 1934 c5bb f38d f6bb ab66 f23b
000002d0: 8028 db3b 9bd7 6b3b 6029 86bc 3b29 f9ba
000002e0: 427f a5bc c6f6 a0bb 0bd5 503c 820b 073c
000002f0: dc40 09bb da36 b43c 9518 84bc c774 ddbb
00000300: f82f e1ba ad1d f2bb f3b3 653c 1dea 93bc
00000310: d531 1dbc 05ed 5cba d3f1 ac3c 30f9 d6bc
00000320: c205 cf3b 3b9b e3bb 49ab 49bb e175 abbb
00000330: 842c 4c3c 2e65 213c 7417 cc3b 17bc 583b
00000340: e3d6 11bc 12b5 923b cd2d 0cbb caf1 7c3c
00000350: 9f44 98bc 007e a03c 03d9 013d 2846 eb3c
00000360: 893d a1bc 503c 76bc ea28 183d 0fba c73a
00000370: 3b52 153c 8fca 39bd ba70 06bd 95ca 963c
00000380: ce80 453c c968 293c f80f d13c eceb 363b
00000390: 3cc9 8d3c 13b4 6a3c c88c 09bb 973c 92bb
000003a0: d0f1 99bc ed74 523a bda6 1e3c 7b09 123d
000003b0: b033 47bb 63c9 41bd 10ae d73c 1718 e4bc
000003c0: 7b28 1fbc 3b32 96bc 07b0 a5bc f487 41bc
000003d0: 1a63 683c d3ff 1bbc 9537 d8bb 0795 7bbc
000003e0: 40ed 37bc 9647 9b3b 735d d6bb b704 0ab8
000003f0: b0ea 8fbb 4baf 5abc 93d7 3f3c 1f71 693c
0.0006549052 -0.008861194 0.0036079101 0.011414825 -0.026212618 -0.0049671973 -0.007313173 0.0056758192
0.008211162 -0.037688635 0.00901008 0.00021833884 -0.00021721124 0.0064770854 0.0132155465 0.017710326
0.0037689551 -0.006731437 -0.031656545 0.014597997 0.019306833 -0.009097021 0.006172137 0.018021135
-0.038667984 -0.017983738 0.0023860182 0.009110214 -0.028144056 -0.023700792 -0.022474887 -0.0076330216
-0.0020459157 -0.0055762865 -0.0012864916 0.0077752224 0.0038080644 0.032411803 0.008461893 -0.034876302
0.0029801757 -0.018156026 0.014446827 0.00069109903 -0.037441175 -0.017260766 -0.018384669 -0.024680799
-0.008859186 0.019199228 -0.007394094 -0.024910323 0.0037324128 0.0069194525 0.02962595 0.0046998435
-0.0014932923 -0.0033278044 0.029313331 0.009956484 0.0033832744 0.02886729 0.011642891 0.014465529
-0.009585853 -0.0029172793 -0.00467353 -0.0013757899 -0.0008755388 -0.018991547 0.0037059311 0.0025657467
0.006978412 0.012641668 -0.01534898 0.002405065 -0.022638919 -0.0062648766 0.0038492586 -0.0049266755
-0.011633672 0.0059818765 -0.021882502 0.029233575 -0.03936854 -0.011195084 0.011904827 -0.00722593
0.0008048042 -0.014396182 0.009623585 0.0005629374 -0.0066552632 0.049773734 -0.01268504 0.0038468211
0.00010605401 0.011707161 0.038845964 -5.4531818e-05 -0.005744833 0.0020851737 -0.017743481 -0.013958302
0.0088212555 0.014426402 -0.013638233 -0.021472363 -0.010757981 0.01967489 -0.0260416 0.007610686
-0.0068981014 0.016377887 7.567155e-05 0.0040381136 -0.0074320557 -0.015053633 -0.040317994 0.013001926
-0.013155299 -0.0006116782 -0.0043916455 -0.011849369 0.022583013 -0.019150348 0.0130288815 -0.012364464
0.021438522 -0.023850579 0.024395889 -0.0025305513 0.0033237524 0.0034217525 -0.023556164 0.0017327907
-0.0023115207 0.030165562 0.007411518 -0.02193776 0.014419842 0.024354663 -0.011470423 -0.013270368
-0.013551074 -0.023189696 0.036448326 0.03801659 -0.015943656 0.004634319 0.027573248 -0.018770223
0.0072708367 -0.02570793 -0.0052209306 0.02709741 -0.037597667 0.0038064779 -0.020619273 -0.061172403
-0.0058315885 0.018339925 0.0014103256 -0.0054896115 -0.026256872 0.0362435 -0.0029572381 0.0024487816
0.0034918853 0.016740771 0.039391987 -0.017794034 0.0034087393 -0.008130198 -0.007413681 -0.0098122945
-0.002683601 -0.0060181734 -0.007524246 0.007397493 0.0066881776 0.0035986665 -0.016377151 -0.001900948
-0.020202283 -0.00491223 0.012746106 0.00824249 -0.00209432 0.021998812 -0.016125003 -0.0067583057
-0.0017180433 -0.0073887915 0.014019954 -0.01805597 -0.0095944 -0.00084276526 0.021111405 -0.026241869
0.006317825 -0.006945995 -0.003077226 -0.005232558 0.012461785 0.009850783 0.006228382 0.0033071095
-0.008901331 0.0044771517 -0.0021389604 0.015438506 -0.018587409 0.019591331 0.0317011 0.028719977
-0.019682663 -0.015029028 0.037148394 0.0015237945 0.009113844 -0.04535919 -0.03282235 0.018407146
0.012054635 0.010339924 0.02552031 0.0027911616 0.01730787 0.01432516 -0.0020988453 -0.0044627893
-0.018792063 0.00080282876 0.009683308 0.035653573 -0.0030395798 -0.047311198 0.026328117 -0.027843518
-0.009714241 -0.018334499 -0.020225538 -0.011812199 0.014183784 -0.009521442 -0.006598423 -0.015355355
-0.011225998 0.0047387583 -0.0065419017 -3.2906155e-05 -0.0043919906 -0.013347457 0.011709112 0.014248162

action_model._continuous_distribution.mu.bias f4 [2]
00000000: 0000 0000 0000 0000
0.0 0.0

network_body._body_endoder.seq_layers.0.weight f4 [128, 41]
00000000: 6cbe fd3d 05a8 f03d 7464 6f3e ee8d e63d
00000010: 692d 62bb 6b9d 42be 5180 2f3e 5b75 253d
00000020: bf54 113e 883a 9f3e 02d9 7f3d 98d4 4b3d
00000030: 4986 00bd 9ac6 a6bc c112 053e 85f7 28be
00000040: 21b2 8a3e b282 3b3e 9328 aabb 68ea 243e
00000050: b3b0 42be 0bdf dd3d 7ba4 da3c dd9c 79be
00000060: 3bd1 0b3b edb9 093e 8081 9b3c 553b c3bd
00000070: dc18 a33d 7c55 bfbd 7b20 10bd 158c 703d
00000080: 8ad7 67be c3d3 b83c d668 0d3d 7553 a4bc
00000090: d1bf 993d 9c2f f0bb 3d8f 20be c29e c03c
000000a0: 7c8c 163e 9775 f7bb 26da 99bd 98e8 77be
000000b0: 4032 953c 5022 64bb 5e17 683e 4d64 6ebe
000000c0: c6e1 33be dc70 08bd f244 a03c 5fe2 913e
000000d0: 6f9c 27bd f510 b23d 48e4 07be 9da3 febb
000000e0: c719 bd3d e70c 183b b5aa 38bd bd6e 6d3c
000000f0: 8457 47be e833 4a3d 1192 f83c ce24 b6bd
00000100: 2e03 98be 4038 87be f58c 143e f93f 35bd
00000110: 63ff 113e 066e f13d 6e13 dbbd e40f 133e
00000120: 7a19 54be d3d5 43be 5629 103c a969 bfbd
00000130: 084d 15be 4831 313e 6bb9 2b3d 8450 423e
00000140: a835 5fbd a627 23be b486 823d d19e 703e
00000150: 7fdc 0b3e 077a 463e d660 2e3e 4879 783d
00000160: 7633 7b3d cf5c 0abe e29e 59be e779 b23d
00000170: 0de2 ebbe 2986 9c3c f483 91bd 6cb4 f43d
00000180: f041 e73e 51ba eebd 4857 bc3d 5cd5 b4be
00000190: 4d1d b03e e766 a33d a7cf 91be d491 fcbd
000001a0: 8132 0cbe aacf a53d 20a9 863d 8d18 953d
000001b0: 0cb3 363e db84 a5b7 6f3a 98bd a13d 7bbd
000001c0: ac36 d63d 4d0c 97be d2ba 79be 473d d73b
000001d0: 4915 8dbd 9d2d 6bbd cf72 08be 8677 963c
000001e0: fb2a 44be f9cd 0cbe f03a 3cbe d354 9b3d
000001f0: 97eb 903d 5db0 54bd 1bd0 0bbd 2f5c 9c3e
00000200: b95a ccbb 9fac 05bc 79de 243e 2832 38be
00000210: 460e bdbd 2ac4 7abd 29bb 203e 3835 b2bc
00000220: e53c 203e ea7a 6a3d 3e46 5a3e 61ef 843c
00000230: eb18 6bbe 06c2 b4bc 82fc 63bd 5404 8abd
00000240: f80a 2dbe 8702 1abe d0cd 523d 1f60 80bc
00000250: a3d1 953d 06a9 17bd 4e72 51bd 849a c3bd
00000260: 2879 db3d 188a 7bbe 6217 c63d d63a 7ebd
00000270: 3d08 b53c f72f 72bd da29 07bc 749a 52be
00000280: e1dd 293e 73bc fa3b 5394 2abe b2d4 60be
00000290: e0ce fdbd 6ba9 15be be2a 5e3d 3d3a 38be
000002a0: c10e 5dbd 9e45 453e 7d4d 3ebe 7c0e dc3d
000002b0: d514 523d f938 61be 729d 063d 946e 62bd
000002c0: a243 8d3e c355 2e3d 2d36 07be 5fc7 a3be
000002d0: 32d9 c8bd 9802 523d f584 0e3d 3923 043d
000002e0: d72b ab3d f0f3 3b3e 6b43 b2bd 87f1 5e3e
000002f0: eaa0 f23c 286d fb3d e104 163c 2e1b e23d
00000300: 1202 8fbd 1f04 60be 444d 9a3c bff2 293d
00000310: 9b80 353d 855c 1cbd d739 a7be d108 9f3d
00000320: 3cd7 2bbd 6d97 25be de60 80be 055a 733d
00000330: adf5 1ebe 8157 253c eb7d 2a3c ec72 93bd
00000340: 9d0c aa3e 3fbb 16bb c8e4 a2bd 6547 9e3c
00000350: ceca 4c3e 613d 7a3d d409 cc3d 2ebc d9bd
00000360: 9b74 36bd 1f99 dcbd 1852 993e 3ea7 d83a
00000370: fefd 2e3e f694 a13e d006 58bc 5fe5 dabd
00000380: 6d7f 5fbe 44d2 ebbc e840 ffbd 3f92 f7bd
00000390: 70b0 813d 04fe 6dbe f73c 3fbe 6792 203e
000003a0: a07e 55bd 6146 0c3e 5b0a 61be 80ba 12be
000003b0: 4753 14be 1e50 72be 3b56 893e 59d7 92bb
000003c0: 4987 2ebe 30a2 99be d678 b6bd 8a35 7a3e
000003d0: ff41 22be 0bfd 88bd aad4 15be 531c 0abe
000003e0: 703e 11be 2d89 033c f928 19be 9d2b 4bbe
000003f0: 5022 643e 1e58 1f3e 3303 c7bd 7a1c 833c
0.12389836 0.11750797 0.23378164 0.1125754 -0.003451193 -0.19005363 0.17138793 0.040395122
0.14192484 0.31099343 0.062462814 0.049763292 -0.031378064 -0.020358372 0.12995435 -0.16500671
0.27089027 0.18311575 -0.005192825 0.16105044 -0.19012718 0.10833558 0.026689759 -0.24376245
0.0021334428 0.13449831 0.018982649 -0.09532801 0.07963726 -0.09342477 -0.035187226 0.058727343
-0.22640815 0.022561913 0.034523807 -0.020059327 0.07507289 -0.007329894 -0.15679641 0.023513202
0.14702028 -0.0075518596 -0.07512312 -0.24209821 0.018212438 -0.003481049 0.22665164 -0.23280449
-0.17566594 -0.033310756 0.019564126 0.2849302 -0.04092067 0.086946405 -0.13270676 -0.007770969
0.09233432 0.002320105 -0.045084674 0.014491734 -0.19466978 0.049365908 0.030343087 -0.08893739
-0.29689926 -0.26410103 0.14506896 -0.044250462 0.14257579 0.117885634 -0.10697065 0.1436153
-0.20712844 -0.19124536 0.008798918 -0.09346325 -0.14580166 0.17303956 0.041924875 0.18976027
-0.05449453 -0.15933093 0.06373349 0.23498084 0.13658331 0.19382487 0.17029127 0.060662538
0.061328374 -0.13511966 -0.21252015 0.08714657 -0.460709 0.019106941 -0.07105246 0.11948475
0.45167494 -0.11656631 0.09196335 -0.3531903 0.34397355 0.079786114 -0.2847874 -0.12332502
-0.1369114 0.080962494 0.06575227 0.07280073 0.17841738 -1.9731398e-05 -0.0743302 -0.06133807
0.104596466 -0.29501572 -0.24387673 0.006568584 -0.068888254 -0.057416547 -0.13325046 0.01836754
-0.19157021 -0.13750447 -0.18381858 0.07584538 0.07076185 -0.051926006 -0.03413401 0.3053908
-0.006236401 -0.008158832 0.16100492 -0.17987883 -0.09231238 -0.061222233 0.15696396 -0.021753892
0.1564823 0.057246126 0.21315858 0.016227426 -0.22958724 -0.022065174 -0.055660732 -0.06739107
-0.16898715 -0.15040027 0.05146581 -0.015670834 0.07315376 -0.037026428 -0.0511344 -0.09550956
0.10716468 -0.24564397 0.09672429 -0.06206783 0.022098655 -0.059127774 -0.008249724 -0.20566732
0.16588546 0.0076518594 -0.16658144 -0.21956137 -0.12392974 -0.14615409 0.05423998 -0.17990966
-0.05396915 0.19264838 -0.18584247 0.1074495 0.0512894 -0.2199439 0.032864995 -0.055281237
0.27590662 0.042562257 -0.1320426 -0.31988046 -0.09807052 0.051272005 0.034794766 0.032260153
0.08357971 0.18354774 -0.08704265 0.21771823 0.029617745 0.12276679 0.009156437 0.1104034
-0.06982817 -0.21876572 0.018835671 0.041491266 0.0443121 -0.03817417 -0.32661316 0.077653535
-0.04195331 -0.16171046 -0.25073904 0.05941202 -0.15523405 0.010091663 0.010405998 -0.07199654
0.33212748 -0.002299979 -0.07953793 0.019321153 0.19999239 0.06109369 0.09962812 -0.106315956
-0.044544797 -0.10771393 0.29945445 0.0016529334 0.17089078 0.3155896 -0.013185218 -0.1068828
-0.21825953 -0.028786786 -0.12463552 -0.12088441 0.06332481 -0.2324143 -0.186756 0.15680848
-0.052122712 0.13698722 -0.21976607 -0.14328957 -0.14484893 -0.23663375 0.268236 -0.004481238
-0.17043795 -0.30006552 -0.089097664 0.24434486 -0.15845488 -0.06688889 -0.14631906 -0.13487367
-0.14183974 0.008028311 -0.14957036 -0.19840856 0.22278714 0.15560958 -0.09717407 0.01600479

network_body._body_endoder.seq_layers.0.bias f4 [128]
00000000: f11d 853b 43d8 8c3c 6d00 62bc 7cde a03c
00000010: c285 a23c 84dc 333c 72ed 9ebc c4fc 7c3c
00000020: 2bc5 3c3c 34dc 153c d88c 98bc 745c c7bb
00000030: 6ffb bc3b 5216 8ebc a311 9bbc 7a40 a73b
00000040: 3860 573c af0f 38bc f52c d43a 60d0 86bc
00000050: a883 2dbb 466e 89bc 6053 a6ba bf92 d63b
00000060: 04f8 dfbc 394e 163b d22f 7d3c 43a3 e43c
00000070: 95a0 1bbb fd63 a43c 630f 16bd da56 c0bc
00000080: ff10 89bc c1e5 59bb 8974 2f3c 31f2 893c
00000090: ad55 a33b e4e8 263c 848e 873c d3fb 653c
000000a0: 6ecf e93c 13cc c23c 7425 9e3c 8881 063c
000000b0: 99e2 4c3b c53b 84bb dbca 7cbc a8ae 45bc
000000c0: 5b68 183c a738 6fbc 0e10 5fbc 747d 7cba
000000d0: 48e3 843c a4b1 28bc 9c07 603c 2f73 223c
000000e0: 3d53 933c 51b3 27bc 762f 12bc 399d b0bc
000000f0: c65b 39bc 8c58 553c 72c1 1ebc bd7d 84bc
00000100: 003f 603b 3486 ad3c 787e eb3c 4494 22bb
00000110: cf54 06bc 5a89 0fbd 0571 64bb c7bc 963c
00000120: e7ff 98bc c924 bf3c 0ef1 a33c 9984 0c3c
00000130: fca7 163d 1bf8 7d3c 81c5 6bbc 34f4 093c
00000140: 72a2 a1bc 9e95 acbb a157 67bc a2a1 323c
00000150: 6ca1 3bbc e4a5 503c 7f87 523c be5b 39bc
00000160: 0a73 5ebc 14a4 43bc 36ef 843b 504a 993c
00000170: e936 ecbc 5489 133c 8670 1f3c cebd 02bc
00000180: 393f 85bc 2528 6fbc 8266 cdbc 9fd2 853c
00000190: 2220 4d3c dc21 983c 5140 b2bc c01c 9a3b
000001a0: 667a 94bc d031 0c3d ff33 a73c 3f4b a6bc
000001b0: e96b 303c 1f20 423b 9083 a03c 3d1b 8eba
000001c0: bcca a83c 1c12 42bb ff3a a7bc faf2 a83c
000001d0: 3645 54bc 49b3 cdbc 1451 6bbc 23b3 723c
000001e0: 6b2a 623c 1f30 afbc 0586 223c 727f 273c
000001f0: 0e6a 1e3c c898 cbba 1410 1ebc d4c5 03bd
0.004062407 0.017192965 -0.013794047 0.019637339 0.019839171 0.010977868 -0.019400332 0.015441123
0.011521618 0.009146739 -0.018621847 -0.0060840193 0.005767278 -0.017344628 -0.018929308 0.0051041218
0.013145499 -0.011234208 0.0016187715 -0.016456783 -0.0026476178 -0.016776215 -0.0012689643 0.006548255
-0.027339943 0.0022934808 0.015453296 0.02790988 -0.0023746837 0.02006721 -0.036635768 -0.023478914
-0.016731737 -0.0033248516 0.0107089365 0.016839119 0.0049845786 0.010187361 0.016547449 0.01403709
0.028541293 0.02377895 0.019304968 0.008209594 0.0031262992 -0.0040354454 -0.015429224 -0.012065567
0.009302224 -0.014600909 -0.013614668 -0.0009631731 0.016221657 -0.010296259 0.013673689 0.009915157
0.017984027 -0.010235623 -0.008922448 -0.021559345 -0.011313384 0.0130215995 -0.009689676 -0.016173238
0.0034217238 0.021182157 0.028746828 -0.0024807611 -0.008198931 -0.035043098 -0.0034857404 0.018400563
-0.018676711 0.02333297 0.020012405 0.008576536 0.036781296 0.0155010475 -0.01439035 0.008420039
-0.01973078 -0.005266859 -0.014120013 0.010902794 -0.01145206 0.012734864 0.012849688 -0.011313377
-0.013577232 -0.011940975 0.0040568365 0.018712193 -0.028834777 0.00900491 0.0097314175 -0.007979823
-0.016265498 -0.014596974 -0.025073294 0.016335784 0.012519868 0.018570833 -0.021759184 0.0047031343
-0.01812477 0.034227192 0.020410536 -0.020299552 0.010767915 0.0029621196 0.019593984 -0.0010841858
0.020604484 -0.0029612845 -0.020413874 0.020623673 -0.012955954 -0.025109904 -0.014362592 0.014813217
0.013804059 -0.02138525 0.009919648 0.010223256 0.00966884 -0.0015533203 -0.009647388 -0.032171085

network_body._body_endoder.seq_layers.2.weight f4 [128, 128]
00000000: 2db9 7d3c fdd7 efbc c454 633d 1a67 d43d
00000010: 2b06 a2bc f4a1 c93d 2f97 663d ef1c 14bd
00000020: 1b31 933d 2b3b 0dbe 2597 2a3a 5065 88bd
00000030: 154c ec3d 1ba5 da3d bd93 1a3d 0fd2 913d
00000040: 0e5b 53be 1048 c83c 5a71 063e e4cb 96bc
00000050: 81b9 ce3c 5e38 063d 4304 26bd 91b4 ecbd
00000060: 04af 15bc eae3 cc3c 548c 273e c999 c0bd
00000070: 3041 04be aabd bfbd 18d9 3bbe a446 03be
00000080: 86a0 e4bb 8127 dfbd acb1 13be afcd 7bbd
00000090: d5d3 d73d 8a6e ec3d 441a 66bd 71a1 adbc
000000a0: 3b81 65bd a57c 4dbc 5cb8 ec3d 3b46 b43b
000000b0: b351 423c 289b e0bd 3269 b3bd e106 963c
000000c0: 4546 2ebd cf1e a53d e88b 183d 4c60 b2bc
000000d0: 1d41 56bd 64d3 c63c c36f 1e3e 6af6 c23b
000000e0: f9da dfbd c52b 3f3d 6ee1 87bb 17b0 fbbd
000000f0: ca6a 443e cc77 5cbd 2f30 24be b76b a9bd
00000100: aba5 5cbd 3821 123e e939 613e 62aa 973d
00000110: c61a bf3d a466 aebc c679 133c 4c11 9d3d
00000120: 1f53 6cbd 00c2 3f3c 4bcf ca3d f1e8 ed3c
00000130: fa42 853e bc70 543d da65 ca3c 6626 6b3d
00000140: d279 863d eecb 18be 500b 82bd f433 36be
00000150: 9620 7ebe 8a9b f53b 1477 debd 7da5 6d3e
00000160: 58d8 86bd 6c84 fdbd f77a 643c 818a 92bd
00000170: 4f82 c73c 803d b93c 6ae2 a53d 3d47 d3bd
00000180: 966b fe3d 58c8 8bbd f5da 233e 4fb8 183d
00000190: 3914 68bd 211b 233e a2fd 2ebb 88cd 89be
000001a0: 79b2 a43d c1db 8ebc 4b45 173e 7431 16bc
000001b0: a83a 2bbc 3c97 bc3d 21b1 743d 49ec 2bbe
000001c0: 2f18 3fbd 601c 17bc 2571 d0bd 163b 133e
000001d0: cc93 dc3d 98ca 0fbd d906 a2bd 8be0 8bbd
000001e0: e079 f1bc 0da4 493e 557c d5bd fcac 053e
000001f0: f504 b93d c65d d23d ed97 003c 6e32 9e3c
00000200: 87de 933d be88 89bc af58 2ebc 3662 55bd
00000210: 2a8f e23c b252 ffbc e22d 353e e87c d63c
00000220: 103f b43d d6ef 533e 0434 44bd 2832 3ebe
00000230: 2eef a2bd 6b7f 09bc c303 683d 8d30 883c
00000240: 6741 05be 2a5f 97bc 98e0 df3d 559c cebd
00000250: 7654 50bc e1e7 8f3d 55d2 23bc fcef 5abd
00000260: e2e3 adbd 4d26 393e 981f 4c3d 5652 de3d
00000270: 3e30 01be 3d52 e9bc 68c9 073d 5173 a2bd
00000280: c122 6a3d 9173 85bc d814 63bd f9a0 433e
00000290: 7a4b a6bd 0fca 433d 64d9 023e 85e2 12bd
000002a0: 58b1 2e3c 28f7 1c3e 425b 863d 0838 febc
000002b0: 9b84 00be f914 473d cc14 983d 317f 953d
000002c0: a9b3 39bb c957 173e c950 f5bd b23c 62bc
000002d0: 2e7a 233d e1f4 97bc f006 613d fbc2 63bb
000002e0: 3ee8 75ba 65fb e93c 8997 973c f3ff d7bd
000002f0: 949c f3bc c302 b73d c8a2 57bc aee8 9d3d
00000300: 9fb7 e4bc 4f01 1abc 3616 813d f91e 0dbd
00000310: d84a 4f3d b27a cabd 2876 21bc 9ada 84bd
00000320: 953a ff3c 8736 4e3b 6abc e73c 00fd 14bd
00000330: 6db7 58bd e20f 8fbd 3cfd afbc 718d 7f3d
00000340: 0726 553e dc99 bbbd e1b2 0b3e 01ca d3bc
00000350: 573e 5ebc cb97 acbd 6b84 8e3d 02bf c73c
00000360: 7469 2f3c 2169 f1bd eee5 d3bd 3d1d ba3c
00000370: 0bf8 c7bd 0e88 7c3d 30d8 023e 537c ff3b
00000380: 6f0f a63c 3e96 b3bc 51a4 823d c564 80bd
00000390: 16f6 083e 8d60 4b3c dcb7 9c3d 6df1 513c
000003a0: 6be6 d63d 7ce7 a93b a304 373d e076 b83d
000003b0: 8d3a b0bc 4c59 a5bc 2eda e23d 4e01 00bc
000003c0: a81e d8bb 608c ce3d f022 a53d 34fa e7bc
000003d0: ef81 47bd 5527 2f3d 3d96 ed3a 057f 5cbc
000003e0: 0958 0c3e 5e61 653d 354d 073e 81a6 e0bd
000003f0: a7aa b93b 1390 ed3d 661c 90bd b48f c6bc
0.015486044 -0.029277796 0.05550076 0.103712276 -0.019778332 0.09845343 0.056296524 -0.036160406
0.071871005 -0.13792102 0.00065075076 -0.06659949 0.11537949 0.106760226 0.03773855 0.071201436
-0.20640203 0.024448425 0.13129178 -0.01840777 0.02523494 0.0327686 -0.040531408 -0.11557878
-0.009135965 0.025011022 0.16362125 -0.09404332 -0.12915492 -0.093623474 -0.18344533 -0.12819916
-0.0069771437 -0.10896207 -0.14423245 -0.061475452 0.10538451 0.11544521 -0.056177393 -0.021195145
-0.056031447 -0.012541925 0.11558601 0.005501536 0.011860299 -0.10967094 -0.08760299 0.018313827
-0.042547483 0.08062517 0.0372428 -0.021774434 -0.05230819 0.02427072 0.15472321 0.005949785
-0.109304376 0.0466726 -0.0041467464 -0.12289446 0.19181362 -0.053825185 -0.16034006 -0.08272498
-0.05386893 0.14270484 0.21994747 0.07405545 0.093312785 -0.021289177 0.009001201 0.07669315
-0.057696458 0.011703968 0.09902819 0.02904174 0.26027662 0.051865324 0.02470677 0.057409666
0.06566204 -0.14921543 -0.06349814 -0.17793256 -0.24817118 0.0074953483 -0.10862556 0.2320766
-0.06584233 -0.12378773 0.013945333 -0.07155324 0.024354128 0.022612333 0.08099826 -0.10316322
0.12422864 -0.06825322 0.16001494 0.037285145 -0.05665991 0.15928318 -0.002670147 -0.2691462
0.080418535 -0.017438771 0.14772527 -0.009167064 -0.010450996 0.09208533 0.059739236 -0.16789354
-0.046653923 -0.009223074 -0.101778306 0.14378008 0.107703775 -0.035105318 -0.07911462 -0.068299375
-0.02947706 0.19691487 -0.10424105 0.1305427 0.090341486 0.10271792 0.007848722 0.019311156
0.07220178 -0.016788837 -0.010641261 -0.052095614 0.027656157 -0.031167362 0.17693284 0.026182607
0.08801091 0.20696959 -0.04790117 -0.1857382 -0.07955776 -0.008392195 0.056644212 0.016624713
-0.1301323 -0.018477995 0.1093151 -0.10088412 -0.01271545 0.07026649 -0.0099988775 -0.053451523
-0.08490731 0.18081017 0.049834818 0.10855548 -0.12616059 -0.028481597 0.03315106 -0.07932151
0.05716205 -0.016290458 -0.0554398 0.19104375 -0.08119865 0.04780012 0.1277824 -0.035860557
0.010662399 0.15328658 0.06560375 -0.031032577 -0.12550585 0.048603985 0.07425842 0.072996505
-0.0028335846 0.14779581 -0.11978299 -0.013808416 0.03991144 -0.018549385 0.054938257 -0.0034753669
-0.0009380615 0.028562257 0.018504875 -0.10546865 -0.029737748 0.08936074 -0.013161369 0.07710396
-0.027919589 -0.009399726 0.063030645 -0.034453366 0.050608486 -0.098866835 -0.009854831 -0.064870074
0.031155864 0.0031465606 0.028288085 -0.036374092 -0.052909303 -0.06985451 -0.021483056 0.06239075
0.20815288 -0.09160206 0.13642456 -0.025853159 -0.013564668 -0.0842739 0.069588505 0.024383072
0.010706294 -0.1178763 -0.1034659 0.02271902 -0.09764107 0.06165319 0.12777781 0.007796803
0.020271031 -0.021922227 0.06378997 -0.0626922 0.13375124 0.012413156 0.07652256 0.012813908
0.104931675 0.005185066 0.044682156 0.090070486 -0.021512294 -0.020184182 0.11076771 -0.007812811
-0.0065954514 0.10085368 0.080633044 -0.028317548 -0.0487079 0.04276212 0.001812644 -0.013458018
0.13705458 0.05600106 0.13213046 -0.10969258 0.0056660953 0.115997456 -0.070366666 -0.024238445

network_body._body_endoder.seq_layers.2.bias f4 [128]
00000000: 6c9a 0e3c 440c 6a3c 11be 9d3c 4dde 803c
00000010: 3b0f 77bc a695 65bc 12db d9bb 2f1f 5a3c
00000020: 867f 613c 827c 8bbc 133d 9d3c d36e 703c
00000030: f78f 943c 21f6 7c3c a247 5a3c d2a3 2ebc
00000040: 2b47 6e3c 76a4 683c a6e1 973c 070f 8a3c
00000050: 1ee6 7a3c f517 7a3c f7cf ac3c 81ba 7a3c
00000060: 9e46 673c 3a81 92bc 10db 863c 9d17 87bc
00000070: 0222 72bc d42d 20bc 8c41 6dbc 819d 693c
00000080: 3ae8 823c b209 54bc 2263 9cbc f7a1 72bc
00000090: ae4c 733c c0c4 913c f8c3 8a3c 59db af3c
000000a0: 5a6b 87bc a655 633c b973 57bc a978 74bc
000000b0: 63eb 86bc 29c6 823c 92a3 993c 613f b1bc
000000c0: 8dc0 40bc f7fb 5fbc be9d 6c3c 1e89 3dbc
000000d0: 3d46 91bc badd 27bc 44d6 893c a53e 823c
000000e0: d441 783c 151e 493c 4835 ab3c 3fdd 893c
000000f0: c52e 91bc d7d3 8cbc 76dc 773c 2b7f 94bc
00000100: a3aa 973c 1a6e 963c 9387 573c 8892 4ebc
00000110: 5849 4dbc 1d1b 793c ec55 423c 048b 933c
00000120: a30f 56bc 9e90 843c 0403 a7bc 3028 84bc
00000130: 627d 8cbc 2f35 88bc e065 7cbc 667a 86bc
00000140: b7a2 41bc 4c81 86bc 24c2 65bc 07c9 6f3c
00000150: 454e 8d3c 617a 4bbc 489a 29bc 1729 84bc
00000160: 1cf7 863c 8123 823c 1f41 82bc 1fd2 18bc
00000170: 43b0 443c b446 71bc ef56 743c 83ad a9bc
00000180: d701 88bc b8fd 8a3c 93e1 693c d18b e7bb
00000190: 47bc b3bc 2e97 883c 75ef 743c 564f 983c
000001a0: e807 893c a3a8 8e3c d31a a13c 1aa0 9a3c
000001b0: 7976 903c 64d9 6bbc 37af 5abc 6093 62bc
000001c0: 2363 59bc 3247 58bc 9f47 5b3c 6126 a33c
000001d0: dab2 82bc 7283 89bc 4bc9 9f3c 110e aa3c
000001e0: ad66 663c c319 89bc b063 8b3c 83e9 603c
000001f0: 0fe7 903c f618 4f3c d953 89bc 0a15 42bc
0.008703809 0.014285151 0.01925567 0.015731001 -0.015079315 -0.01401273 -0.0066484297 0.013313099
0.013763314 -0.017027143 0.019194162 0.01467486 0.018135054 0.015439541 0.013322743 -0.010659175
0.014543335 0.014199367 0.018540215 0.016852869 0.015313653 0.015264501 0.02109526 0.015303255
0.014115958 -0.017883886 0.016461879 -0.016490752 -0.014778616 -0.009776551 -0.01448096 0.014258743
0.015979875 -0.012941765 -0.019090239 -0.014809123 0.014849825 0.017794013 0.016939148 0.021466898
-0.016530681 0.013875401 -0.013150149 -0.014921346 -0.016469663 0.01596363 0.018754754 -0.021636667
-0.011764658 -0.013670913 0.014441906 -0.011568336 -0.017733688 -0.010245735 0.016825803 0.015899012
0.015152413 0.0122752385 0.02089943 0.016829131 -0.017722497 -0.017190857 0.015128246 -0.018127045
0.018513983 0.018363047 0.013154882 -0.012608178 -0.012529694 0.015204218 0.011861306 0.018010624
-0.0130652515 0.01618224 -0.02038718 -0.016132444 -0.017149631 -0.016626922 -0.015405148 -0.016415786
-0.011818579 -0.016419075 -0.0140233375 0.014635331 0.017249236 -0.012419314 -0.010351725 -0.016132874
0.016475253 0.01588607 -0.015900193 -0.0093274405 0.012004915 -0.01472633 0.014913305 -0.02071262
-0.01660244 0.016966686 0.0142749725 -0.007066228 -0.021940364 0.01667365 0.014949669 0.018592518
0.016727403 0.017414397 0.019666111 0.01887517 0.017634617 -0.014395092 -0.013347439 -0.013829082
-0.013268265 -0.013200568 0.013383775 0.019915761 -0.015954424 -0.01678631 0.019505164 0.02075866
0.014062566 -0.016735917 0.017015308 0.0137275485 0.017688302 0.0126402285 -0.016763614 -0.011845836

value_heads.value_heads.extrinsic.weight f4 [1, 128]
00000000: ce88 03bd 0176 57be fdea 6bbe 9450 e6bd
00000010: 6ba9 df3d 1029 063e 22f1 8c3d 490e 24be
00000020: 4d6e f7bc 334f e63d 1f78 65be 0cea 48be
00000030: 2ea7 87bd 050e 3fbd 903f 3bbe 88ea 593e
00000040: 2f6d 12be b6cb d9bc 5ee3 53bd d266 52be
00000050: e783 a1bd 817c 1ebe aebd 5dbe 6997 3fbe
00000060: 2fff 37be 835d 063e 2137 0bbe 227b a43c
00000070: f214 a63d cea2 473e cca7 d43d 7179 a6bd
00000080: 1c09 b4bd d063 d73d 3d6d 553d 4e93 153e
00000090: 43f6 fabc 099b 56be 5d51 9dbc 7a84 59be
000000a0: 286f 5f3d 5a33 50bd 09ff 0f3e c32c 2e3e
000000b0: ba4a 313d d78e 31be 398a 38be 7b8a dc3d
000000c0: 2839 5c3e af6a 2d3e da12 95bd 5496 0c3e
000000d0: 5eaa 2f3e 3935 8b3d 5f32 4ebe 6d95 52bd
000000e0: aaa7 b0bd e94b b8bd d2b2 48be e3d6 ccbd
000000f0: e4af 353e 88e1 f03d 0cc7 06be f8c6 0e3e
00000100: f8c3 6dbd 4619 4bbe a1a1 b1bd e736 8e3d
00000110: 5dd2 a53d 817f 85bd f012 edbb 3542 9bbd
00000120: 7b02 da3d f3ce 63be 8be4 593e 2596 653e
00000130: f862 f63c 99ee cd3d 7bab 1e3e 96bf 413d
00000140: 2811 183e 9c2c b63c 0761 1e3e ea00 e3bd
00000150: 22a4 dcbd 2ffd 363e cb32 6f3e 013b 1d3e
00000160: 5bd4 d3bd 5b63 13be a097 bd3d 3abc 1c3e
00000170: 11cd e9bc b1ba 0d3e cbde 03be 698a 993d
00000180: 7fdf 1a3d a5ef e8bd 568a adbc e20e e93c
00000190: c7fe 983d 7a23 cfbd cd56 6abd e24f 1cbe
000001a0: 70b2 24be 3424 98bd dd99 03be b109 3cbd
000001b0: 1afe 31be 1a6b 033e 471e 6a3e 9264 c13d
000001c0: e746 4e3e 1910 b43d 5f1f 0cbd ae49 eebd
000001d0: ad62 4b3e ce5c 413e e2d3 21be 910d 0fbe
000001e0: a068 b3bd f5d2 e03d 0cab 3fbe f6a5 97bd
000001f0: 0c2b a0bd 6e1f bbbc 7fcb ae3d 217f dc3d
-0.03211289 -0.21041109 -0.2303886 -0.11245838 0.10920986 0.13101602 0.0688193 -0.16021074
-0.030203963 0.11245575 -0.22409104 -0.19620532 -0.06623684 -0.04664423 -0.18285966 0.21280873
-0.14299463 -0.026586395 -0.051730506 -0.20547035 -0.078864865 -0.15477182 -0.21654388 -0.18710102
-0.17968439 0.1312161 -0.13595249 0.020078246 0.08109464 0.19495699 0.10383567 -0.08128632
-0.087908 0.105170846 0.05210613 0.14606974 -0.030635005 -0.20957579 -0.019203836 -0.21241942
0.054549366 -0.050830223 0.14062132 0.17009263 0.043284155 -0.17339645 -0.18021478 0.107686006
0.21506178 0.16935228 -0.07278986 0.1372922 0.17154834 0.06797261 -0.20136403 -0.051412035
-0.086257294 -0.08998854 -0.19599465 -0.10001924 0.17742878 0.11761767 -0.13161868 0.13943088
-0.05804822 -0.1983386 -0.086734064 0.069440655 0.08096764 -0.0651846 -0.0072349235 -0.07580987
0.10645004 -0.22246914 0.21278588 0.22420557 0.030076489 0.100552745 0.15495102 0.04730185
0.14850295 0.022238068 0.154667 -0.11084159 -0.10773493 0.1787002 0.2335922 0.1535454
-0.10343238 -0.1439337 0.09257436 0.15306178 -0.028540166 0.13840748 -0.12877958 0.07497103
0.0378108 -0.113738336 -0.021184128 0.02844948 0.0747047 -0.101141885 -0.057211686 -0.15264848
-0.16083694 -0.0742878 -0.12851663 -0.04590768 -0.17382088 0.12833825 0.22863112 0.094430104
0.20144235 0.08792133 -0.034209605 -0.11635147 0.1986186 0.18883058 -0.15803483 -0.13970019
-0.0876019 0.10977737 -0.18717593 -0.074047014 -0.078207105 -0.022842135 0.085349075 0.107664354
