results/firstTest/My Behavior/My Behavior-7535.pt (torch, 185586 bytes, 12 tensors)

network_body._body_endoder.seq_layers.0.weight f4 [128, 41]
0	0xbe2cfe93	-0.16893987
1	0x3c82e7fc	0.01597976
2	0xbe7c1bb9	-0.2461995
3	0x3d7c6341	0.061618093
4	0xbe641a53	-0.22275667
5	0x3ccd98ba	0.02509724
6	0xbed0cb1f	-0.4077997
7	0xbe408b4e	-0.1880314
8	0xbdeb0d8c	-0.11477193
9	0xbdf52de8	-0.119716465
10	0xbe78ba9a	-0.24289933
11	0xbe14ad8e	-0.14519331
12	0x3e3449c7	0.17606269
13	0xbe338dbf	-0.1753454
14	0x3e4badef	0.19890569
15	0xbe8292c2	-0.25502592
16	0xbe6ba66c	-0.23012704
17	0x3d3963d9	0.045261238
18	0x3cac60ad	0.021042192
19	0x3d396052	0.045257874
20	0x3e937eba	0.28807622
21	0x3d5c334c	0.053759858
22	0xbc540f34	-0.012943078
23	0x3ea70419	0.32620314
24	0xbdab151a	-0.08353634
25	0xbe852394	-0.26003706
26	0x3d8d8a29	0.069111176
27	0x3e09dfdb	0.134643
28	0x3d455f81	0.048186783
29	0x3cd7a489	0.026323574
30	0x3da46927	0.08027869
31	0x3e2adf97	0.16686855
32	0xbe743286	-0.23847398
33	0xbcf43bc8	-0.029813662
34	0x3bb88658	0.0056312494
35	0x3c5b6a7b	0.013392086
36	0x3dd8aba8	0.10579616
37	0xbe10c3e4	-0.14137226
38	0xbe0460f2	-0.12927607
39	0x3e98de99	0.2985733
40	0x3e7eef50	0.24895978
41	0x3cebd850	0.02878967
42	0x3d1ccac4	0.03827931
43	0xbdd0c157	-0.10193127
44	0xbd2efac0	-0.042719603
45	0x3ddbc95f	0.10731768
46	0xbd54bcf8	-0.051938027
47	0xbd41bcdd	-0.047299255
48	0x3dad0bfe	0.08449553
49	0xbe775d07	-0.24156581
50	0x3e1c36c4	0.15255266
51	0x3e5065bb	0.20351307
52	0xbe28b296	-0.16474375
53	0x3dc84139	0.09778065
54	0x3d3f8027	0.046753075
55	0xbe9de9ba	-0.30842382
56	0xbcca4762	-0.024692241
57	0xbd09faf9	-0.03368661
58	0xbbd981d2	-0.0066377902
59	0xbb8519f1	-0.0040619303
60	0x3d935bc5	0.07195238
61	0x3d3bf76c	0.045890257
62	0xbe229548	-0.15877259
63	0x3cca48e1	0.024692954
64	0xbe77b3fc	-0.24189752
65	0x3da3685f	0.079788916
66	0xbe5bcd2b	-0.21464984
67	0xbdf8330d	-0.12119112
68	0xbe25f616	-0.16207156
69	0x3e8cbff5	0.27490202
70	0xbe1cc4a9	-0.15309395
71	0xbe0d315b	-0.13788359
72	0x3e092850	0.13394284
73	0xbe632e9a	-0.22185746
74	0xbd9b5dcb	-0.07586249
75	0xbbd014df	-0.0063501443
76	0x3d8710f8	0.065950334
77	0x3d63a4f7	0.055577245
78	0x3d0218c5	0.031761903
79	0x3e1a5a50	0.15073514
80	0xbd69f15a	-0.057114936
81	0x3e5e2af9	0.2169608
82	0x3d8e1314	0.069372326
83	0xbd7c63d7	-0.061618652
84	0x3e3e5614	0.18587524
85	0xbdbff2b3	-0.09372463
86	0x3db13821	0.08653284
87	0xbdd020a2	-0.10162474
88	0xbeb29807	-0.34881613
89	0x3d4392fb	0.047747593
90	0x3d27c4a4	0.040959015
91	0x3dda1cb0	0.10650003
92	0x3d9fd737	0.07804721
93	0xbddda3da	-0.10822268
94	0xbda2e23d	-0.07953308
95	0x3dd31e78	0.10308546
96	0xbe21231c	-0.1573605
97	0x3ddbf619	0.10740299
98	0xbe76bbb2	-0.24095038
99	0x3e2d85ef	0.16945623
100	0xbe6ec7d1	-0.23318411
101	0x3e24fa85	0.1611119
102	0xbd952783	-0.07282927
103	0xbd53adb3	-0.051679324
104	0x3de4e9b7	0.1117739
105	0x3dbfa729	0.09358055
106	0xbd87ca6a	-0.06630404
107	0xbe8d7d41	-0.27634624
108	0xbdd8973e	-0.10575722
109	0xbe44d926	-0.1922346
110	0x3e40d343	0.1883059
111	0xbd74ca2a	-0.05976311
112	0xba594ed0	-0.0008289637
113	0xbcf05ca4	-0.02934105
114	0x3ebfc95d	0.37458315
115	0xbe2378d1	-0.15964057
116	0x3e000002	0.12500003
117	0x3d98ea1a	0.07466526
118	0xbd02d14f	-0.031937893
119	0xbd165095	-0.036697943
120	0x3e7af943	0.24509148
121	0x3e263469	0.1623093
122	0xbe4117f7	-0.18856798
123	0x3e223d99	0.1584381
124	0xbe3045f8	-0.17214191
125	0xbdbf7964	-0.09349325
126	0xbe33ef8a	-0.17571846
127	0xbb840404	-0.004028799
128	0x3e34e6fd	0.1766624
129	0xbcf669d2	-0.030079756
130	0xbd43599a	-0.047692873
131	0xbc76e115	-0.015068312
132	0xbe4b72ac	-0.19867963
133	0xbd0e6555	-0.034764607
134	0x3df8ff29	0.12158043
135	0xbed35493	-0.41275463
136	0x3e05f20b	0.13080613
137	0x3e8164a2	0.2527209
138	0x3e5814ef	0.21101736
139	0xbc9751b4	-0.018471576
140	0xbd18dd42	-0.037320383
141	0xbd4bae53	-0.049726795
142	0x3e1cf6d3	0.15328531
143	0x3d8f878a	0.07008274
144	0x3e05f34c	0.13081092
145	0x3ca0fc26	0.019651484
146	0x3d98901b	0.07449361
147	0x3d365819	0.04451761
148	0xbdf1d78c	-0.118086904
149	0x3e87069f	0.2637224
150	0x3d652aa9	0.055948887
151	0x3db04193	0.08606257
152	0xbdc52d4b	-0.096277796
153	0xbc5933ec	-0.013257008
154	0xbcf9b90f	-0.03048375
155	0x3e020288	0.12696278
156	0x3ba6e30e	0.005092985
157	0xbe8e3d6a	-0.2778123
158	0xbefad449	-0.48990086
159	0xbe1a4f40	-0.15069294
160	0xbd1d19a3	-0.038354527
161	0x3e9ea828	0.30987668
162	0x3dcb3e4e	0.09923993
163	0xbdb55ce9	-0.08855612
164	0x3df44d2a	0.119287804
165	0xbe6c0a6c	-0.2305085
166	0xbcc470f1	-0.023979636
167	0xbcc56ca4	-0.024099655
168	0x3d1e9dfb	0.03872488
169	0xbe4279bb	-0.18991749
170	0x3d8dc549	0.06922395
171	0x3c5469fa	0.01296472
172	0x3ce28daf	0.02765545
173	0xbe1e94ef	-0.15486501
174	0x3de1b61a	0.11021061
175	0xbdb04b45	-0.086081065
176	0x3ea23e7a	0.3168829
177	0xbd2687b6	-0.040656768
178	0xbe2d0298	-0.1689552
179	0xbcda3c3f	-0.026640056
180	0xbd09ba85	-0.033625145
181	0x3e6a73c0	0.22895718
182	0x3f038970	0.5138159
183	0x3e5922e7	0.2120472
184	0xbdd695cf	-0.104777925
185	0xbe2397d7	-0.15975891
186	0xbec5021b	-0.3847817
187	0xbc9e15dc	-0.019297533
188	0xbd85f4a8	-0.06540805
189	0xbd00c493	-0.031437468
190	0x3c893c98	0.016752526
191	0x3df4d03a	0.119537786
192	0xbe6dc502	-0.23219684
193	0xbe2d8a91	-0.1694739
194	0x3e691580	0.22762108
195	0xbdc95c14	-0.09832016
196	0xbce3044b	-0.027712008
197	0xbddd3a91	-0.10802186
198	0xbe00674c	-0.12539405
199	0xbec57ec7	-0.38573286
200	0xbe1c0be4	-0.15238911
201	0xbdc73b48	-0.09728104
202	0x3edf1c66	0.43576354
203	0x3d1886c4	0.037237898
204	0x3da1b9fa	0.078968
205	0x3d87df41	0.06634379
206	0x3d9fb9ce	0.07799111
207	0xbda8d28b	-0.08243283
208	0xbd8fcd32	-0.0702156
209	0xbd00c545	-0.03143813
210	0xbb81c4ba	-0.003960219
211	0x3dad0b8c	0.08449468
212	0xbd2790d9	-0.040909622
213	0x3dd4cf81	0.10391141
214	0x3e310a77	0.17289148
215	0xbc34a8e4	-0.011026595
216	0x3e013e70	0.12621474
217	0xbcb7e466	-0.022447776
218	0xbd2e6c27	-0.04258361
219	0x3e84ffce	0.25976413
220	0xbd672f7a	-0.05644176
221	0xbd388b24	-0.04505457
222	0x3cb1e371	0.021714898
223	0xbda8e4f3	-0.082467936
224	0xbe05a706	-0.13051996
225	0xbd97f778	-0.07420248
226	0xbbc1f929	-0.005919595
227	0x3d7fdbb1	0.062465373
228	0xbd80d8da	-0.06291361
229	0x3e416be7	0.18888818
230	0xbea6e700	-0.32598114
231	0xbe9b9a30	-0.30391073
232	0xbd24fdd1	-0.04028112
233	0x3dfc7f74	0.12328997
234	0xbd545260	-0.05183637
235	0x3e3930f0	0.18085074
236	0x3e2cb46f	0.16865705
237	0x3c7c6c90	0.015406743
238	0xbe91c962	-0.28473955
239	0x3ccb7a20	0.024838507
240	0x3e0da6f5	0.1383322
241	0xbe02724d	-0.12738915
242	0xbdcb5b36	-0.099295065
243	0x3d8200cc	0.06347808
244	0xbd8f127d	-0.06985948
245	0xbe46ee05	-0.19426735
246	0xbdd61608	-0.10453421
247	0x3d42c3aa	0.04754988
248	0xbd86a55a	-0.06574507
249	0x3d46635a	0.048434593
250	0x3d010131	0.031495277
251	0x3d0565d6	0.03256782
252	0xbd8db6fa	-0.06919666
253	0x3c537098	0.012905262
254	0xbd86eb3e	-0.06587838
255	0x3ac941f3	0.0015354737

network_body._body_endoder.seq_layers.0.bias f4 [128]
0	0x00000000	0.0
1	0x00000000	0.0
2	0x00000000	0.0
3	0x00000000	0.0
4	0x00000000	0.0
5	0x00000000	0.0
6	0x00000000	0.0
7	0x00000000	0.0
8	0x00000000	0.0
9	0x00000000	0.0
10	0x00000000	0.0
11	0x00000000	0.0
12	0x00000000	0.0
13	0x00000000	0.0
14	0x00000000	0.0
15	0x00000000	0.0
16	0x00000000	0.0
17	0x00000000	0.0
18	0x00000000	0.0
19	0x00000000	0.0
20	0x00000000	0.0
21	0x00000000	0.0
22	0x00000000	0.0
23	0x00000000	0.0
24	0x00000000	0.0
25	0x00000000	0.0
26	0x00000000	0.0
27	0x00000000	0.0
28	0x00000000	0.0
29	0x00000000	0.0
30	0x00000000	0.0
31	0x00000000	0.0
32	0x00000000	0.0
33	0x00000000	0.0
34	0x00000000	0.0
35	0x00000000	0.0
36	0x00000000	0.0
37	0x00000000	0.0
38	0x00000000	0.0
39	0x00000000	0.0
40	0x00000000	0.0
41	0x00000000	0.0
42	0x00000000	0.0
43	0x00000000	0.0
44	0x00000000	0.0
45	0x00000000	0.0
46	0x00000000	0.0
47	0x00000000	0.0
48	0x00000000	0.0
49	0x00000000	0.0
50	0x00000000	0.0
51	0x00000000	0.0
52	0x00000000	0.0
53	0x00000000	0.0
54	0x00000000	0.0
55	0x00000000	0.0
56	0x00000000	0.0
57	0x00000000	0.0
58	0x00000000	0.0
59	0x00000000	0.0
60	0x00000000	0.0
61	0x00000000	0.0
62	0x00000000	0.0
63	0x00000000	0.0
64	0x00000000	0.0
65	0x00000000	0.0
66	0x00000000	0.0
67	0x00000000	0.0
68	0x00000000	0.0
69	0x00000000	0.0
70	0x00000000	0.0
71	0x00000000	0.0
72	0x00000000	0.0
73	0x00000000	0.0
74	0x00000000	0.0
75	0x00000000	0.0
76	0x00000000	0.0
77	0x00000000	0.0
78	0x00000000	0.0
79	0x00000000	0.0
80	0x00000000	0.0
81	0x00000000	0.0
82	0x00000000	0.0
83	0x00000000	0.0
84	0x00000000	0.0
85	0x00000000	0.0
86	0x00000000	0.0
87	0x00000000	0.0
88	0x00000000	0.0
89	0x00000000	0.0
90	0x00000000	0.0
91	0x00000000	0.0
92	0x00000000	0.0
93	0x00000000	0.0
94	0x00000000	0.0
95	0x00000000	0.0
96	0x00000000	0.0
97	0x00000000	0.0
98	0x00000000	0.0
99	0x00000000	0.0
100	0x00000000	0.0
101	0x00000000	0.0
102	0x00000000	0.0
103	0x00000000	0.0
104	0x00000000	0.0
105	0x00000000	0.0
106	0x00000000	0.0
107	0x00000000	0.0
108	0x00000000	0.0
109	0x00000000	0.0
110	0x00000000	0.0
111	0x00000000	0.0
112	0x00000000	0.0
113	0x00000000	0.0
114	0x00000000	0.0
115	0x00000000	0.0
116	0x00000000	0.0
117	0x00000000	0.0
118	0x00000000	0.0
119	0x00000000	0.0
120	0x00000000	0.0
121	0x00000000	0.0
122	0x00000000	0.0
123	0x00000000	0.0
124	0x00000000	0.0
125	0x00000000	0.0
126	0x00000000	0.0
127	0x00000000	0.0

network_body._body_endoder.seq_layers.2.weight f4 [128, 128]
0	0xbd196073	-0.037445497
1	0x3d80a8d3	0.06282201
2	0x3cccf42e	0.025018778
3	0x3c6e25f9	0.014535421
4	0x3d8b898e	0.06813346
5	0x3de1a497	0.11017721
6	0xba90e460	-0.0011054389
7	0x3d8c510a	0.068513945
8	0xbd785f3f	-0.06063771
9	0x3c1921b9	0.009346419
10	0x3dc672f8	0.09689897
11	0x3da0db9f	0.078543894
12	0xbd90a006	-0.07061772
13	0xbe053774	-0.13009435
14	0xbd41781d	-0.04723369
15	0xbd7b289b	-0.06131802
16	0xbc8f2f4f	-0.017478613
17	0x3d3b2208	0.04568675
18	0x3d285968	0.04110089
19	0xbe1519fa	-0.1456069
20	0x3e2eb637	0.17061697
21	0x3b93229e	0.0044902107
22	0x3df16fac	0.11788878
23	0x3d096f79	0.033553574
24	0x3e69bae6	0.22825202
25	0x3d78a389	0.060702834
26	0xbddd2e17	-0.107998066
27	0xbcc5aa53	-0.024129068
28	0x3c8e01fa	0.017334927
29	0xbd1c2c2b	-0.03812806
30	0xbc0d1a9d	-0.008612302
31	0xbc2d0870	-0.010561094
32	0xbd3c87d5	-0.046027977
33	0x3e004e4b	0.12529866
34	0x3c75d61f	0.015004664
35	0x3e11a5f8	0.14223468
36	0xbdb8b98e	-0.09019767
37	0x3c33bbbd	0.010970053
38	0xbd997565	-0.07493094
39	0x3c108403	0.008820537
40	0x3de47d1b	0.111566745
41	0x3ce2017e	0.027588602
42	0xbd917373	-0.07102098
43	0x3d227692	0.03966386
44	0x3d95413f	0.07287835
45	0xbd31ae74	-0.043379262
46	0xbdb2a1a5	-0.087222375
47	0xbdbb8e97	-0.09158056
48	0x3d9bd1ba	0.076083615
49	0x3db723cc	0.089423746
50	0x3c94c204	0.01815892
51	0xbb3feb78	-0.0029284637
52	0xbddeedc2	-0.108851925
53	0x3ddc1631	0.1074642
54	0x3b1c0bd8	0.002381077
55	0x3e7298e2	0.23691133
56	0xbcf31e7d	-0.029677624
57	0x3c9ffa5c	0.01952856
58	0xbe1e6aef	-0.1547048
59	0x3e2e0947	0.16995727
60	0x3def03d5	0.11670653
61	0x3b6e1773	0.0036329895
62	0xbd7c5594	-0.06160505
63	0x3c28db6c	0.0103062205
64	0xbd828a90	-0.06374085
65	0x3da51444	0.08060506
66	0x3d11aa7e	0.035562985
67	0xbcf2c0be	-0.029632922
68	0xbe0de78f	-0.13857864
69	0x3d7be1f7	0.061494794
70	0xbd839429	-0.06424744
71	0xbd5b8f07	-0.0536032
72	0x3d8a2767	0.06745797
73	0x3db8535a	0.09000273
74	0x3c40c0b2	0.011764692
75	0x3acea7bf	0.0015766545
76	0x3e29bd3e	0.16576096
77	0xbd115a16	-0.035486303
78	0xbd5ddcb6	-0.054165564
79	0x3dac67df	0.08418249
80	0x3d2dfb48	0.04247597
81	0x3dacce06	0.08437733
82	0xbc940586	-0.01806904
83	0x3e27f7bb	0.16403095
84	0x3decc3c6	0.11560778
85	0xbda7af80	-0.08187771
86	0x3b0b77e2	0.0021281173
87	0x3da80750	0.0820452
88	0xbbb931d0	-0.00565169
89	0xbb9f3f65	-0.004859852
90	0xbd6722a2	-0.056429513
91	0x3c7347d8	0.014848672
92	0xbdd7c05d	-0.10534737
93	0xbd1eda7e	-0.03878259
94	0xbbc36b1a	-0.0059636952
95	0x3cfe5919	0.031048344
96	0x3e1c1945	0.15244015
97	0x3d9b7def	0.07592379
98	0x3dc7a897	0.09748953
99	0xbc1ca0ca	-0.0095598195
100	0x3d6faec7	0.05851629
101	0x3c9cbb70	0.019132346
102	0xbcf3a1ca	-0.029740233
103	0x3d512de6	0.051069163
104	0xbdc76fc8	-0.097381175
105	0x3e156df4	0.14592725
106	0xbd24eb20	-0.040263295
107	0x3e27b6ce	0.16378328
108	0xbc7894e1	-0.015172214
109	0xbe24cccf	-0.16093753
110	0xbda4cc93	-0.08046832
111	0xbdefedc1	-0.1171527
112	0xbdac593f	-0.0841546
113	0x3d902bd5	0.0703961
114	0xbd12d240	-0.03584504
115	0xbd27c3f3	-0.040958356
116	0x3e0725c4	0.13198
117	0x3d084281	0.033266548
118	0xbc1503a5	-0.009095107
119	0xbdbd9128	-0.09256202
120	0xbcf86d06	-0.030325424
121	0xbd917fb1	-0.07104433
122	0xbdcbc4ec	-0.09949669
123	0x3ce17a45	0.027524123
124	0x3d6135a0	0.05498278
125	0xbe0bfbfc	-0.13670343
126	0x3e4598c8	0.19296563
127	0xbdf92af5	-0.121663965
128	0x3d86ec59	0.065880485
129	0x3bdcd4a1	0.0067392145
130	0x3e256f21	0.16155674
131	0xbb01ebb0	-0.0019824319
132	0xbd902c96	-0.07039754
133	0xbd9cc663	-0.07655027
134	0xbd44ffd5	-0.048095543
135	0x3d86b8b2	0.065781966
136	0x3dbefd84	0.09325698
137	0xbddfe4f5	-0.10932342
138	0x3d6be3c9	0.05759028
139	0x3e447173	0.19183902
140	0x3d19083d	0.037361372
141	0x3cd79679	0.026316868
142	0x3e1dbda2	0.1540437
143	0xbb2e474f	-0.0026592796
144	0x3d8d5962	0.06901814
145	0xbd39ab91	-0.045329634
146	0x3d4d20ff	0.050080296
147	0xbe868db8	-0.26279998
148	0xbcbb953f	-0.022898315
149	0xba0e4c44	-0.00054282346
150	0xbd031f92	-0.03201253
151	0x3d2d0f82	0.042251118
152	0x3ce0ca65	0.02744026
153	0xbae5eea5	-0.0017542435
154	0x3e24e74c	0.16103858
155	0xbded90c2	-0.11599876
156	0xbd3e809b	-0.046509366
157	0x3de94569	0.11390192
158	0xba7154e8	-0.00092060724
159	0xbd388554	-0.045049027
160	0x3d8d1732	0.0688919
161	0xbd92b28a	-0.0716296
162	0xbd69c441	-0.057071928
163	0x3d89bbff	0.067253105
164	0xbcb9385f	-0.022609888
165	0xbcf171f1	-0.029473277
166	0xbe12539c	-0.14289707
167	0x3c13cd52	0.00902112
168	0xbe0f686a	-0.14004675
169	0xbdd1cd83	-0.102442764
170	0x3db6e1ba	0.08929773
171	0xbcfd27db	-0.030902794
172	0x3c33e3f9	0.010979646
173	0xbb8f32e6	-0.0043700812
174	0xba894e4d	-0.0010475606
175	0x3d3dceb1	0.046339694
176	0x3e0e76d6	0.1391252
177	0xbe206874	-0.15664846
178	0xbdce3aef	-0.100698344
179	0xbc904eee	-0.017615762
180	0xba59a6c2	-0.0008302742
181	0x3d8ca17f	0.068667404
182	0x3e30da9d	0.17270894
183	0x3d47a5e6	0.048742197
184	0xbe9aefa7	-0.30260965
185	0x3c8070d4	0.0156788
186	0x3c406766	0.011743402
187	0x3d8d8c1f	0.069114916
188	0x3df5463b	0.11976286
189	0xbcebe1a0	-0.02879411
190	0xbca42dcb	-0.020041367
191	0xbe0ccda8	-0.13750327
192	0xbd1fe85c	-0.039039955
193	0x3dfe5e38	0.124203146
194	0x3dd22671	0.10261238
195	0xbd22f893	-0.03978784
196	0xbc820759	-0.015872644
197	0x3d1f046d	0.03882258
198	0x3d13d79a	0.036094286
199	0x3d8e82eb	0.06958564
200	0x3cfa5d75	0.030562142
201	0x3e01f587	0.12691317
202	0xbcad1a38	-0.021130666
203	0x3d6d815b	0.05798469
204	0x3d142e99	0.03617725
205	0xbb2283a2	-0.0024797698
206	0x3b519a95	0.0031983007
207	0x3c5806af	0.013185187
208	0xbd0faac8	-0.03507498
209	0x3d20aabc	0.039225325
210	0x3cc44fc2	0.023963813
211	0xbda9fe31	-0.08300436
212	0x3d32b0bb	0.043625575
213	0xbe09571a	-0.13412133
214	0x3dde6966	0.10859947
215	0xbe83e733	-0.25762329
216	0x3d0b7ec8	0.034056455
217	0xbe4ff310	-0.20307565
218	0xbe60252f	-0.21889184
219	0xbdf1dbd2	-0.118095055
220	0xbdc56cd1	-0.09639896
221	0xbe437c85	-0.19090469
222	0x3dd151a4	0.1022065
223	0xbdde3ff1	-0.108520396
224	0x3d18f6b7	0.03734466
225	0xbe00f11a	-0.12591973
226	0xbdb512e6	-0.08841495
227	0xbcc2a136	-0.023758512
228	0x3d22e87d	0.0397725
229	0x3b2ee354	0.002668579
230	0xbd3b7228	-0.045763165
231	0xbdfeabde	-0.12435125
232	0x3d3c11bb	0.045915347
233	0x3dcad796	0.09904401
234	0xbcfbac09	-0.030721681
235	0xbcee4ecb	-0.029090306
236	0x3e209e79	0.15685453
237	0x3b3a3855	0.0028414924
238	0xbd1bdfbc	-0.038055167
239	0xbdc50d8d	-0.09621725
240	0xbd5a5b9c	-0.05331002
241	0xbd5e996b	-0.05434553
242	0xbbb1b6b1	-0.00542339
243	0xbde9a305	-0.11408047
244	0xbd0aa5c0	-0.033849478
245	0xbd3a2ab1	-0.04545087
246	0xbd579c8e	-0.052639537
247	0xbdf5fe22	-0.120113626
248	0xbe014d15	-0.1262706
249	0x3db512a9	0.0884145
250	0x3e0871da	0.13324681
251	0x3d9e005f	0.077149145
252	0xbe3aec1a	-0.18254128
253	0x3db5019c	0.088381976
254	0xbd6ac3ef	-0.057315763
255	0x3c8cbeb5	0.01718078

network_body._body_endoder.seq_layers.2.bias f4 [128]
0	0x00000000	0.0
1	0x00000000	0.0
2	0x00000000	0.0
3	0x00000000	0.0
4	0x00000000	0.0
5	0x00000000	0.0
6	0x00000000	0.0
7	0x00000000	0.0
8	0x00000000	0.0
9	0x00000000	0.0
10	0x00000000	0.0
11	0x00000000	0.0
12	0x00000000	0.0
13	0x00000000	0.0
14	0x00000000	0.0
15	0x00000000	0.0
16	0x00000000	0.0
17	0x00000000	0.0
18	0x00000000	0.0
19	0x00000000	0.0
20	0x00000000	0.0
21	0x00000000	0.0
22	0x00000000	0.0
23	0x00000000	0.0
24	0x00000000	0.0
25	0x00000000	0.0
26	0x00000000	0.0
27	0x00000000	0.0
28	0x00000000	0.0
29	0x00000000	0.0
30	0x00000000	0.0
31	0x00000000	0.0
32	0x00000000	0.0
33	0x00000000	0.0
34	0x00000000	0.0
35	0x00000000	0.0
36	0x00000000	0.0
37	0x00000000	0.0
38	0x00000000	0.0
39	0x00000000	0.0
40	0x00000000	0.0
41	0x00000000	0.0
42	0x00000000	0.0
43	0x00000000	0.0
44	0x00000000	0.0
45	0x00000000	0.0
46	0x00000000	0.0
47	0x00000000	0.0
48	0x00000000	0.0
49	0x00000000	0.0
50	0x00000000	0.0
51	0x00000000	0.0
52	0x00000000	0.0
53	0x00000000	0.0
54	0x00000000	0.0
55	0x00000000	0.0
56	0x00000000	0.0
57	0x00000000	0.0
58	0x00000000	0.0
59	0x00000000	0.0
60	0x00000000	0.0
61	0x00000000	0.0
62	0x00000000	0.0
63	0x00000000	0.0
64	0x00000000	0.0
65	0x00000000	0.0
66	0x00000000	0.0
67	0x00000000	0.0
68	0x00000000	0.0
69	0x00000000	0.0
70	0x00000000	0.0
71	0x00000000	0.0
72	0x00000000	0.0
73	0x00000000	0.0
74	0x00000000	0.0
75	0x00000000	0.0
76	0x00000000	0.0
77	0x00000000	0.0
78	0x00000000	0.0
79	0x00000000	0.0
80	0x00000000	0.0
81	0x00000000	0.0
82	0x00000000	0.0
83	0x00000000	0.0
84	0x00000000	0.0
85	0x00000000	0.0
86	0x00000000	0.0
87	0x00000000	0.0
88	0x00000000	0.0
89	0x00000000	0.0
90	0x00000000	0.0
91	0x00000000	0.0
92	0x00000000	0.0
93	0x00000000	0.0
94	0x00000000	0.0
95	0x00000000	0.0
96	0x00000000	0.0
97	0x00000000	0.0
98	0x00000000	0.0
99	0x00000000	0.0
100	0x00000000	0.0
101	0x00000000	0.0
102	0x00000000	0.0
103	0x00000000	0.0
104	0x00000000	0.0
105	0x00000000	0.0
106	0x00000000	0.0
107	0x00000000	0.0
108	0x00000000	0.0
109	0x00000000	0.0
110	0x00000000	0.0
111	0x00000000	0.0
112	0x00000000	0.0
113	0x00000000	0.0
114	0x00000000	0.0
115	0x00000000	0.0
116	0x00000000	0.0
117	0x00000000	0.0
118	0x00000000	0.0
119	0x00000000	0.0
120	0x00000000	0.0
121	0x00000000	0.0
122	0x00000000	0.0
123	0x00000000	0.0
124	0x00000000	0.0
125	0x00000000	0.0
126	0x00000000	0.0
127	0x00000000	0.0

action_model._continuous_distribution.log_sigma f4 [1, 2]
0	0x00000000	0.0
1	0x00000000	0.0

action_model._continuous_distribution.mu.weight f4 [2, 128]
0	0x3b899e73	0.004199797
1	0x3be11f25	0.006870168
2	0x3bcd5248	0.006265912
3	0x3cde8bcb	0.027166268
4	0xbcd50623	-0.026003903
5	0xbc611eff	-0.0137403
6	0x3c5d087a	0.0134907905
7	0xb9bb8397	-0.00035765462
8	0x3c1c7401	0.009549142
9	0x3b811d21	0.00394024
10	0x3bdea4b5	0.006794537
11	0xbcb20d31	-0.021734806
12	0xbceb38f3	-0.028713679
13	0xbcda014f	-0.026611952
14	0x3d3879d8	0.045038074
15	0x3c3f3f7f	0.0116728535
16	0x3c472d0d	0.012156737
17	0xbc377993	-0.011198419
18	0xbc27563a	-0.010213429
19	0x3ced203d	0.028946036
20	0xbb954eb0	-0.0045564994
21	0x3bf6fbf0	0.0075373575
22	0x3bad525f	0.0052893604
23	0xbc4bd644	-0.012441222
24	0x3ab8c5b0	0.0014097001
25	0xbcb99e33	-0.022658443
26	0x3cb1c372	0.02169964
27	0xbcf635b2	-0.0300549
28	0xbccafa52	-0.024777565
29	0xbc9e903a	-0.019355882
30	0xba993406	-0.0011688478
31	0xbcd5e61f	-0.026110707
32	0x3d4330f3	0.047654103
33	0x3c039f53	0.008033591
34	0xbc962d6f	-0.018332211
35	0x3a20cbaa	0.0006133864
36	0x3c17921e	0.009251146
37	0xbc635b53	-0.013876754
38	0xbbcfcbab	-0.006341418
39	0x3cd64fdf	0.026161132
40	0x3bdd5443	0.0067544295
41	0xbcbba9d7	-0.022908134
42	0x3c5c8bfb	0.013461108
43	0x3abd08f1	0.001442222
44	0x3d45a8a4	0.04825653
45	0x3be34fa7	0.0069369855
46	0xbb95dde0	-0.0045735687
47	0xbb262247	-0.002535002
48	0xba9d1ce2	-0.0011986757
49	0x3d4a68db	0.049416404
50	0x3c28e678	0.010308854
51	0x3ba587db	0.0050515956
52	0x3c993b81	0.018705131
53	0xbcd22f0b	-0.025657197
54	0xbd1a2d98	-0.037641138
55	0x3cf25d67	0.029585553
56	0x3c8a5f85	0.01689125
57	0x3bb9657b	0.0056578494
58	0x3c63997f	0.013891577
59	0x3afabb28	0.0019129263
60	0xbc4f2af3	-0.012644517
61	0x3cdf870a	0.027286071
62	0xbc08c571	-0.008347855
63	0x3cf7895d	0.030216867
64	0x3a41a059	0.00073862594
65	0xbbbe0b2c	-0.0057996716
66	0xbcbf8685	-0.023379574
67	0xbc04d70e	-0.008107914
68	0xbc3db378	-0.011578433
69	0x3cc63a4f	0.024197726
70	0xbb5bfaff	-0.0033566353
71	0x3c75a1b2	0.014992164
72	0x3b80bf38	0.003929045
73	0xbb350bf9	-0.0027625544
74	0x3c7db4b2	0.015484976
75	0xbc766a97	-0.015040061
76	0xbaaf83a1	-0.0013390669
77	0x3b65d6ba	0.0035070614
78	0xbc944033	-0.018097019
79	0xbbda8f7d	-0.006669937
80	0x3c25ae0f	0.0101123
81	0xbcb762bd	-0.02238595
82	0xbc22ce47	-0.009936876
83	0x3cf1f88f	0.029537467
84	0xbb5d2912	-0.0033746404
85	0xba5a59a2	-0.00083293964
86	0x3c7754eb	0.01509593
87	0xbbd342ef	-0.006447188
88	0xbc7310f7	-0.014835588
89	0xbcac7c3b	-0.021055331
90	0xbbdaaa83	-0.0066731586
91	0xbc42fcdd	-0.011901108
92	0xbbb863e5	-0.0056271427
93	0xbcf5b32d	-0.029992664
94	0xba0b40a7	-0.0005312063
95	0xbc129bdb	-0.008948292
96	0xbc845a42	-0.01615632
97	0xbc1fd80a	-0.009756098
98	0xbb61053f	-0.0034335402
99	0x3cb65be0	0.022260606
100	0x3c8ab7b3	0.016933298
101	0xbac3625d	-0.0014906634
102	0x3cbaefc7	0.022819413
103	0x3c27f849	0.010252067
104	0x3bc42e14	0.0059869383
105	0xbd05538f	-0.03255039
106	0xbc6c1aea	-0.014410714
107	0xbc4e98bf	-0.01260966
108	0xbb87c94e	-0.0041438704
109	0xbc261039	-0.010135704
110	0x3cd9af0f	0.026572732
111	0xb9541302	-0.00020224976
112	0xbc67c200	-0.014145374
113	0xbb011b83	-0.0019700236
114	0x3cc5242e	0.024065103
115	0x3d37a0a7	0.044830944
116	0x3b11cbdb	0.0022246751
117	0xbb8b78e0	-0.004256353
118	0x3cdba71a	0.026813079
119	0xbc103a5b	-0.0088029755
120	0xbcc1340c	-0.023584388
121	0x3ca89e47	0.020583285
122	0x3c4f947d	0.01266968
123	0x3c31eb05	0.010859256
124	0x3c22d2b4	0.009937931
125	0xbc8bf57d	-0.017084831
126	0x3a9622df	0.0011454484
127	0xbc7bca3a	-0.015368039
128	0x3b14e7d3	0.0022721186
129	0x3b44f5f8	0.0030053835
130	0xbce179b5	-0.027523855
131	0x3cce067d	0.025149578
132	0xbd00eaa8	-0.031473786
133	0x3c541b82	0.0129460115
134	0x3ca6d5fb	0.020365706
135	0x3c846897	0.016163154
136	0x3bde839b	0.006790591
137	0xbbbc0e38	-0.0057389997
138	0xbcdfe5e7	-0.027331306
139	0xbc64903a	-0.013950402
140	0xbc37f5d7	-0.011228046
141	0xbc362f2a	-0.011119643
142	0xbbf02e77	-0.007329758
143	0xbbf78bdb	-0.007554514
144	0xbc04b29c	-0.008099224
145	0x3d04c8ad	0.03241794
146	0xbc353df7	-0.011062137
147	0xbc9116f3	-0.017711138
148	0x3c19a8fb	0.009378667
149	0x3bfa8442	0.007645161
150	0xbc2a1a7a	-0.010382289
151	0x3c95f85b	0.018306902
152	0xbc49f9fe	-0.012327669
153	0x3b87e978	0.0041477047
154	0x3c9ea020	0.019363463
155	0xbc80d374	-0.015725829
156	0x3c10280f	0.008798613
157	0xbcbcb1ef	-0.023034064
158	0x3b9c6f28	0.004773993
159	0x3c60dc55	0.013724406
160	0xb983c037	-0.00025129478
161	0xbb1b32a9	-0.002368132
162	0xbc85ee0e	-0.016348865
163	0xb843be41	-4.666881e-05
164	0x3ae8ec3f	0.0017770602
165	0x3ca1373e	0.019679662
166	0x3cbd777c	0.023128264
167	0x3aeff457	0.0018307072
168	0x3b4f67d3	0.0031647577
169	0xba26f269	-0.00063685194
170	0x3bc60391	0.0060429056
171	0x3b4fbee8	0.0031699482
172	0xbc06250b	-0.008187543
173	0x3cbdb23e	0.023156282
174	0xbcaece82	-0.021338705
175	0xbcbb7c87	-0.022886528
176	0x3c5e7318	0.013577245
177	0x3c05173a	0.008123213
178	0x3c135ba3	0.008994016
179	0xbce9a41b	-0.028520634
180	0x3c1e37de	0.009656874
181	0xbc82cebf	-0.015967725
182	0x3bb481e2	0.0055086473
183	0xbc60d0a5	-0.01372162
184	0xbc63b107	-0.013897187
185	0x3b9b6ac6	0.004742953
186	0x3b9d7151	0.004804768
187	0xbc92cec3	-0.017920857
188	0xbc4283c0	-0.011872232
189	0xbce81480	-0.028330088
190	0xbce597f2	-0.028026555
191	0xbbf001c0	-0.0073244274
192	0x3cb31901	0.021862509
193	0xbc0928c9	-0.00837154
194	0xba75f9e8	-0.0009383247
195	0xbacfc5db	-0.0015851812
196	0xbcdbbbe5	-0.026822994
197	0xbd181830	-0.037132442
198	0xbbf206a8	-0.0073860474
199	0x3c58adf7	0.01322507
200	0x3b290c17	0.002579456
201	0x39d085db	0.00039772582
202	0xbc307f9b	-0.010772611
203	0xbae85da3	-0.0017728101
204	0xbc7e5fa2	-0.01552573
205	0xbd063a8f	-0.03277069
206	0xbb9c5162	-0.004770444
207	0x3cbd360f	0.023097066
208	0xbc3bb01e	-0.011455564
209	0x3c25ac34	0.010111857
210	0xbc297247	-0.010342187
211	0x3c1bff97	0.009521387
212	0x3cfff03f	0.031242488
213	0x3c8f4c3b	0.017492404
214	0x3cae37ab	0.021266779
215	0xbc81e809	-0.015857713
216	0x3c98ba22	0.018643443
217	0x3c672c83	0.0141097335
218	0xbca0e888	-0.01964213
219	0xbca97594	-0.020685948
220	0xbc097823	-0.008390459
221	0x3d292df2	0.041303582
222	0xbc26e483	-0.010186317
223	0xbd0bf256	-0.034166656
224	0x3cb21d7b	0.021742573
225	0x3c50ded2	0.012748437
226	0x3c3a5008	0.01137162
227	0x3cc0d7a3	0.023540324
228	0x3b475bda	0.0030419738
229	0x3c1bb401	0.0095033655
230	0xba72b8d3	-0.00092591083
231	0xba83883a	-0.0010035106
232	0x3cbe3b3f	0.02322161
233	0xbc2318f2	-0.009954678
234	0x3d05f498	0.032703966
235	0xbc749350	-0.0149277
236	0x3ce95e1d	0.02848726
237	0xbc1df373	-0.009640562
238	0x3c66bb58	0.014082752
239	0x3c5116e5	0.012761806
240	0xbc8ac8ae	-0.016941395
241	0xbc3d6c17	-0.011561415
242	0xbc1f7474	-0.009732354
243	0xbc82d362	-0.015969936
244	0xbc6b5c03	-0.014365199
245	0x3b768c55	0.0037620266
246	0x3c6a194b	0.014288257
247	0x3c2b57f1	0.010457979
248	0x3c1e939b	0.009678747
249	0x3b130fba	0.0022439794
250	0x3c6ca65d	0.014443961
251	0xbbe813aa	-0.0070824223
252	0xbc64d1a3	-0.013965997
253	0xbbd19102	-0.00639546
254	0x3ccf6400	0.025316238
255	0xbb626db0	-0.0034550242

action_model._continuous_distribution.mu.bias f4 [2]
0	0x00000000	0.0
1	0x00000000	0.0

network_body._body_endoder.seq_layers.0.weight f4 [128, 41]
0	0x3d9e741c	0.0773699
1	0x3e2807d0	0.1640923
2	0x3dcb151a	0.09916134
3	0x3dc29845	0.09501699
4	0x3eb45d3e	0.35227388
5	0xbeff2dc3	-0.498396
6	0xbd081faf	-0.03323334
7	0x3c87d0bb	0.016579023
8	0x3e0b6de3	0.13616137
9	0x3df5e130	0.12005842
10	0x3e823431	0.25430444
11	0xbdeb7645	-0.114971675
12	0xbd2f4bd5	-0.04279693
13	0xbddd9653	-0.10819688
14	0xbdd55604	-0.10416797
15	0xbe2e726c	-0.17035836
16	0x3de317ab	0.11088499
17	0xbe983f6e	-0.29735893
18	0xbe0a80a3	-0.13525634
19	0x3cdcdb1d	0.02695995
20	0xbd79d70d	-0.060996104
21	0xbe3e864f	-0.18605922
22	0xbe256f27	-0.16155683
23	0xbde78f2a	-0.11306603
24	0xbe1c0537	-0.15236364
25	0x3e285e76	0.16442284
26	0xbeae7cc8	-0.34079576
27	0x3cb20acd	0.021733666
28	0x3de1f2ff	0.11032676
29	0x3d22ba0a	0.039728202
30	0xbe693446	-0.22773847
31	0x3d0546f0	0.032538354
32	0x3e37ee73	0.17962055
33	0x3ebe2e0f	0.37144515
34	0x3d9f69df	0.07783865
35	0xbe73c655	-0.23806126
36	0x3cd92cbe	0.026510593
37	0x3e60f136	0.21967015
38	0xbdabddb5	-0.08391897
39	0x3d44045e	0.047855727
40	0xbeae7489	-0.34073284
41	0x3e36cf68	0.17852557
42	0x3c7cdca8	0.015433468
43	0x3ecd4ad3	0.4009615
44	0xbd115339	-0.035479758
45	0x3e5dfffc	0.21679682
46	0x3ca34d4c	0.019934319
47	0xbe5091dc	-0.20368141
48	0x3dc02e4b	0.0938383
49	0x3e3fe9e8	0.18741572
50	0xbe75a145	-0.239873
51	0xbea7e5e9	-0.32792595
52	0xbc7c69a1	-0.015406043
53	0x3df5af0f	0.119962804
54	0x3e096fb9	0.13421525
55	0xbe8a5730	-0.27019644
56	0xbd7f3c9f	-0.062313672
57	0xbc8021ed	-0.015641177
58	0x3d0a04ce	0.03369599
59	0x3e5ea150	0.21741223
60	0x3e45e2b3	0.1932476
61	0xbe5b15af	-0.2139499
62	0x3e05187d	0.12997623
63	0x3e1d746e	0.15376446
64	0xbe42acc7	-0.19011222
65	0x3d17eb3e	0.03708958
66	0xbc5759de	-0.013143985
67	0x3db60bcb	0.08888968
68	0x3df45eb2	0.11932124
69	0xbdea22c1	-0.1143241
70	0x3e14fbbd	0.14549156
71	0xbe7726a7	-0.24135838
72	0xbd8daa9c	-0.06917307
73	0x3d591466	0.05299797
74	0x3e6b6350	0.22987103
75	0xbe09a9ef	-0.13443731
76	0xbd2af150	-0.04173404
77	0xbd380d5a	-0.044934608
78	0x3be6927c	0.0070365053
79	0x3ebeb69e	0.372487
80	0x3e85a7d9	0.2610462
81	0xbd1fa464	-0.038975134
82	0xbe7d42e4	-0.24732548
83	0x3a0a5763	0.0005277304
84	0x3e274c47	0.16337691
85	0x3dfae3da	0.122504905
86	0x3dfae376	0.12250416
87	0x3e57c571	0.21071412
88	0x3bdb5019	0.006692898
89	0xbe603204	-0.2189408
90	0x3c53b0a3	0.012920531
91	0xbe16f6af	-0.1474254
92	0xbd9e6997	-0.077349834
93	0xbc80cb12	-0.015721831
94	0xbe283209	-0.16425337
95	0xbd953eaa	-0.07287343
96	0xbcd46e8f	-0.025931625
97	0x3cbd5039	0.023109542
98	0x3e034678	0.1281985
99	0xbe04cb15	-0.12968095
100	0x3d1c65b9	0.038182948
101	0xbc9a5012	-0.018837009
102	0xbd231e00	-0.039823532
103	0xbcae175c	-0.021251373
104	0x3e405041	0.18780614
105	0x3e19000e	0.14941427
106	0xbdf0aa49	-0.11751229
107	0xbd9ad2c8	-0.075597346
108	0xbe13d5a4	-0.14436966
109	0xbd9d6114	-0.07684532
110	0x3a20e61e	0.0006137806
111	0x3d219041	0.039444212
112	0x3eaa1dd0	0.3322587
113	0x3e487cbb	0.19578831
114	0x3e737009	0.23773207
115	0xbd9a03d2	-0.0752026
116	0x3ce062c4	0.027390845
117	0x3e3ff642	0.18746284
118	0x3c585eac	0.013206165
119	0xbe2ffe71	-0.17186905
120	0xbdd5b6a3	-0.10435226
121	0x3de1be02	0.11022569
122	0xbe5b9656	-0.21444067
123	0xbd0df42a	-0.03465668
124	0x3c304ad4	0.010760028
125	0x3dc7990a	0.09745987
126	0xbe05e892	-0.13077
127	0x3d0315bc	0.03200315
128	0xbd865ba9	-0.065604515
129	0x3d70c638	0.058782786
130	0xbd834a16	-0.06410615
131	0xbb80e36c	-0.003933361
132	0x3df0052a	0.11719735
133	0x3e222e22	0.15837911
134	0x3defde44	0.11712316
135	0xbe60bbfc	-0.2194671
136	0xbde7bb14	-0.11314979
137	0x3cc98a16	0.024601977
138	0xbdadce7e	-0.08486651
139	0xbdb1c337	-0.086798124
140	0x3d86c52e	0.06580578
141	0xbd8a96da	-0.06767054
142	0x3d3d2502	0.04617787
143	0x3d3b3004	0.04570009
144	0x3e9e6380	0.30935287
145	0xbd8fdd39	-0.07024617
146	0x3e93155c	0.28727233
147	0xbbcb0edf	-0.006196841
148	0xbe19a93a	-0.15005961
149	0xbdce9e19	-0.100887485
150	0xbd6403c9	-0.055667672
151	0x3e226878	0.15860164
152	0x3e32ca17	0.17459904
153	0xbc9b4749	-0.01895489
154	0xbda177cf	-0.0788418
155	0x3ed95e43	0.42454728
156	0x3ea37746	0.31926936
157	0x3e2876b6	0.16451535
158	0x3dcfc42f	0.10144841
159	0xbccf9773	-0.025340771
160	0xbe296a08	-0.16544354
161	0x3d2ac0c5	0.041687746
162	0xbe80373b	-0.25042138
163	0xbd4582c1	-0.0482204
164	0x3d9e5088	0.07730204
165	0x3da5f59d	0.08103488
166	0x3d3f2a86	0.046671413
167	0xbe0b65fe	-0.13613126
168	0xbe5aed18	-0.21379507
169	0x3e3e7d91	0.18602587
170	0xbe9d6bdd	-0.30746356
171	0xbe4ed1e2	-0.20197251
172	0x3e4813d7	0.19538818
173	0xbe31cc24	-0.1736303
174	0x3e4a19c8	0.19736397
175	0xbd4a092a	-0.049325146
176	0xbc70eb53	-0.014704543
177	0xbe630249	-0.2216884
178	0x3e203715	0.15646012
179	0x3d9015de	0.07035421
180	0xbe855982	-0.26044852
181	0xbbecddff	-0.0072286124
182	0xbde49cc3	-0.111627124
183	0x3d5a5bd5	0.053310234
184	0x3e3956fb	0.18099587
185	0xbe19e28e	-0.1502783
186	0xbeb96fe2	-0.36218172
187	0xbeb6a5ce	-0.35673374
188	0xbe89bda9	-0.26902512
189	0x3e7b8054	0.24560672
190	0xbd4fb4fc	-0.05070971
191	0x3e4428c7	0.1915618
192	0xbe28d74a	-0.16488376
193	0x3d412400	0.047153473
194	0x3e8f4d73	0.27988777
195	0xbdb6a095	-0.08917347
196	0xbdf38cb2	-0.1189207
197	0xbdb95f73	-0.090514086
198	0x3b8da549	0.004322682
199	0xbddd23fb	-0.10797878
200	0x3dc8e34c	0.098089784
201	0x383d3ebe	4.5119545e-05
202	0xbae85b26	-0.001772736
203	0x3e32f56b	0.17476432
204	0xbe4a3d4c	-0.19749945
205	0xbe362347	-0.17786895
206	0x3e368511	0.17824198
207	0xbe59b726	-0.21261272
208	0xbe2c51f4	-0.16828138
209	0x3d17f0c1	0.037094835
210	0xbe8b9e2f	-0.27269122
211	0xbe29d696	-0.16585764
212	0x3e51c700	0.20486069
213	0x3e166406	0.14686593
214	0x3e0a96fa	0.13534155
215	0x3b1c3c7a	0.0023839758
216	0x3e6516e4	0.22372013
217	0x3e1126ca	0.14174953
218	0xba81077c	-0.000984415
219	0xbc298bfb	-0.010348315
220	0xbe07efcf	-0.13275073
221	0xbdddbfdf	-0.10827612
222	0xbd4571c0	-0.048204184
223	0xbe475f5d	-0.19469972
224	0x3d6a75e8	0.05724135
225	0x3e4b1c0b	0.19834916
226	0x3c5fcc33	0.013659525
227	0xbe05f196	-0.13080439
228	0x3cfc54cc	0.030802153
229	0x3d92c22f	0.07165944
230	0xbd6088c1	-0.05481792
231	0xbdb1f555	-0.086893715
232	0xbead8051	-0.3388696
233	0x3e1c35ca	0.15254894
234	0xbd43cd95	-0.04780348
235	0xbe347117	-0.17621265
236	0xbd0aae5c	-0.03385769
237	0x3dafff89	0.08593661
238	0xbcf484cc	-0.029848479
239	0x3ceb167c	0.028697245
240	0x3c5aff07	0.013366467
241	0x3d86897d	0.065691926
242	0x3e3d0160	0.18457556
243	0xbe5a34ee	-0.21309254
244	0x3e514f50	0.20440412
245	0x3cd040f2	0.025421593
246	0xbe30061b	-0.17189829
247	0x3d74b3d7	0.05974182
248	0x3e70c2f0	0.23511863
249	0xbdba75f5	-0.0910453
250	0xbddf93cc	-0.10916862
251	0xbb5ae44f	-0.0033400243
252	0xbe89b986	-0.26899356
253	0x3d3827a5	0.044959683
254	0xbe217d67	-0.15770493
255	0x3dd0c791	0.10194314

network_body._body_endoder.seq_layers.0.bias f4 [128]
0	0x00000000	0.0
1	0x00000000	0.0
2	0x00000000	0.0
3	0x00000000	0.0
4	0x00000000	0.0
5	0x00000000	0.0
6	0x00000000	0.0
7	0x00000000	0.0
8	0x00000000	0.0
9	0x00000000	0.0
10	0x00000000	0.0
11	0x00000000	0.0
12	0x00000000	0.0
13	0x00000000	0.0
14	0x00000000	0.0
15	0x00000000	0.0
16	0x00000000	0.0
17	0x00000000	0.0
18	0x00000000	0.0
19	0x00000000	0.0
20	0x00000000	0.0
21	0x00000000	0.0
22	0x00000000	0.0
23	0x00000000	0.0
24	0x00000000	0.0
25	0x00000000	0.0
26	0x00000000	0.0
27	0x00000000	0.0
28	0x00000000	0.0
29	0x00000000	0.0
30	0x00000000	0.0
31	0x00000000	0.0
32	0x00000000	0.0
33	0x00000000	0.0
34	0x00000000	0.0
35	0x00000000	0.0
36	0x00000000	0.0
37	0x00000000	0.0
38	0x00000000	0.0
39	0x00000000	0.0
40	0x00000000	0.0
41	0x00000000	0.0
42	0x00000000	0.0
43	0x00000000	0.0
44	0x00000000	0.0
45	0x00000000	0.0
46	0x00000000	0.0
47	0x00000000	0.0
48	0x00000000	0.0
49	0x00000000	0.0
50	0x00000000	0.0
51	0x00000000	0.0
52	0x00000000	0.0
53	0x00000000	0.0
54	0x00000000	0.0
55	0x00000000	0.0
56	0x00000000	0.0
57	0x00000000	0.0
58	0x00000000	0.0
59	0x00000000	0.0
60	0x00000000	0.0
61	0x00000000	0.0
62	0x00000000	0.0
63	0x00000000	0.0
64	0x00000000	0.0
65	0x00000000	0.0
66	0x00000000	0.0
67	0x00000000	0.0
68	0x00000000	0.0
69	0x00000000	0.0
70	0x00000000	0.0
71	0x00000000	0.0
72	0x00000000	0.0
73	0x00000000	0.0
74	0x00000000	0.0
75	0x00000000	0.0
76	0x00000000	0.0
77	0x00000000	0.0
78	0x00000000	0.0
79	0x00000000	0.0
80	0x00000000	0.0
81	0x00000000	0.0
82	0x00000000	0.0
83	0x00000000	0.0
84	0x00000000	0.0
85	0x00000000	0.0
86	0x00000000	0.0
87	0x00000000	0.0
88	0x00000000	0.0
89	0x00000000	0.0
90	0x00000000	0.0
91	0x00000000	0.0
92	0x00000000	0.0
93	0x00000000	0.0
94	0x00000000	0.0
95	0x00000000	0.0
96	0x00000000	0.0
97	0x00000000	0.0
98	0x00000000	0.0
99	0x00000000	0.0
100	0x00000000	0.0
101	0x00000000	0.0
102	0x00000000	0.0
103	0x00000000	0.0
104	0x00000000	0.0
105	0x00000000	0.0
106	0x00000000	0.0
107	0x00000000	0.0
108	0x00000000	0.0
109	0x00000000	0.0
110	0x00000000	0.0
111	0x00000000	0.0
112	0x00000000	0.0
113	0x00000000	0.0
114	0x00000000	0.0
115	0x00000000	0.0
116	0x00000000	0.0
117	0x00000000	0.0
118	0x00000000	0.0
119	0x00000000	0.0
120	0x00000000	0.0
121	0x00000000	0.0
122	0x00000000	0.0
123	0x00000000	0.0
124	0x00000000	0.0
125	0x00000000	0.0
126	0x00000000	0.0
127	0x00000000	0.0

network_body._body_endoder.seq_layers.2.weight f4 [128, 128]
0	0x3db6afcf	0.089202516
1	0xbd02aeaa	-0.031904854
2	0x3dd82b63	0.1055515
3	0xbe259b23	-0.16172461
4	0xbdf3dd9f	-0.11907505
5	0x3dd6965e	0.10477899
6	0xbd21460b	-0.03937344
7	0xbda15629	-0.07877762
8	0x3dafc288	0.08582026
9	0xbc85462e	-0.016268816
10	0xbcbbcbdd	-0.022924358
11	0xbdd438ee	-0.10362421
12	0x3dcad6a1	0.099042185
13	0x3b34364c	0.0027498184
14	0x3d97f6d3	0.07420125
15	0x3d3a8de3	0.04554547
16	0xbda29752	-0.07939018
17	0xbe1868c3	-0.14883713
18	0xbdc9ceaa	-0.09853871
19	0x3c51192e	0.012762351
20	0x3c92ef10	0.01793626
21	0xbc2c49a3	-0.010515603
22	0x3df6edcc	0.12057075
23	0xbbb588aa	-0.0055399733
24	0x3ccf41aa	0.025299866
25	0xbcd7a681	-0.026324512
26	0x3d0c5bd5	0.034267265
27	0xbca079ad	-0.01958927
28	0x3d043e26	0.032285832
29	0x3e238a0a	0.15970626
30	0xbccbd93d	-0.02488386
31	0x3cc575dd	0.024104053
32	0x3ddb72fe	0.107152924
33	0x3c2873ac	0.010281485
34	0xbcc7bdd1	-0.024382504
35	0x3dd17556	0.10227458
36	0x3d28b606	0.041189216
37	0xbc293e44	-0.010329787
38	0x3e19f377	0.1503428
39	0x3d8048a5	0.06263856
40	0xbe0d0c88	-0.13774312
41	0x3e130266	0.14356384
42	0x3c7529a6	0.014963543
43	0xbe051dc8	-0.12999642
44	0xbe4e04d4	-0.2011903
45	0x3cc6d41f	0.02427107
46	0xbd72fc29	-0.05932251
47	0x3d91b8f1	0.07115353
48	0x3c8b85ad	0.017031515
49	0xbda043c9	-0.07825429
50	0xbdbdb768	-0.092634976
51	0x3c4b2410	0.012398735
52	0xbe15551d	-0.1458325
53	0xbd2f0401	-0.042728428
54	0x3d85a619	0.06525821
55	0xbd98e5f0	-0.07465732
56	0x3d06bb2d	0.03289335
57	0xbd95bec3	-0.073117755
58	0xbe1879be	-0.14890191
59	0xbca3a50b	-0.01997616
60	0xbd1fe0f4	-0.03903289
61	0xbdde1f84	-0.10845855
62	0x3c6eb8ca	0.014570424
63	0xbd180239	-0.037111495
64	0x3dba3017	0.09091204
65	0xbbe063bc	-0.0068478268
66	0x3c161211	0.009159581
67	0xbc24766f	-0.010038002
68	0xbd8b1451	-0.067909844
69	0xbd34eb3f	-0.04416966
70	0x3d150b85	0.03638794
71	0xbd056dd2	-0.032575436
72	0x3b1b03fc	0.0023653498
73	0x3b63e8e2	0.003477626
74	0x3e5f72c1	0.21821119
75	0x3d53698d	0.051614333
76	0x3ddde1c0	0.10834074
77	0x3da73b68	0.08165628
78	0xbd3ba252	-0.045809098
79	0x3cac15a8	0.02100642
80	0xbdc7a497	-0.0974819
81	0x3c9db657	0.019251985
82	0xbd72a7f6	-0.05924221
83	0xbdad0769	-0.08448679
84	0xbdfb83f0	-0.122810245
85	0xbc21a845	-0.009866779
86	0x3c97ab45	0.018514285
87	0x3d467a20	0.04845631
88	0xbb87d2c4	-0.0041449983
89	0x3c4c1891	0.012457029
90	0x3d4d9e00	0.05019951
91	0x3c7b760a	0.015347967
92	0xbde49b4a	-0.111624315
93	0xbe004361	-0.12525703
94	0x3daee9b2	0.085406676
95	0xbd9bdae6	-0.07610111
96	0x3da92e96	0.08260839
97	0x3e1704ca	0.1474792
98	0xbd1949ad	-0.03742378
99	0x3d8fa6ba	0.070142224
100	0x3ded2469	0.1157921
101	0x3d9645ad	0.07337508
102	0x3d8e787f	0.069565766
103	0xbd80c824	-0.06288174
104	0xbddcf45f	-0.107887976
105	0xbd8d2e4a	-0.068935946
106	0xbd5270de	-0.05137717
107	0xbcbb98f9	-0.022900091
108	0x3e08a0c6	0.1334258
109	0xbde68246	-0.112553164
110	0xbc416b8b	-0.011805425
111	0xbc586349	-0.013207265
112	0x3d930302	0.07178308
113	0xbd8ed758	-0.06974667
114	0x3db8b580	0.090189934
115	0xbd63c377	-0.05560633
116	0xbd9286d8	-0.07154626
117	0x3be54ad5	0.006997446
118	0x3dfa3766	0.12217598
119	0x3b12bed3	0.0022391572
120	0xbdac7dfc	-0.08422467
121	0xbc31df6d	-0.0108564915
122	0x3e52736c	0.20551842
123	0x3d35c592	0.04437787
124	0x3e1b97e7	0.15194665
125	0x3e22df4f	0.15905498
126	0x3d60feb4	0.054930404
127	0x3dabc464	0.08387068
128	0xbac7f2d6	-0.0015254866
129	0xbdacd8d2	-0.08439793
130	0xbcd26c59	-0.02568643
131	0xb9e4e564	-0.00043658458
132	0xbe261a61	-0.16221
133	0x3dde9fcb	0.10870322
134	0xbc8bc742	-0.017062787
135	0x3d15c69c	0.03656636
136	0x3d334f12	0.04377658
137	0x3d8b69dc	0.068073004
138	0xbc8ab8fe	-0.016933914
139	0xbc8597ab	-0.016307672
140	0x3e2200de	0.15820643
141	0x3e440972	0.19144228
142	0xbd9f0272	-0.07764138
143	0xbe0fadc9	-0.14031138
144	0x3d38f82c	0.04515855
145	0x3c139150	0.009006813
146	0x3dd27641	0.102764614
147	0xbdf2bded	-0.11852632
148	0xbd275385	-0.040851135
149	0xbcd7a7c2	-0.02632511
150	0x3cd5762c	0.026057325
151	0xbd14c617	-0.036321726
152	0xbda26b08	-0.07930571
153	0xbb2298cc	-0.0024810312
154	0x3d04183c	0.032249674
155	0xbd9c20bd	-0.07623432
156	0xbce6b8e9	-0.028164344
157	0x3e03e44a	0.12880054
158	0xbbc92cd1	-0.0061393757
159	0x3cc46bd6	0.023977201
160	0xbcab9f68	-0.020950034
161	0xbd6acab3	-0.057322215
162	0xbdbe254d	-0.09284458
163	0xbd2addbd	-0.041715372
164	0x3d5c36c9	0.053763185
165	0xbd85a97e	-0.06526469
166	0x3dd11caf	0.10210549
167	0x3e88dbfe	0.2673034
168	0xbdb42c90	-0.08797562
169	0x3d50ecdf	0.051007148
170	0xbc894479	-0.016756283
171	0xbe01448d	-0.12623806
172	0x3e1cd019	0.15313758
173	0x3de8ca6f	0.11366736
174	0x3e0d5233	0.13800888
175	0xbd731d58	-0.059354156
176	0xbb240903	-0.0025029785
177	0x3df64ca4	0.12026337
178	0x3de59be3	0.11211374
179	0x3dd94679	0.10609145
180	0x3d429c8d	0.04751258
181	0xbcc450b4	-0.023964263
182	0x3d1d4598	0.038396448
183	0x3ce19782	0.027538065
184	0xbe28ea2b	-0.16495578
185	0x3d1fb31d	0.038989175
186	0xbdda9c49	-0.1067434
187	0xbc6490c5	-0.013950531
188	0xbd828747	-0.06373458
189	0xbdbeb6a9	-0.093121834
190	0x3ca04a6b	0.019566735
191	0xbe1eb2c6	-0.15497884
192	0x3dea1f11	0.11431707
193	0xbd470e2f	-0.04859751
194	0x3de0f9ff	0.10985183
195	0xbc981975	-0.018566826
196	0xbe16650b	-0.14686982
197	0x3d81537c	0.063147515
198	0x3e077e9f	0.13231896
199	0xbda6aed4	-0.081388146
200	0xbe11358a	-0.1418058
201	0xbd90b8bb	-0.070664845
202	0xbd3ed106	-0.04658606
203	0xbe1d6b37	-0.1537293
204	0xbc9bde1a	-0.019026805
205	0xbcd26622	-0.025683466
206	0x3d5c1cb1	0.0537383
207	0xbc08d6fc	-0.0083520375
208	0x3dca9978	0.09892553
209	0x3d6597bf	0.05605292
210	0x3b117150	0.0022192784
211	0xbe2ec72a	-0.17068163
212	0x3d0d022f	0.03442591
213	0x3de67f0a	0.112546995
214	0x3e259ff8	0.16174304
215	0xbdc4619e	-0.095889315
216	0xbd938319	-0.07202739
217	0x3c7ffe3f	0.015624582
218	0xbe45f33b	-0.19331066
219	0x3cb6ab24	0.022298403
220	0x3d2216d6	0.03957256
221	0x3de0139a	0.10941239
222	0x3dba62ea	0.091008976
223	0x3dfc7fbf	0.12329053
224	0x3bd2c92f	0.0064326744
225	0xbcb73026	-0.022361826
226	0xb9822ba3	-0.00024828044
227	0xbd8c8479	-0.06861205
228	0x3d539ee0	0.051665187
229	0x3e02061d	0.12697645
230	0xbe120f2a	-0.14263597
231	0xbe00e513	-0.12587385
232	0x3df7efb3	0.12106266
233	0x3da9a6a6	0.08283739
234	0x3d2f9534	0.0428669
235	0xbda38879	-0.079850145
236	0xbe04f278	-0.1298312
237	0xbe028cb4	-0.12748986
238	0xbcf567a6	-0.02995665
239	0xbc10a1b1	-0.008827613
240	0x3d3926c7	0.045202997
241	0xbdbbfec8	-0.09179455
242	0x3d978ca3	0.07399871
243	0x3d2e49b9	0.042550776
244	0xbbd43f00	-0.0064772367
245	0x3c65c309	0.014023551
246	0xbd6d46fc	-0.057929024
247	0x3c14e103	0.00908685
248	0x3d0f5408	0.034992248
249	0x3da5c403	0.08094027
250	0xbd03c04c	-0.03216581
251	0xbdd1fe8b	-0.10253628
252	0x3d652b03	0.055949222
253	0x3dd9b3cb	0.10629996
254	0x3cfdf0bd	0.030998582
255	0xbc4e4d3e	-0.012591658

network_body._body_endoder.seq_layers.2.bias f4 [128]
0	0x00000000	0.0
1	0x00000000	0.0
2	0x00000000	0.0
3	0x00000000	0.0
4	0x00000000	0.0
5	0x00000000	0.0
6	0x00000000	0.0
7	0x00000000	0.0
8	0x00000000	0.0
9	0x00000000	0.0
10	0x00000000	0.0
11	0x00000000	0.0
12	0x00000000	0.0
13	0x00000000	0.0
14	0x00000000	0.0
15	0x00000000	0.0
16	0x00000000	0.0
17	0x00000000	0.0
18	0x00000000	0.0
19	0x00000000	0.0
20	0x00000000	0.0
21	0x00000000	0.0
22	0x00000000	0.0
23	0x00000000	0.0
24	0x00000000	0.0
25	0x00000000	0.0
26	0x00000000	0.0
27	0x00000000	0.0
28	0x00000000	0.0
29	0x00000000	0.0
30	0x00000000	0.0
31	0x00000000	0.0
32	0x00000000	0.0
33	0x00000000	0.0
34	0x00000000	0.0
35	0x00000000	0.0
36	0x00000000	0.0
37	0x00000000	0.0
38	0x00000000	0.0
39	0x00000000	0.0
40	0x00000000	0.0
41	0x00000000	0.0
42	0x00000000	0.0
43	0x00000000	0.0
44	0x00000000	0.0
45	0x00000000	0.0
46	0x00000000	0.0
47	0x00000000	0.0
48	0x00000000	0.0
49	0x00000000	0.0
50	0x00000000	0.0
51	0x00000000	0.0
52	0x00000000	0.0
53	0x00000000	0.0
54	0x00000000	0.0
55	0x00000000	0.0
56	0x00000000	0.0
57	0x00000000	0.0
58	0x00000000	0.0
59	0x00000000	0.0
60	0x00000000	0.0
61	0x00000000	0.0
62	0x00000000	0.0
63	0x00000000	0.0
64	0x00000000	0.0
65	0x00000000	0.0
66	0x00000000	0.0
67	0x00000000	0.0
68	0x00000000	0.0
69	0x00000000	0.0
70	0x00000000	0.0
71	0x00000000	0.0
72	0x00000000	0.0
73	0x00000000	0.0
74	0x00000000	0.0
75	0x00000000	0.0
76	0x00000000	0.0
77	0x00000000	0.0
78	0x00000000	0.0
79	0x00000000	0.0
80	0x00000000	0.0
81	0x00000000	0.0
82	0x00000000	0.0
83	0x00000000	0.0
84	0x00000000	0.0
85	0x00000000	0.0
86	0x00000000	0.0
87	0x00000000	0.0
88	0x00000000	0.0
89	0x00000000	0.0
90	0x00000000	0.0
91	0x00000000	0.0
92	0x00000000	0.0
93	0x00000000	0.0
94	0x00000000	0.0
95	0x00000000	0.0
96	0x00000000	0.0
97	0x00000000	0.0
98	0x00000000	0.0
99	0x00000000	0.0
100	0x00000000	0.0
101	0x00000000	0.0
102	0x00000000	0.0
103	0x00000000	0.0
104	0x00000000	0.0
105	0x00000000	0.0
106	0x00000000	0.0
107	0x00000000	0.0
108	0x00000000	0.0
109	0x00000000	0.0
110	0x00000000	0.0
111	0x00000000	0.0
112	0x00000000	0.0
113	0x00000000	0.0
114	0x00000000	0.0
115	0x00000000	0.0
116	0x00000000	0.0
117	0x00000000	0.0
118	0x00000000	0.0
119	0x00000000	0.0
120	0x00000000	0.0
121	0x00000000	0.0
122	0x00000000	0.0
123	0x00000000	0.0
124	0x00000000	0.0
125	0x00000000	0.0
126	0x00000000	0.0
127	0x00000000	0.0

value_heads.value_heads.extrinsic.weight f4 [1, 128]
0	0x3cc44cf0	0.023962468
1	0x3b54de40	0.0032481104
2	0x3e4d93fc	0.20075983
3	0xbd9eddd4	-0.07757154
4	0xbe52a9a3	-0.20572524
5	0x3c10efc0	0.008846223
6	0xbdbd18c6	-0.09233241
7	0xbddd519b	-0.10806581
8	0xbe44a470	-0.19203353
9	0x3e009156	0.12555441
10	0xbe423667	-0.18966065
11	0x3e2d419a	0.16919556
12	0x3da33490	0.0796901
13	0xbd565c78	-0.05233428
14	0x3c996108	0.018723026
15	0x3dd8d70c	0.10587892
16	0x3e541a3e	0.20713136
17	0x3df8008c	0.12109479
18	0xbded8843	-0.115982555
19	0x3dc7cee0	0.09756255
20	0xbe394bfa	-0.18095389
21	0x3e298fba	0.16558734
22	0xbad2ff80	-0.0016097873
23	0xbe1279c5	-0.14304264
24	0x3c3c3950	0.011488274
25	0x3d8949c0	0.0670352
26	0xbd4e03b0	-0.050296485
27	0xbdb8db12	-0.09026159
28	0x3d75fbc0	0.06005454
29	0x3e15325e	0.14569995
30	0x3e2c181e	0.16806075
31	0x3e1856c6	0.14876851
32	0xbe526964	-0.20548016
33	0x3e0ef062	0.13958886
34	0x3dc2f32c	0.095190376
35	0xbe045e7f	-0.12926672
36	0xbd5fb070	-0.054611623
37	0x3e032a62	0.12809137
38	0x3e40e708	0.18838131
39	0xbdd99f10	-0.10626042
40	0xbe28eefd	-0.16497417
41	0xbdafd2d4	-0.08585134
42	0x3e2fa8d0	0.1715424
43	0x3e4acbbe	0.19804284
44	0xbe0bcbfc	-0.13652033
45	0x3e20b6e4	0.15694767
46	0xbe44b47f	-0.19209479
47	0x3e4cd558	0.20003259
48	0x3df3f618	0.11912173
49	0xbd49f940	-0.04930997
50	0x3e543ce8	0.20726359
51	0x3cd3b0e0	0.025841177
52	0x3e044ce6	0.1291996
53	0x3e162d18	0.1466564
54	0xbc97cd38	-0.018530473
55	0xbcbb8eb0	-0.022895187
56	0x3e0460ce	0.12927553
57	0xbe5419b3	-0.20712928
58	0x3dc3d31c	0.0956175
59	0xbd3838a4	-0.04497589
60	0xbe01d54a	-0.1267902
61	0x3c1aa740	0.00943929
62	0x3d871908	0.06596571
63	0x3daf24e0	0.08551955
64	0xbe176d83	-0.14787869
65	0x3e5630c0	0.20917034
66	0xbdbbe20a	-0.09173973
67	0xbd8d336c	-0.068945736
68	0x3e320c4e	0.17387506
69	0x3e149888	0.14511311
70	0xbe3a314a	-0.18182865
71	0xbc9d7748	-0.019221917
72	0xbcf163e0	-0.02946657
73	0xbd369090	-0.04457146
74	0x3d2b13f0	0.04176706
75	0xbe587030	-0.21136546
76	0x3e19f6e6	0.1503559
77	0x3e005f24	0.12536293
78	0x3e4bb04e	0.19891474
79	0xbdb8ae1e	-0.09017585
80	0xbd13a6f4	-0.03604789
81	0x3d7657f0	0.060142457
82	0x3ba67940	0.005080372
83	0xbc9cc048	-0.019134656
84	0x3d92c12c	0.07165751
85	0xbe5b5904	-0.21420676
86	0xbe14c8bf	-0.14529704
87	0x3e219bf0	0.15782142
88	0x3e095074	0.13409597
89	0xbd9f90d6	-0.07791297
90	0xbc5eef90	-0.013606921
91	0x3d289b20	0.041163564
92	0xbc2dda40	-0.010611117
93	0xbc644770	-0.013933048
94	0xbe547703	-0.20748524
95	0xbe22d2f2	-0.15900782
96	0xbd4f85a0	-0.050664544
97	0x3d0eb288	0.03483823
98	0x3d958e0c	0.07302484
99	0x3e55bd6a	0.20873037
100	0xbe071bf0	-0.13194251
101	0xbdff7104	-0.12472728
102	0x3ddb2d1c	0.10701963
103	0xbd6d7888	-0.057976276
104	0xbda4f430	-0.080543876
105	0x3d42a558	0.047520965
106	0x3e4d538e	0.20051405
107	0x3d97e474	0.07416621
108	0xbe53fd64	-0.2070213
109	0x3e508df2	0.20366648
110	0xbdae09c0	-0.084979534
111	0x3d6a1c38	0.057155818
112	0xbe5c4ed0	-0.2151444
113	0xbe4586ac	-0.19289654
114	0x3dae9e30	0.085262656
115	0xbe312513	-0.17299299
116	0x3d1b87b0	0.0379712
117	0x3e21406c	0.15747231
118	0xbdb2b57c	-0.08726022
119	0x3b955780	0.00455755
120	0xbe37cb7e	-0.1794872
121	0xbe2f986b	-0.17147987
122	0xbe3a9619	-0.1822132
123	0x3d661638	0.056173533
124	0xbde7c050	-0.113159776
125	0xbe143dd8	-0.14476717
126	0x3e090e28	0.13384306
127	0xbcd41978	-0.02589105
