results/firstTest/My Behavior/My Behavior-3984.pt (torch, 185586 bytes, 12 tensors)

network_body._body_endoder.seq_layers.0.weight f4 [128, 41]
0.051367983 0.026457392 -0.00034838394 0.16668428 0.17839809 -0.17441301 -0.15449864 -0.01789451
0.038253754 -0.23672287 -0.28708088 0.39236146 -0.109867446 0.2626433 -0.1132618 0.06338091
-0.098905385 0.017880484 -0.14432098 0.23331961 0.056734532 -0.07124797 0.010573971 0.022717524
-0.26641393 -0.024653772 -0.104649976 0.05524476 0.35107782 -0.069689594 0.06502076 0.07138068
0.08859614 0.038288627 0.084174804 0.16779654 0.2989333 -0.018081078 0.0064697713 -0.41661647
-0.05853198 0.06638601 0.31742948 0.024621742 -0.020710777 0.06254018 -0.072165206 -0.24275205
0.036158886 -0.090504244 0.011957117 -0.19752735 0.058717575 -0.010696966 0.08182398 0.24404013
0.14299828 0.026146963 -0.26489016 -0.14587161 -0.1293187 0.034172878 -0.10413437 -0.09488952
-0.06104046 -0.10739336 0.14180787 0.0449392 0.22907916 0.03334029 0.025267567 -0.06754148
0.0076450305 0.20012711 -0.21092217 0.14552604 -0.044236112 0.19624245 0.14397572 -0.29611826
-0.08903309 -0.23907742 -0.003160002 0.0512767 -0.029141184 -0.009242564 0.11820356 0.09827542
0.45805296 0.082121685 -0.057856716 -0.12643123 -0.19815345 0.20110483 0.18672912 -0.24281894
-0.019681232 0.18942542 -0.28807774 -0.07019895 -0.02539323 0.18827818 0.1776479 -0.087270744
0.4132516 0.0009652337 -0.272901 -0.086312614 0.03245661 -0.014246197 0.27112755 0.16131979
0.017477222 -0.055812426 -0.008649472 -0.17842269 0.0777661 0.15705338 -0.06860904 0.1220894
0.15867572 0.0517639 0.123577826 -0.07123756 0.31147504 -0.25701421 -0.112039454 -0.25740284
0.21677195 -0.32176647 0.023238217 -0.2227829 0.0031021521 -0.08818425 0.04483953 -0.04007695
-0.049726404 -0.106826045 -0.15701787 -0.05726218 -0.06985507 0.11365451 0.27503508 0.26347202
0.32119346 -0.27844673 -0.09599582 -0.02330762 -0.19085212 -0.04321154 0.32347807 0.024703545
0.027582094 -0.11769791 -0.042163752 0.09412775 -0.0051611434 0.07968397 -0.21948166 -0.30711883
0.0060363347 -0.12586409 -0.0045218715 0.21320616 0.19498982 0.11193262 -0.030538952 -0.04991168
0.17295262 0.05868194 0.14497246 0.20980935 -0.15248828 -0.115666114 0.10672566 0.059191506
-0.1250964 0.054226033 -0.26364154 0.027551476 -0.08995575 0.09526534 0.19533479 0.10014138
-0.085780874 0.0068183164 0.057263747 0.040081527 0.2691778 0.11685603 0.098429844 -0.05932888
0.22665845 -0.05748489 -0.13028829 -0.18514358 -0.07442361 0.037671488 0.044875126 -0.062756605
-0.13110633 0.05999196 0.11629571 0.24203636 -0.039461955 -0.19111122 0.16653849 0.06568922
0.014761168 -0.17553899 -0.06373953 0.01752986 -0.004663694 -0.17075433 0.15226246 0.1780984
-0.10597465 0.20654716 0.017900148 0.040161148 -0.20640866 0.17698324 0.13669354 0.015505386
0.08504684 0.3003004 -0.10989345 0.05524942 0.12749471 0.2917645 0.21412115 -0.047324914
-0.02506866 0.209011 0.12220878 -0.12547871 0.19321147 0.01280446 0.057740685 0.029553825
0.07418178 -0.07925476 -0.011097414 -0.16366497 0.07625017 0.28133225 0.1379463 0.1827662
0.10694359 -0.0677956 -0.038978033 0.039162546 0.12385938 -0.282834 0.18233418 -0.08883293
00000000: 3c67 523d 2cbd d83c 4da7 b6b9 49af 2a3e
00000010: fdad 363e 5399 32be e434 1ebe 8297 92bc
00000020: f8af 1c3d 7b67 72be 44fc 92be 9ae3 c83e
00000030: 2f02 e1bd 2f79 863e cdf5 e7bd dacd 813d
00000040: e88e cabd 187a 923c e1c8 13be 56eb 6e3e
00000050: 7862 683d 75ea 91bd 733e 2d3c 1a1a ba3c
00000060: 6867 88be b5f6 c9bc ba52 d6bd 5448 623d
00000070: 79c0 b33e 6bb9 8ebd 9b29 853d 0930 923d
00000080: e571 b53d 89d4 1c3d d763 ac3d dbd2 2b3e
00000090: c90d 993e c51e 94bc 6000 d43b c14e d5be
000000a0: 3bbf 6fbd 63f5 873d 1e86 a23e 89b3 c93c
000000b0: a6a9 a9bc 1115 803d 5acb 93bd fe93 78be
000000c0: 571b 143d 4a5a b9bd c9e7 433c 9c44 4abe
000000d0: d781 703d 5442 2fbc 5593 a73d a8e5 793e
000000e0: 246e 123e 2832 d63c af9f 87be 5e5f 15be
000000f0: 1f6c 04be dcf8 0b3d 6744 d5bd 7055 c2bd
00000100: 9005 7abd 0df1 dbbd 1536 113e 2b12 383d
00000110: ba93 6a3e d48f 083d eefd ce3c 3053 8abd
00000120: 2a83 fa3b 1fee 4c3e fbfb 57be c704 153e
00000130: ed30 35bd c8f3 483e 5f6e 133e d09c 97be
00000140: fb56 b6bd b6d0 74be 0918 4fbb 8407 523d
00000150: 7eb9 eebc 206e 17bc b514 f23d a044 c93d
00000160: eb85 ea3e 6a2f a83d 2afb 6cbd 3077 01be
00000170: bde8 4abe 6dee 4d3e eb35 3f3e 87a5 78be
00000180: 893a a1bc bdf8 413e ed7e 93be 78c4 8fbd
00000190: 7705 d0bc ffcb 403e 55e9 353e 01bb b2bd
000001a0: b795 d33e bd07 7d3a aeb9 8bbe abc4 b0bd
000001b0: 39f1 043d e268 69bc 3bd1 8a3e 0431 253e
000001c0: 642c 8f3c 929b 64bd 84b6 0dbc 70b4 36be
000001d0: d543 9f3d 9ad2 203e e582 8cbd 020a fa3d
000001e0: e37b 223e 6206 543d 5f16 fd3d ffe4 91bd
000001f0: a879 9f3e 5e97 83be f174 e5bd 4eca 83be
00000200: 77f9 5d3e 93be a4be 135e be3c 3321 64be
00000210: 7a4d 4b3b f299 b4bd a8a9 373d ba27 24bd
00000220: eaad 4bbd 9dc7 dabd 4bc9 20be bf8b 6abd
00000230: 2d10 8fbd b2c3 e83d 66d1 8c3e cee5 863e
00000240: 7873 a43e 9290 8ebe 7599 c4bd 9fef bebc
00000250: bd6e 43be 95fe 30bd eb9e a53e 175f ca3c
00000260: d8f3 e13c 9a0b f1bd e6b3 2cbd 0dc6 c03d
00000270: cf1e a9bb 5931 a33d cdbf 60be ae3e 9dbe
00000280: 72cc c53b 84e2 00be 352c 94bb b752 5a3e
00000290: 69ab 473e ee3c e53d d32c fabc 3170 4cbd
000002a0: 7e1a 313e 795c 703d a973 143e 43d8 563e
000002b0: e325 1cbe 5be2 ecbd fc92 da3d cb72 723d
000002c0: 4519 00be 1e1c 5e3d 06fc 86be a2b3 e13c
000002d0: b83a b8bd 791a c33d d805 483e ed16 cd3d
000002e0: e2ad afbd 2f6c df3b 648d 6a3d 872c 243d
000002f0: acd1 893e 3752 ef3d 9695 c93d d702 73bd
00000300: 2719 683e 4775 6bbd 4b6a 05be 4796 3dbe
00000310: 686b 98bd 6b4d 1a3d fbce 373d 8986 80bd
00000320: bd40 06be 21ba 753d 722c ee3d 61d8 773e
00000330: dca2 21bd a9b2 43be 1189 2a3e 1288 863d
00000340: d3d8 713c 7ec0 33be df89 82bd c89a 8f3c
00000350: e7d1 98bb 39da 2ebe b1ea 1b3e 6d5f 363e
00000360: 3d09 d9bd 1981 533e 55a3 923c 0480 243d
00000370: cb5c 53be 183b 353e 64f9 0b3e 4d0a 7e3c
00000380: 0a2d ae3d f9c0 993e d10f e1bd 374d 623d
00000390: f98d 023e 2862 953e 9342 5b3e c5d7 41bd
000003a0: ca5c cdbc fb06 563e 9948 fa3d 7e7d 00be
000003b0: 3ad9 453e ccc9 513c 7f81 6c3d dd1a f23c
000003c0: 9eec 973d 5250 a2bd eed1 35bc ca97 27be
000003d0: 0d29 9c3d c80a 903e cb41 0d3e 1027 3b3e
000003e0: 3e05 db3d 6bd8 8abd 6ea7 1fbd e868 203d
000003f0: fda9 fd3d 9ecf 90be d0b5 3a3e 0aee b5bd

network_body._body_endoder.seq_layers.0.bias f4 [128]
0.0 0.0 0.0 0.0 0.0 0.0 0.0 0.0
0.0 0.0 0.0 0.0 0.0 0.0 0.0 0.0
0.0 0.0 0.0 0.0 0.0 0.0 0.0 0.0
0.0 0.0 0.0 0.0 0.0 0.0 0.0 0.0
0.0 0.0 0.0 0.0 0.0 0.0 0.0 0.0
0.0 0.0 0.0 0.0 0.0 0.0 0.0 0.0
0.0 0.0 0.0 0.0 0.0 0.0 0.0 0.0
0.0 0.0 0.0 0.0 0.0 0.0 0.0 0.0
0.0 0.0 0.0 0.0 0.0 0.0 0.0 0.0
0.0 0.0 0.0 0.0 0.0 0.0 0.0 0.0
0.0 0.0 0.0 0.0 0.0 0.0 0.0 0.0
0.0 0.0 0.0 0.0 0.0 0.0 0.0 0.0
0.0 0.0 0.0 0.0 0.0 0.0 0.0 0.0
0.0 0.0 0.0 0.0 0.0 0.0 0.0 0.0
0.0 0.0 0.0 0.0 0.0 0.0 0.0 0.0
0.0 0.0 0.0 0.0 0.0 0.0 0.0 0.0
00000000: 0000 0000 0000 0000 0000 0000 0000 0000
00000010: 0000 0000 0000 0000 0000 0000 0000 0000
00000020: 0000 0000 0000 0000 0000 0000 0000 0000
00000030: 0000 0000 0000 0000 0000 0000 0000 0000
00000040: 0000 0000 0000 0000 0000 0000 0000 0000
00000050: 0000 0000 0000 0000 0000 0000 0000 0000
00000060: 0000 0000 0000 0000 0000 0000 0000 0000
00000070: 0000 0000 0000 0000 0000 0000 0000 0000
00000080: 0000 0000 0000 0000 0000 0000 0000 0000
00000090: 0000 0000 0000 0000 0000 0000 0000 0000
000000a0: 0000 0000 0000 0000 0000 0000 0000 0000
000000b0: 0000 0000 0000 0000 0000 0000 0000 0000
000000c0: 0000 0000 0000 0000 0000 0000 0000 0000
000000d0: 0000 0000 0000 0000 0000 0000 0000 0000
000000e0: 0000 0000 0000 0000 0000 0000 0000 0000
000000f0: 0000 0000 0000 0000 0000 0000 0000 0000
00000100: 0000 0000 0000 0000 0000 0000 0000 0000
00000110: 0000 0000 0000 0000 0000 0000 0000 0000
00000120: 0000 0000 0000 0000 0000 0000 0000 0000
00000130: 0000 0000 0000 0000 0000 0000 0000 0000
00000140: 0000 0000 0000 0000 0000 0000 0000 0000
00000150: 0000 0000 0000 0000 0000 0000 0000 0000
00000160: 0000 0000 0000 0000 0000 0000 0000 0000
00000170: 0000 0000 0000 0000 0000 0000 0000 0000
00000180: 0000 0000 0000 0000 0000 0000 0000 0000
00000190: 0000 0000 0000 0000 0000 0000 0000 0000
000001a0: 0000 0000 0000 0000 0000 0000 0000 0000
000001b0: 0000 0000 0000 0000 0000 0000 0000 0000
000001c0: 0000 0000 0000 0000 0000 0000 0000 0000
000001d0: 0000 0000 0000 0000 0000 0000 0000 0000
000001e0: 0000 0000 0000 0000 0000 0000 0000 0000
000001f0: 0000 0000 0000 0000 0000 0000 0000 0000

network_body._body_endoder.seq_layers.2.weight f4 [128, 128]
0.00064800546 0.106162705 -0.16387443 0.021101806 0.08686743 0.0600208 -0.056519654 -0.047865313
-0.017990572 0.080082275 0.011577085 0.03769031 0.06719111 0.15694462 0.089531854 0.095726945
-0.04667229 -0.09357217 0.017098447 -0.029732436 0.16463302 0.11831558 -0.015448907 0.053437766
0.042587824 -0.012110431 0.12472951 -0.065740496 0.05504167 -0.04965487 0.004134518 0.10442845
-0.07497714 -0.25546157 0.03846896 -0.077159464 -0.07469573 -0.08356193 0.044811018 0.09765747
0.1954382 0.06029917 0.13466667 -0.020649625 -0.04202296 0.12235313 -0.089950405 0.050173458
-0.0574171 0.1269486 0.03377037 -0.0252717 0.13478582 0.04468529 -0.053117983 -0.08597743
0.13167754 -0.18173599 -0.14446434 -0.10814653 -0.011619048 -0.012818658 0.067892075 -0.13417539
0.11248387 -0.13545017 0.14108314 0.07717467 -0.01809711 0.08564172 -0.02296308 0.04757517
0.026391672 -0.15736341 -0.00946873 0.063730374 -0.044471525 -0.100522116 0.17908905 -0.0144690955
0.11580435 -0.05621342 -0.026608843 0.053175867 -0.091141105 0.18001683 0.048990317 0.06274956
0.12992707 -0.013927717 0.07525836 0.02588578 0.024503307 0.010335594 -0.16398586 0.009871152
-0.0033103628 0.14705537 -0.1390097 0.21373421 -0.10195381 0.06657755 0.04289558 -0.05563918
0.048510015 0.029908786 0.11018011 -0.08600529 0.058042064 -0.0879664 0.06944613 0.016953059
0.15418527 0.06753908 -0.04186096 0.07265287 0.04857618 0.049552467 -0.018327381 0.12838198
-0.087086305 -0.03960929 -0.11603413 -0.008832052 -0.0034379046 -0.0016533441 0.024190594 0.041994482
0.045721155 -0.12328478 0.12730151 0.016405579 -0.06217416 -0.09230754 -0.02302101 -0.14676651
0.093328945 -0.10743459 0.11651907 -0.0007772636 0.19040874 0.054190822 -0.007689504 0.0059341295
-0.03625175 -0.303407 -0.020888705 0.011925618 0.037863582 -0.2903429 0.05489345 -0.07684677
-0.086799055 0.13965863 -0.01534792 -0.13387138 0.014236557 0.067942046 0.04646661 -0.07099249
-0.042793438 -0.100092694 -0.032457717 -0.022425948 -0.06610739 -0.07760443 0.12590851 0.029372985
0.0019788716 0.097330905 0.05003789 0.047108106 -0.08355184 -0.039277114 -0.05309883 -0.06524527
0.08745379 -0.18412305 0.08164878 0.028851982 -0.033708602 -0.17779884 -0.13607405 0.07910802
0.03809177 0.085248664 0.16592588 0.20700745 0.07076736 -0.020420626 -0.077993065 0.027419306
0.1718774 -0.09168682 -0.07500798 0.016684655 0.16449115 -0.06876442 0.087519675 -0.029235043
0.059324726 0.012510657 -0.055503685 0.002497731 0.15688552 -0.021194236 0.04345159 -0.13156185
-0.010142875 -0.0431456 -0.020358725 -0.06709573 -0.038220387 0.20254242 -0.058786903 0.015321859
0.05692671 0.123086005 -0.03620345 -0.13893685 -0.0006931358 -0.109755166 -0.07603411 0.076180056
-0.033926565 -0.16613856 -0.027681425 -0.055374008 -0.052597437 0.11180745 -0.040257387 0.014267112
0.00035224936 0.15124418 -0.011064632 0.054670468 0.061432417 -0.010107663 0.018418083 0.1419212
0.08196468 0.03156722 0.02028993 0.11519239 0.08583853 -0.03250814 -0.023924893 -0.02062379
-0.0420793 -0.058204487 0.085730046 -0.09782751 0.015742451 -0.10684032 0.16241397 -0.0036845028
00000000: e9de 293a d56b d93d b3ce 27be b2dd ac3c
00000010: 8de7 b13d 5fd8 753d 2781 67bd 6b0e 44bd
00000020: f760 93bc 2d02 a43d d0ad 3d3c 2861 1a3d
00000030: 7e9b 893d 17b6 203e 7a5c b73d 7d0c c43d
00000040: 712b 3fbd c4a2 bfbd 0b12 8c3c 7091 f3bc
00000050: 8f95 283e 704f f23d 6a1d 7dbc 8fe1 5a3d
00000060: 9270 2e3d d46a 46bc 2f72 ff3d f4a2 86bd
00000070: 6073 613d e862 4bbd da7a 873b 95de d53d
00000080: 9d8d 99bd dccb 82be a191 1d3d c805 9ebd
00000090: 13fa 98bd 8422 abbd c28b 373d a400 c83d
000000a0: f420 483e 43fc 763d 0fe6 093e 6729 a9bc
000000b0: 4420 2cbd 4794 fa3d eb37 b8bd af82 4d3d
000000c0: 312e 6bbd d0fe 013e cd52 0a3d 9906 cfbc
000000d0: 4b05 0a3e ec07 373d 3e92 59bd ef14 b0bd
000000e0: 7ad6 063e 0019 3abe 76ee 13be ee7b ddbd
000000f0: d25d 3ebc 5905 52bc 000b 8b3d 4665 09be
00000100: f15d e63d 73b3 0abe 1978 103e c10d 9e3d
00000110: 6440 94bc ed64 af3d 121d bcbc 2ede 423d
00000120: 5933 d83c e023 21be bb22 1bbc 1285 823d
00000130: c627 36bd 8ade cdbd 1f63 373e c90f 6dbc
00000140: d52a ed3d 0b40 66bd cafa d9bc f0ce 593d
00000150: 30a8 babd 5556 383e 12aa 483d d782 803d
00000160: 9a0b 053e 1431 64bc 0e21 9a3d 6a0e d43c
00000170: 29bb c83c a056 293c e9eb 27be 9dba 213c
00000180: acf2 58bb af95 163e 8f58 0ebe 24dd 5a3e
00000190: 29cd d0bd cf59 883d 47b3 2f3d e9e5 63bd
000001a0: 70b2 463d 4503 f53c 1ca6 e13d 8b23 b0bd
000001b0: 84bd 6d3d ba27 b4bd c639 8e3d 24e1 8a3c
000001c0: bee2 1d3e ee51 8a3d 6676 2bbd 07cb 943d
000001d0: d1f7 463d 87f7 4a3d 4e23 96bc 9176 033e
000001e0: 4e5a b2bd 5a3d 22bd 4da3 edbd 50b4 10bc
000001f0: 784e 61bb 06b5 d8ba 5a2b c63c 6802 2c3d
00000200: 1b46 3b3d bb7c fcbd 545b 023e fe64 863c
00000210: 55aa 7ebd bc0b bdbd 8f96 bcbc f649 16be
00000220: 3f23 bf3d ab06 dcbd 8da1 ee3d 47c1 4bba
00000230: 82fa 423e 32f7 5d3d 3cf8 fbbb 1673 c23b
00000240: b77c 14bd 2a58 9bbe ca1e abbc ab63 433c
00000250: d816 1b3d d3a7 94be f4d7 603d d761 9dbd
00000260: b4c3 b1bd ac02 0f3e d875 7bbc 9415 09be
00000270: 7340 693c 3325 8b3d c653 3e3d 8364 91bd
00000280: 2c48 2fbd 66fd ccbd 62f2 04bd 9fb6 b7bc
00000290: 5063 87bd 12ef 9ebd 29ee 003e 9d9f f03c
000002a0: f5af 013b 6d55 c73d 88f4 4c3d 6ef4 403d
000002b0: 3a1d abbd 0ae1 20bd 297e 59bd 509f 85bd
000002c0: f91a b33d c18a 3cbe 7a37 a73d fe5a ec3c
000002d0: 0812 0abd e610 36be ff56 0bbe 6303 a23d
000002e0: 1e06 1c3d da96 ae3d 79e8 293e c3f9 533e
000002f0: 7aee 903d 2849 a7bc d4ba 9fbd 749e e03c
00000300: a100 303e 4dc6 bbbd c99d 99bd 42ae 883c
00000310: 5e70 283e 5cd4 8cbd 843d b33d 547e efbc
00000320: 7cfe 723d 80f9 4c3c d557 63bd f9b0 233b
00000330: 99a6 203e 899f adbc 4bfa 313d 26b8 06be
00000340: 4d2e 26bc 71b9 30bd 57c7 a6bc 7c69 89bd
00000350: fb8c 1cbd 4867 4f3e 89ca 70bd 8908 7b3c
00000360: fb2b 693d 8414 fc3d 124a 14bd 7645 0ebe
00000370: 8eb3 35ba 51c7 e0bd c5b7 9bbd 4a04 9c3d
00000380: 95f6 0abd 3a20 2abe 28c4 e2bc dbcf 62bd
00000390: 6970 57bd 4efb e43d eee4 24bd 9bc0 693c
000003a0: 1cae b839 c1df 1a3e 6e48 35bc 24ee 5f3d
000003b0: 8fa0 7b3d 9d9a 25bc 85e1 963c cb53 113e
000003c0: 19dd a73d a14c 013d 1137 a63c fde9 eb3d
000003d0: 1ccc af3d 4127 05bd 23fe c3bc 39f3 a8bc
000003e0: 585b 2cbd d467 6ebd 3c93 af3d ca59 c8bd
000003f0: 50f6 803c 19cf dabd d94f 263e b377 71bb

network_body._body_endoder.seq_layers.2.bias f4 [128]
0.0 0.0 0.0 0.0 0.0 0.0 0.0 0.0
0.0 0.0 0.0 0.0 0.0 0.0 0.0 0.0
0.0 0.0 0.0 0.0 0.0 0.0 0.0 0.0
0.0 0.0 0.0 0.0 0.0 0.0 0.0 0.0
0.0 0.0 0.0 0.0 0.0 0.0 0.0 0.0
0.0 0.0 0.0 0.0 0.0 0.0 0.0 0.0
0.0 0.0 0.0 0.0 0.0 0.0 0.0 0.0
0.0 0.0 0.0 0.0 0.0 0.0 0.0 0.0
0.0 0.0 0.0 0.0 0.0 0.0 0.0 0.0
0.0 0.0 0.0 0.0 0.0 0.0 0.0 0.0
0.0 0.0 0.0 0.0 0.0 0.0 0.0 0.0
0.0 0.0 0.0 0.0 0.0 0.0 0.0 0.0
0.0 0.0 0.0 0.0 0.0 0.0 0.0 0.0
0.0 0.0 0.0 0.0 0.0 0.0 0.0 0.0
0.0 0.0 0.0 0.0 0.0 0.0 0.0 0.0
0.0 0.0 0.0 0.0 0.0 0.0 0.0 0.0
00000000: 0000 0000 0000 0000 0000 0000 0000 0000
00000010: 0000 0000 0000 0000 0000 0000 0000 0000
00000020: 0000 0000 0000 0000 0000 0000 0000 0000
00000030: 0000 0000 0000 0000 0000 0000 0000 0000
00000040: 0000 0000 0000 0000 0000 0000 0000 0000
00000050: 0000 0000 0000 0000 0000 0000 0000 0000
00000060: 0000 0000 0000 0000 0000 0000 0000 0000
00000070: 0000 0000 0000 0000 0000 0000 0000 0000
00000080: 0000 0000 0000 0000 0000 0000 0000 0000
00000090: 0000 0000 0000 0000 0000 0000 0000 0000
000000a0: 0000 0000 0000 0000 0000 0000 0000 0000
000000b0: 0000 0000 0000 0000 0000 0000 0000 0000
000000c0: 0000 0000 0000 0000 0000 0000 0000 0000
000000d0: 0000 0000 0000 0000 0000 0000 0000 0000
000000e0: 0000 0000 0000 0000 0000 0000 0000 0000
000000f0: 0000 0000 0000 0000 0000 0000 0000 0000
00000100: 0000 0000 0000 0000 0000 0000 0000 0000
00000110: 0000 0000 0000 0000 0000 0000 0000 0000
00000120: 0000 0000 0000 0000 0000 0000 0000 0000
00000130: 0000 0000 0000 0000 0000 0000 0000 0000
00000140: 0000 0000 0000 0000 0000 0000 0000 0000
00000150: 0000 0000 0000 0000 0000 0000 0000 0000
00000160: 0000 0000 0000 0000 0000 0000 0000 0000
00000170: 0000 0000 0000 0000 0000 0000 0000 0000
00000180: 0000 0000 0000 0000 0000 0000 0000 0000
00000190: 0000 0000 0000 0000 0000 0000 0000 0000
000001a0: 0000 0000 0000 0000 0000 0000 0000 0000
000001b0: 0000 0000 0000 0000 0000 0000 0000 0000
000001c0: 0000 0000 0000 0000 0000 0000 0000 0000
000001d0: 0000 0000 0000 0000 0000 0000 0000 0000
000001e0: 0000 0000 0000 0000 0000 0000 0000 0000
000001f0: 0000 0000 0000 0000 0000 0000 0000 0000

action_model._continuous_distribution.log_sigma f4 [1, 2]
0.0 0.0
00000000: 0000 0000 0000 0000

action_model._continuous_distribution.mu.weight f4 [2, 128]
0.002114785 -0.012629437 -0.0036739733 0.0071645114 2.989508e-05 0.024130382 0.01542187 -0.033512883
0.0069596986 -0.002351207 -0.012336532 -0.005808608 0.03157764 0.0023104807 -0.0058249086 -0.009615577
-0.009386905 -0.021244846 0.001943899 0.010600205 -0.004724883 0.032720577 -0.009551074 0.026767105
0.0117365 -0.01962676 0.024049496 -0.00025468634 -0.018702304 0.00026729208 -0.0078051337 -0.0135646975
0.0043290085 0.000696213 -0.0059531988 0.023935843 0.0110278195 -0.0065539978 0.031811487 0.013653479
-0.019524714 -0.022279378 0.0017677986 0.011137909 -0.006344074 0.043586984 -0.019068575 -0.026637433
0.011569525 0.012755642 0.005021723 0.024418442 -0.010375214 -0.014284636 0.014970386 -0.016568622
0.024436126 -0.011618356 0.021954512 -0.02295928 0.010724681 0.008801513 -0.00365088 0.010531906
0.019278934 -0.014116461 -0.0233473 0.0061659715 -0.001591876 -0.0075189443 -0.015459298 -0.011324851
-0.029965876 -0.022705907 -0.008299187 -0.0136275245 -0.02111989 -0.013763258 -0.027162487 -0.019477492
0.035238598 -0.013157099 0.011668137 0.018194528 0.010115964 0.034754436 -0.05568834 0.021028968
0.028803125 0.024735654 0.008920907 -0.014920828 4.9569127e-05 0.0006022354 -0.0028576774 0.009445713
-0.011039447 -0.026484076 -0.0015717907 0.013077403 0.014081447 -0.030121887 0.02178027 0.021531694
0.028889863 -0.009827613 0.025407735 -0.022521779 -0.0013624392 -0.013473292 -0.0003385538 -0.019186959
-0.0051588616 0.020998022 0.0037320752 -0.014030493 -0.028324906 0.02811035 0.011915292 -0.0038675827
-0.014030017 -0.016326934 -0.0034958955 0.0050870003 -0.016805558 0.02125987 0.0029979832 0.008805473
0.015053578 -0.03263916 -0.0029070047 0.025839904 0.0034984367 -0.0022642983 0.005324011 0.00835314
0.0014967037 -0.011136895 -0.0069750967 -0.012968537 0.005910685 0.018778916 -0.009794335 -0.020920498
0.021406557 -0.013716707 0.010339978 -0.011798448 0.0014469553 0.042887006 -0.044819456 -0.00820262
-0.0045155087 0.00018587869 -0.00016301847 0.005094765 -0.0014634134 0.0019001432 -0.012667574 -0.014773736
-0.0021498397 -0.019842887 -0.0132212555 -0.039802745 -0.03449769 0.020475516 0.032511584 0.0320234
0.0088824835 -0.007661523 -0.029833797 -0.0042179986 0.002498955 -0.0062740794 -0.008787657 0.024068488
0.0013182441 -0.029493803 0.0012937363 -0.022129802 0.013400041 0.0016379992 -0.0010519181 -0.010179044
0.0016005442 0.0010809562 0.019324254 0.011515993 -0.026403105 -0.0051954985 0.029521538 0.014367982
-0.012155964 0.01510338 -6.566e-05 0.0053952206 -0.010135118 -0.050169367 0.008244467 0.005310061
0.013820066 -0.026641106 0.0002725754 -0.027465595 0.013922413 0.017565293 0.019767644 -0.011821171
0.008820235 0.0010623223 -0.0070950887 -0.012146424 0.014510373 -0.0022558307 0.006528109 -0.010899442
-0.014332257 -0.01877486 0.023489533 -0.008611175 0.0059002275 0.009809832 -7.546069e-05 0.0198042
0.04674698 -0.017873526 0.0017838123 -0.004184125 -0.0024410698 -0.03861154 0.02272666 0.006746378
-0.010348055 0.019248083 0.0025441463 0.0017061875 0.016125917 0.039708152 -0.010096113 -0.033391338
-0.025925785 0.009676036 0.004011063 0.012846218 -0.003327654 -0.014743656 0.009540699 -0.0053741275
-0.0051290174 0.000880093 -0.01934471 0.009227089 -0.03631792 -0.0061788126 0.003022814 0.0010228379
00000000: 3498 0a3b b3eb 4ebc 0bc7 70bb 47c4 ea3b
00000010: 32c7 fa37 14ad c53c 03ac 7c3c ce44 09bd
00000020: 2f0e e43b b516 1abb 2a1f 4abc 2356 bebb
00000030: 8e57 013d 6f6b 173b e0de bebb a78a 1dbc
00000040: 88cb 19bc ac09 aebc 6dca fe3a 7bac 2d3c
00000050: 31d3 9abb 0306 063d 1c7c 1cbc b046 db3c
00000060: 734a 403c 4dc8 a0bc 7303 c53c 6c87 85b9
00000070: 9335 99bc 5623 8c39 35c2 ffbb 773e 5ebc
00000080: 5bda 8d3b 1082 363a 0d13 c3bb 1a15 c43c
00000090: 07ae 343c ebc2 d6bb c34c 023d d7b2 5f3c
000000a0: 4bf2 9fbc 3e83 b6bc 7ab5 e73a c77b 363c
000000b0: f3e1 cfbb 4488 323d b335 9cbc bf36 dabc
000000c0: 1b8e 3d3c 0afd 503c 448d a43b 2f09 c83c
000000d0: cdfc 29bc 1b0a 6abc 5a46 753c ebba 87bc
000000e0: 452e c83c eb5a 3ebc f3d9 b33c 1a15 bcbc
000000f0: 93b6 2f3c 3934 103c 9a43 6fbb 048e 2c3c
00000100: dbee 9d3c bb48 67bc d642 bfbc eb0b ca3b
00000110: 7fa6 d0ba 7a61 f6bb ff48 7dbc de8b 39bc
00000120: ff7a f5bc bd01 babc 50f9 07bc fb45 5fbc
00000130: 9f03 adbc 4a7f 61bc dd83 debc 438f 9fbc
00000140: 5956 103d df90 57bc b72b 3f3c b10c 953c
00000150: 6ebd 253c ab5a 0e3d 7519 64bd f144 ac3c
00000160: 88f4 eb3c 6da2 ca3c ff28 123c 7d76 74bc
00000170: 72e8 4f38 55df 1d3a df47 3bbb 31c2 1a3c
00000180: ccde 34bc 22f5 d8bc 8b04 ceba 9b42 563c
00000190: dfb5 663c 2dc2 f6bc 896c b23c 3c63 b03c
000001a0: 6faa ec3c ff03 21bc e223 d03c 987f b8bc
000001b0: e093 b2ba 15bf 5cbc ec7f b1b9 f82d 9dbc
000001c0: ab0b a9bb 0b04 ac3c d595 743b 27e0 65bc
000001d0: a209 e8bc ad47 e63c 5b38 433c 4577 7dbb
000001e0: 28de 65bc 10c0 85bc 651b 65bb dab0 a63b
000001f0: cfab 89bc 2e29 ae3c d079 443b d544 103c
00000200: 48a3 763c a4b0 05bd 7283 3ebb 35ae d33c
00000210: 0746 653b 9f64 14bb 0b75 ae3b 9cdb 083c
00000220: 0b2d c43a 8677 36bc 5a8f e4bb fd79 54bc
00000230: 6bae c13b 3ed6 993c 6b78 20bc 7761 abbc
00000240: ce5c af3c 0abc 60bc 0369 293c 474e 41bc
00000250: c3a7 bd3a 49aa 2f3d 9b94 37bd 4864 06bc
00000260: d5f6 93bb 6ee8 4239 f0ef 2ab9 fdf1 a63b
00000270: 01d0 bfba 3a0e f93a a88b 4fbc 8a0d 72bc
00000280: 53e4 0cbb 8d8d a2bc f79d 58bc 3408 23bd
00000290: 734d 0dbd 45bc a73c de2a 053d f82a 033d
000002a0: d687 113c 830d fbbb 0266 f4bc 2337 8abb
000002b0: 82c5 233b cb96 cdbb 1bfa 0fbc 472b c53c
000002c0: efc8 ac3a fd9c f1bc 9692 a93a 8f49 b5bc
000002d0: d88b 5b3c 22b2 d63a 84e0 89ba 01c6 26bc
000002e0: 5ac9 d13a dfae 8d3a e64d 9e3c 93ad 3c3c
000002f0: 534b d8bc 003f aabb 27d7 f13c af67 6b3c
00000300: cf29 47bc 2b74 773c f2b2 89b8 64ca b03b
00000310: c40d 26bc 657e 4dbd cd13 073c 0500 ae3b
00000320: 8f6d 623c 733e dabc 73e8 8e39 87ff e0bc
00000330: d51a 643c 17e5 8f3c c1ef a13c 96ad 41bc
00000340: bf82 103c 9f3d 8b3a eb7d e8bb cb01 47bc
00000350: eabc 6d3c 8fd6 13bb bfe9 d53b 9393 32bc
00000360: d8d1 6abc bccd 99bc 1f6d c03c e315 0dbc
00000370: b256 c13b 6bb9 203c a640 9eb8 6b3c a23c
00000380: c379 3f3d 806b 92bc cfce e93a fc1a 89bb
00000390: 5bfa 1fbb 2227 1ebd 432d ba3c b810 dd3b
000003a0: e38a 29bc 28ae 9d3c b1bb 263b 27a2 df3a
000003b0: 801a 843c 04a5 223d 2b6a 25bc 5bc5 08bd
000003c0: 5062 d4bc 3d88 1e3c 3c6f 833b f278 523c
000003d0: c514 5abb 608f 71bc 9850 1c3c 7319 b0bb
000003e0: 5111 a8bb 0bb6 663a cc78 9ebc 372d 173c
000003f0: 19c2 14bd a377 cabb 671a 463b bf10 863a

action_model._continuous_distribution.mu.bias f4 [2]
0.0 0.0
00000000: 0000 0000 0000 0000

network_body._body_endoder.seq_layers.0.weight f4 [128, 41]
0.17809032 -0.07993889 0.057013113 0.36176512 0.0818479 -0.028868677 -0.06745296 0.14811653
-0.21306467 -0.08052164 -0.12979008 -0.08855285 0.2499977 -0.041072913 -0.076372266 0.10798864
-0.12313425 0.4284779 -0.02106707 0.16064265 -0.17931089 0.020786632 0.30271587 -0.016614582
0.17268617 -0.18760425 -0.118609644 0.114093676 -0.049598653 0.039836936 0.050078902 -0.10079924
0.24290113 -0.07597503 -0.12853819 -0.22456123 -0.11079517 0.041311372 0.1506847 0.14147139
0.08570799 0.020885559 0.20379797 0.08946164 -0.12135951 -0.15239355 -0.09619109 0.26616463
0.3509275 0.07441952 -0.12179834 0.32482573 -0.040481254 0.13536444 0.00461146 0.052388154
0.26040417 -0.1228146 -0.17248876 -0.06598385 -0.2654598 -0.0071311733 -0.021858368 0.3047532
0.112420656 -0.26745757 0.032461707 0.08100184 0.17279725 0.23048984 0.14610957 -0.1728712
-0.18560056 0.28517067 -0.18459669 -0.0022755398 0.20960087 0.09836541 -0.15739685 0.09530998
-0.14901839 -0.26515532 0.19541173 -0.009512506 -0.16052328 0.13186048 0.20581484 -0.05460721
-0.15252666 0.16413313 -0.022727672 -0.2316807 0.020995727 0.12307409 -0.27439106 -0.047397006
0.13637164 -0.31099957 0.0054967473 0.10161101 0.038408253 0.10633199 -0.002266916 0.20434548
0.08118096 -0.007223496 -0.22043304 -0.13166577 -0.1552941 -0.08846051 -0.21525458 -0.08174485
-0.3653449 -0.1011357 -0.024560384 -0.1887782 -0.13118805 0.014063119 -0.12290011 0.023981797
0.11976635 0.054757565 0.089552365 -0.20534106 -0.21783221 -0.018707834 0.023753952 -0.12264774
0.17745769 -0.15351315 0.067586 0.2249723 -0.03142096 -0.056308694 0.035375703 -0.32097885
-0.14562567 -0.032921508 0.10080411 0.043985102 0.08437512 0.059882652 -0.0067378543 -0.25278285
-0.13911316 -0.053772807 0.452937 -0.08887082 0.051010013 0.19794364 -0.33922598 0.08584815
0.1029789 0.12425639 -0.120143265 -0.17645067 0.12323444 -0.07490412 0.059114397 0.13321674
-0.0029039055 -0.25997025 -0.0758137 0.0381485 -0.16665247 0.049412146 -0.32095975 -0.2334301
-0.20031941 0.00522816 0.21696344 -0.2782128 -0.10852659 -0.24239767 0.26808804 0.009229225
0.016095847 0.024300588 -0.17165807 0.09395921 -0.19708483 0.054171503 0.014943987 0.15261531
0.28043807 0.31952143 -0.025843866 -0.18701497 -0.07092501 -0.07720679 -0.071822435 0.050999396
0.051251605 0.24760099 -0.1436333 0.2565094 -0.17100033 0.122851886 -0.010259128 0.19868074
-0.10168157 0.014488798 -0.058727406 -0.19890895 -0.040072676 -0.34770688 0.021913 0.12178658
0.10564906 -0.12497651 -0.2180373 -0.051632807 -0.029043399 -0.017934717 -0.02869035 -0.08806325
-0.1507263 0.03818138 -0.14113563 -0.016323013 0.051934537 -0.14381836 -0.02799529 -0.12066182
0.11451028 0.15303159 0.06596064 0.24071996 -0.05813492 0.28563288 0.03264588 -0.02979959
0.06629385 -0.1512728 -0.019138368 -0.047272697 0.12444221 -0.027270405 -0.17569028 -0.2541852
-0.19974317 0.11276534 -0.20781827 0.04337919 0.02144441 0.09066262 -0.07795666 -0.01852392
-0.005376369 -0.025812121 -0.08771671 -0.0026773717 -0.090817265 0.12711215 -0.08743182 0.05544644
00000000: 4f5d 363e 00b7 a3bd 9586 693d 4739 b93e
00000010: df9f a73d 017e ecbc c724 8abd dcab 173e
00000020: a02d 5abe 88e8 a4bd b1e7 04be 325b b5bd
00000030: 66ff 7f3e 123c 28bd 1069 9cbd 2629 dd3d
00000040: cf2d fcbd 7561 db3e d994 acbc 827f 243e
00000050: 469d 37be ba48 aa3c 93fd 9a3e 4e1b 88bc
00000060: a5d4 303e 541b 40be 9de9 f2bd f2a9 e93d
00000070: f527 4bbd 0e2c 233d 891f 4d3d d56f cebd
00000080: 13bb 783e cc98 9bbd 849f 03be 61f3 65be
00000090: 94e8 e2bd 1d36 293d 174d 1a3e e0dd 103e
000000a0: ac87 af3d 3118 ab3c 6ab0 503e aa37 b73d
000000b0: 568b f8bd 0e0d 1cbe d6ff c4bd bb46 883e
000000c0: c5ac b33e 4369 983d 6871 f9bd 8f4f a63e
000000d0: accf 25bd fa9c 0a3e bb1b 973b f694 563d
000000e0: b253 853e 3986 fbbd e5a0 30be 8a22 87bd
000000f0: 59ea 87be 9eac e9bb 5210 b3bc 9d08 9c3e
00000100: cd3c e63d 33f0 88be 91f6 043d 4be4 a53d
00000110: c3f1 303e 8705 6c3e bf9d 153e 2605 31be
00000120: 130e 3ebe e401 923e ea06 3dbe 3921 15bb
00000130: 9ca1 563e ce73 c93d a42c 21be e131 c33d
00000140: 4798 18be 70c2 87be 031a 483e 58da 1bbc
00000150: 3760 24be 6f06 073e 20c1 523e cfab 5fbd
00000160: f32f 1cbe 8412 283e 622f babc b53d 6dbe
00000170: 3bff ab3c 450e fc3d fc7c 8cbe 5d23 42bd
00000180: 02a5 0b3e 563b 9fbe 0f1e b43b 6f19 d03d
00000190: f951 1d3d 96c4 d93d 8a90 14bb f13f 513e
000001a0: 3442 a63d 14b3 ecbb 33b9 61be 64d3 06be
000001b0: 6b05 1fbe c92a b5bd b26b 5cbe d869 a7bd
000001c0: 7d0e bbbe 3c20 cfbd dc32 c9bc 134f 41be
000001d0: 2956 06be ff68 663c 0eb3 fbbd 7975 c43c
000001e0: 0f48 f53d 7849 603d 3b67 b73d ed44 52be
000001f0: 680f 5fbe 2c41 99bc a697 c23c bd2e fbbd
00000200: 78b7 353e 8d32 1dbe 876a 8a3d 235f 663e
00000210: 44b3 00bd f2a3 66bd 1de6 103d 5757 a4be
00000220: e51e 15be b4d8 06bd 6372 ce3d b929 343d
00000230: ddcc ac3d 8347 753d 38c9 dcbb c16c 81be
00000240: ae73 0ebe e040 5cbd 5ce7 e73e e801 b6bd
00000250: e0ef 503d bdb1 4a3e 07af adbe 28d1 af3d
00000260: 9ae6 d23d 227a fe3d ac0d f6bd 7caf 34be
00000270: 5762 fc3d 5567 99bd f021 723d f869 083e
00000280: 734f 3ebb d21a 85be 3744 9bbd 9a41 1c3d
00000290: f2a6 2abe 6464 4a3d d654 a4be 4d08 6fbe
000002a0: 8820 4dbe fc50 ab3b aa2b 5e3e e871 8ebe
000002b0: 3043 debd 1837 78be d642 893e 2d36 173c
000002c0: 70db 833c 0712 c73c 22c7 2fbe b06d c03d
000002d0: 9bd0 49be f0e2 5d3d a0d7 743c 3047 1c3e
000002e0: 9495 8f3e 5098 a33e 84b6 d3bc da80 3fbe
000002f0: 2241 91bd 981e 9ebd a417 93bd bee4 503d
00000300: 34ed 513d 1d8b 7d3e 9c14 13be 3355 833e
00000310: b61a 2fbe c599 fb3d e715 28bc f772 4b3e
00000320: 6d3e d0bd 6c62 6d3c 268c 70bd caae 4bbe
00000330: 3f23 24bd a306 b2be e482 b33c 3e6b f93d
00000340: 895e d83d aff3 ffbd 2c45 5fbe ec7c 53bd
00000350: 6cec edbc d4eb 92bc 0608 ebbc 815a b4bd
00000360: ff57 1abe 1464 1c3d dc85 10be d7b7 85bc
00000370: 4fb9 543d 1f45 13be 6156 e5bc 8b1d f7bd
00000380: 5e84 ea3d 50b4 1c3e 5f16 873d 4b7f 763e
00000390: e21e 6ebd 793e 923e b0b7 053d 451e f4bc
000003a0: 12c5 873d 42e7 1abe 11c8 9cbc 04a1 41bd
000003b0: 8fdb fe3d 2f66 dfbc 27e8 33be 9024 82be
000003c0: 7989 4cbe 84f1 e63d 50ce 54be 61ae 313d
000003d0: 30ac af3c 53ad b93d bea7 9fbd 7abf 97bc
000003e0: 412c b0bb f173 d3bc d2a4 b3bd d876 2fbb
000003f0: 67fe b9bd b029 023e 740f b3bd ce1b 633d

network_body._body_endoder.seq_layers.0.bias f4 [128]
0.0 0.0 0.0 0.0 0.0 0.0 0.0 0.0
0.0 0.0 0.0 0.0 0.0 0.0 0.0 0.0
0.0 0.0 0.0 0.0 0.0 0.0 0.0 0.0
0.0 0.0 0.0 0.0 0.0 0.0 0.0 0.0
0.0 0.0 0.0 0.0 0.0 0.0 0.0 0.0
0.0 0.0 0.0 0.0 0.0 0.0 0.0 0.0
0.0 0.0 0.0 0.0 0.0 0.0 0.0 0.0
0.0 0.0 0.0 0.0 0.0 0.0 0.0 0.0
0.0 0.0 0.0 0.0 0.0 0.0 0.0 0.0
0.0 0.0 0.0 0.0 0.0 0.0 0.0 0.0
0.0 0.0 0.0 0.0 0.0 0.0 0.0 0.0
0.0 0.0 0.0 0.0 0.0 0.0 0.0 0.0
0.0 0.0 0.0 0.0 0.0 0.0 0.0 0.0
0.0 0.0 0.0 0.0 0.0 0.0 0.0 0.0
0.0 0.0 0.0 0.0 0.0 0.0 0.0 0.0
0.0 0.0 0.0 0.0 0.0 0.0 0.0 0.0
00000000: 0000 0000 0000 0000 0000 0000 0000 0000
00000010: 0000 0000 0000 0000 0000 0000 0000 0000
00000020: 0000 0000 0000 0000 0000 0000 0000 0000
00000030: 0000 0000 0000 0000 0000 0000 0000 0000
00000040: 0000 0000 0000 0000 0000 0000 0000 0000
00000050: 0000 0000 0000 0000 0000 0000 0000 0000
00000060: 0000 0000 0000 0000 0000 0000 0000 0000
00000070: 0000 0000 0000 0000 0000 0000 0000 0000
00000080: 0000 0000 0000 0000 0000 0000 0000 0000
00000090: 0000 0000 0000 0000 0000 0000 0000 0000
000000a0: 0000 0000 0000 0000 0000 0000 0000 0000
000000b0: 0000 0000 0000 0000 0000 0000 0000 0000
000000c0: 0000 0000 0000 0000 0000 0000 0000 0000
000000d0: 0000 0000 0000 0000 0000 0000 0000 0000
000000e0: 0000 0000 0000 0000 0000 0000 0000 0000
000000f0: 0000 0000 0000 0000 0000 0000 0000 0000
00000100: 0000 0000 0000 0000 0000 0000 0000 0000
00000110: 0000 0000 0000 0000 0000 0000 0000 0000
00000120: 0000 0000 0000 0000 0000 0000 0000 0000
00000130: 0000 0000 0000 0000 0000 0000 0000 0000
00000140: 0000 0000 0000 0000 0000 0000 0000 0000
00000150: 0000 0000 0000 0000 0000 0000 0000 0000
00000160: 0000 0000 0000 0000 0000 0000 0000 0000
00000170: 0000 0000 0000 0000 0000 0000 0000 0000
00000180: 0000 0000 0000 0000 0000 0000 0000 0000
00000190: 0000 0000 0000 0000 0000 0000 0000 0000
000001a0: 0000 0000 0000 0000 0000 0000 0000 0000
000001b0: 0000 0000 0000 0000 0000 0000 0000 0000
000001c0: 0000 0000 0000 0000 0000 0000 0000 0000
000001d0: 0000 0000 0000 0000 0000 0000 0000 0000
000001e0: 0000 0000 0000 0000 0000 0000 0000 0000
000001f0: 0000 0000 0000 0000 0000 0000 0000 0000

network_body._body_endoder.seq_layers.2.weight f4 [128, 128]
-0.042250097 0.01128062 -0.02274161 0.08858363 0.006461891 -0.0050321324 -0.17287849 0.02669201
0.015684074 0.07028142 -0.0041814134 0.07801843 0.012134925 -0.11140906 -0.035866268 0.027493438
-0.057464786 0.013388415 0.060376883 0.11537267 -0.09859008 0.008303154 0.10502459 0.15901984
-0.046352983 -0.10949759 0.12403643 0.03083763 -0.12489614 -0.20026241 0.100763395 0.19649859
-0.052327186 -0.07752862 -0.06703179 -0.14684711 0.0823312 -0.056912243 0.17172043 -0.044929083
-0.032386187 0.14140587 0.02614675 -0.17495853 -0.032690495 0.020962253 -0.072345614 -0.13931307
0.03139955 0.02304863 0.08061657 0.005588668 0.03547982 0.026821282 -0.062418398 0.12638764
-0.09482658 0.04473559 -0.20322613 0.044044822 0.00928023 -0.031866886 0.079964176 -0.0404569
0.06847491 -0.107869275 -0.07399036 0.054112542 0.05194518 0.022690507 0.010447179 0.1351834
0.055320982 -0.1481747 0.017977918 0.11126338 0.1425165 0.19913085 -0.035766445 0.030027116
0.12184661 0.082883246 -0.12043121 0.0012592991 -0.047068983 0.025958119 0.026724495 -0.06986301
-0.046890114 0.08622078 0.08751353 -0.089314595 -0.08978227 -0.012208781 0.07421573 0.15831318
0.014212395 -0.18307903 0.050428998 -0.1582294 -0.07563529 -0.1234578 0.028996695 -0.036950458
0.07934898 0.102864794 0.032771844 -0.09253825 -0.18534493 0.12400585 -0.021896938 0.043936457
-0.04906415 0.050396793 0.05560275 0.02485534 0.12752175 -0.06673875 -0.013358818 -0.0007598625
0.119307645 0.047648635 -0.20629993 -0.053432576 0.13225983 -0.06787144 0.090087295 -0.0023431648
0.12307553 0.09670156 -0.16153017 0.034650337 0.11902548 -0.040466387 -0.119779326 -0.054696344
-0.060990684 -0.0325934 0.09411601 0.1555375 -0.086291306 -0.06500916 0.0031667673 0.010037589
-0.03731655 0.08793342 0.09754165 -0.14731319 -0.042574547 -0.123752214 -0.075470224 -0.025006354
-0.023719177 -0.09743911 -0.14581163 -0.08306732 0.01706724 0.056873035 0.016773889 -0.09551753
-0.023871643 0.05362922 -0.010783929 -0.16906615 0.031895492 0.100025594 0.017689982 0.12638733
-0.018330649 0.13984005 0.08864296 0.16347615 -0.058714062 0.07057108 -0.18714893 0.09596949
0.06461384 -0.05464447 0.024777578 0.16964106 0.016779402 -0.1374633 0.010055066 0.0029137216
0.055347484 0.058637176 -0.10264778 0.0379191 0.21687843 -0.038097173 0.037667025 -0.0043685236
-0.024740208 -0.11425846 -0.05474421 0.014263725 0.02951587 0.104454495 -0.02726753 0.07670401
0.1335215 0.09621999 0.0155295115 -0.108996935 0.061594278 0.023672115 -0.0998965 0.07124834
-0.0059084315 0.09866922 0.11837866 -0.1779763 -0.18068655 -0.09373645 0.04679639 -0.021894436
-0.0912191 -0.012467485 -0.074656844 -0.027302688 -0.0094304215 0.073977605 -0.010138871 -0.25992474
-0.14628746 0.10821944 -0.04991589 0.04920602 -0.13446833 0.00076081796 0.101688206 0.097937316
0.06892591 -0.12632452 -0.059708983 0.0031129466 -0.021021381 -0.12728588 0.04117992 -0.1440221
-0.19304527 0.003026956 -0.04308528 0.02155417 0.07778369 0.014977509 0.019238621 0.09252421
0.14023948 -0.024141967 -0.020095073 -0.016495064 -0.027542839 -0.04475333 -0.0034978788 -0.1393416
00000000: 700e 2dbd 59d2 383c 9d4c babc 566b b53d
00000010: 45be d33b 96e4 a4bb 0f07 31be 34a9 da3c
00000020: e37b 803c b5ef 8f3d 3d04 89bb 20c8 9f3d
00000030: 91d1 463c 6f2a e4bd 82e8 12bd eb39 e13c
00000040: 3260 6bbd 155b 5b3c c04d 773d 8248 ec3d
00000050: 99e9 c9bd f409 083c 2217 d73d 19d6 223e
00000060: a0dc 3dbd 4640 e0bd d006 fe3d 339f fc3c
00000070: 8cc9 ffbd 9711 4dbe 0a5d ce3d ed36 493e
00000080: 0855 56bd 53c7 9ebd f747 89bd 175f 16be
00000090: 439d a83d d01c 69bd 7bd7 2f3e 8f07 38bd
000000a0: 61a7 04bd b3cc 103e b631 d63c 5428 33be
000000b0: 78e6 05bd 08b9 ab3c f029 94bd 16a8 0ebe
000000c0: d19c 003d 7bd0 bc3c 4d1a a53d 2521 b73b
000000d0: 4a53 113d 4eb8 db3c 6faa 7fbd c36b 013e
000000e0: 7034 c2bd ab3c 373d 831a 50be 5868 343d
000000f0: 1b0c 183c da86 02bd 42c4 a33d 22b6 25bd
00000100: 933c 8c3d 91ea dcbd 4288 97bd 1da5 5d3d
00000110: 78c4 543d 71e1 b93c a52a 2b3c 846d 0a3e
00000120: 4198 623d 1cbb 17be 6d46 933c 0ede e33d
00000130: d8ef 113e f5e8 4b3e d67f 12bd 6dfb f53c
00000140: b78a f93d b1be a93d a3a4 f6bd 110f a53a
00000150: 68cb 40bd 1fa6 d43c 54ed da3c 5614 8fbd
00000160: d90f 40bd 8594 b03d 4b3a b33d 92ea b6bd
00000170: c4df b7bd 5707 48bc 6bfe 973d da1c 223e
00000180: 1bdb 683c 1279 3bbe a38e 4e3d e306 22be
00000190: ade6 9abd 71d7 fcbd 7a8a ed3c 5d59 17bd
000001a0: b881 a23d c7aa d23d c53b 063d b284 bdbd
000001b0: 10cb 3dbe c7f6 fd3d 3561 b3bc b7f6 333d
000001c0: 7df7 48bd de6c 4e3d b6bf 633d 6d9d cb3c
000001d0: 1095 023e 53ae 88bd f2de 5abc 8231 47ba
000001e0: 9157 f43d 372b 433d 4a40 53be 1edc 5abd
000001f0: 1f6f 073e 2e00 8bbd b07f b83d c88f 19bb
00000200: 060f fc3d 780b c63d 2a68 25be 83ed 0d3d
00000210: a1c3 f33d 15c0 25bd dd4e f5bd 4609 60bd
00000220: 5ed1 79bd a880 05bd e5bf c03d 3945 1f3e
00000230: 7fb9 b0bd 8623 85bd 8a89 4f3b b374 243c
00000240: 3dd9 18bd 7016 b43d ebc3 c73d 45d9 16be
00000250: a662 2ebd cd71 fdbd 2290 9abd 20da ccbc
00000260: b84e c2bc 288e c7bd a54f 15be 331f aabd
00000270: 99d0 8b3c b3f3 683d 6569 893c b29e c3bd
00000280: 778e c3bc 50aa 5b3d 14af 30bc ad1f 2dbe
00000290: d9a4 023d 38da cc3d 95ea 903c ae6b 013e
000002a0: 282a 96bc 3b32 0f3e 718a b53d 4b66 273e
000002b0: 287e 70bd 9287 903d f8a3 3fbe a78b c43d
000002c0: 4354 843d e1d2 5fbd 59fa ca3c 63b6 2d3e
000002d0: f574 893c 2ec3 0cbe 01be 243c 23f4 3e3b
000002e0: 0bb4 623d 892d 703d 0039 d2bd 0f51 1b3d
000002f0: 6115 5e3e c80b 1cbd bd48 1a3d d525 8fbb
00000300: faab cabc 5700 eabd 773b 60bd 66b2 693c
00000310: 44cb f13c 3dec d53d 2860 dfbc fe16 9d3d
00000320: dcb9 083e fc0e c53d 7e6f 7e3c c939 dfbd
00000330: 484a 7c3d 06ec c13c 8996 ccbd a6ea 913d
00000340: 849b c1bb 1713 ca3d 8370 f23d 6b3f 36be
00000350: e505 39be e5f8 bfbd 92ad 3f3d f65b b3bc
00000360: 14d1 babd 6c44 4cbc b0e5 98bd e3a9 dfbc
00000370: 0e82 1abc 9281 973d 821d 26bc db14 85be
00000380: 61cc 15be 27a2 dd3d 9b74 4cbd 408c 493d
00000390: 11b2 09be a171 473a e841 d03d 5c93 c83d
000003a0: 0729 8d3d 375b 01be 6891 74bd 9402 4c3b
000003b0: 0835 acbc 3b57 02be 47ac 283d 887a 13be
000003c0: a9ad 45be e55f 463b 317a 30bd 5f92 b03c
000003d0: 0e4d 9f3d 3a64 753c 509a 9d3c 557d bd3d
000003e0: f09a 0f3e 60c5 c5bc 6c9e a4bc a820 87bc
000003f0: 85a1 e1bc 454f 37bd ab3c 65bb 90af 0ebe

network_body._body_endoder.seq_layers.2.bias f4 [128]
0.0 0.0 0.0 0.0 0.0 0.0 0.0 0.0
0.0 0.0 0.0 0.0 0.0 0.0 0.0 0.0
0.0 0.0 0.0 0.0 0.0 0.0 0.0 0.0
0.0 0.0 0.0 0.0 0.0 0.0 0.0 0.0
0.0 0.0 0.0 0.0 0.0 0.0 0.0 0.0
0.0 0.0 0.0 0.0 0.0 0.0 0.0 0.0
0.0 0.0 0.0 0.0 0.0 0.0 0.0 0.0
0.0 0.0 0.0 0.0 0.0 0.0 0.0 0.0
0.0 0.0 0.0 0.0 0.0 0.0 0.0 0.0
0.0 0.0 0.0 0.0 0.0 0.0 0.0 0.0
0.0 0.0 0.0 0.0 0.0 0.0 0.0 0.0
0.0 0.0 0.0 0.0 0.0 0.0 0.0 0.0
0.0 0.0 0.0 0.0 0.0 0.0 0.0 0.0
0.0 0.0 0.0 0.0 0.0 0.0 0.0 0.0
0.0 0.0 0.0 0.0 0.0 0.0 0.0 0.0
0.0 0.0 0.0 0.0 0.0 0.0 0.0 0.0
00000000: 0000 0000 0000 0000 0000 0000 0000 0000
00000010: 0000 0000 0000 0000 0000 0000 0000 0000
00000020: 0000 0000 0000 0000 0000 0000 0000 0000
00000030: 0000 0000 0000 0000 0000 0000 0000 0000
00000040: 0000 0000 0000 0000 0000 0000 0000 0000
00000050: 0000 0000 0000 0000 0000 0000 0000 0000
00000060: 0000 0000 0000 0000 0000 0000 0000 0000
00000070: 0000 0000 0000 0000 0000 0000 0000 0000
00000080: 0000 0000 0000 0000 0000 0000 0000 0000
00000090: 0000 0000 0000 0000 0000 0000 0000 0000
000000a0: 0000 0000 0000 0000 0000 0000 0000 0000
000000b0: 0000 0000 0000 0000 0000 0000 0000 0000
000000c0: 0000 0000 0000 0000 0000 0000 0000 0000
000000d0: 0000 0000 0000 0000 0000 0000 0000 0000
000000e0: 0000 0000 0000 0000 0000 0000 0000 0000
000000f0: 0000 0000 0000 0000 0000 0000 0000 0000
00000100: 0000 0000 0000 0000 0000 0000 0000 0000
00000110: 0000 0000 0000 0000 0000 0000 0000 0000
00000120: 0000 0000 0000 0000 0000 0000 0000 0000
00000130: 0000 0000 0000 0000 0000 0000 0000 0000
00000140: 0000 0000 0000 0000 0000 0000 0000 0000
00000150: 0000 0000 0000 0000 0000 0000 0000 0000
00000160: 0000 0000 0000 0000 0000 0000 0000 0000
00000170: 0000 0000 0000 0000 0000 0000 0000 0000
00000180: 0000 0000 0000 0000 0000 0000 0000 0000
00000190: 0000 0000 0000 0000 0000 0000 0000 0000
000001a0: 0000 0000 0000 0000 0000 0000 0000 0000
000001b0: 0000 0000 0000 0000 0000 0000 0000 0000
000001c0: 0000 0000 0000 0000 0000 0000 0000 0000
000001d0: 0000 0000 0000 0000 0000 0000 0000 0000
000001e0: 0000 0000 0000 0000 0000 0000 0000 0000
000001f0: 0000 0000 0000 0000 0000 0000 0000 0000

value_heads.value_heads.extrinsic.weight f4 [1, 128]
-0.06493685 0.16709697 0.10067153 -0.03207749 -0.08697949 0.17269313 -0.11038707 0.054695398
-0.113589324 0.19325513 -0.13417286 -0.06513597 0.029243156 -0.13024923 0.05284673 0.07161689
-0.16888826 -0.0138386935 -0.18576366 0.14142662 0.10787976 -0.121572025 0.07740551 0.011306122
0.12611315 -0.040664613 -0.12724465 -0.17922565 0.15089661 0.117008686 0.15867996 0.12689468
-0.18915594 0.030223384 0.009656936 0.19525185 0.03877771 0.15136454 0.13947725 -0.011713073
0.11130619 -0.07960822 0.06764001 -0.10091915 -0.14032322 0.022485495 0.11128917 -0.20133594
-0.13475706 -0.042964518 0.13728836 -0.121557936 0.19239435 0.074288845 -0.16478674 0.08701548
0.14214948 -0.15277287 -0.06324929 0.02533704 -0.17786282 -1.6480684e-05 0.0637767 0.09510499
0.10398266 0.088275164 -0.05117394 -0.12012019 0.08179432 0.019612312 -0.05652705 -0.053373843
0.19717789 -0.12838387 -0.1139499 -0.14549026 0.19536498 0.08717325 -0.13355674 -0.19246693
-0.09295399 0.1091122 0.19795603 0.033590615 0.16416004 -0.10134574 0.20041904 0.046330303
0.17936775 0.17471069 0.1278125 -0.16857839 0.16413882 0.07538128 -0.093113974 0.12525082
-0.108713605 0.02024296 0.014348894 -0.0055645555 0.07510847 -0.048382536 -0.0041284263 -0.0014443994
0.11843118 0.0955919 -0.10362554 -0.011655912 0.1785788 -0.11569217 0.040940076 -0.20623288
0.015918732 0.10985345 0.17159891 -0.13511822 -0.004879251 -0.14408165 0.14316875 -0.14365718
-0.10027089 0.07965502 0.19670483 0.044522554 0.045575082 0.09144449 0.07263297 0.09332049
00000000: 9cfd 84bd 781b 2b3e e02c ce3d b063 03bd
00000010: 4e22 b2bd 78d6 303e 9e12 e2bd 4808 603d
00000020: 85a1 e8bd ace4 453e 9c64 09be 0266 85bd
00000030: 588f ef3c 0e60 05be d075 583d e0ab 923d
00000040: 0bf1 2cbe b0bb 62bc d438 3ebe 24d2 103e
00000050: 10f0 dc3d c1fa f8bd c886 9e3d 503d 393c
00000060: ce23 013e f08f 26bd 6c4c 02be ee86 37be
00000070: a484 1a3e 40a2 ef3d 007d 223e aef0 013e
00000080: 18b2 41be 0897 f73c 2038 1e3c 1af0 473e
00000090: 60d5 1e3d 4eff 1a3e 20d3 0e3e 30e8 3fbc
000000a0: 80f4 e33d a209 a3bd d886 8a3d b3ae cebd
000000b0: e4b0 0fbe 8033 b83c 94eb e33d 022b 4ebe
000000c0: c1fd 09be 90fb 2fbd 5295 0c3e 5ef3 f8bd
000000d0: 0603 453e c024 983d dbbd 28be 2c35 b23d
000000e0: a28f 113e 7e70 1cbe d888 81bd a08f cf3c
000000f0: ac21 36be 0040 8ab7 5c9d 823d 68c6 c23d
00000100: dcf4 d43d 9cc9 b43d c49b 51bd 9301 f6bd
00000110: c883 a73d 00aa a03c e888 67bd 889e 5abd
00000120: 00e9 493e 1077 03be 915e e9bd 66fb 14be
00000130: c20d 483e e487 b23d 19c3 08be 0d16 45be
00000140: a95e bebd 3876 df3d fcb4 4a3e 5096 093d
00000150: 9219 283e 5b8e cfbd a63a 4d3e d8c4 3d3d
00000160: 2eac 373e 5ce7 323e 48e1 023e d09f 2cbe
00000170: 0214 283e 8061 9a3d 8ab2 bebd c041 003e
00000180: 3da5 debd 90d4 a53c a017 6b3c e056 b6bb
00000190: 78d2 993d c42c 46bd c047 87bb 0052 bdba
000001a0: 0c8c f23d b0c5 c33d a139 d4bd 70f8 3ebc
000001b0: 5cdd 363e 04f0 ecbd c8b0 273d b62e 53be
000001c0: 0068 823c d8fa e03d a0b7 2f3e 6e5c 0abe
000001d0: 20e2 9fbb 248a 13be d49a 123e de1a 13be
000001e0: d35a cdbd 2c22 a33d fe6c 493e 485d 363d
000001f0: f0ac 3a3d 4047 bb3d 98c0 943d d01e bf3d
