results/firstTest/My Behavior.onnx (onnx, 93022 bytes, 7 tensors)

network_body._body_endoder.seq_layers.0.weight f4 [128, 41]
00000000: 9f7e 2fbe f553 b43c b91b 7cbe 912b 9c3d
00000010: 8fde 57be a17e 993c 5047 c6be 4e8b 40be
00000020: 5cdd cbbd 0d23 d6bd 3a60 7fbe 3f9d 0cbe
00000030: c749 343e 5a0e 25be 4037 583e e4e1 7fbe
00000040: f43d 5ebe d963 393d 2986 123d 0eab 7f3d
00000050: 5f32 8f3e baef 7d3d 340f 54bc 96ae ae3e
00000060: 08d4 8fbd 8daf 89be aae3 a93d dbdf 093e
00000070: 626a 9e3d 34dd 3f3d 64fd 973d ebb3 353e
00000080: 8632 74be cee8 7fbc 9c81 a63c 9395 503b
00000090: a8ab d83d e4c3 10be f260 04be 99de 983e
000000a0: 50ef 7e3e 0687 b83c 9e2c 213d 57c1 d0bd
000000b0: d3cc 23bd 10cb d63d d7bc 9cbd dd87 29bd
000000c0: fe0b ad3d 6ce3 6cbe 771d 1b3e cf95 483e
000000d0: 27a2 29be 3941 c83d 6d67 473d 8897 9fbe
000000e0: 3293 32bd c03e e2bc d281 d9bb e9c5 8f3b
000000f0: 6edd 9c3d d452 ef3c 157a 1dbe e148 ca3c
00000100: b2af 72be 9851 a33d 9e1a 6abe c37e eebd
00000110: 16f6 25be 459b 953e c329 13be fc35 19be
00000120: 956d fb3d 9a2e 63be 81fb 82bd 6fa3 24ba
00000130: 77c7 613d f7a4 633d c518 023d 505a 1a3e
00000140: 5af1 69bd f92a 5e3e cb82 683d cb04 81bd
00000150: 1456 3e3e 0cc9 c8bd 53a2 9b3d 08b2 e4bd
00000160: c390 b4be fb92 433d cac4 043d bca5 b73d
00000170: 881e 8d3d c51f e8bd 3de2 a2bd 5e46 c73d
00000180: 16b5 2bbe 4fd4 c43d de99 74be ef85 2d3e
00000190: d3d9 7dbe aad6 113e 066f b6bd 3686 70bd
000001a0: b7e9 e43d aec9 b83d c4a1 9abd e0a3 91be
000001b0: 5f7e e3bd 26d9 44be 91cc 353e 5917 a2bd
000001c0: d75f e7bc 2abb 30bd 5dc9 bf3e 467b 1dbe
000001d0: b26b f43d ad73 a93d 4fd1 02bd 9550 16bd
000001e0: 43f9 7a3e 6934 263e f717 41be 5d96 283e
000001f0: 53fa 30be 6479 bfbd 3619 36be 8119 323b
00000200: 6434 483e a48e 0dbd 9a59 43bd da3b a3bc
00000210: 998c 45be 3225 f2bc 80cd 003e 9354 d3be
00000220: 400b 063e 713d 853e d171 693e cfde b9bc
00000230: 42dd 18bd 1ddd 4cbd 8f7d 1e3e 5d77 a73d
00000240: bf99 073e 26fc a03c d9f6 933d 57aa 483d
00000250: 04a0 d5bd e6a9 853e a92a 653d c69b 9a3d
00000260: d32e c8bd c794 853a cde4 b7bc 8802 023e
00000270: ea2a 6cbb a316 8fbe eba2 fbbe 404f 1abe
00000280: a319 1dbd 28a8 9e3e 4e3e cb3d e95c b5bd
00000290: b717 033e d502 6cbe f170 c4bc 4aeb 37bc
000002a0: 9ad2 703d 4572 31be e12e 8d3d fa69 543c
000002b0: 1aef 373d 773e 09be a8c1 fb3d 95f4 a3bd
000002c0: 7a3e a23e 1508 dcbc 0142 18be f5be 36bb
000002d0: 8387 1fbd c073 6a3e cf35 083f 2fda 6b3e
000002e0: 6cc0 aabd feb8 23be 1b02 c5be 72d2 10bc
000002f0: a672 46bd 188d 97bc fb43 b43c 3ad0 f43d
00000300: 87a1 5dbe f299 1ebe 1388 813e 8b66 afbd
00000310: 4b04 e3bc c998 e8bd d56c f1bd c2cc c5be
00000320: e40b 1cbe 483b c7bd 661c df3e c486 183d
00000330: fab9 a13d ef5c 9e3d ea27 aa3d 8bd2 a8bd
00000340: a450 67bd d074 3cbc 1cbb 233c efa7 bc3d
00000350: d990 27bd cf2a 003e e76f 4b3e 40de 0abb
00000360: 2605 0e3e 66e4 b7bc b151 e5bc c499 8f3e
00000370: 6422 1fbd 6d00 16bd 71e3 b13c 4057 66bd
00000380: dc4a d6bd c58c 6cbd 7bf9 a03b b1db 7f3d
00000390: a451 50bd 3454 543e 3513 a2be 6d79 93be
000003a0: d1fd 24bd 8e25 153e ccdf d4bc 4524 593e
000003b0: 66e2 3d3e 906c 7c3c f612 93be 97d6 1a3d
000003c0: 8b35 053e 4d72 02be 365b cbbd cc00 823d
000003d0: 7d12 8fbd 05ee 46be 6e68 cabd ab82 593d
000003e0: 5aa5 86bd 3421 6b3d 3b9b 493d 30e4 183d
000003f0: 65e1 7fbd 9870 533c 33ef 36bd d322 d43c
-0.17138146 0.02201269 -0.2461995 0.07625497 -0.21080993 0.01873714 -0.38726282 -0.1880314
-0.0995433 -0.10455904 -0.24939051 -0.1373186 0.17606269 -0.16118756 0.21114826 -0.24988514
-0.2170332 0.045261238 0.035772476 0.06241899 0.27968118 0.0619962 -0.012943078 0.34117573
-0.070228636 -0.26891747 0.082953766 0.134643 0.07735135 0.046841815 0.07421377 0.17744415
-0.23847398 -0.01561947 0.020325474 0.0031827434 0.10579616 -0.14137226 -0.12927607 0.2985733
0.24895978 0.022525322 0.03934919 -0.10193127 -0.039990257 0.1048795 -0.07653206 -0.041389335
0.08449553 -0.2313363 0.15147959 0.19588397 -0.16565762 0.09778065 0.04868262 -0.31170297
-0.043597408 -0.027617812 -0.0066377902 0.0043876064 0.07659422 0.0292143 -0.15378602 0.024692954
-0.23699835 0.07974547 -0.22861716 -0.11645272 -0.16207156 0.29220024 -0.143714 -0.14962
0.122767605 -0.22185746 -0.06395627 -0.0006280457 0.055121865 0.055577245 0.031761903 0.15073514
-0.057114936 0.2169608 0.05676536 -0.06299742 0.18587524 -0.09803972 0.0759932 -0.11166769
-0.35266694 0.047747593 0.032414235 0.08967158 0.06890589 -0.113341846 -0.07953308 0.09730218
-0.16768298 0.09610807 -0.2388682 0.16945623 -0.24790125 0.14242044 -0.08907895 -0.058721744
0.1117739 0.09022842 -0.075503856 -0.2844534 -0.11108088 -0.1922346 0.17753817 -0.079146095
-0.028243942 -0.043147244 0.37458315 -0.15379056 0.11934604 0.082740165 -0.031937893 -0.036697943
0.24509148 0.1623093 -0.18856798 0.16463609 -0.17282991 -0.09349325 -0.17783055 0.0027175846
0.19551235 -0.03455986 -0.047692873 -0.019926 -0.19291915 -0.029558752 0.12578392 -0.41275463
0.13090229 0.2602344 0.22797324 -0.022689251 -0.037320383 -0.050015558 0.15477584 0.081770636
0.13242243 0.019651484 0.07224817 0.048990574 -0.10430911 0.26106185 0.055948887 0.07549243
-0.09774556 0.0010191434 -0.022447968 0.12696278 -0.003603632 -0.27946958 -0.49147734 -0.15069294
-0.038354527 0.30987668 0.09923993 -0.08855612 0.12802015 -0.23047955 -0.023979636 -0.011225531
0.058794595 -0.17328747 0.06893707 0.01296472 0.04490576 -0.13402735 0.122927964 -0.08005635
0.3168829 -0.026859323 -0.14868928 -0.0027884815 -0.038947593 0.22895718 0.53207105 0.23032449
-0.08337483 -0.15988538 -0.3847817 -0.008839237 -0.04844918 -0.018499896 0.022005072 0.119537786
-0.21643649 -0.15488413 0.2529913 -0.085644804 -0.027712008 -0.113572665 -0.11788336 -0.3863278
-0.15238911 -0.09728104 0.43576354 0.037237898 0.078968 0.077325694 0.08308394 -0.08243283
-0.05647339 -0.01150246 0.009993341 0.09211718 -0.040909622 0.1251633 0.19866906 -0.00211896
0.13869151 -0.022447776 -0.027993055 0.28047 -0.038851157 -0.0366215 0.021714898 -0.05623555
-0.10463497 -0.057751436 0.004912553 0.062465373 -0.05085911 0.20735246 -0.3165528 -0.28803578
-0.04028112 0.14565107 -0.02598562 0.21205242 0.18543395 0.015406743 -0.28725404 0.037802305
0.13008706 -0.12738915 -0.099295065 0.06347808 -0.06985948 -0.19426735 -0.098832 0.05310313
-0.06574507 0.05740471 0.049220305 0.03732699 -0.062470812 0.012905262 -0.044661712 0.025895512

network_body._body_endoder.seq_layers.0.bias f4 [128]
00000000: eb86 873c 20a8 923a 8757 80bc 6c30 733b
00000010: 1dac 8e3c 0e23 dc3c 0835 9e3c 6cef a23c
00000020: b1b7 903c 345d 0a3b 738b 19bc e301 d23c
00000030: 567d 45bb 587f a83c 2072 38bb 54bf 6fbb
00000040: da2f 0cbc 4ce3 14bc 2c58 e4bb a4a9 5cbc
00000050: a66f d4bb 88b1 123c 80f5 973b 1faf 2a3c
00000060: a06d 92ba 4abf 3cbc d14b 7a3a a05e e93a
00000070: 99bc b3ba e79f 7cbc 3694 f13b 18ed a73c
00000080: 7189 ed3b 266c 023b eccd 46bb 72cf 523c
00000090: 70e0 8fbc 1a4f 713c a75c 07bc 55c0 3fbb
000000a0: 812c 983b 7399 853c 570f 06bc 57d3 2f3c
000000b0: cc77 c7bb 3322 003a e858 aebb 88b7 57bc
000000c0: 6975 043c e60d 893c eeec d93a c307 8e3c
000000d0: 7323 c3bb 8d77 733a c21f 293c b9c8 7ebb
000000e0: 4718 fd3b a63b 833c 61eb e23b b555 47bc
000000f0: 35c8 a63c 7305 f6ba 4cb3 033c 8ab2 53bc
00000100: a227 553c 49a4 ff3b 66c9 25bb 54cd 5ebc
00000110: 59ed 92bc 2001 f3bb f614 b53b a4f2 fb3b
00000120: 8e87 963b 3dee 703b 6cb5 613c 49bb 6d3c
00000130: 2355 123c 3350 2ebb f59f 0bbc e87d 423c
00000140: c4b1 123b 354b a83c 9cb1 8ebc 103a 713c
00000150: 721a 433b 81ca 8f3c f9f5 513b 4ec1 863b
00000160: eb80 123b 3ae7 543c 8736 0cbc d0b9 80bc
00000170: 4915 ee3b 46d9 bbbc dda0 23bc cebd 253c
00000180: 9895 38bb e6a2 93bb 4880 723c abe7 853b
00000190: 1508 db3b 50b8 163b 898f e03b 16b5 babb
000001a0: df0b 77bc 67f8 8fbb cb16 e4b9 0d9a 093c
000001b0: dbea 3abc d12f b93a 399a 67bc d59f c93a
000001c0: a63a e5bb b1f7 81bc 820e 453b 9eda 3dbc
000001d0: 16d8 8cbc 00e1 9a3c 5785 a53c 6ff8 ca3b
000001e0: aa84 7fbb 5df5 06bc f47f 873c ff58 2a3c
000001f0: 87b4 8f3c 2b26 c33a aee5 08bb a09d 563c
0.016543826 0.0011189021 -0.015666736 0.003710772 0.017416054 0.026872184 0.019312397 0.019889556
0.017665716 0.0021112682 -0.009371626 0.025635665 -0.003013452 0.020568535 -0.0028144196 -0.0036582546
-0.008556331 -0.009087395 -0.0069685187 -0.01346818 -0.006483036 0.00895346 0.00463742 0.010417729
-0.0011171587 -0.011520216 0.00095480407 0.001780469 -0.0013712823 -0.015418983 0.0073724044 0.020498797
0.0072490503 0.0019900887 -0.0030335141 0.012866842 -0.017563075 0.014728332 -0.008261836 -0.0029258926
0.004643977 0.016308522 -0.008182368 0.01073154 -0.006087279 0.00048879086 -0.005320657 -0.013166316
0.008084633 0.01673026 0.0016626397 0.017337685 -0.0059551536 0.0009287529 0.010322513 -0.0038876964
0.0077238414 0.016019654 0.006925032 -0.01216643 0.020359138 -0.0018769935 0.008038353 -0.012920985
0.0130099375 0.0078015667 -0.0025297045 -0.013598759 -0.017935442 -0.0074159056 0.0055261804 0.007688837
0.004593796 0.0036763095 0.0137761645 0.014509984 0.008931431 -0.0026598095 -0.008522023 0.011870839
0.0022383789 0.020543674 -0.017418675 0.014723316 0.0029770401 0.017552616 0.003203748 0.004112399
0.0022354673 0.012994582 -0.008557922 -0.015713602 0.007265721 -0.022930752 -0.009987083 0.010116054
-0.0028165337 -0.004505503 0.014801092 0.004086455 0.006684313 0.0022998042 0.006853048 -0.0056978567
-0.015078514 -0.0043936255 -0.0004350453 0.008398545 -0.011408533 0.001412863 -0.014135891 0.0015382717
-0.006995517 -0.015865179 0.0030068462 -0.011587767 -0.017192882 0.018906116 0.020205183 0.0061941664
-0.0038988986 -0.00823721 0.016540505 0.010397195 0.017542137 0.0014888694 -0.0020888853 0.013099104

network_body._body_endoder.seq_layers.2.weight f4 [128, 128]
00000000: cc2b 3abd 667a 713d da9f 9a3c 0210 823c
00000010: ad7d ad3d d4e2 d13d 41f3 0d3c 03e3 8f3d
00000020: b372 84bd a3ae 1f3c d231 c43d a6c5 9e3d
00000030: b14b 99bd fa99 00be a393 35bd ffc4 7dbd
00000040: 7380 dcbc 9c37 193d e0a1 3c3d 6b3f 11be
00000050: 6fcd 2e3e 631c 2abc f166 e63d 00a7 013d
00000060: 2c71 6c3e 96ef 553d 8a58 d5bd daaa 8bbc
00000070: 476a c43c c2c8 05bd 3d39 1c3a 873e 73bb
00000080: 8ceb 59bd d7ec f73d f446 ad3c 17b8 193e
00000090: 5b98 b6bd 2eed 473c ffb6 98bd 8843 473c
000000a0: 4cd1 de3d 3089 ea3c d313 80bd 073d 313d
000000b0: 9bb1 963d cfa3 37bd 1674 aebd 36d7 b9bd
000000c0: 912f 933d 4768 c33d e742 873c 4982 ab3b
000000d0: 9b7f f8bd 169c ea3d b8f8 da3b 2c01 6b3e
000000e0: df88 07bd b3a3 6d3c 44d8 1fbe 0795 293e
000000f0: 2fed e13d da12 6e3b f651 7bbd bd27 3a3c
00000100: 7ae3 9fbd 2c21 9d3d 8d6e 293d 1044 f9bc
00000110: 2700 07be 94b2 6f3d ce4a 76bd 834a 39bd
00000120: 8a58 933d 1b13 a93d adc4 ad3c cd12 88bb
00000130: d7d1 2a3e 107c 21bd 20cf 4bbd c1b6 a63d
00000140: 4d0b 253d 4a0b a53d 6843 81bc eeb3 273e
00000150: 77fe f03d cb6e d6bd 094d 483a 30cb b13d
00000160: 5e9e 7f39 add0 4ebc 4a43 80bd 108b 313c
00000170: 8266 cfbd cf9b 1abd 3649 53bc e561 e53c
00000180: 2958 243e cd93 a13d e5d1 b83d db79 95bc
00000190: b6bc 833d 5f49 ce3c 0f6e ecbc 08fe 4a3d
000001a0: 1c19 c2bd 21ca 0a3e 9bad 1fbd 0b30 2c3e
000001b0: b7bc 1abc 5046 27be ccfd adbd 1fb3 f2bd
000001c0: 6cd9 afbd 6437 7d3d 979b 06bd ad61 05bd
000001d0: fd43 053e 3efb 1b3d 4527 1dbc b7b0 bdbd
000001e0: 92d6 1fbd 3d2e 95bd 90a9 b3bd a7a9 d43c
000001f0: 9d6d 6b3d bdb8 11be 1b2a 4c3e bef6 f9bd
00000200: 6a98 8c3d 2a81 1bbc a829 213e 9088 853c
00000210: 9bfe 10bd 6be5 26bd 3901 43bd 61c4 a03d
00000220: ed9a dc3d f0d5 b4bd 7295 1a3d fec3 5f3e
00000230: 28e3 fe3c 7e1d 4b3d c320 363e 7b17 0b3c
00000240: cb90 883d fce6 87bd 99b6 0f3d 3c44 7cbe
00000250: 8db9 2ebd 1db7 173c 9cec 00bd 1ebc c53c
00000260: 2158 fe3c 8df5 d138 8686 263e 61de 0fbe
00000270: 56f1 38bd 946c 083e e22c ecbb a524 31bd
00000280: 09d7 3a3d 2aff a3bd 1c77 21bd f84a 773d
00000290: be3b 22bd 1c6f 2dbc 3f6e 2bbe 05d7 673b
000002a0: 89ab 17be 391f aabd 46b3 a03d c63f a0bc
000002b0: 53f1 19bc 5ea8 e0bb d3e4 09bc 4baa f13c
000002c0: ae39 223e 6d6d 13be 6df1 f0bd b2f9 0c3c
000002d0: a4e1 27bc bb89 943d 5780 323e 6f30 263d
000002e0: dd7f a6be 4fbc df3c 6290 153c 2d9b 503d
000002f0: 32e5 183e 3505 53bd fa80 d7bc 237a 23be
00000300: 552f 0abd 6972 0b3e 0d63 e83d 6d0e 72bd
00000310: f753 84bb 0b11 803d b156 1b3d ae79 9a3d
00000320: 1b69 9bba 2d55 da3d baf1 bebc 4409 9b3d
00000330: 93b8 683d bd42 9abc 4d22 803c 278f fa3c
00000340: 58c7 81bd a21a 723d a85c de3c 7e45 82bd
00000350: 3d9f 373d 64e6 02be fc3e dc3d 5e4d 90be
00000360: 09a7 033d 2680 5bbe 3ef0 65be 8d1d febd
00000370: d612 87bd 1d40 55be c81f de3d b5f8 05be
00000380: ee8a de3c 46a0 f8bd d996 aabd d996 45bc
00000390: fe80 fd3c 3d2f 13bc b0eb 4ebc 0a6e f2bd
000003a0: 4a76 8f3d 7839 da3d 2a6b 27bd f7a8 f9bc
000003b0: 55a6 1f3e c501 ce3c 64c5 50bd 2242 b4bd
000003c0: d113 07bd 9ad0 5ebd 25ad 68bc 0ad3 bdbd
000003d0: cb17 64bd 5442 d0bc 6013 dcbc c940 13be
000003e0: 7340 fdbd edd6 833d c952 0c3e 0b07 703d
000003f0: e920 1bbe 8cca 923d ed7c 45bd acbf 293d
-0.045451924 0.05895462 0.018875051 0.015876774 0.084712364 0.10248342 0.008663953 0.07025721
-0.0646719 0.0097462265 0.09579815 0.07752542 -0.0748514 -0.12558737 -0.04433025 -0.06195545
-0.026916718 0.03740655 0.046052814 -0.14184348 0.17070554 -0.0103827445 0.11250103 0.031653404
0.23090047 0.05223044 -0.10417278 -0.017049242 0.023976458 -0.03266216 0.0005959457 -0.0037116127
-0.05320315 0.121057205 0.021151997 0.15011631 -0.08915778 0.012202544 -0.07456779 0.012162097
0.10879764 0.02862987 -0.06253781 0.04327109 0.07358094 -0.044833954 -0.085182354 -0.09074251
0.07186807 0.09541374 0.016511394 0.005234037 -0.12133714 0.11455552 0.0066824816 0.22949666
-0.033089515 0.014504361 -0.15609843 0.16560756 0.11031567 0.0036327154 -0.06135746 0.011362013
-0.078070596 0.07672343 0.041365195 -0.030427963 -0.13183652 0.058519915 -0.060129933 -0.045237076
0.07194622 0.08255597 0.021211946 -0.004152632 0.1668161 -0.039424956 -0.049758077 0.08140326
0.04029398 0.08058794 -0.015779212 0.16377231 0.11767285 -0.10470351 0.00076408737 0.08681333
0.00024377691 -0.012622994 -0.06262834 0.010836378 -0.10126974 -0.037746247 -0.012895873 0.028000781
0.16049255 0.07889519 0.09024409 -0.018246582 0.06432478 0.02518147 -0.028861074 0.04955867
-0.094774455 0.13553669 -0.038983922 0.16815202 -0.009444407 -0.16335416 -0.084956735 -0.11850571
-0.08586392 0.061820403 -0.032863226 -0.032563854 0.13014217 0.0380814 -0.009591882 -0.09262221
-0.03902299 -0.0728421 -0.08772576 0.025959803 0.057477582 -0.14230628 0.19937937 -0.122052655
0.06865008 -0.009491244 0.15738547 0.01630047 -0.03539906 -0.040746134 -0.047608588 0.07849956
0.10771737 -0.08829868 0.03774018 0.21852109 0.031114176 0.049588673 0.17785935 0.008489485
0.06668242 -0.06635854 0.035086248 -0.24635404 -0.042657424 0.009259966 -0.03147565 0.024137553
0.031047883 0.00010011634 0.16262254 -0.14049675 -0.04515203 0.1332267 -0.007207499 -0.043247838
0.04561523 -0.08007653 -0.039420232 0.06037423 -0.039607756 -0.010585573 -0.16741274 0.0035375964
-0.14811529 -0.083067365 0.07846694 -0.01956166 -0.009395915 -0.0068560084 -0.008416372 0.029500147
0.15842316 -0.14397211 -0.11764798 0.008604454 -0.010246668 0.072528325 0.1743177 0.040573534
-0.32519427 0.027311472 0.009128662 0.050929237 0.14931181 -0.051518638 -0.026306618 -0.1596456
-0.033736546 0.13617863 0.113470174 -0.05909579 -0.0040383297 0.06253251 0.037924472 0.0754274
-0.0011856885 0.10660777 -0.023308624 0.07570127 0.05681665 -0.018830651 0.015641356 0.030585838
-0.0633685 0.05910743 0.027143791 -0.06360911 0.044829596 -0.127832 0.10754201 -0.28184026
0.03214172 -0.21435603 -0.22454926 -0.1240798 -0.065953895 -0.20825239 0.108459055 -0.13083155
0.027165856 -0.12139945 -0.08329553 -0.012059891 0.030945297 -0.00898343 -0.0126294345 -0.118373945
0.07004984 0.106554925 -0.040873684 -0.030476077 0.15590794 0.025147328 -0.050969496 -0.08801676
-0.032977883 -0.054398157 -0.014201437 -0.09268768 -0.055686753 -0.025422253 -0.026864707 -0.14380182
-0.12365808 0.06437478 0.13703455 0.058600467 -0.15149273 0.07167539 -0.04821484 0.04144256

network_body._body_endoder.seq_layers.2.bias f4 [128]
00000000: ad9a 8b3a c086 be3c 333e 87bb 64d3 8c3c
00000010: 014a 3bbc 91b6 053b f383 b43c 0400 a5bb
00000020: 7b29 e1bb 6f51 0dbc 461b c9ba 5dce 9dbc
00000030: f69f 85bc ba53 93bc 5e2e 6f3c 8cfe 8abb
00000040: 5e54 97bb 864c f3ba 2459 9ebc 3da9 093c
00000050: db7e 99bb 677b d23b 8347 163b 528d b7ba
00000060: d169 253c 68a8 34bc a8f2 a23c 5940 a2bc
00000070: 5dff edbb a364 88bc 6d3f ccbb 491a 37bc
00000080: 343c 943c 66c3 cdba 2711 5abc 8b77 37bc
00000090: ca4c 823c 8537 813a cf01 cebb c160 793c
000000a0: c4f6 e43a 2cbe 48bc 6c3a b03c 099b 12bb
000000b0: 084c 133c 577b 3e3c 8361 2bbc b615 07bc
000000c0: f697 3b3c 12bd 803c 54d1 a23c 90d0 93bb
000000d0: 22c8 833c 6f31 4cbc 1113 11bc e267 0b3c
000000e0: 4d63 053b 7b6a d33c 4536 8b3c 5f1e c6bb
000000f0: dd26 6fbc 0a6d c93b 2b6b c5bb 23c7 743c
00000100: 7656 203c 6810 84bc 311b 22bc 3570 7fbc
00000110: 014c d2bb 209c a33b 4a22 88bc 0faf 943c
00000120: ae1c 38bb 2dd9 4abc e930 b6bb e5cd 48bc
00000130: 6ba3 5bbc f97e fbbb 34e3 56bc d829 153c
00000140: f5b6 4a3c 07a3 9e3a b78c 8ebc a2f7 9e3c
00000150: de92 9b3b 7892 823c 6f49 af3c 6f7b 8bbc
00000160: 3002 bab7 32c1 e6bb f79e bfbb 380a 93bc
00000170: 7a65 96bc ae7a a8b9 5081 5539 c0af 3bbc
00000180: 7393 8f3b 8dba d8bb 38f9 303c 1017 703c
00000190: 0a66 353c 0b9c 0c3c ad60 4b3c 359a 733c
000001a0: e22b 373c f429 6cbc e58f 20bb e959 3ebc
000001b0: e068 703c 2200 9ebc d305 683c e924 3d3b
000001c0: aff2 9ebc b523 8b3b 3692 383c fade 543c
000001d0: 7fdd 6bbc edfe 2cbb 41a4 5d3c 5bad a339
000001e0: 6b16 45bc e55c 813c 7c1b 803c 8d16 163c
000001f0: e40b b2b9 488c 85bc 9ff8 4b3c d8fa a2bc
0.0010650955 0.023257613 -0.004127288 0.017190643 -0.011431218 0.0020403008 0.022035575 -0.0050354023
-0.0068714 -0.008625372 -0.0015343211 -0.01926344 -0.016311627 -0.01798426 0.014598457 -0.00424177
-0.0046182116 -0.0018562234 -0.019329615 0.008402166 -0.004684312 0.006423402 0.0022930808 -0.0014003909
0.010096029 -0.011026479 0.019891098 -0.019806074 -0.0072631077 -0.01664955 -0.006233147 -0.0111757
0.018095113 -0.0015698492 -0.0133097535 -0.011197935 0.015905757 0.0009858465 -0.0062868367 0.015220822
0.0017468561 -0.012252372 0.021512233 -0.002237024 0.008990295 0.011626086 -0.01046026 -0.008244922
0.0114498045 0.015715156 0.019875206 -0.0045109466 0.016086642 -0.012462958 -0.008854643 0.008508654
0.0020353377 0.02580761 0.016993651 -0.006046101 -0.014596668 0.0061470317 -0.0060247383 0.014940056
0.009786239 -0.016121104 -0.009894178 -0.015590717 -0.006417752 0.004992977 -0.016617913 0.01814988
-0.0028093266 -0.01238088 -0.0055600298 -0.01225612 -0.013405661 -0.0076750484 -0.013115693 0.009104215
0.012372722 0.0012103029 -0.017401082 0.01940519 0.0047477325 0.015938982 0.02139732 -0.017026631
-2.2173946e-05 -0.0070420736 -0.0058478075 -0.017949209 -0.018358935 -0.0003213486 0.00020361436 -0.011455476
0.004381591 -0.0066140355 0.010801606 0.014653936 0.011071691 0.008582125 0.012413186 0.014868309
0.011179896 -0.014414299 -0.002449983 -0.011618116 0.014673442 -0.019287173 0.014161545 0.0028861111
-0.01940283 0.0042462 0.011265328 0.012992615 -0.0143960705 -0.0026397065 0.013527931 0.00031218943
-0.012029271 0.015791366 0.015638106 0.00916065 -0.00033959665 -0.016302243 0.012449413 -0.019895002

action_model._continuous_distribution.log_sigma f4 [1, 2]
00000000: 8e83 223b d497 e2bb
0.002479765 -0.006915072

action_model._continuous_distribution.mu.weight f4 [2, 128]
00000000: fb80 58ba 8e17 703c 54ad 843c 401a 193d
00000010: 0852 40bb 35d1 0c3b 97cf 373d cb4e 55bc
00000020: 8bd5 a3bc 3af6 28bc eab3 943c d355 06bd
00000030: 6857 ebbc 9805 15bd d0df 523d 09bc a0ba
00000040: 6f4d 8fbb 558b acbc a919 9fbc 5808 313d
00000050: 093f 0abc 1795 d03b efac 903b c678 e1bc
00000060: 8967 033d f13c babc 1768 ed3c 827c 13bd
00000070: b3be cebc d565 95bc d7f6 b5bc 93be 25bd
00000080: 847a 7c3d ba35 d2bb 7c03 7fbc 391f 86bc
00000090: 8718 993b 54f5 2fbb 1a76 eebc e227 b03c
000000a0: 47b9 2abc a5af fdbc a576 633c 7dd9 33bc
000000b0: ad02 5a3d 1aad 473c 39c1 53bc 3a5a 02bb
000000c0: ddac 9f3b bf74 3e3d 8838 003d 1b80 6d3c
000000d0: c111 813c 85a2 83bc 853b 1fbd 2429 323d
000000e0: b256 fd3b d5ac 8f3c 6d64 3a3c ba8c db3b
000000f0: a28a 65bc 6751 303d c75d 0a39 2f3c 0a3d
00000100: 2a0b 013b 7a7f 84bc 4ddc 54bc 877c 8ebc
00000110: b38f 5fbb 2bfd 273d 7f3f 91bc 29dd b43c
00000120: 54a0 673a 65ae 89bc 1538 90bb 4b3e 00bd
00000130: d32b 08bc 1568 fc3b 9ad7 03bd ec8f 1b3c
00000140: 2c90 d83c 87c4 4f3b 82a3 6dbc 3c18 2e3d
00000150: 000e e0bb 68e5 b13c 35e2 d33c e5a0 8cbc
00000160: bd25 16bc 9b28 9dbc 234e fc3b 24d8 39bc
00000170: 9ee3 bdbc 4412 eebc e97a eb3b 6b26 d4bc
00000180: 471f 363b c9c6 8bbc f70e 7e3b 1ab2 c63c
00000190: 31a4 5c3b e139 e53b 37fd e33c 22f2 e03c
000001a0: 71e8 6f3c 4407 13bd 2741 b7bc aa9b afbb
000001b0: 92be 003c 7bf1 c0bc 7bd6 c13c d154 57bb
000001c0: 3135 f7bc 0267 c43b 01cd 263d df2f 893d
000001d0: cb93 bebc e6d8 d5bb 9ba8 5e3c e9ca 22bc
000001e0: ad7e 1cbd 4dd3 123d b0f0 573c 33c3 bd3c
000001f0: e0b2 1c3c 4f53 34bc 32d4 aa3c c0da d4bc
00000200: c27c 57bb 34fa 913c 1cdc ffbc ae6d 013d
00000210: e0de 04bd f629 a43c 8e5c d83c d5c2 cd3b
00000220: 4ab9 873b 212d 21bc 7521 c7bc 142b 19bc
00000230: b95b a4bc ffe3 24bc 0941 bebb 6f33 b6bc
00000240: 2d3e 5abc 1de7 943c d45b c839 f18b c0bc
00000250: 5483 bb3a e6d9 3f3c fa09 11bc c411 dc3c
00000260: 868b 96ba 9660 c0bb d849 143d ebfc 66bc
00000270: 0a84 453c 6b32 86bc e74b 2e3a dd15 703b
00000280: d207 00bb 0d03 21bc 1969 dabc 2ce3 38bc
00000290: cec9 bb3b c6af a43c c149 cf3b 171d d73a
000002a0: 50fc acbb c011 08bb e7d1 ee3b c0e6 8cbb
000002b0: 2d52 25bc f8df 593c 6a10 febc 64dd eabc
000002c0: 9ba0 603c f42a 13bb ca25 df3b 49c0 5dbc
000002d0: 716a e13b f970 75bc 7ec6 883c c6d0 9abc
000002e0: deac 08bc 52c7 963c 5062 903c 9292 cabc
000002f0: 21f5 6fbc 5eed 98bc abe9 32bd ffa3 083c
00000300: b156 1e3d 9aa0 f43b 2d01 083c 6343 81bc
00000310: ebeb 16bd 6b21 19bd 6fcb 86bc fa10 473b
00000320: bb12 283c d480 81bc d216 b9bc 73b6 b3bb
00000330: 6868 37bc d969 ccbc 0cc7 f13b fc7f 133d
00000340: 20fc 893b f11b 9d3c 8a9a 7a3b 0679 103c
00000350: 4271 2e3d 841a e63c c15d 703c c204 79bc
00000360: f6c9 ec3c 7f57 063c 1430 60bc 2ac1 8fbb
00000370: 6431 3fbc e14d 4f3d 6791 43bc dc7a 3dbd
00000380: c37e d73c cbb3 3f3b ff5c c63c 0c8d f03c
00000390: 42b2 54bb 7f1b af3c 7ca9 56bc 939b 143b
000003a0: 962b 0c3d a2c5 a5bb 5a91 bd3b f0c4 98bc
000003b0: 6bf7 2e3d 2467 bbbb 4f2c 0e3c eda8 c93b
000003c0: 7e9e a0bc 026c 463b c5ba 8fbb b086 4bbc
000003d0: 1a46 b7bc 553c 83ba 568b 043b c0f9 bb3c
000003e0: 75f7 faba ffa0 ceba c1e6 a23c 0664 d0bb
000003f0: d77d 65bc 2d0a 4dbb af06 c13c 3379 f5bb
-0.00082589657 0.014654053 0.01619593 0.03737855 -0.002934577 0.0021487002 0.044875707 -0.013019274
-0.019999286 -0.010312611 0.018152196 -0.032796692 -0.028728202 -0.036382288 0.051482975 -0.001226307
-0.0043732445 -0.021062532 -0.019421415 0.043220848 -0.00843788 0.006365429 0.0044151465 -0.02752341
0.03208116 -0.022734137 0.028980298 -0.03600741 -0.025237417 -0.018237034 -0.022212429 -0.04046495
0.061640278 -0.006415096 -0.015564796 -0.01637231 0.0046721133 -0.0026849108 -0.02910905 0.021503393
-0.01042015 -0.030967543 0.0138832675 -0.010977146 0.053225208 0.012187267 -0.012924486 -0.0019890205
0.004872902 0.046498057 0.031303912 0.014495875 0.015755536 -0.016068706 -0.03887512 0.043496266
0.007731282 0.017538467 0.011376482 0.0067001255 -0.014010103 0.04304638 0.0001319564 0.0337488
0.0019690492 -0.016174067 -0.012991977 -0.017393364 -0.003411275 0.041012924 -0.017730473 0.022078114
0.00088358414 -0.01680679 -0.0044012167 -0.031309407 -0.00831123 0.007702837 -0.032188036 0.009494763
0.026435934 0.0031702833 -0.014504315 0.04250358 -0.0068376064 0.021715835 0.0258647 -0.017166564
-0.009164271 -0.019184401 0.0076997443 -0.011343036 -0.023179825 -0.029061444 0.007186283 -0.025897225
0.002778964 -0.017062562 0.0038766244 0.024254847 0.0033667202 0.006995425 0.027830703 0.027459208
0.014642821 -0.0358956 -0.022369934 -0.005359133 0.0078579355 -0.023552647 0.023661843 -0.003285695
-0.03017673 0.005993725 0.04072285 0.06698584 -0.023263833 -0.0065261004 0.013590003 -0.009936073
-0.038206745 0.035846043 0.013179943 0.023164367 0.0095641315 -0.01100619 0.020853136 -0.025983214
-0.0032880758 0.017819501 -0.031232886 0.03159874 -0.032439113 0.02003954 0.026411321 0.0062793293
0.004141961 -0.00983742 -0.024307946 -0.0093486495 -0.020063268 -0.010064124 -0.0058060926 -0.022241322
-0.013320488 0.01817661 0.0003821539 -0.02350423 0.0014306107 0.011709666 -0.008852476 0.02686394
-0.0011485673 -0.005870889 0.036203235 -0.014098386 0.012055406 -0.016381463 0.00066488836 0.0036634125
-0.0019535911 -0.0098273875 -0.026661443 -0.011284631 0.005730844 0.020103347 0.006325931 0.0016411868
-0.0052791014 -0.0020762533 0.007288206 -0.0042999685 -0.010090393 0.013298027 -0.031013686 -0.02867002
0.013710166 -0.0022456022 0.0068099247 -0.013534614 0.006879144 -0.014980548 0.016696211 -0.018898379
-0.008341996 0.01840559 0.017625004 -0.024728093 -0.014645846 -0.018667873 -0.043679874 0.008339881
0.038656894 0.0074654343 0.008301062 -0.015779203 -0.036846083 -0.037385385 -0.016454427 0.003037511
0.010258372 -0.0158085 -0.02259389 -0.005484396 -0.011194326 -0.024952816 0.0073784646 0.036010727
0.004210964 0.019178363 0.0038239085 0.008817917 0.04258848 0.028088816 0.01467079 -0.015198888
0.028904896 0.008199572 -0.013683338 -0.0043870406 -0.0116694905 0.05061138 -0.011936522 -0.046259746
0.026305562 0.0029251452 0.024214266 0.029364131 -0.0032454883 0.021375416 -0.013101932 0.0022675737
0.034221254 -0.00505896 0.0057851495 -0.018648595 0.042716425 -0.0057190824 0.008677556 0.0061541707
-0.019606825 0.003027678 -0.0043862783 -0.012422249 -0.022372294 -0.0010012487 0.0020224652 0.022946239
-0.0019147234 -0.0015764533 0.019885423 -0.00635958 -0.014007053 -0.0031286583 0.023562757 -0.0074912547

action_model._continuous_distribution.mu.bias f4 [2]
00000000: 5eaa 703c f9a6 043c
0.014689056 0.00809645
