Assets/results/2/MyAgent.onnx (onnx, 90462 bytes, 7 tensors)

network_body._body_endoder.seq_layers.0.weight f4 [128, 36]
0	0x3e24fcd0	0.16112065
1	0xbeca9b5a	-0.3957165
2	0x3df01c43	0.117241405
3	0xbeaeaa86	-0.34114474
4	0xbe746e66	-0.23870239
5	0x3e3d764b	0.18502156
6	0x3e2a33c7	0.16621314
7	0xbe78a98a	-0.24283424
8	0x3d46bceb	0.04852001
9	0xbdef34bc	-0.1167998
10	0xbe1ece7f	-0.1550846
11	0xbd129a67	-0.03579178
12	0x3daa2010	0.08306897
13	0xbdee2116	-0.116274044
14	0x3e3ddb63	0.1854072
15	0xbdad4b06	-0.08461575
16	0x3d7facb0	0.062420547
17	0x3c0f5c27	0.008749998
18	0x3e45d9d2	0.19321373
19	0x3e6ba095	0.23010476
20	0xbea079ab	-0.31342825
21	0xbe11a5b0	-0.14223361
22	0xbc86bc4c	-0.016447209
23	0xbc39255c	-0.011300411
24	0x3e79d807	0.24398814
25	0xb9a5ee60	-0.00031648856
26	0xbe807a49	-0.25093296
27	0x3da337b0	0.07969606
28	0xbd9e1602	-0.077190414
29	0xbda8d664	-0.08244017
30	0xbc3f0454	-0.011658747
31	0x3deb7896	0.11497609
32	0x3db887b4	0.09010258
33	0xbdd65dc2	-0.10467102
34	0xbc0b2202	-0.008491995
35	0xbd68f930	-0.05687827
36	0x3e8925da	0.2678669
37	0x3e40c5cf	0.18825458
38	0x3df715b7	0.12064689
39	0x3e0ebec2	0.13939956
40	0xbddade83	-0.10686972
41	0xbeeafff8	-0.45898414
42	0xbeadddd7	-0.33958313
43	0x3e2e6166	0.17029342
44	0x3d268b9a	0.04066048
45	0xbe762bea	-0.2404019
46	0xbe1fa892	-0.15591648
47	0x3d8587db	0.06520053
48	0xbe3aef0c	-0.18255252
49	0x3dbd406a	0.09240802
50	0xbdefd397	-0.117102794
51	0x3e199a11	0.15000178
52	0xbdba80b0	-0.091065764
53	0x3c34bb82	0.0110310335
54	0xbe291c8c	-0.16514796
55	0xbe668678	-0.22512233
56	0x3e6154c9	0.22004999
57	0x3db86bcf	0.09004938
58	0x3dce471f	0.10072159
59	0x3d073802	0.033012398
60	0x3e4564f6	0.19276795
61	0xbdcca5ee	-0.09992586
62	0x3d581acf	0.05275994
63	0xbe23af64	-0.15984875
64	0xbe95a3f4	-0.2922665
65	0x3e2c8931	0.1684921
66	0x3c5c4646	0.013444489
67	0xbbacad3b	-0.005269674
68	0x3e6c5098	0.23077619
69	0xbdb6bd7c	-0.0892286
70	0x3dddf13a	0.10837026
71	0x3d91a396	0.0711128
72	0x3ee63cb2	0.44968182
73	0x3ca85468	0.02054806
74	0x3e0b6415	0.13612397
75	0x3e6d83d2	0.23194817
76	0xbb36475c	-0.002781353
77	0x3e3270e3	0.17425875
78	0x3d1ad1f2	0.037797876
79	0xbe0db780	-0.13839531
80	0xbe785d08	-0.24254239
81	0x3e2b61ef	0.16736577
82	0x3e4ec1eb	0.20191161
83	0xbe74aecd	-0.23894806
84	0x3d26ec75	0.040752847
85	0x3e24c016	0.160889
86	0x3cbd677f	0.02312064
87	0xbdd12d74	-0.102137476
88	0x3d3013f4	0.04298778
89	0x3e8877b9	0.2665384
90	0x3d47562f	0.048666175
91	0xbd2f9843	-0.042869817
92	0xbe46f0ac	-0.19427747
93	0x3e9eb16c	0.30994737
94	0xbc3489c3	-0.011019173
95	0xbd6db7c3	-0.058036577
96	0x3e4f100e	0.20220968
97	0x3dc98927	0.09840613
98	0x3e930141	0.28711894
99	0x3e7e94bc	0.24861425
100	0xbd1b7e78	-0.037962407
101	0xbd11b000	-0.035568237
102	0xbeb7913c	-0.35852993
103	0xbeaf4d67	-0.3423874
104	0x3cd6225e	0.026139434
105	0xbe44a68f	-0.19204162
106	0x3e3c0168	0.18359911
107	0xbdc82b0e	-0.09773837
108	0xbc48b022	-0.012249025
109	0xbaff48b5	-0.0019476624
110	0x3ba11d7b	0.0049168444
111	0x3ebb5c53	0.36593875
112	0xbd137f61	-0.03601015
113	0x3cfc9e00	0.030837059
114	0x3c98cbc5	0.018651852
115	0xbe5745bb	-0.21022694
116	0x3e8fbdce	0.28074497
117	0xbde475e7	-0.111553006
118	0xbcaaad07	-0.020834459
119	0xbe3ff730	-0.18746638
120	0xbd51393c	-0.051079974
121	0xbd9091d8	-0.070590675
122	0xbb154647	-0.0022777484
123	0x3cf071eb	0.029351195
124	0xbd9a9cc7	-0.07549434
125	0xbe54858c	-0.20754069
126	0x3da393e6	0.07987194
127	0xbe1ea2ba	-0.15491763
128	0x3e32b930	0.17453456
129	0xbe634305	-0.22193535
130	0x3d34c5b3	0.044133853
131	0x3eb7a2e2	0.35866457
132	0x3c7d679c	0.015466597
133	0x3ce31f46	0.027724873
134	0xbdb21fe6	-0.086974904
135	0xbd279893	-0.04091699
136	0xbe6a01d0	-0.22852254
137	0xbe85dfa1	-0.26147178
138	0x3d1b1b88	0.037868053
139	0xbd1d523a	-0.038408495
140	0xbd5cd138	-0.053910464
141	0x3d69b87a	0.057060696
142	0x3e495323	0.1966062
143	0x3dbcd3e5	0.09220103
144	0xbd71503b	-0.058914404
145	0xbeb953b3	-0.3619667
146	0x3e8735fc	0.26408374
147	0x3d690deb	0.05689804
148	0x3e0033e1	0.1251979
149	0x3e312ff3	0.17303447
150	0xbd8dadd2	-0.06917919
151	0x3c316e66	0.010829544
152	0xbddf5cc3	-0.10906365
153	0xbdb622df	-0.0889337
154	0xbc024336	-0.007950595
155	0xbe18d047	-0.14923202
156	0xbdf9ad83	-0.12191298
157	0x3e4b068c	0.19826716
158	0x3b5bbafd	0.0033528202
159	0xbd144499	-0.036198232
160	0xbe38248e	-0.17982695
161	0xbde7464a	-0.112927034
162	0x3bd7b40a	0.0065827416
163	0x3e7c88c3	0.24661545
164	0x3e268baf	0.16264223
165	0x3dc245be	0.094859585
166	0xbd805f06	-0.06268124
167	0xbe3f59db	-0.18686621
168	0x3e316191	0.17322375
169	0xbe40d180	-0.18829918
170	0x3d92297e	0.0713682
171	0x3c9bfc30	0.01904115
172	0x3cd4a744	0.025958665
173	0x3d5b8dc2	0.053601988
174	0x3deed7a3	0.11662223
175	0xbe0155f9	-0.12630452
176	0x3dec559a	0.11539765
177	0xbd959b9c	-0.07305071
178	0x3e6713f9	0.22566213
179	0x3de7d1e8	0.11319333
180	0x3c84d84f	0.016216425
181	0x3db96112	0.09051718
182	0xbe24de51	-0.16100432
183	0xbe9922bd	-0.29909316
184	0xbc9e38b1	-0.019314142
185	0x3db17d2a	0.08666451
186	0xbcd81ebe	-0.026381847
187	0x3d693d62	0.056943305
188	0x3c227f58	0.009918056
189	0xbe894dba	-0.26817113
190	0xbe5c6026	-0.21521053
191	0xbd91f7a6	-0.07127313
192	0x3ba91201	0.005159617
193	0xbe8ae7b8	-0.27129912
194	0x3b9bea9a	0.0047581913
195	0x3d11e052	0.03561432
196	0xbdd68691	-0.10474885
197	0x3e0c3858	0.13693368
198	0xbdb598a4	-0.088670045
199	0xbe3a932d	-0.18220206
200	0xbd8fb839	-0.070175596
201	0xbdfa905d	-0.12234566
202	0xbdb1e530	-0.08686292
203	0x3e82c9a6	0.2554447
204	0xbe539685	-0.20662887
205	0x3e69152f	0.22761987
206	0x3d0823b9	0.033237193
207	0x3e05d1c8	0.13068306
208	0x3eda01f3	0.42579612
209	0xbe895109	-0.26819637
210	0x3d1ace49	0.037794385
211	0x3e3b29d1	0.1827767
212	0xbd7179bf	-0.058953997
213	0x3e940dae	0.28916687
214	0xbd0c42ec	-0.03424351
215	0xbd4a3406	-0.04936602
216	0xbc9b9c7a	-0.018995512
217	0x3e585784	0.21127135
218	0xbc66afa0	-0.014079958
219	0x3dc0512b	0.093904816
220	0xbe3bdc52	-0.18345764
221	0x3e03264e	0.12807581
222	0x3d05d68a	0.032675304
223	0x3cd14553	0.025545752
224	0xbd032366	-0.03201618
225	0x3b65c0d2	0.0035057557
226	0xba910ef4	-0.0011067078
227	0xbdd7f581	-0.10544873
228	0x3ea99bc4	0.33126652
229	0x3e4335d2	0.190635
230	0x3dfc6178	0.12323278
231	0xbe4f5f3e	-0.20251176
232	0xbdbb4cb1	-0.09145487
233	0xbdd9525c	-0.10611412
234	0x3daae284	0.08343986
235	0xbe2def78	-0.16985881
236	0x3eb41d3b	0.3517855
237	0xbc0c0549	-0.008546182
238	0x3d7e6393	0.06210668
239	0xbe1bd30c	-0.15217227
240	0xbd84d0f4	-0.06485167
241	0x3b62799e	0.0034557353
242	0x3e97c504	0.29642498
243	0x3e5b5c08	0.21421826
244	0x3d6e2bf6	0.058147393
245	0x3e2d681f	0.1693425
246	0x3dd66c29	0.10469849
247	0x3d903af3	0.07042494
248	0x3d57214a	0.05252198
249	0x3debe54e	0.11518346
250	0xbe25cd8d	-0.16191693
251	0xbe81cd4a	-0.25351936
252	0xbd76e918	-0.06028089
253	0x3d3f76cd	0.046744157
254	0x3e6e169b	0.23250811
255	0x3e7512d0	0.23932958

network_body._body_endoder.seq_layers.0.bias f4 [128]
0	0x3ae29197	0.0017285821
1	0xba8e30a4	-0.0010848236
2	0xbaa896e3	-0.001286235
3	0xbb028302	-0.0019914513
4	0x3a0fa859	0.0005480103
5	0xb9f4adf8	-0.00046668923
6	0x3a261170	0.0006334996
7	0xb7ba1672	-2.218338e-05
8	0x37d48318	2.5333415e-05
9	0xba3bde08	-0.0007166569
10	0xba0eedf4	-0.0005452328
11	0xba090ea0	-0.00052283145
12	0xbb048e7d	-0.0020226531
13	0xba890924	-0.0010454995
14	0x3ae816b3	0.001770696
15	0x3aaae013	0.001303675
16	0x3a21cf97	0.0006172596
17	0xbaa3f8d0	-0.0012510065
18	0x39d8b3b7	0.00041332628
19	0x3ab3e3cf	0.0013724508
20	0xb9926b18	-0.0002792708
21	0x3a1c9e3d	0.0005974507
22	0x3a18878c	0.0005818538
23	0xb9eaebc1	-0.00044807608
24	0xba40195a	-0.00073279964
25	0x3a8059eb	0.0009792423
26	0xba6be0ce	-0.0008998037
27	0xbb897cea	-0.004195799
28	0xba4260ff	-0.0007414966
29	0xba8e716f	-0.0010867546
30	0xba99ebec	-0.0011743284
31	0xbac055ed	-0.0014674045
32	0xbb4ccf69	-0.0031251556
33	0x383d89ea	4.5189554e-05
34	0xb979a06b	-0.00023806251
35	0xba694f1d	-0.00089000334
36	0x3a9334ae	0.001123091
37	0x398ae7ed	0.0002649421
38	0xba1d6f26	-0.0006005637
39	0xbadce838	-0.0016853875
40	0x3a34c036	0.0006895097
41	0x3a89dcad	0.0010518037
42	0x3a56635e	0.0008178259
43	0x3a4bdeb9	0.0007777024
44	0x3aa7c433	0.0012799561
45	0xb902b1cc	-0.00012464
46	0x3b13ce8d	0.0022553534
47	0xb8e96007	-0.00011128192
48	0x39cc0d7b	0.00038919956
49	0x3a8cec1d	0.001075152
50	0xbb6b4e6b	-0.0035904895
51	0x38cca06e	9.7573604e-05
52	0xba5a9f18	-0.0008339747
53	0x3aaec139	0.0013332731
54	0xbaaa8c1d	-0.0013011728
55	0xbad7cf5c	-0.0016464996
56	0xbacb10cc	-0.0015492677
57	0x3a7d6362	0.0009665993
58	0xbb03bd65	-0.0020101902
59	0x3a3b5d91	0.00071474264
60	0xba2fa6e6	-0.000670059
61	0x399e548e	0.00030199107
62	0x3aee6389	0.0018187623
63	0x3bb6cc80	0.0055785775
64	0x39ed6299	0.00045277624
65	0x39b51f91	0.0003454653
66	0xb897fd0b	-7.247374e-05
67	0xbabb37d4	-0.0014283606
68	0xb7c19496	-2.3076584e-05
69	0x39c3287c	0.00037223462
70	0x3a838141	0.0010033028
71	0x3add7c90	0.0016898084
72	0x3a1d77af	0.0006006909
73	0xba6e6081	-0.00090933597
74	0xba842856	-0.0010082822
75	0x3908cf61	0.00013047225
76	0x3a1e6c70	0.000604338
77	0x3907502b	0.00012904468
78	0xb992f690	-0.00028030993
79	0xba64f7f5	-0.0008734458
80	0x3927d80f	0.00016006849
81	0xba5745d7	-0.0008212006
82	0xbb0e0f67	-0.002167666
83	0x3a0a1357	0.0005267164
84	0xba2ab1ee	-0.0006511499
85	0x3a9deb05	0.0012048191
86	0xb99d7ae0	-0.00030036923
87	0xba2a94f3	-0.00065071805
88	0xba4023ca	-0.0007329552
89	0xb7befe43	-2.2768165e-05
90	0xbae7ce36	-0.0017685357
91	0xbac06f2e	-0.0014681572
92	0xb97dee72	-0.00024216788
93	0x388e1506	6.7750036e-05
94	0xb9f266c4	-0.00046234403
95	0xba9e86be	-0.00120946
96	0x39546b8b	0.00020257958
97	0xb88b1f5f	-6.63388e-05
98	0x39e1d8fd	0.00043077013
99	0x3a675d50	0.00088258553
100	0xba74aa57	-0.0009333244
101	0xb9544405	-0.00020243235
102	0x3b157bf5	0.002280948
103	0xb9bb29c3	-0.00035698534
104	0x3a9e9f28	0.0012101876
105	0x3aa21734	0.0012366534
106	0x3aa66e27	0.0012697623
107	0x3a0c0670	0.00053415354
108	0xb9aec23d	-0.00033332585
109	0xba6cb1a8	-0.00090291584
110	0xbb14a907	-0.0022683756
111	0xba9388bb	-0.0011255959
112	0xba8cb09b	-0.0010733785
113	0x3a2c8112	0.0006580512
114	0xba43546e	-0.00074512407
115	0xba547cec	-0.0008105773
116	0xba629f27	-0.00086449314
117	0xba990bab	-0.0011676451
118	0x3a8fa22b	0.0010958364
119	0xba597689	-0.0008295556
120	0xbb1750ea	-0.0023089
121	0x39d43d2e	0.00040481373
122	0xbad79524	-0.0016447646
123	0x3a9ba331	0.0011874196
124	0x3a04eb20	0.0005070437
125	0xbb0d641d	-0.0021574565
126	0x3a179791	0.0005782778
127	0x3b0030e4	0.001956039

network_body._body_endoder.seq_layers.2.weight f4 [128, 128]
0	0x3e02b84e	0.12765619
1	0x3c442a71	0.011973009
2	0x3d691ede	0.056914203
3	0x3d6af4e4	0.057362452
4	0xbd2a6a34	-0.04160519
5	0x3d125ebf	0.03573489
6	0x3d18ac8d	0.037273932
7	0x3d0c0c30	0.03419131
8	0x3d5ccfba	0.05390904
9	0x3de46cef	0.1115359
10	0xbd9d49a0	-0.076800585
11	0xbb55905b	-0.0032587263
12	0xbc3d06db	-0.011537279
13	0xbd6b9676	-0.057516538
14	0xbb7aa687	-0.003824623
15	0x3d895e28	0.06707412
16	0xbabeae28	-0.0014547752
17	0x3dbf6646	0.09345679
18	0xbdd1d8bb	-0.10246416
19	0x3e554b01	0.20829393
20	0xbe13cca4	-0.14433533
21	0x3c81659c	0.015795521
22	0xbd820bab	-0.06349882
23	0xbdc74700	-0.09730339
24	0xbd1bd95b	-0.038049083
25	0xbe18bb76	-0.1491526
26	0xbc57e085	-0.013176088
27	0x3dfd36ce	0.12363969
28	0x3df3d987	0.119067244
29	0xbda06d67	-0.07833367
30	0x3e8caff4	0.27477992
31	0xbcc82ce1	-0.024435462
32	0x3beb4862	0.0071802596
33	0xbdb28f53	-0.08718743
34	0xbe117f9a	-0.14208832
35	0xbd5b88af	-0.05359715
36	0xbe04139b	-0.12898104
37	0xbe115c04	-0.14195257
38	0xbbdb3445	-0.0066895806
39	0x3e133433	0.14375381
40	0xbdbceb4d	-0.092245676
41	0xbd4329fa	-0.047647454
42	0xbe180c90	-0.14848542
43	0x3da1c521	0.078989275
44	0xbdc11fca	-0.094298914
45	0xbb22fec1	-0.0024871083
46	0x3cc0783b	0.02349483
47	0x3d1e6584	0.03867103
48	0x3d74347f	0.059620377
49	0xbdd673d8	-0.10471314
50	0x3d41aab5	0.04728194
51	0x3dfaf3b8	0.12253517
52	0xbde3b625	-0.11118726
53	0xbe2ea79e	-0.17056128
54	0x3df1ac6b	0.11800464
55	0x3d2413bd	0.040057886
56	0xbd05cfea	-0.032668985
57	0x3dbe1c55	0.09282748
58	0xbdc32684	-0.09528831
59	0xbce2476a	-0.027621944
60	0xbcfb4c4e	-0.030676033
61	0x3d23d18a	0.039994754
62	0x3d7e34ef	0.0620622
63	0xbc83aa01	-0.016072275
64	0xbd92166e	-0.071331844
65	0x3cc8152d	0.02442416
66	0x3d910f14	0.07082954
67	0xbdb86614	-0.09003845
68	0xbde362ff	-0.111028664
69	0xbd31b01a	-0.043380834
70	0x3caa6933	0.020802116
71	0x3df388d5	0.11891333
72	0x3af91394	0.0019003027
73	0x3d8a98a9	0.06767399
74	0x3dbfaea0	0.09359479
75	0xbdb193eb	-0.08670791
76	0x3ace2bad	0.0015729569
77	0xbc24f223	-0.0100674955
78	0xbd8f569d	-0.06998942
79	0xbcd7d6ca	-0.026347537
80	0xb8aca822	-8.232916e-05
81	0xbcb6ed94	-0.022330083
82	0x3dd82c20	0.10555291
83	0x3d87d9ac	0.066333145
84	0x3ca582fe	0.020204064
85	0x3e0d7b71	0.1381662
86	0x3cf366db	0.029712131
87	0xbd09ed43	-0.033673536
88	0xbbd40817	-0.006470691
89	0x3bf797b4	0.007555926
90	0xbdd42a77	-0.10359662
91	0x3e00143f	0.12507723
92	0xbd0c3727	-0.034232285
93	0x3d84d78e	0.06486426
94	0xbd7301b7	-0.059327807
95	0x3dc67d00	0.096918106
96	0xbc262010	-0.01013948
97	0xbd8c162a	-0.06840165
98	0x3d2cd183	0.042191993
99	0x3d34ac11	0.044109408
100	0x3e3af56f	0.18257688
101	0xbcf40ba1	-0.029790701
102	0x3d7e4003	0.062072765
103	0xbca9929f	-0.020699797
104	0x3cb96bc6	0.022634398
105	0x3dfe38ed	0.124132015
106	0x3ce0d52f	0.027445404
107	0x3dce5ddd	0.10076497
108	0x3c019d5a	0.007911051
109	0x3c169d4d	0.009192777
110	0x3d6f3b2e	0.058406048
111	0x3dd6fe90	0.10497773
112	0x3d82a61f	0.06379341
113	0xbcfea052	-0.031082306
114	0x3d9e2292	0.077214375
115	0x3dc59b25	0.09648732
116	0x3c5902cb	0.013245295
117	0x3d997a81	0.07494069
118	0x3c7e6dc3	0.015529099
119	0x3da9870c	0.08277711
120	0x3cd96a05	0.026539812
121	0xbddbefbd	-0.10739086
122	0xbc8578f1	-0.01629302
123	0x38802024	6.109502e-05
124	0x3d3b104e	0.045669846
125	0xbe710115	-0.23535569
126	0x3e245432	0.16047743
127	0x3b996eee	0.0046824133
128	0x3bba4e87	0.0056856307
129	0xbdbd651a	-0.09247799
130	0x3d5bf045	0.053695936
131	0xbdafea70	-0.08589637
132	0xbda09212	-0.07840361
133	0x3e56c057	0.2097181
134	0x3dd7c0dc	0.10534832
135	0x3d868d96	0.06569974
136	0xbb96bfc6	-0.004600498
137	0x3db02b67	0.08602028
138	0xbd716022	-0.05892957
139	0x3dd604d1	0.104501374
140	0x3cc8093e	0.02441847
141	0xbe4cc170	-0.19995666
142	0x3e1f7e65	0.1557556
143	0xbd89d64b	-0.06730326
144	0xbddd83b8	-0.10816139
145	0xbc06b16a	-0.00822101
146	0x3d936099	0.07196159
147	0xbd3f35aa	-0.046682037
148	0xbdbd9c90	-0.092583776
149	0x3e324e00	0.17412567
150	0x3e462870	0.19351363
151	0xbcf21447	-0.029550685
152	0xbdcac087	-0.09900003
153	0xbd030932	-0.03199119
154	0x3e0191d3	0.12653284
155	0xbc2924e5	-0.010323738
156	0x3caff183	0.021477466
157	0xbc65f0ae	-0.014034433
158	0xbd145fb9	-0.0362241
159	0xbde6dfc4	-0.11273149
160	0x3d02b3a3	0.031909596
161	0xbd939937	-0.07206958
162	0x3e55794d	0.20847054
163	0x3dc163a5	0.09442834
164	0xbd3f49ef	-0.046701368
165	0x3c290b0f	0.010317578
166	0xbe6e8802	-0.2329407
167	0xbd9c61e1	-0.076358564
168	0xb9dc5a7b	-0.00042029083
169	0xbd8038e5	-0.06260852
170	0x3b595b14	0.003316586
171	0xbd379ea9	-0.044829044
172	0xbd71f7cf	-0.05907422
173	0xbde6368a	-0.11240871
174	0x3d9d3619	0.07676334
175	0x3d1ccf58	0.038283676
176	0x3e3bed8e	0.18352339
177	0x3dd35a11	0.10319913
178	0xbcabd4b4	-0.020975448
179	0xbd8e98b4	-0.069627196
180	0xbd42bb12	-0.047541685
181	0x3d944ed9	0.072416015
182	0xbd7a649c	-0.061131105
183	0x3d242752	0.04007656
184	0x3d85cb7d	0.06532953
185	0x3bc03b08	0.005866412
186	0xbd88a28f	-0.066716306
187	0x3d5c1312	0.053729124
188	0x3ca9f248	0.020745412
189	0x3cfcdded	0.030867541
190	0xbdec2ebf	-0.115323536
191	0xbb9bb468	-0.0047517307
192	0x3dea7da3	0.114497446
193	0xbcf6b903	-0.030117517
194	0x3d8a6a26	0.067585275
195	0xbc98358c	-0.01858022
196	0xbc0cba5d	-0.008589354
197	0xbd0bc8a7	-0.034126904
198	0xbcf15f2e	-0.02946433
199	0x3d53efa7	0.051742222
200	0xbd003b2c	-0.03130643
201	0x3de7a815	0.11311356
202	0xbdd85be3	-0.10564401
203	0x3d201059	0.03907809
204	0xbdf3becd	-0.11901627
205	0xbe270912	-0.16312054
206	0xbd130f8c	-0.0359035
207	0xbd338fad	-0.04383819
208	0xbd1877c2	-0.037223585
209	0xbd6d6286	-0.057955287
210	0xbe69500c	-0.22784442
211	0x3d2710b7	0.040787425
212	0xbdd84222	-0.10559489
213	0x3ce676c8	0.028132811
214	0x3caa85a5	0.02081568
215	0x3d6f7bb4	0.058467582
216	0xbdbdf635	-0.09275476
217	0x3dbfd682	0.09367086
218	0xbbd2f59c	-0.0064379703
219	0xbdfef984	-0.12449935
220	0xbdd5aef8	-0.10433763
221	0x3bb6edbb	0.005582539
222	0x3ae375b5	0.0017353805
223	0xbd273f9d	-0.04083215
224	0x3abe24c3	0.0014506805
225	0x3db6da30	0.08928335
226	0x3d14b02d	0.036300827
227	0xbd79c7f6	-0.060981713
228	0x3d19ba10	0.03753096
229	0x3db3de4f	0.087826364
230	0x3cf5b574	0.02999375
231	0xbd60eab1	-0.05491132
232	0x3d2951b3	0.04133768
233	0xbad1a373	-0.0015994146
234	0x3c9f55dc	0.01945012
235	0x3dc38729	0.09547264
236	0xbbcd758a	-0.0062701153
237	0xbe0d6eef	-0.13811849
238	0xbdc68fe1	-0.096954115
239	0xbdc951dd	-0.09830067
240	0x3ddda44b	0.10822352
241	0x3e465d77	0.19371592
242	0x3d2dc0c9	0.042420182
243	0x3cccb85e	0.024990257
244	0xbda35fe2	-0.079772726
245	0xbca24eea	-0.01981302
246	0xbd81b974	-0.063342005
247	0xbd47aae7	-0.04874697
248	0xbdc5d962	-0.09660603
249	0x3c2b1377	0.0104416525
250	0xbbe87be9	-0.0070948494
251	0xbcfa4d56	-0.030554455
252	0xbe0de90b	-0.1385843
253	0xbc47c307	-0.012192494
254	0xbdd4d786	-0.1039267
255	0x3e18bb57	0.14915214

network_body._body_endoder.seq_layers.2.bias f4 [128]
0	0xba4851ea	-0.00076416007
1	0x3a3e03a0	0.0007248465
2	0x3a31de26	0.0006785117
3	0xba17f4d1	-0.00057966734
4	0x390350dc	0.00012523256
5	0x3a13db0c	0.00056402455
6	0x3a60d1d8	0.0008576191
7	0xb5c02080	-1.4314573e-06
8	0xb93853db	-0.00017578846
9	0x39021d9a	0.00012408794
10	0x3a7ca3ee	0.00096374645
11	0x3a4942d8	0.0007677502
12	0xb9e8093d	-0.0004425737
13	0xb9190e99	-0.00014596655
14	0x3a160cd1	0.00057239557
15	0x3a02209f	0.00049639674
16	0x38c3ea35	9.341949e-05
17	0xba4c3de9	-0.0007791208
18	0xba803d45	-0.0009783885
19	0x3a6d05ba	0.0009041686
20	0xb989e037	-0.0002629773
21	0x3a05c2f6	0.0005102599
22	0xba0639eb	-0.0005120325
23	0x3a1c2e91	0.00059578667
24	0xb9e377a6	-0.0004338596
25	0x3a232263	0.00062230806
26	0x39684375	0.00022150374
27	0xba28bfba	-0.0006437261
28	0xba829c77	-0.0009964843
29	0x3a1f039e	0.00060659077
30	0x3a9ba727	0.0011875377
31	0x392285a1	0.00015499305
32	0x39a51c76	0.00031492457
33	0xba914f0b	-0.0011086179
34	0x3903d4f6	0.00012572468
35	0x3a9547a5	0.001138915
36	0x3a237bba	0.0006236393
37	0x3a1da1c7	0.00060131814
38	0x39e08691	0.0004282487
39	0xb9a26901	-0.00030977282
40	0x3a05b7e3	0.00051009486
41	0x3a11b251	0.0005557882
42	0xba1e602e	-0.00060415536
43	0x39c6d82d	0.00037926566
44	0xba62f18f	-0.0008657211
45	0xb9c4d495	-0.0003754242
46	0x3a56eeee	0.00081990554
47	0xba072362	-0.0005155114
48	0x3a3bb30a	0.0007160163
49	0xba6343c2	-0.00086694595
50	0x39ddd487	0.0004231075
51	0xba52ffaf	-0.0008048964
52	0xba6c468f	-0.00090131996
53	0x39d942b4	0.00041439163
54	0xba7f0ff5	-0.0009729856
55	0xba91a57d	-0.0011111941
56	0xba0ab718	-0.00052915653
57	0x3a444c30	0.00074881595
58	0xba53b324	-0.0008075705
59	0x3a86d6d2	0.001028741
60	0xb9ede158	-0.00045372057
61	0xba31cf07	-0.00067828636
62	0x3a8d4e23	0.0010780733
63	0xba2c9842	-0.00065839675
64	0x3a319df0	0.00067755487
65	0xba6a35f6	-0.00089344324
66	0x3a683dfd	0.00088593346
67	0xba3b0496	-0.0007134167
68	0xba2e29ed	-0.00066438207
69	0x3a03025c	0.0004997605
70	0x3a8ac5c4	0.0010587503
71	0xba40798f	-0.00073423324
72	0x3a0efd74	0.00054546376
73	0x39afc392	0.00033524312
74	0xba94ea06	-0.0011361248
75	0xb9b352a7	-0.0003420312
76	0xbb0d57a0	-0.002156712
77	0xb9018cb3	-0.00012354813
78	0xb962c39b	-0.00021625908
79	0x39f6400c	0.00046968495
80	0xba658e9b	-0.00087569066
81	0xba3ac891	-0.00071252236
82	0x3a4a0d9d	0.0007707717
83	0xba191a1e	-0.00058403786
84	0xba80a0ec	-0.0009813583
85	0xb98df125	-0.00027073282
86	0xb9fdfdf7	-0.0004844514
87	0xba530e8c	-0.0008051179
88	0xba0b2811	-0.00053083996
89	0xb9ff5045	-0.00048697196
90	0x3a4c4be6	0.0007793292
91	0x3a6dac75	0.00090665306
92	0xba065590	-0.0005124444
93	0xba6ea5c4	-0.00091036805
94	0x3a92d080	0.0011201054
95	0x384d9f72	4.9024304e-05
96	0x39eb1bfb	0.0004484354
97	0x3a5ab3b8	0.000834282
98	0x3a2b02c8	0.0006523547
99	0x39d409f3	0.00040443204
100	0x3a2f3a94	0.0006684449
101	0x39b824c6	0.00035122613
102	0xba9fdfd3	-0.0012197442
103	0xba267763	-0.00063501875
104	0x3a633533	0.000866729
105	0xbad383dc	-0.001613732
106	0x3a5928a7	0.0008283951
107	0xb9f4cc72	-0.0004669163
108	0x387a0170	5.9605984e-05
109	0xba2714b9	-0.00063736324
110	0xbac6da3c	-0.001517124
111	0x39d51ede	0.00040649524
112	0xb9e7be02	-0.0004420132
113	0x3a5db3bc	0.00084572635
114	0x3a147864	0.00056636916
115	0xba2d4adc	-0.0006610581
116	0xb9f6f615	-0.00047104122
117	0xb9814f4b	-0.00024663875
118	0x39e7500d	0.00044119396
119	0xba2448d9	-0.00062669587
120	0x3912edca	0.00014012228
121	0xba1d3d94	-0.00059982506
122	0xba138b04	-0.000562832
123	0xb9c31559	-0.00037209204
124	0xba20291a	-0.000610964
125	0xba46119e	-0.0007555726
126	0xb9f2aad9	-0.00046285128
127	0x39ba89b2	0.00035579276

action_model._continuous_distribution.log_sigma f4 [1, 2]
0	0x3aea16f1	0.001785962
1	0xbbaf2284	-0.0053446908

action_model._continuous_distribution.mu.weight f4 [2, 128]
0	0xbbe9bb8b	-0.0071329526
1	0x39ce1e80	0.00039314106
2	0x3be5023e	0.0069887927
3	0xbce407d5	-0.027835766
4	0x3b87d528	0.0041452833
5	0x3c10cee6	0.008838391
6	0x3c6f0f98	0.01459112
7	0x3bb8696b	0.005627801
8	0x3c8212c7	0.015878094
9	0xbc89bdf8	-0.016814217
10	0x3c8198cb	0.015819928
11	0x3c5bfd97	0.01342716
12	0xbc917e10	-0.017760307
13	0x3ad63976	0.0016344029
14	0xbc105d48	-0.0088113025
15	0x3c6fa1fb	0.0146260215
16	0x3bcb0cb0	0.006196581
17	0x3c5d2b50	0.013499096
18	0x3ba5721d	0.0050490038
19	0x3c808abb	0.015691152
20	0x3b14a439	0.0022680892
21	0x3d2bafd8	0.041915745
22	0x3ba33f71	0.004981928
23	0xbbde5322	-0.0067848125
24	0x3c1783ab	0.009247701
25	0x3c8e5473	0.017374253
26	0x3c0ccb81	0.008593441
27	0xbcb393e4	-0.021921106
28	0x3b3a35d0	0.0028413422
29	0x3cb1516c	0.02164527
30	0x3c8df632	0.01732931
31	0x3aa6eea3	0.0012735914
32	0x3c06f7e0	0.008237809
33	0xba8df3e3	-0.001083013
34	0xba95d3c6	-0.0011430911
35	0xbc9c96d0	-0.019114882
36	0x3c0eb94b	0.0087111695
37	0x3b06df6f	0.0020579954
38	0x3c41860e	0.011811746
39	0xbcadfdae	-0.021239128
40	0x3b25b6ff	0.0025286076
41	0x3a82c70b	0.0009977532
42	0xbc612dfc	-0.013743874
43	0x3b328f03	0.0027245886
44	0xbb5512e3	-0.0032512478
45	0xbbd325d0	-0.0064437166
46	0xbcb87436	-0.022516351
47	0xbc869433	-0.016428089
48	0x3cacca22	0.021092478
49	0xbc4ee910	-0.012628809
50	0x3c7b21d5	0.01532789
51	0xbd3279a8	-0.04357305
52	0xbbbabc0d	-0.005698687
53	0x3c57f632	0.013181256
54	0x3c6cdbdc	0.014456715
55	0xbceb62f7	-0.028733714
56	0xbc1cee4f	-0.009578302
57	0xbb14b3a3	-0.002269008
58	0x3b89bbc9	0.004203294
59	0x3c832bcf	0.0160121
60	0x3bcc5bae	0.006236515
61	0xbc79cf68	-0.015247203
62	0xbccaf3be	-0.024774428
63	0xbb3daf22	-0.0028943499
64	0x3c8eb27e	0.017419096
65	0xbc1f17b6	-0.009710243
66	0x3cae4e82	0.02127767
67	0xbd00dc3c	-0.031460032
68	0xbbf5cd8a	-0.007501309
69	0x3c445237	0.011982492
70	0x3cd659c5	0.026165852
71	0xbc938d1d	-0.018011624
72	0x3c5d2182	0.013496758
73	0x3caa9e8a	0.02082755
74	0x3c1d6dc9	0.009608694
75	0xbcd5482b	-0.026035389
76	0xbba85e46	-0.0051381914
77	0x3c412fe0	0.011791199
78	0x3b44989e	0.0029998193
79	0x3ccc7c7c	0.024961703
80	0xbbdc328a	-0.006719892
81	0xbc713bc2	-0.01472372
82	0x3cc48afd	0.023992056
83	0xbcd51a06	-0.026013386
84	0xb98b6db4	-0.0002659388
85	0xbb239fdf	-0.0024967117
86	0xbc455ba7	-0.012045777
87	0xbc350eb2	-0.011050867
88	0xbcf57328	-0.029962137
89	0x3bba818c	0.0056917127
90	0x3c34d826	0.011037862
91	0xbb53fba6	-0.003234604
92	0xbc912e3d	-0.017722243
93	0xbc602888	-0.013681538
94	0x3c5dce58	0.013537966
95	0x3c934479	0.017976986
96	0x3b55b73e	0.0032610442
97	0x3bc27619	0.0059344885
98	0x3cb69652	0.022288475
99	0x3c0fb9cf	0.008772328
100	0x3b2e2786	0.002657385
101	0x3b3b7e90	0.0028609373
102	0xbb30f823	-0.002700337
103	0xbc4bca88	-0.012438424
104	0x3a92adf5	0.0011190759
105	0x399cbfb8	0.0002989748
106	0x3c3d132a	0.011540214
107	0xbc978429	-0.018495636
108	0x3c41ef7f	0.0118368855
109	0xbc239677	-0.009984604
110	0xbd36a4cf	-0.044590767
111	0xbccc5e9b	-0.024947455
112	0xbb93b53f	-0.00450769
113	0x3aa38104	0.0012474363
114	0xbc43123c	-0.011906203
115	0xbbdca6bd	-0.006733744
116	0x3c12cedf	0.008960455
117	0xbcfc6b5f	-0.030812917
118	0xbba048d9	-0.0048914966
119	0x3beefce8	0.0072933324
120	0xb88e1064	-6.774141e-05
121	0x3c046082	0.00807965
122	0xbc2d2086	-0.010566836
123	0x3c413746	0.011792963
124	0xbd08bf13	-0.033385348
125	0xb98af924	-0.00026507035
126	0xbacf07d1	-0.0015795176
127	0xbc17b6ed	-0.0092599215
128	0xbc9c3aa4	-0.01907093
129	0x3cc52fdb	0.02407067
130	0x3d218a1c	0.039438352
131	0xbce69e78	-0.028151736
132	0x3b7b86ff	0.0038380024
133	0xbbcbf253	-0.0062239557
134	0x3a02ed7a	0.0004994493
135	0x3c93f8ce	0.018062975
136	0xbbbd4122	-0.0057755867
137	0x3c6f8dbe	0.014621196
138	0xbc0cc37f	-0.008591532
139	0xbae6b78f	-0.0017602312
140	0x3b0ddcb5	0.0021646444
141	0xbbe75375	-0.0070595094
142	0x3c54d3f3	0.012989986
143	0x3cb678f1	0.022274466
144	0xbb15a372	-0.0022833017
145	0xbc42a2d1	-0.011879639
146	0xbacc3399	-0.0015579342
147	0x3bbc3ccf	0.0057445536
148	0xbc6a477a	-0.014299268
149	0xbbe68594	-0.0070349667
150	0xbbdff351	-0.0068344255
151	0x3cb975a0	0.022639096
152	0xbb899d12	-0.0041996324
153	0xbbce9775	-0.006304676
154	0x3c10377c	0.008802291
155	0xbc717b33	-0.014738846
156	0xbbc5e638	-0.006039407
157	0x3c055bc0	0.008139551
158	0xbbdd73ac	-0.006758174
159	0xbc6160d7	-0.013755999
160	0x3b54842b	0.003242741
161	0xbc7b2fa5	-0.015331184
162	0x3c0d10b4	0.008609939
163	0x3cb7716e	0.022392955
164	0xbab7845b	-0.0014001237
165	0x3c035877	0.008016697
166	0x3c933985	0.017971763
167	0x3c297c2a	0.010344544
168	0x3c378e0b	0.011203299
169	0x3cd116dc	0.025523596
170	0xbc188baa	-0.009310642
171	0x3cc348ac	0.023838364
172	0xbca7889a	-0.020450879
173	0xba94b020	-0.0011343993
174	0x3c598eef	0.013278707
175	0xbccecad3	-0.025243198
176	0x3c6bf159	0.0144008035
177	0xbd40754d	-0.046986867
178	0x3c968740	0.01837504
179	0xbb61086d	-0.0034337298
180	0xbcf71718	-0.03016238
181	0x3c7c6228	0.015404262
182	0xbc9ec273	-0.01937983
183	0xb9ceff50	-0.00039481604
184	0xbb9ae5e3	-0.0047271117
185	0x3c8957b6	0.016765457
186	0xbcbc1e51	-0.022963675
187	0xbb7ea375	-0.0038854752
188	0xbc08a805	-0.00834084
189	0xbc1e5588	-0.009663947
190	0x3d12046d	0.035648752
191	0xbbc4d935	-0.0060073384
192	0xbc9fe36f	-0.019517628
193	0xbadb0f2e	-0.0016712898
194	0x3bdde52d	0.0067717046
195	0x3ad464ba	0.0016204335
196	0xbb2e1503	-0.0026562817
197	0x3b9a73fa	0.0047135325
198	0x3bc1d89a	0.0059157135
199	0x3be6b84b	0.0070410124
200	0x3d1771b4	0.03697367
201	0xbc5c2ee8	-0.013438918
202	0xbc821054	-0.015876926
203	0x3bd0cbc4	0.006371947
204	0x3c1adbf9	0.00945186
205	0xbb88d614	-0.0041759107
206	0xbc7828e7	-0.015146471
207	0xbc043708	-0.008069761
208	0xbbb0462c	-0.005379459
209	0xbc7ca853	-0.015420991
210	0xbc046b3b	-0.008082206
211	0xbc6743a2	-0.014115246
212	0xbce6f8f4	-0.028194882
213	0xbca35e64	-0.01994247
214	0x3bc73f67	0.006080556
215	0xbb8a0ffd	-0.0042133317
216	0xbd1df34c	-0.038562104
217	0xbd17b8cf	-0.03704148
218	0x3d11b40f	0.035572108
219	0x3c9e739e	0.01934224
220	0xbd09ded1	-0.03365976
221	0xbcc1699c	-0.023609929
222	0xbb641512	-0.0034802598
223	0xbccdcc23	-0.025121754
224	0x3c2da8d8	0.0105993375
225	0x3bb57db1	0.005538665
226	0x3cba9c56	0.022779625
227	0x3c126d49	0.008937188
228	0x3cb784ff	0.022402285
229	0x3b8bf625	0.004271286
230	0x3aab1402	0.0013052227
231	0xbadf6f25	-0.0017046673
232	0x3d113b70	0.035457075
233	0xbc4b0ed1	-0.012393669
234	0x3c0e00c9	0.008667179
235	0xbc6f64be	-0.014611421
236	0xbbf889f6	-0.0075848056
237	0xbd18c419	-0.03729639
238	0xbbeadf5d	-0.0071677403
239	0x3c874c61	0.016515912
240	0xbbfa6ac2	-0.007642121
241	0x3c2e96af	0.010656043
242	0x3cd267a5	0.025684187
243	0xba52d31a	-0.0008042321
244	0xbd10516b	-0.035233896
245	0x3c127c94	0.008940835
246	0x3b9c5378	0.0047706924
247	0xbc8555ca	-0.016276259
248	0xbc2ba912	-0.010477321
249	0xbcc3caf5	-0.023900488
250	0xbc287d65	-0.010283803
251	0xbbe7b323	-0.0070709153
252	0xb7c839b9	-2.3868737e-05
253	0xbcc0b72b	-0.023524841
254	0xbb3e1d06	-0.0029008999
255	0x3c395638	0.01131206

action_model._continuous_distribution.mu.bias f4 [2]
0	0x3a0cdf8a	0.0005373886
1	0x3a3ddf9c	0.0007243098
