results/firstTest23/MyAgent/MyAgent-236784.pt (torch, 549406 bytes, 36 tensors)

network_body._body_endoder.seq_layers.0.weight f4 [128, 41]
0	0xbe18c5e7	-0.14919244
1	0xbe1aaf7a	-0.15106001
2	0xbe1784c6	-0.14796743
3	0x3b69f369	0.0035698062
4	0x3d9d14ec	0.07670006
5	0xbde13106	-0.109956786
6	0x3ed2560e	0.4108128
7	0xbe62b38c	-0.22138804
8	0x3e3d116a	0.18463674
9	0xbe9296ef	-0.28630778
10	0x3e8dcc6d	0.27695027
11	0x3db2ae70	0.087246776
12	0xbe10b103	-0.14130025
13	0xbdac8a5a	-0.08424826
14	0xbd6811d5	-0.05665763
15	0x3e0803b5	0.13282664
16	0x3d298178	0.041383237
17	0x3e1b4ae4	0.15165287
18	0x3cbd83a4	0.02313406
19	0x3da3236a	0.07965739
20	0xbd5176e7	-0.051138785
21	0x3d59e441	0.053196196
22	0xbee12006	-0.43969744
23	0x3e20911f	0.1568036
24	0x3e8e3aa2	0.27779108
25	0xbdef9d20	-0.11699891
26	0xbb7ecb59	-0.003887853
27	0xbd1090bb	-0.035294276
28	0xbdfa043a	-0.122078374
29	0xbe5121dd	-0.20423074
30	0x3d5ad4ec	0.053425714
31	0xbe26aab2	-0.16276053
32	0x3e4774e2	0.19478181
33	0xbd938553	-0.07203164
34	0x3e597f50	0.21239972
35	0x3e8b411c	0.27198112
36	0x3d67c86d	0.056587625
37	0xbd5f7b57	-0.054560985
38	0xbc99ac38	-0.018758878
39	0x3d95c1ef	0.073123805
40	0xbd936fee	-0.07199083
41	0xbc1f61bc	-0.009727892
42	0x3e1cb91a	0.15304986
43	0xbca1954d	-0.019724512
44	0xbcc5f14b	-0.024162909
45	0xbe37c053	-0.1794446
46	0x3d00d027	0.03144851
47	0xbdbf6662	-0.093457
48	0x3e0998cf	0.13437198
49	0x3daade1f	0.083431475
50	0xbdf1196b	-0.11772426
51	0xbc813794	-0.015773572
52	0xbdfff555	-0.12497965
53	0xbec5eccd	-0.38657227
54	0xbd2fedf1	-0.042951528
55	0x3db4f2af	0.08835351
56	0x3da1f3c7	0.07907825
57	0xbd881b72	-0.0664586
58	0x3d3fe5ab	0.046849888
59	0x3ec625c2	0.38700682
60	0xbd3fb486	-0.04680302
61	0xbee0253a	-0.43778402
62	0x3e56acc4	0.20964342
63	0x3dec0e47	0.11526161
64	0x3c8cea7f	0.01720166
65	0xbd903c72	-0.07042779
66	0xbbd5f247	-0.006529126
67	0xbd9e33d7	-0.077247314
68	0x3d8c11e9	0.068393536
69	0x3e3bf1d0	0.18353963
70	0x3e3ed04a	0.18634143
71	0x3e225fae	0.15856811
72	0xbdd7524c	-0.10513744
73	0xbd3c12f5	-0.045916516
74	0x3d79c554	0.060979202
75	0x3d215028	0.039383084
76	0xbe248a86	-0.16068467
77	0x3c648118	0.013946794
78	0x3dbde80d	0.09272776
79	0x3e4a1e5d	0.19738145
80	0xbe858be1	-0.26083282
81	0x3e705a66	0.23471984
82	0xbca0b369	-0.0196168
83	0xbc39fd2e	-0.011351867
84	0x3d82a188	0.06378466
85	0xbda31eaf	-0.07964837
86	0xbde2a459	-0.11066503
87	0x3b9a4919	0.004708421
88	0xbe6c0f49	-0.23052706
89	0x3df1cf0e	0.11807071
90	0xbcfb8090	-0.030700952
91	0x3da02649	0.07819802
92	0x3dd0409d	0.10168574
93	0xbd96a141	-0.073549755
94	0x3e8c529b	0.27406773
95	0x3e302c86	0.17204484
96	0xbd8753a0	-0.06607747
97	0xbe5a5c5d	-0.21324296
98	0xbdbf7b73	-0.09349718
99	0x3e3e4c63	0.18583827
100	0x3ecf0433	0.4043289
101	0xbe98c830	-0.2984023
102	0xbe31e82f	-0.17373727
103	0x3e110bf0	0.1416471
104	0x3df946ce	0.12171708
105	0x3e9e1bfc	0.30880725
106	0x3d1f7436	0.038929187
107	0x3e161e86	0.14660081
108	0xbe709222	-0.23493245
109	0x3cf2551b	0.029581597
110	0x3e2dd594	0.16976005
111	0xbe210d66	-0.15727767
112	0x3ed3f1e3	0.41395482
113	0x3e9750ba	0.29553777
114	0xbcacabed	-0.021078074
115	0xbe878479	-0.26468256
116	0xbcb007a9	-0.021488028
117	0x3d2ccaaa	0.042185463
118	0xbd5e89f6	-0.05433079
119	0xbdca2915	-0.09871117
120	0x3d729ea7	0.059233334
121	0xbde8ccdb	-0.11367198
122	0x3e44d48e	0.19221708
123	0x3ddcc8e4	0.10780504
124	0x3dd90dd8	0.105983436
125	0x3dbaa766	0.0911396
126	0x3e057c3d	0.13035674
127	0xbe010c97	-0.12602459
128	0xbe6707af	-0.22561525
129	0x3d853be0	0.06505561
130	0xbcc66a9a	-0.024220753
131	0x3e1ffe74	0.1562441
132	0xbd3f53b3	-0.04671068
133	0x3d678395	0.05652197
134	0xbdb69fda	-0.08917208
135	0xbea7583e	-0.3268451
136	0xbd1cb496	-0.038258158
137	0x3e54dd22	0.2078748
138	0x3dcccfe8	0.100005925
139	0x3db89944	0.09013608
140	0xbdd749ab	-0.10512098
141	0xbdd4ba98	-0.103871524
142	0xbd8d3aaa	-0.06895955
143	0x3cf5327b	0.029931298
144	0x3e119e02	0.14220431
145	0x3c8ea0d5	0.017410675
146	0xbe2c37d9	-0.16818179
147	0x3d911bb5	0.07085363
148	0xbdda2e8b	-0.106534086
149	0x3d97696e	0.07393156
150	0x3dd45951	0.10368598
151	0x3d724ac3	0.05915333
152	0x3d0f5300	0.034991264
153	0xbd472613	-0.048620295
154	0xbdcd066e	-0.10010992
155	0x3edfe969	0.43732765
156	0x3dab8617	0.08375185
157	0x3d9fa227	0.077946
158	0x3e161045	0.14654644
159	0xbdc7ed3e	-0.09762047
160	0x3de2543f	0.11051225
161	0x3e3e5779	0.18588056
162	0xbd8c240b	-0.06842812
163	0xbdcf6724	-0.101270944
164	0x3c6ecfb9	0.014575892
165	0xbc80a919	-0.015705632
166	0xbe9e511d	-0.3092126
167	0xbe008b73	-0.12553196
168	0xbe80d504	-0.25162518
169	0x3dca4a25	0.09877423
170	0xbe6a8948	-0.22903931
171	0x3d7c1d5b	0.061551433
172	0xbe64d9f6	-0.2234877
173	0x3e444cdc	0.19169945
174	0xbcac8173	-0.02105782
175	0x3e1b66e4	0.15175968
176	0xbdbe5eab	-0.092954
177	0xbe19a956	-0.15006003
178	0xbe27f970	-0.16403747
179	0x3bca8242	0.0061800787
180	0x3e5fb679	0.21846952
181	0xbde4b74e	-0.11167775
182	0xba439b00	-0.00074617565
183	0x3e1189a6	0.14212665
184	0x3e71ebc7	0.23625098
185	0xbdeba282	-0.11505605
186	0x3dea2913	0.114336155
187	0xbc98076b	-0.018558225
188	0x3db0e1f5	0.08636848
189	0xbe84ba6e	-0.25923485
190	0x3e32c65d	0.17458482
191	0xbd92f36a	-0.07175334
192	0xbe8132db	-0.25234112
193	0x3cc059a0	0.023480237
194	0xbd566bb1	-0.052348796
195	0xbe1b4b23	-0.15165381
196	0x3c8e80a2	0.017395321
197	0x3d0b66ec	0.0340337
198	0x3f1423c4	0.57867074
199	0x3e63709f	0.2221093
200	0x3e199ced	0.15001269
201	0x3db1ad73	0.08675661
202	0x3c27512c	0.010212224
203	0xbe725272	-0.23664263
204	0xbd2d3d09	-0.042294536
205	0x3d97ef47	0.074186854
206	0xbddf4391	-0.10901559
207	0x3d86d71b	0.06583997
208	0xbdc7d139	-0.09756703
209	0xbd96bfa4	-0.07360771
210	0x3d7530af	0.05986088
211	0xbdf2e720	-0.1186049
212	0xbd2b1ec5	-0.04177739
213	0x3df435b5	0.11924306
214	0xbe3b96be	-0.18319222
215	0x3dc17321	0.09445787
216	0xbdebd8ce	-0.115159616
217	0xbe126dee	-0.14299747
218	0x3dd1d4ef	0.10245692
219	0x3c5b22bf	0.013374983
220	0x3d434e8b	0.047682326
221	0x3da79e62	0.08184506
222	0x3d190d11	0.037365977
223	0xbd114768	-0.03546849
224	0x3deab431	0.1146015
225	0xbdeb0ed5	-0.11477438
226	0xbe8d37d0	-0.27581644
227	0x3df179f1	0.117908366
228	0xbd2bb1d3	-0.041917633
229	0xba69bc54	-0.00089163077
230	0x3e7acfd6	0.24493346
231	0x3a091c9f	0.00052304
232	0xbcae7ce5	-0.021299789
233	0xbe49208c	-0.19641322
234	0x3c78e030	0.015190169
235	0xbe413513	-0.18867902
236	0xbe8fa401	-0.28054813
237	0xbadfcf63	-0.0017075356
238	0x3e463b73	0.19358616
239	0x3e20dac8	0.15708458
240	0x3e15bc86	0.14622697
241	0x3d38e3c7	0.0451391
242	0x3e7af31e	0.24506804
243	0x3da178b1	0.07884348
244	0xbd9be319	-0.07611675
245	0xbdaa8f8d	-0.083281614
246	0x3e80be61	0.25145248
247	0xbd42f2e9	-0.04759494
248	0xbdd06dcb	-0.10177191
249	0x3e1ef680	0.1552372
250	0xbe366e11	-0.17815425
251	0xbd85fae3	-0.065419935
252	0xbe165d4e	-0.1468403
253	0x3ce472ca	0.027886767
254	0x3d95b092	0.07309069
255	0xbe989ab2	-0.29805523

network_body._body_endoder.seq_layers.0.bias f4 [128]
0	0x3bea3e24	0.007148521
1	0xbb930340	-0.0044864714
2	0x3c3ce671	0.011529551
3	0xbbe617a3	-0.0070218607
4	0x3bf7e262	0.0075648287
5	0x3b88c5c7	0.0041739675
6	0xbb665340	-0.0035144836
7	0x3c060d37	0.008181862
8	0x3b9ad708	0.0047253408
9	0xbbdfab7c	-0.0068258625
10	0x3c068b78	0.008211963
11	0x3c053d6a	0.008132318
12	0x3c1e5481	0.009663702
13	0xbc1e5256	-0.009663185
14	0xbb258c16	-0.00252605
15	0x3bf99b0d	0.0076173604
16	0xbbd26ca2	-0.0064216414
17	0x3c0b4651	0.008500651
18	0xbc13d2b5	-0.009022404
19	0xbc3460ee	-0.011009438
20	0xbc02d34f	-0.00798495
21	0xbbbe92bb	-0.0058158315
22	0xbbb0aeaa	-0.0053919153
23	0xba4a66d3	-0.00077210105
24	0xbb88087f	-0.0041514034
25	0x3b8e68f0	0.0043460056
26	0xbc1d5ca3	-0.009604606
27	0x3b7100b3	0.0036774098
28	0x3c105c62	0.008811088
29	0xbc077216	-0.008266946
30	0xbc184099	-0.009292745
31	0xbc0854ab	-0.008320968
32	0xbbc90bf4	-0.006135458
33	0x3c0cba5c	0.008589353
34	0x3bc2be25	0.005943077
35	0xbb445d37	-0.0029962787
36	0xbb2b8716	-0.0026173047
37	0xbc008a77	-0.007845513
38	0xbb58cdb8	-0.0033081602
39	0x3c324204	0.010879997
40	0x3bd4e8ed	0.0064974935
41	0xba266813	-0.0006347906
42	0xb9459e49	-0.0001884635
43	0xbbb1fb61	-0.005431578
44	0x3c2fe83a	0.0107365195
45	0x3ab70155	0.0013962189
46	0xbb85972a	-0.004076858
47	0xbba4d7fb	-0.0050306297
48	0x3c4a79a4	0.012358103
49	0xbbf6ce27	-0.0075318995
50	0x3c25a457	0.010109982
51	0xbc03a522	-0.008034976
52	0xbc408eea	-0.011752823
53	0x3c06d1a4	0.008228693
54	0x3c0b56eb	0.00850461
55	0x3c3e70ac	0.011623543
56	0xbb4c8e35	-0.0031212692
57	0xbc097159	-0.008388841
58	0x3bbfb526	0.005850452
59	0x3c0930de	0.008373467
60	0x3c2878a1	0.010282666
61	0x3be0b352	0.006857314
62	0xbbc82d6e	-0.0061089313
63	0x3be3a488	0.006947104
64	0x3b903fb3	0.004402125
65	0x3bd2d776	0.0064343764
66	0xbbe1bf85	-0.006889286
67	0x3c037cc4	0.008025352
68	0xbb9e57ef	-0.00483226
69	0x3b6fd47e	0.003659516
70	0x3c334094	0.01094069
71	0x3c2bba57	0.010481439
72	0xbb1a69eb	-0.0023561667
73	0x3c21e888	0.0098821
74	0xbc278ec4	-0.010226909
75	0xbb39cf24	-0.0028352225
76	0x3bff2a1f	0.0077870036
77	0xbb9f4607	-0.004860643
78	0x3be408e2	0.0069590667
79	0xbc31268d	-0.010812414
80	0xbb933fb1	-0.0044936766
81	0x3b444ff0	0.0029954873
82	0xbb8889c4	-0.0041668136
83	0x3b98269c	0.0046432745
84	0x3bafbe53	0.0053632646
85	0x3c21a7d8	0.009866677
86	0xbbb85bbb	-0.0056261695
87	0xbc1efc0b	-0.009703646
88	0xbb4c7e17	-0.0031203085
89	0x3b56fdf6	0.003280518
90	0x3bef48dd	0.007302387
91	0x3c0ac3f2	0.008469569
92	0x3c071c9e	0.008246569
93	0xbb738d2b	-0.0037163
94	0xbb11b80a	-0.002223494
95	0xbbdfdfbd	-0.0068320916
96	0xba9c1edf	-0.0011911056
97	0x3b2d8765	0.0026478407
98	0x3c69bb2a	0.014265815
99	0x3c7776ae	0.015103979
100	0xbb0bb1f3	-0.0021315783
101	0x3b899303	0.0041984334
102	0xbbcfb819	-0.006339085
103	0x3b0e7823	0.0021739088
104	0x3bcb5ca5	0.0062061124
105	0xbc16b940	-0.0091994405
106	0xb987511c	-0.00025809638
107	0x3bae5c9e	0.0053210994
108	0x3c0db4dc	0.008649077
109	0x3bfda6d7	0.007740836
110	0xbb907da0	-0.004409507
111	0xbb31d0c8	-0.00271325
112	0xb8f4b043	-0.00011667658
113	0x3c0406ed	0.008058292
114	0xbbbc6ea7	-0.0057504955
115	0x3c0f3b6d	0.008742196
116	0xbbccef69	-0.006254126
117	0xbc0218e3	-0.007940504
118	0xbbd5b7ae	-0.0065221405
119	0xbbbdae04	-0.0057885665
120	0xbb875db4	-0.0041310433
121	0x3bcaa8ed	0.0061846883
122	0x3b2a27a4	0.002596357
123	0x3bca3c66	0.006171751
124	0x3c19a925	0.009378706
125	0x3c182f61	0.00928864
126	0xbbc45599	-0.0059916493
127	0x3bc17e51	0.0059049507

network_body._body_endoder.seq_layers.2.weight f4 [128, 128]
0	0xbd3aafc6	-0.045577787
1	0xbcb0b801	-0.021572115
2	0x3dc0b0b6	0.09408705
3	0xbe18274f	-0.14858745
4	0x3da68e6e	0.08132635
5	0xbdeea508	-0.11652571
6	0x3da369ff	0.079792015
7	0xbdb15dfc	-0.08660504
8	0xbd056f40	-0.0325768
9	0x3dec8c3b	0.11550184
10	0x3be8ab09	0.007100467
11	0x3d44ffe7	0.04809561
12	0xbb7ffaf3	-0.003905949
13	0xbbad7ccd	-0.0052944184
14	0x3d92e70a	0.071729735
15	0xbb7e75bb	-0.0038827497
16	0x3c6639f0	0.014051899
17	0x3d8dd7e5	0.06925944
18	0xbe27c5e2	-0.1638408
19	0xbd2ef667	-0.042715456
20	0x3d7b843e	0.061405413
21	0xbb0ae66c	-0.002119447
22	0xbdb50d0b	-0.088403784
23	0xbdb5c026	-0.0887454
24	0x3b635739	0.003468944
25	0xbd82e73f	-0.06391763
26	0x3d9f441f	0.07776665
27	0x3df28e28	0.118435204
28	0x3cbd5947	0.02311386
29	0xbb86eedd	-0.00411783
30	0xbddec699	-0.10877723
31	0xbd07f54a	-0.03319291
32	0xbd559389	-0.052142654
33	0x3dd17ab1	0.1022848
34	0x3c995d20	0.018721163
35	0x3e38a2a2	0.1803079
36	0xbb93a702	-0.004505993
37	0x3d44fb3b	0.048091155
38	0x3d597a41	0.053095106
39	0x3d730cd4	0.059338406
40	0x3d40df8f	0.047088202
41	0x3dc050f0	0.093904376
42	0xbe2056a7	-0.15658055
43	0xbcf0abb5	-0.029378751
44	0x3d0e55b9	0.03474972
45	0x3dbf943e	0.09354447
46	0x3dc20fb9	0.09475655
47	0xbde600de	-0.11230634
48	0xbdb7e5b3	-0.089793585
49	0x3dd055b5	0.10172597
50	0xbd63e2a4	-0.055636063
51	0x3d12936f	0.035785135
52	0x3d727725	0.059195656
53	0x3e2aa6c9	0.16665186
54	0xbe5288de	-0.20560023
55	0xbe029a64	-0.12754208
56	0xbd9e87f3	-0.07740774
57	0x3e3203f5	0.17384322
58	0x3dd1781d	0.10227988
59	0xbdf292f6	-0.11844437
60	0x3e35668c	0.177149
61	0x3d859d17	0.06524103
62	0x3ccbd026	0.024879526
63	0x3d702246	0.058626436
64	0xbd1182f6	-0.035525285
65	0xbe5ad42f	-0.21370004
66	0xbd8efa3f	-0.069813244
67	0x3d5599ea	0.052148737
68	0x3d8f1221	0.0698588
69	0xbd55c222	-0.052187093
70	0xbdfd0554	-0.12354532
71	0xbb39f667	-0.0028375627
72	0xbcd06858	-0.02544038
73	0xbd9952b5	-0.07486478
74	0xbd99f879	-0.075180955
75	0x3dab83f0	0.083747745
76	0x3ca3e429	0.020006256
77	0xbc791367	-0.01520238
78	0xbd441937	-0.04787561
79	0x3dec3537	0.115335874
80	0xbb6b093b	-0.0035863656
81	0x3d8fce80	0.070218086
82	0x3dc9e52f	0.098581664
83	0xbe045350	-0.12922406
84	0xbe003781	-0.12521173
85	0x3bf68ca2	0.007524089
86	0x3d0f1962	0.034936316
87	0xbd29626b	-0.041353624
88	0x3d9a7e89	0.07543666
89	0x3de2838e	0.11060248
90	0x3da84dae	0.08217941
91	0x3c9eec7c	0.019399874
92	0xbc8f277a	-0.017474879
93	0xbdf6a3db	-0.12042972
94	0xbd5873a8	-0.052844673
95	0xbe0cf716	-0.13766131
96	0x3c5a65e1	0.013329954
97	0xbcbe3d06	-0.023222458
98	0xbdfc209c	-0.12310907
99	0x3d116d4f	0.035504635
100	0x3c86631e	0.016404685
101	0x3d879fe2	0.06622292
102	0xbbf43043	-0.0074520423
103	0x3cd7e7d3	0.02635566
104	0xbd425d4e	-0.047452264
105	0xbd9e1670	-0.07719123
106	0xbddcbc7a	-0.107781366
107	0x3d146f80	0.036239147
108	0x3e0b8916	0.13626513
109	0xbb9efbc3	-0.0048517897
110	0xbe101334	-0.14069825
111	0x3ded7a14	0.1159555
112	0xbc3e83e5	-0.011628126
113	0xbd98d8f0	-0.074632525
114	0x3d774d6e	0.060376577
115	0xbd189eef	-0.037260946
116	0xbd8f776b	-0.07005199
117	0x3d1b42f3	0.037905645
118	0x3bff185b	0.007784886
119	0x3dac918d	0.08426199
120	0x3d47d2be	0.048784964
121	0xbda18b35	-0.0788788
122	0xbd758cc2	-0.05994869
123	0x3cd96e33	0.026541805
124	0x3d0bfdd5	0.03417762
125	0x3c43cea4	0.011951122
126	0xbde91237	-0.11380427
127	0x3d0de474	0.034641698
128	0xbdde1bf0	-0.108451724
129	0x3e0fa240	0.14026737
130	0x3d9cf294	0.076634556
131	0x3ce626f7	0.028094752
132	0xbe018a4b	-0.12650411
133	0x3e330745	0.17483242
134	0x3ded9606	0.1160088
135	0x3dc0f1aa	0.09421094
136	0x3de4c2da	0.111699775
137	0xbd762596	-0.06009444
138	0x3d697a85	0.05700161
139	0xbc408403	-0.011750224
140	0x3b708243	0.0036698736
141	0x3dbf52fe	0.093420014
142	0xbe162426	-0.14662227
143	0xbe142a8f	-0.1446936
144	0xbd80f352	-0.0629641
145	0xbdd22ede	-0.102628455
146	0x3d871f5d	0.06597779
147	0xbd7b654c	-0.0613759
148	0xbd5beb75	-0.053691346
149	0x3d5e77f8	0.05431363
150	0xbccb6e56	-0.024832886
151	0xbe1d3649	-0.1535274
152	0xbd08c164	-0.033387557
153	0xbe2fcfe7	-0.17169152
154	0xbdd28385	-0.102789916
155	0x3e50bff2	0.20385721
156	0xbdceeaea	-0.101034
157	0xbda65eec	-0.08123574
158	0xbcad6977	-0.021168454
159	0x3ddbc29b	0.107304774
160	0xbcfa3dba	-0.030547012
161	0x3ddb8140	0.10718012
162	0xbdbc4f41	-0.09194804
163	0xbcde11f3	-0.027108168
164	0x3c81d210	0.015847236
165	0x3c90b46d	0.017664159
166	0xbc8ab3a5	-0.016931364
167	0xbe175b1e	-0.14780852
168	0x3b80b600	0.003927946
169	0xbd024b68	-0.031810194
170	0x3dc224a7	0.09479647
171	0xbd1121b0	-0.035432518
172	0x3e163ef5	0.14672454
173	0xbc989e61	-0.018630208
174	0xbd8d841f	-0.06909966
175	0x3d89b6a0	0.06724286
176	0xbd6edb0a	-0.05831436
177	0xbd4f32a9	-0.050585423
178	0xbd8535f1	-0.06504429
179	0xbc773974	-0.0150893815
180	0x3d358d9b	0.0443245
181	0xbe34376f	-0.17599271
182	0xbd6a13f0	-0.05714792
183	0xbc7e59ce	-0.015524341
184	0x3e0eb6a7	0.13936864
185	0xbd283e89	-0.041075263
186	0x3c9f0cf1	0.01941535
187	0x3b3aa1b7	0.0028477737
188	0x3cf02fc4	0.029319651
189	0xbe04e895	-0.12979348
190	0xbd470c9f	-0.04859602
191	0x3c279aed	0.010229808
192	0xbd8fff11	-0.07031072
193	0x3d035e86	0.032072566
194	0x3d1093fb	0.035297375
195	0x3e4704e4	0.1943546
196	0xbd92bb38	-0.071646154
197	0xbdeb38e8	-0.114854634
198	0x3cf62b99	0.030050086
199	0x3d1497df	0.036277648
200	0xbcdb2809	-0.026752489
201	0xbd267d30	-0.04064673
202	0x3c28baa2	0.010298403
203	0x3cf1cac0	0.029515624
204	0xbd699a4f	-0.057031926
205	0xbdd933e0	-0.106055975
206	0x3dac64ab	0.084176384
207	0xb89a2513	-7.350198e-05
208	0x3c9ecde9	0.019385295
209	0x3de43c62	0.111443296
210	0xbd5e3bcc	-0.054256245
211	0xbe0bd2a1	-0.13654567
212	0x3d678d6d	0.05653136
213	0xbdd4e8bc	-0.10395953
214	0x3e1fb6b0	0.15597034
215	0xbcae1cb3	-0.02125392
216	0xbc5b9194	-0.013401408
217	0xbbef4c05	-0.0073027634
218	0xbd925f1d	-0.07147048
219	0xbd60da96	-0.05489596
220	0x3e196d2e	0.14983055
221	0xbd779ccc	-0.060452268
222	0x3dd6820f	0.104740255
223	0x3d291688	0.041281253
224	0x3cad9cdf	0.021192966
225	0x3d2aebda	0.04172883
226	0xbce31bcf	-0.027723221
227	0x3c202d7f	0.009776472
228	0x3e42490e	0.1897318
229	0x3d9b0f67	0.07571297
230	0xbde6db36	-0.1127228
231	0x3d3bf5c4	0.045888677
232	0xbbc4d33b	-0.006006626
233	0xbd43b893	-0.047783446
234	0x3c9ef920	0.019405901
235	0x3e2b7175	0.16742499
236	0x3dd592cc	0.1042839
237	0x3d3dcb08	0.046336204
238	0xbda0d44f	-0.07852995
239	0x3d8e2337	0.069403104
240	0xbd33ad84	-0.04386665
241	0x3e152ba9	0.14567436
242	0x3b20634f	0.0024473255
243	0xbca521ed	-0.020157779
244	0x3cc26a85	0.023732433
245	0xbc20297a	-0.009775514
246	0x3da2321f	0.07919716
247	0x3d5c5694	0.053793505
248	0x3c7e2c81	0.01551354
249	0xbe0e7a2b	-0.13913791
250	0xbd338064	-0.043823615
251	0xbd06eeff	-0.03294277
252	0x3c345cfd	0.011008498
253	0x3d80980b	0.06279
254	0xbd3ac32a	-0.04559628
255	0xbcac9f4b	-0.02107205

network_body._body_endoder.seq_layers.2.bias f4 [128]
0	0xbbb965e9	-0.0056579006
1	0xbac629ec	-0.0015118695
2	0xbb9b2cd1	-0.004735567
3	0x3be19a37	0.006884839
4	0xbbf7471d	-0.007546319
5	0xbbeab7f7	-0.0071630436
6	0xbbd1b179	-0.00639933
7	0x3b909ad4	0.004412988
8	0x3b6e209e	0.003633536
9	0x3a57f6bb	0.0008238365
10	0xbbf9ee66	-0.0076272963
11	0x3b8a6a89	0.0042241258
12	0x3bd1fa0a	0.006407981
13	0xbc0b4666	-0.008500671
14	0xbbf6a7bf	-0.007527321
15	0xbbc99113	-0.0061513274
16	0xbbd7b349	-0.0065826518
17	0xbb2a3f35	-0.0025977616
18	0xb9d6bd0d	-0.00040958115
19	0x3bab8f33	0.0052355765
20	0xbc279163	-0.010227534
21	0xbbccec18	-0.0062537305
22	0x3b16b298	0.0022994634
23	0xbbc60c38	-0.006043937
24	0xbbedc98f	-0.0072566937
25	0xbbbc64b0	-0.0057493076
26	0xbbb8181a	-0.0056181075
27	0x3b1ce3d2	0.0023939502
28	0xbbe10e3c	-0.006868152
29	0x3b6ec8bd	0.0036435567
30	0x3c224ae0	0.009905547
31	0x3b1d69cb	0.0024019356
32	0xbc188663	-0.009309384
33	0x3ba0bcb8	0.0049053095
34	0x3bb9fd14	0.005675921
35	0xbbb27a7b	-0.0054467297
36	0x3c0e602c	0.008689921
37	0x3c3ab02a	0.01139454
38	0xbbf76881	-0.0075502996
39	0x3c173e0d	0.009231103
40	0xbc13d16e	-0.0090221
41	0x3b9a20b7	0.004703607
42	0xbbf405ea	-0.007446994
43	0x3c47dd83	0.012198809
44	0xbb3025ab	-0.002687792
45	0xbbcb3a8c	-0.0062020477
46	0xbc074391	-0.008255855
47	0x3b925fb4	0.004466975
48	0x3b255a08	0.0025230665
49	0x39c9b2cb	0.0003847092
50	0x3b99a4c5	0.0046888315
51	0xbbd915ee	-0.0066249287
52	0x3bb4cbf3	0.0055174767
53	0xbbc8dd7d	-0.006129919
54	0x3a54f371	0.0008123434
55	0xbbcb3fcf	-0.006202675
56	0xbbf214cd	-0.0073877336
57	0x3c05c1fc	0.008163925
58	0x3c2402a7	0.010010398
59	0x3a24a99a	0.0006281376
60	0xbb84f1a5	-0.0040571266
61	0xbc2111f3	-0.00983094
62	0xb9f5b3c8	-0.0004686399
63	0xbb2b660e	-0.0026153359
64	0xbb209584	-0.002450318
65	0xbbc0b09b	-0.005880428
66	0xbbc79627	-0.0060908976
67	0xbbf9a205	-0.007618191
68	0x3c183167	0.009289122
69	0xbbff494b	-0.0077907196
70	0xbc1ebcd8	-0.009688579
71	0xbc2800ae	-0.010254068
72	0xbbba6742	-0.005688579
73	0xbbcbd38a	-0.006220286
74	0xbbefe20b	-0.0073206476
75	0xbc1451b7	-0.009052685
76	0x3bf3c520	0.0074392706
77	0xbc03db28	-0.008047856
78	0xbb6f230b	-0.0036489393
79	0x3a0684ee	0.00051315024
80	0x3b96d414	0.0046029184
81	0xbbd179cc	-0.006392693
82	0x3bd3596c	0.006449869
83	0xbbc4ef77	-0.0060099917
84	0xbc084f4b	-0.008319686
85	0x3bb89e9f	0.0056341435
86	0x3c239ac9	0.009985634
87	0xbbe277fa	-0.006911275
88	0x3bc94291	0.0061419685
89	0x3b175952	0.002309401
90	0xbc09817f	-0.008392691
91	0xbc1e202b	-0.009651224
92	0xbbeb0242	-0.0071719
93	0x3c1720e9	0.009224155
94	0x3b1b3dc8	0.0023687948
95	0x3c05adbd	0.008159098
96	0xbc0d3071	-0.008617506
97	0xbbd6f628	-0.006560106
98	0xbc1e3d72	-0.009658204
99	0xbbf73a85	-0.007544818
100	0x3c1d5dab	0.009604852
101	0x3b8a69d4	0.0042240415
102	0xbc0a310d	-0.008434546
103	0xbc27c607	-0.0102400845
104	0x3a7e1281	0.00096920884
105	0x3c3d5ad6	0.0115573015
106	0x3c04ead0	0.008112624
107	0xbc16716c	-0.009182315
108	0x3bf25155	0.0073949494
109	0x3a86b758	0.0010278029
110	0x3a440e03	0.00074788945
111	0xbbae9581	-0.005327881
112	0x3b29bec4	0.0025901059
113	0x3b596a7f	0.003317505
114	0x3b78561d	0.0037893124
115	0x39a3952c	0.00031200924
116	0x3c020ed0	0.007938102
117	0x3b9b689d	0.0047426955
118	0x3c0d2c5d	0.008616534
119	0xbb9b482b	-0.0047388277
120	0xbbe73306	-0.007055643
121	0x3be161fe	0.0068781367
122	0x3c0e4c4c	0.008685183
123	0x3c0b96af	0.0085198125
124	0x3c238db4	0.009982515
125	0xbc09b99c	-0.008406069
126	0x3a2dadd7	0.00066253304
127	0xb9ea6cd0	-0.0004471303

action_model._continuous_distribution.log_sigma f4 [1, 2]
0	0xbc161815	-0.009161015
1	0x3c3399a9	0.010961928

action_model._continuous_distribution.mu.weight f4 [2, 128]
0	0x3ca1ca6f	0.019749848
1	0x3d0832e8	0.033251673
2	0x3ba6672c	0.005078217
3	0xbd3d8e2a	-0.046278156
4	0x3cbb4aa5	0.022862742
5	0x3b2c47e2	0.0026287963
6	0x3cb2b0ca	0.021812815
7	0xbc8fc790	-0.017551214
8	0xbc2b4a75	-0.010454764
9	0xbc62ade7	-0.013835407
10	0x3d3da9bd	0.046304453
11	0xbc3d114c	-0.011539768
12	0xbd08a4b1	-0.033360187
13	0x3adaa48b	0.0016681118
14	0x3ccb20ff	0.024796007
15	0x3c52f6ca	0.012876222
16	0x3cd2977d	0.025707
17	0xbcc4dbde	-0.024030622
18	0xbc41cfba	-0.011829311
19	0xb752a4f4	-1.25553815e-05
20	0x3c5d88f4	0.013521422
21	0x3cf84a51	0.030308874
22	0xbc346b8f	-0.011011972
23	0xbb23b8f4	-0.0024982067
24	0x3cd15090	0.02555111
25	0xba5a1a60	-0.000831997
26	0xbba79dd1	-0.0051152487
27	0xbc5f81ba	-0.013641769
28	0x3c1be3e7	0.009514785
29	0x3babf51f	0.0052477266
30	0xb8cbe736	-9.722861e-05
31	0xbbb2bc2c	-0.0054545607
32	0x3bb3fcb9	0.0054927734
33	0xbc21a04b	-0.009864877
34	0xbcc82172	-0.02443001
35	0x3d267fa0	0.040649056
36	0xbcc6d2fc	-0.024270527
37	0xbbe8356f	-0.007086448
38	0x3d0c9708	0.034323722
39	0xbc7a2d2e	-0.015269561
40	0x3c352df4	0.011058319
41	0xbbbbfb04	-0.0057367105
42	0x3d121833	0.03566761
43	0xbbdeec09	-0.00680304
44	0xbb062ea2	-0.0020474573
45	0x3adbb937	0.0016763572
46	0x3c8ff323	0.017571991
47	0xbb898bd6	-0.004197578
48	0x3c2471bf	0.010036885
49	0x3cec5266	0.028847884
50	0xbb0c000d	-0.0021362335
51	0x3a1300b0	0.00056077074
52	0xbc83b391	-0.016076835
53	0x3c0cddd2	0.008597808
54	0x3cbf0aba	0.023320545
55	0x3c9aceec	0.018897496
56	0x3c8f6e45	0.017508635
57	0xba37427a	-0.0006990802
58	0xbc9225dc	-0.017840318
59	0xbc8f5b96	-0.017499726
60	0xbc127339	-0.008938604
61	0x3d0d1cd4	0.03445132
62	0x3d009231	0.03138942
63	0xbb083d18	-0.0020788368
64	0x3c70327f	0.014660477
65	0x3ad2ebee	0.0016092041
66	0x3cb8d77a	0.022563685
67	0x3cf4d3f9	0.029886233
68	0xbcb2c400	-0.021821976
69	0x3c08ea6f	0.008356675
70	0x3c27cc26	0.010241544
71	0x3cca2d8d	0.024679923
72	0xbc1e4dab	-0.009662072
73	0x3ab6856c	0.0013925261
74	0x3b547424	0.0032417858
75	0x3cfc56ea	0.030803163
76	0xbcc3a1c7	-0.023880852
77	0x3c0ab67f	0.008466362
78	0x3ccaf02b	0.024772724
79	0x3c45cbb8	0.012072496
80	0xbbdee1f1	-0.0068018367
81	0xbc161a8a	-0.009161601
82	0xbc7d72ae	-0.015469236
83	0x3b85be93	0.004081556
84	0x3c1e4ad8	0.009661399
85	0x3cc51261	0.024056615
86	0xbc6fed43	-0.01464397
87	0xbc081c7d	-0.008307573
88	0xbc9b1cf5	-0.018934706
89	0xbcaa6c17	-0.020803494
90	0x3cb6b209	0.02230169
91	0xbaa00344	-0.0012208004
92	0xba819125	-0.0009885175
93	0xbca918b1	-0.020641657
94	0xbc529484	-0.012852792
95	0xbcffcdb7	-0.031226022
96	0x3c6b6a63	0.014368626
97	0x3d0d291b	0.03446303
98	0x3c2e68ce	0.010645105
99	0x3c2bf741	0.010495962
100	0xbcca11f5	-0.024666766
101	0xbc0dbf55	-0.008651574
102	0x3ccd0cc9	0.02503051
103	0xbba5882e	-0.0050516343
104	0x3bc8442f	0.0061116437
105	0xbc2084d8	-0.009797297
106	0xbca6cdd3	-0.020361817
107	0x3cbd08b7	0.023075445
108	0xbd16649e	-0.03671705
109	0x39c5eba5	0.00037750337
110	0x3bf5839f	0.007492497
111	0x3a90e50c	0.0011054589
112	0x3c7569f1	0.014978872
113	0xbd3ec020	-0.046569943
114	0x3b0a2e27	0.0021084638
115	0xbc075162	-0.008259149
116	0xbcb758de	-0.022381242
117	0xbce66c72	-0.028127883
118	0xbc16abcc	-0.009196233
119	0x3d0c5add	0.03426634
120	0x3cbea0b3	0.023269987
121	0xbbcb333c	-0.006201176
122	0xbd255c4e	-0.04037123
123	0xbb746deb	-0.0037296962
124	0xbce824e3	-0.028337901
125	0x3b7bd496	0.0038426272
126	0xbc8b63a6	-0.01701529
127	0xbbecf388	-0.0072311796
128	0x3b21277d	0.0024590187
129	0x3cb33bc9	0.021879094
130	0xbc44b5b3	-0.012006211
131	0x3c42a341	0.011879743
132	0xbc2cdf34	-0.010551263
133	0xbc10a9e2	-0.008829566
134	0xbc30db42	-0.010794463
135	0x3b585ef6	0.0033015586
136	0x3b839e3e	0.0040166667
137	0xba99fbb5	-0.0011747988
138	0xbc8b9fd9	-0.017043995
139	0x3a9f6212	0.0012159965
140	0xbb93ca2d	-0.004510185
141	0xbc63a7e1	-0.013895006
142	0xbc6fee0c	-0.014644157
143	0xbbf3cd21	-0.0074402248
144	0xbac62884	-0.0015118276
145	0xbd065db4	-0.032804206
146	0x3a8363af	0.0010024215
147	0x3d15077f	0.036384102
148	0xbcaf7fc5	-0.02142323
149	0xbbd5c552	-0.0065237666
150	0x3bab2e46	0.005224022
151	0x3b6efe97	0.0036467665
152	0xbc424b67	-0.011858798
153	0x3ba455c2	0.005015106
154	0xbce96d2c	-0.02849444
155	0xbb826ae0	-0.0039800256
156	0xbbb58351	-0.005539336
157	0x3d0b95ed	0.034078527
158	0x3cbc4334	0.022981264
159	0x37782b44	1.47920255e-05
160	0xbd097af1	-0.03356451
161	0xbb6d49b8	-0.003620727
162	0xbb9da61e	-0.0048110625
163	0xbc627d65	-0.013823842
164	0x3c940015	0.018066445
165	0x3c2527af	0.010080262
166	0xbc56eae4	-0.013117526
167	0x3cdd550c	0.027018093
168	0xbc934545	-0.017977366
169	0x3bbf64e4	0.0058408845
170	0xbc9d723c	-0.01921951
171	0x3c8358d0	0.01603356
172	0x3a357694	0.00069222716
173	0xbc591739	-0.013250166
174	0xbb8dae24	-0.0043237377
175	0xbba3c5f7	-0.0049979645
176	0x3cf5f48b	0.030023834
177	0x3bf5a2d8	0.007496219
178	0x3ca7ea5e	0.020497497
179	0xbced5e45	-0.028975615
180	0xbbe175b0	-0.0068804845
181	0xbbaeb61e	-0.0053317687
182	0x3c161fb8	0.009162836
183	0xbc1b9278	-0.00949537
184	0xbca566cb	-0.020190617
185	0x3d1eb229	0.038744126
186	0x3cb71f6d	0.022353852
187	0xbc017b24	-0.007902894
188	0xbc1ff028	-0.009761848
189	0xbd5d294a	-0.053994454
190	0x3d0825af	0.033239063
191	0xbc9e558b	-0.0193279
192	0x3c4da9c6	0.012552684
193	0xbcabd057	-0.020973368
194	0x3b699076	0.0035639084
195	0xbc5affad	-0.013366622
196	0x3cb8ef92	0.022575174
197	0xbc9c750b	-0.01909878
198	0xbcab69c5	-0.020924458
199	0xbd12ab5a	-0.035807945
200	0xbbb0f017	-0.0053997147
201	0xbce15d60	-0.027510345
202	0xbce9c6eb	-0.028537234
203	0xbce2ed3d	-0.027701015
204	0x3c1b6709	0.009485015
205	0xbc62eba5	-0.013850127
206	0xbb2f5255	-0.0026751955
207	0x3cc49161	0.023995103
208	0xbbdda5ef	-0.0067641656
209	0xbc418dd0	-0.011813596
210	0x3c2d2abc	0.010569271
211	0xbc89d93a	-0.016827215
212	0xbd2d0483	-0.04224063
213	0x3d16dfda	0.036834575
214	0x3bb99520	0.005663529
215	0xbc56f9da	-0.013121093
216	0x3b87c793	0.004143664
217	0xba9c7201	-0.0011935831
218	0xbcbf1b50	-0.023328453
219	0xbcd8b493	-0.026453292
220	0xbc7a8e87	-0.01529277
221	0x3bc40d15	0.005983005
222	0xbb89c9b1	-0.0042049517
223	0x3ca81bc6	0.020521056
224	0xbd42d27e	-0.047564022
225	0xbbfd3160	-0.007726833
226	0xbceac54a	-0.028658528
227	0xbc5714bc	-0.013127502
228	0x3d35aa1c	0.044351682
229	0x3b0c9590	0.002145145
230	0xbbde663a	-0.0067870887
231	0xbc150a2b	-0.0090966625
232	0xbb4b82f7	-0.0031053403
233	0x3c6dfc1b	0.014525439
234	0xbb09d492	-0.0021031243
235	0xbc30f6ba	-0.010801012
236	0x3ab5e1d2	0.0013876504
237	0xba82a049	-0.0009965982
238	0xbadf11b1	-0.0017018822
239	0xbd0360d3	-0.03207476
240	0x3d1fde04	0.03903009
241	0xbc6a8b83	-0.014315489
242	0x3cc2263f	0.023699878
243	0xbbffba60	-0.0078042
244	0x3c6a136f	0.01428686
245	0x3a2dd9ba	0.000663187
246	0x3cf91b68	0.030408576
247	0xba4f94a2	-0.00079185714
248	0xbc3b4c28	-0.011431731
249	0x3d582eb0	0.0527789
250	0x3c1be7c2	0.009515705
251	0x3d1001c5	0.035157938
252	0x3d0a9241	0.033830885
253	0xbcc8b2c8	-0.024499312
254	0xbcb1498e	-0.021641519
255	0xbc898a12	-0.01678947

action_model._continuous_distribution.mu.bias f4 [2]
0	0xbbdb22b2	-0.0066874856
1	0x3bfb91f9	0.0076773134

exp_avg f4 [128, 41]
0	0x00000000	0.0
1	0x389d19f9	7.491181e-05
2	0x00000000	0.0
3	0x00000000	0.0
4	0x36939168	4.397869e-06
5	0xb554b745	-7.9242847e-07
6	0x389ec368	7.570424e-05
7	0x00000000	0.0
8	0x00000000	0.0
9	0x369cf0ca	4.677194e-06
10	0xb5d2e847	-1.5713821e-06
11	0x38a0659c	7.648321e-05
12	0x00000000	0.0
13	0x00000000	0.0
14	0x36aaec4b	5.093903e-06
15	0x36c36d7e	5.8241994e-06
16	0x3890e321	6.908761e-05
17	0x00000000	0.0
18	0x00000000	0.0
19	0x36d9402c	6.4745745e-06
20	0xb5d3b4c5	-1.5773336e-06
21	0x38a068cd	7.648915e-05
22	0x00000000	0.0
23	0x00000000	0.0
24	0x3702aed4	7.789309e-06
25	0xb61e4a96	-2.358725e-06
26	0x38a20c4c	7.7270524e-05
27	0x00000000	0.0
28	0x00000000	0.0
29	0x371deae4	9.412619e-06
30	0x368cebe4	4.1997864e-06
31	0x38944b39	7.071201e-05
32	0x00000000	0.0
33	0x00000000	0.0
34	0x37814ae7	1.5412877e-05
35	0xb89c831a	-7.463079e-05
36	0x00000000	0.0
37	0x00000000	0.0
38	0x00000000	0.0
39	0x00000000	0.0
40	0x00000000	0.0
41	0x00000000	0.0
42	0x36bb32f8	5.578968e-06
43	0x00000000	0.0
44	0x00000000	0.0
45	0x34a0b9de	2.9937559e-07
46	0xb44759ca	-1.8565984e-07
47	0x36c16dc8	5.7646284e-06
48	0x00000000	0.0
49	0x00000000	0.0
50	0x34ad6e6c	3.2304104e-07
51	0xb48e9bd8	-2.6562952e-07
52	0x36c41cb8	5.8445985e-06
53	0x00000000	0.0
54	0x00000000	0.0
55	0x34c1a87a	3.6071634e-07
56	0x34c334b4	3.6359927e-07
57	0x36aeffaf	5.2153696e-06
58	0x00000000	0.0
59	0x00000000	0.0
60	0x3507f9d8	5.065499e-07
61	0xb48f2be4	-2.666776e-07
62	0x36c425b8	5.8456462e-06
63	0x00000000	0.0
64	0x00000000	0.0
65	0x3525cfbc	6.1769583e-07
66	0xb588662f	-1.0162529e-06
67	0x36dd4c83	6.5952204e-06
68	0x00000000	0.0
69	0x00000000	0.0
70	0x3500ea37	4.8024543e-07
71	0x357e140a	9.4651534e-07
72	0x369b7077	4.6324526e-06
73	0x00000000	0.0
74	0x00000000	0.0
75	0x3579f59e	9.311715e-07
76	0xb6ba673e	-5.555251e-06
77	0x00000000	0.0
78	0x00000000	0.0
79	0x00000000	0.0
80	0x00000000	0.0
81	0x00000000	0.0
82	0x00000000	0.0
83	0xb8126d20	-3.4910743e-05
84	0x00000000	0.0
85	0x00000000	0.0
86	0xb5fb700c	-1.8733567e-06
87	0x352bd6a7	6.4014824e-07
88	0xb8151c7a	-3.555089e-05
89	0x00000000	0.0
90	0x00000000	0.0
91	0xb605a270	-1.9913095e-06
92	0x357c9c55	9.410481e-07
93	0xb8165f90	-3.5851786e-05
94	0x00000000	0.0
95	0x00000000	0.0
96	0xb613ea85	-2.2041215e-06
97	0xb62ec740	-2.6044e-06
98	0xb80780ac	-3.2306343e-05
99	0x00000000	0.0
100	0x00000000	0.0
101	0xb64307cd	-2.9061805e-06
102	0x357d20b7	9.429745e-07
103	0xb81661a3	-3.5853718e-05
104	0x00000000	0.0
105	0x00000000	0.0
106	0xb66af6cc	-3.5012372e-06
107	0x365ae792	3.2619323e-06
108	0xb8201b9a	-3.817268e-05
109	0x00000000	0.0
110	0x00000000	0.0
111	0xb690f3ca	-4.319915e-06
112	0xb5cfd6be	-1.54852e-06
113	0xb80bee6b	-3.3362227e-05
114	0x00000000	0.0
115	0x00000000	0.0
116	0xb6ec75ee	-7.047077e-06
117	0x3811da2f	3.4773893e-05
118	0x00000000	0.0
119	0x00000000	0.0
120	0x00000000	0.0
121	0x00000000	0.0
122	0x00000000	0.0
123	0x00000000	0.0
124	0x3774c080	1.4588353e-05
125	0x00000000	0.0
126	0x00000000	0.0
127	0x3542a4cc	7.251044e-07
128	0xb44a62bf	-1.884864e-07
129	0x3777ea0a	1.4776839e-05
130	0x00000000	0.0
131	0x00000000	0.0
132	0x354eb99a	7.7011066e-07
133	0xb4b28d15	-3.3257734e-07
134	0x377a54e7	1.4920929e-05
135	0x00000000	0.0
136	0x00000000	0.0
137	0x35644011	8.502985e-07
138	0x3524ddc2	6.141746e-07
139	0x376a729c	1.3974171e-05
140	0x00000000	0.0
141	0x00000000	0.0
142	0x3593b30e	1.1004465e-06
143	0xb4b30a81	-3.334899e-07
144	0x377a58d0	1.49218395e-05
145	0x00000000	0.0
146	0x00000000	0.0
147	0x35b34fa8	1.3359722e-06
148	0xb609eff0	-2.0554253e-06
149	0x378b9e3b	1.6643773e-05
150	0x00000000	0.0
151	0x00000000	0.0
152	0x35d63b94	1.5961582e-06
153	0x35204a7b	5.971303e-07
154	0x376abbd4	1.3991219e-05
155	0x00000000	0.0
156	0x00000000	0.0
157	0x36377cd2	2.734178e-06
158	0xb773bd4e	-1.4528005e-05
159	0x00000000	0.0
160	0x00000000	0.0
161	0x00000000	0.0
162	0x00000000	0.0
163	0x00000000	0.0
164	0x00000000	0.0
165	0x3742d609	1.1613135e-05
166	0x00000000	0.0
167	0x00000000	0.0
168	0x35168534	5.607319e-07
169	0xb4e1b232	-4.203917e-07
170	0x3749e39b	1.2033527e-05
171	0x00000000	0.0
172	0x00000000	0.0
173	0x352158ca	6.010638e-07
174	0xb50eadf8	-5.315228e-07
175	0x374bc0ea	1.2144659e-05
176	0x00000000	0.0
177	0x00000000	0.0
178	0x353784cb	6.836605e-07
179	0x34c2b567	3.6267303e-07
180	0x373cc05e	1.1250462e-05
181	0x00000000	0.0
182	0x00000000	0.0
183	0x35859dc8	9.955193e-07
184	0xb50f143e	-5.330111e-07
185	0x374bc74e	1.2146147e-05
186	0x00000000	0.0
187	0x00000000	0.0
188	0x359ff3f6	1.1917425e-06
189	0xb53f68b4	-7.130541e-07
190	0x374ecc97	1.2326192e-05
191	0x00000000	0.0
192	0x00000000	0.0
193	0x35bfccc4	1.4290204e-06
194	0x33a54561	7.696031e-08
195	0x37418b80	1.1536176e-05
196	0x00000000	0.0
197	0x00000000	0.0
198	0x361dfb83	2.3541222e-06
199	0xb7421bb4	-1.1569751e-05
200	0x00000000	0.0
201	0x00000000	0.0
202	0x00000000	0.0
203	0x00000000	0.0
204	0x00000000	0.0
205	0x00000000	0.0
206	0xb79495bc	-1.77127e-05
207	0x00000000	0.0
208	0x00000000	0.0
209	0xb53c824f	-7.022508e-07
210	0x3560e7b1	8.378366e-07
211	0xb79b9cfa	-1.8550538e-05
212	0x00000000	0.0
213	0x00000000	0.0
214	0xb54dc4b2	-7.665468e-07
215	0x35b4b666	1.346413e-06
216	0xb79fe124	-1.9059116e-05
217	0x00000000	0.0
218	0x00000000	0.0
219	0xb5776a6a	-9.2169523e-07
220	0xb5fa6d7a	-1.8658313e-06
221	0xb784eee6	-1.5846872e-05
222	0x00000000	0.0
223	0x00000000	0.0
224	0xb5cbc598	-1.5182186e-06
225	0x35b51725	1.3492287e-06
226	0xb79fe730	-1.9061932e-05
227	0x00000000	0.0
228	0x00000000	0.0
229	0xb5f7df56	-1.8467933e-06
230	0x36049084	1.9753652e-06
231	0xb7a527cd	-1.9688066e-05
232	0x00000000	0.0
233	0x00000000	0.0
234	0xb61237ca	-2.1788169e-06
235	0xb5afab2d	-1.3088335e-06
236	0xb7899b0a	-1.6403868e-05
237	0x00000000	0.0
238	0x00000000	0.0
239	0xb6742bd2	-3.638434e-06
240	0x37940ea0	1.7649785e-05
241	0x00000000	0.0
242	0x00000000	0.0
243	0x00000000	0.0
244	0x00000000	0.0
245	0x00000000	0.0
246	0x00000000	0.0
247	0xb86e0a36	-5.675313e-05
248	0x00000000	0.0
249	0x00000000	0.0
250	0xb653630f	-3.149911e-06
251	0x351c5919	5.824418e-07
252	0xb8707b98	-5.7335565e-05
253	0x00000000	0.0
254	0x00000000	0.0
255	0xb6600166	-3.3379415e-06

exp_avg_sq f4 [128, 41]
0	0x00000000	0.0
1	0x3295a5b4	1.7421236e-08
2	0x00000000	0.0
3	0x00000000	0.0
4	0x2eb5b881	8.2637015e-11
5	0x2d47e275	1.1362124e-11
6	0x329563c0	1.7391244e-08
7	0x00000000	0.0
8	0x00000000	0.0
9	0x2ecc84be	9.300426e-11
10	0x2d65484e	1.3033198e-11
11	0x3294db0c	1.7329079e-08
12	0x00000000	0.0
13	0x00000000	0.0
14	0x2edc3ec6	1.00155925e-10
15	0x2f7ec8e7	2.317254e-10
16	0x3292c3d2	1.7085686e-08
17	0x00000000	0.0
18	0x00000000	0.0
19	0x2f181372	1.3831228e-10
20	0x2e427b2a	4.4219885e-11
21	0x3294da43	1.7328722e-08
22	0x00000000	0.0
23	0x00000000	0.0
24	0x2f43916e	1.7786814e-10
25	0x30fb9085	1.8303729e-09
26	0x32872875	1.5734466e-08
27	0x00000000	0.0
28	0x00000000	0.0
29	0x2fe162e1	4.099752e-10
30	0x30a07e62	1.1677452e-09
31	0x328bfdcc	1.6297143e-08
32	0x00000000	0.0
33	0x00000000	0.0
34	0x3057e79d	7.8545687e-10
35	0x32951318	1.7354566e-08
36	0x00000000	0.0
37	0x00000000	0.0
38	0x00000000	0.0
39	0x00000000	0.0
40	0x00000000	0.0
41	0x00000000	0.0
42	0x307f86f7	9.2960256e-10
43	0x00000000	0.0
44	0x00000000	0.0
45	0x2caa1963	4.834509e-12
46	0x2c045d8b	1.8810255e-12
47	0x307ee4fd	9.2730074e-10
48	0x00000000	0.0
49	0x00000000	0.0
50	0x2cbb43b4	5.3223762e-12
51	0x2bc249fe	1.3805066e-12
52	0x307de5de	9.2367525e-10
53	0x00000000	0.0
54	0x00000000	0.0
55	0x2cce97f0	5.8717406e-12
56	0x2d88d882	1.5557559e-11
57	0x307b2b81	9.137509e-10
58	0x00000000	0.0
59	0x00000000	0.0
60	0x2d034b01	7.463142e-12
61	0x2c2cf7fd	2.4580331e-12
62	0x307dee93	9.23799e-10
63	0x00000000	0.0
64	0x00000000	0.0
65	0x2d2e9f20	9.926088e-12
66	0x2efe9618	1.1577245e-10
67	0x306cba63	8.612117e-10
68	0x00000000	0.0
69	0x00000000	0.0
70	0x2dba3f96	2.117399e-11
71	0x2ebb9172	8.529612e-11
72	0x306efd20	8.694361e-10
73	0x00000000	0.0
74	0x00000000	0.0
75	0x2e4633cd	4.5065996e-11
76	0x307e3ae7	9.2488367e-10
77	0x00000000	0.0
78	0x00000000	0.0
79	0x00000000	0.0
80	0x00000000	0.0
81	0x00000000	0.0
82	0x00000000	0.0
83	0x31239644	2.3805038e-09
84	0x00000000	0.0
85	0x00000000	0.0
86	0x2d59f0c2	1.2388481e-11
87	0x2c8166af	3.6778007e-12
88	0x3122ff1d	2.3719118e-09
89	0x00000000	0.0
90	0x00000000	0.0
91	0x2d73ab71	1.3851018e-11
92	0x2c65b68d	3.2644193e-12
93	0x31221675	2.3586868e-09
94	0x00000000	0.0
95	0x00000000	0.0
96	0x2d832f00	1.4913848e-11
97	0x2e04678b	3.010529e-11
98	0x312022c6	2.330283e-09
99	0x00000000	0.0
100	0x00000000	0.0
101	0x2db109cb	2.012692e-11
102	0x2cb43864	5.1221683e-12
103	0x31224749	2.3614624e-09
104	0x00000000	0.0
105	0x00000000	0.0
106	0x2de0d9c9	2.5562568e-11
107	0x2fe82b2a	4.2231224e-10
108	0x3107a253	1.9737356e-09
109	0x00000000	0.0
110	0x00000000	0.0
111	0x2e7ee082	5.7952317e-11
112	0x2f8e37c4	2.5869273e-10
113	0x310ef25a	2.080148e-09
114	0x00000000	0.0
115	0x00000000	0.0
116	0x2efedf36	1.1590233e-10
117	0x3122ecdb	2.370874e-09
118	0x00000000	0.0
119	0x00000000	0.0
120	0x00000000	0.0
121	0x00000000	0.0
122	0x00000000	0.0
123	0x00000000	0.0
124	0x308560c2	9.704524e-10
125	0x00000000	0.0
126	0x00000000	0.0
127	0x2cac4884	4.896585e-12
128	0x2bbfeb5f	1.3636695e-12
129	0x3086465f	9.769784e-10
130	0x00000000	0.0
131	0x00000000	0.0
132	0x2cc2cc69	5.5365057e-12
133	0x2b5db2ee	7.8763287e-13
134	0x308531e1	9.6912e-10
135	0x00000000	0.0
136	0x00000000	0.0
137	0x2cd0e0b4	5.9366626e-12
138	0x2da88bdc	1.9161499e-11
139	0x30839d3f	9.576197e-10
140	0x00000000	0.0
141	0x00000000	0.0
142	0x2d0788c3	7.704229e-12
143	0x2cf0294f	6.8257964e-12
144	0x308661a7	9.777538e-10
145	0x00000000	0.0
146	0x00000000	0.0
147	0x2d362c0e	1.0355284e-11
148	0x2f04107d	1.2011188e-10
149	0x306e99e2	8.6802576e-10
150	0x00000000	0.0
151	0x00000000	0.0
152	0x2dcd0942	2.3309913e-11
153	0x2e43edf2	4.4549205e-11
154	0x30814fca	9.408663e-10
155	0x00000000	0.0
156	0x00000000	0.0
157	0x2e35a114	4.12977e-11
158	0x3084e6ca	9.669858e-10
159	0x00000000	0.0
160	0x00000000	0.0
161	0x00000000	0.0
162	0x00000000	0.0
163	0x00000000	0.0
164	0x00000000	0.0
165	0x302ff2f2	6.4009875e-10
166	0x00000000	0.0
167	0x00000000	0.0
168	0x2ca01527	4.549822e-12
169	0x2c8e3a61	4.042364e-12
170	0x3030a9ac	6.4269545e-10
171	0x00000000	0.0
172	0x00000000	0.0
173	0x2ca93ac2	4.8097923e-12
174	0x2bd776f0	1.5309681e-12
175	0x302eef8b	6.364124e-10
176	0x00000000	0.0
177	0x00000000	0.0
178	0x2cbd3220	5.377268e-12
179	0x2d9a86ac	1.756758e-11
180	0x302cee8b	6.2912225e-10
181	0x00000000	0.0
182	0x00000000	0.0
183	0x2cc566e8	5.6105016e-12
184	0x2d480279	1.1369233e-11
185	0x302ecff5	6.3596356e-10
186	0x00000000	0.0
187	0x00000000	0.0
188	0x2d089a9f	7.765038e-12
189	0x2eabe3dc	7.816656e-11
190	0x301d87c2	5.730919e-10
191	0x00000000	0.0
192	0x00000000	0.0
193	0x2d8dab00	1.6105783e-11
194	0x2e7381da	5.5367134e-11
195	0x3024e7c1	5.9992195e-10
196	0x00000000	0.0
197	0x00000000	0.0
198	0x2dec0f9e	2.6837029e-11
199	0x302f80fe	6.384794e-10
200	0x00000000	0.0
201	0x00000000	0.0
202	0x00000000	0.0
203	0x00000000	0.0
204	0x00000000	0.0
205	0x00000000	0.0
206	0x308fde94	1.046788e-09
207	0x00000000	0.0
208	0x00000000	0.0
209	0x2d4109d8	1.0972966e-11
210	0x2d46888b	1.12853156e-11
211	0x308d1886	1.026607e-09
212	0x00000000	0.0
213	0x00000000	0.0
214	0x2d4c3dbe	1.1609767e-11
215	0x2d1df7e8	8.979463e-12
216	0x308c271c	1.0197456e-09
217	0x00000000	0.0
218	0x00000000	0.0
219	0x2d5d3555	1.2574238e-11
220	0x2e44376e	4.4614472e-11
221	0x30882d40	9.908163e-10
222	0x00000000	0.0
223	0x00000000	0.0
224	0x2d4aa0a1	1.1518037e-11
225	0x2dc9838c	2.2909473e-11
226	0x308b9248	1.0155157e-09
227	0x00000000	0.0
228	0x00000000	0.0
229	0x2d899a70	1.564368e-11
230	0x2fa1e9e6	2.9451924e-10
231	0x304dfce4	7.4937945e-10
232	0x00000000	0.0
233	0x00000000	0.0
234	0x2df3059f	2.7628398e-11
235	0x2f4ac2e7	1.8441036e-10
236	0x306868db	8.4550117e-10
237	0x00000000	0.0
238	0x00000000	0.0
239	0x2e6c7d89	5.3771685e-11
240	0x308f5cf9	1.0431044e-09
241	0x00000000	0.0
242	0x00000000	0.0
243	0x00000000	0.0
244	0x00000000	0.0
245	0x00000000	0.0
246	0x00000000	0.0
247	0x326b3ee2	1.3693098e-08
248	0x00000000	0.0
249	0x00000000	0.0
250	0x2e83fb48	6.001827e-11
251	0x2d8cc95e	1.6005582e-11
252	0x326aac8a	1.36598235e-08
253	0x00000000	0.0
254	0x00000000	0.0
255	0x2e93ff4d	6.7301366e-11

exp_avg f4 [128]
0	0x389d19f8	7.4911804e-05
1	0x36bb32ed	5.578963e-06
2	0xb8126d20	-3.4910743e-05
3	0x3774c078	1.4588346e-05
4	0x3742d60b	1.1613137e-05
5	0xb79495bc	-1.77127e-05
6	0xb86e0a36	-5.675313e-05
7	0x3770af55	1.4345937e-05
8	0xb86824a4	-5.5347235e-05
9	0x37bbbc95	2.2379952e-05
10	0xb86fc4a8	-5.716519e-05
11	0x3666f1d6	3.4413438e-06
12	0x38880ce7	6.4873886e-05
13	0xb799c38b	-1.8330078e-05
14	0x380cd2e6	3.3575016e-05
15	0x3896bf21	7.188158e-05
16	0x38582158	5.1529467e-05
17	0xb7c9aaa9	-2.4040537e-05
18	0xb7e688a0	-2.7481758e-05
19	0xb68bc95d	-4.1659646e-06
20	0x361762bf	2.2558231e-06
21	0x3839bede	4.4285196e-05
22	0xb7b14938	-2.113414e-05
23	0x38b330fd	8.54451e-05
24	0xb8aae619	-8.149091e-05
25	0x390b08be	0.0001325933
26	0xb75c38a2	-1.3126208e-05
27	0xb808da40	-3.2628188e-05
28	0x36a01b42	4.771545e-06
29	0x376bb18a	1.4048428e-05
30	0x37ad9208	2.0691208e-05
31	0xb84f9766	-4.9493647e-05
32	0xb871404f	-5.751877e-05
33	0x364a747a	3.0168144e-06
34	0x35f7869b	1.8442109e-06
35	0xb7ee94fe	-2.844119e-05
36	0x35e3a5cc	1.6961071e-06
37	0xb7414814	-1.1520478e-05
38	0xb7454eaa	-1.176043e-05
39	0xb70e840b	-8.494603e-06
40	0xb5a0fd22	-1.19946e-06
41	0x372b8f28	1.0225725e-05
42	0x36d6a4c9	6.3968805e-06
43	0x382c67e2	4.1104744e-05
44	0xb62680fb	-2.4811004e-06
45	0xb7158695	-8.912427e-06
46	0x36583be7	3.2221376e-06
47	0x33b6a768	8.5054864e-08
48	0xb7b93122	-2.2076598e-05
49	0xb6fc69ce	-7.5225025e-06
50	0x38876313	6.455756e-05
51	0xb58bf0cd	-1.0426389e-06
52	0x369aabbe	4.609551e-06
53	0x3852f7f8	5.029884e-05
54	0x380f343b	3.41425e-05
55	0xb77ce36c	-1.5073321e-05
56	0xb8701342	-5.7238394e-05
57	0xb5c9fe18	-1.5049618e-06
58	0x3853117d	5.0322607e-05
59	0x360cfe01	2.1009475e-06
60	0xb861c28c	-5.3825366e-05
61	0xb7b5e85e	-2.1685086e-05
62	0xb823c76a	-3.9047947e-05
63	0x3721e0ad	9.648659e-06
64	0xb7766c5c	-1.4687972e-05
65	0xb7cf96fb	-2.4746629e-05
66	0xb79b8f84	-1.854427e-05
67	0x379ab626	1.844305e-05
68	0x352412f2	6.112233e-07
69	0x3698fa72	4.5591087e-06
70	0xb835b428	-4.3321546e-05
71	0xb6a2ede4	-4.8556703e-06
72	0xb82c0a24	-4.101744e-05
73	0x37b48948	2.1521599e-05
74	0x381154bd	3.4649613e-05
75	0x37e43a90	2.7206988e-05
76	0x3728e0da	1.0065933e-05
77	0x37f9fde0	2.9801333e-05
78	0xb79ff631	-1.9068919e-05
79	0x37339abf	1.0705261e-05
80	0xb743371e	-1.1635739e-05
81	0xb70f4d7e	-8.541507e-06
82	0xb81e1393	-3.7688365e-05
83	0x38ca62ef	9.6505384e-05
84	0xb8403874	-4.5828943e-05
85	0xb7862822	-1.5992733e-05
86	0x325b1470	1.2752125e-08
87	0xb6ef03e9	-7.1232103e-06
88	0x3742064b	1.1564766e-05
89	0xb85af480	-5.220296e-05
90	0x366c0a12	3.5172602e-06
91	0x379cccd9	1.8692039e-05
92	0x37b5cb04	2.1671418e-05
93	0x38e1fe15	0.000107761625
94	0xb7272228	-9.961928e-06
95	0x3758c594	1.29206055e-05
96	0x38eb140c	0.00011209407
97	0xb7b1c0c6	-2.1189811e-05
98	0xb7831397	-1.562554e-05
99	0xb7655340	-1.3668847e-05
100	0xb7c40fff	-2.337247e-05
101	0xb7ce3d20	-2.4585577e-05
102	0xb6b0bdde	-5.267312e-06
103	0xb7f331e3	-2.8991088e-05
104	0x381b955a	3.7093974e-05
105	0x3723e864	9.769665e-06
106	0xb7d7db9c	-2.573226e-05
107	0x384ca267	4.878864e-05
108	0x381ba9b6	3.7112935e-05
109	0x360c8e19	2.0944337e-06
110	0x38ac5e4a	8.219162e-05
111	0x3858c131	5.1678337e-05
112	0x3856cd72	5.121291e-05
113	0x37493c6c	1.1994602e-05
114	0xb6f7a9dc	-7.380948e-06
115	0xb7bbe0bc	-2.2396787e-05
116	0xb7f8b101	-2.9646328e-05
117	0x382b8412	4.0892577e-05
118	0x3629bd02	2.529298e-06
119	0xb7a9c242	-2.0236828e-05
120	0x3623495f	2.43316e-06
121	0x392f5bf6	0.00016723559
122	0x38bbd577	8.956616e-05
123	0xb871543b	-5.7537323e-05
124	0xb824255e	-3.9135448e-05
125	0x36a2be52	4.8501324e-06
126	0x369098e3	4.309333e-06
127	0xb79ac6e4	-1.8450846e-05

exp_avg_sq f4 [128]
0	0x3295a5b4	1.7421236e-08
1	0x307f86f6	9.296025e-10
2	0x31239645	2.380504e-09
3	0x308560c0	9.704522e-10
4	0x302ff2f3	6.400988e-10
5	0x308fde95	1.0467881e-09
6	0x326b3ee3	1.3693099e-08
7	0x32e59abf	2.6729479e-08
8	0x332ec59e	4.0692264e-08
9	0x31ce8f6c	6.0116943e-09
10	0x33351352	4.2159918e-08
11	0x3021b909	5.883441e-10
12	0x32503403	1.211902e-08
13	0x32ee211d	2.7721905e-08
14	0x32a91325	1.9682895e-08
15	0x331d1715	3.6575404e-08
16	0x322f4ba8	1.0203543e-08
17	0x312db12d	2.5275526e-09
18	0x3290aa66	1.6841295e-08
19	0x30af6c70	1.2763746e-09
20	0x3120f8f9	2.342459e-09
21	0x317f0907	3.7112515e-09
22	0x31657899	3.3392438e-09
23	0x3229cb71	9.883352e-09
24	0x3268ee7a	1.3558401e-08
25	0x331974c9	3.5729304e-08
26	0x3267661c	1.3469187e-08
27	0x318b57a1	4.0553947e-09
28	0x3052e350	7.6720585e-10
29	0x31e25cd4	6.588019e-09
30	0x324923bd	1.1707866e-08
31	0x325b037b	1.2748269e-08
32	0x320d653b	8.230297e-09
33	0x32849149	1.543289e-08
34	0x2f46c6e2	1.8078652e-10
35	0x31d2e118	6.1373946e-09
36	0x2fb7e4ff	3.3450218e-10
37	0x31424962	2.8272429e-09
38	0x303a1609	6.769772e-10
39	0x2f92c603	2.669794e-10
40	0x31a6180a	4.833969e-09
41	0x31aca993	5.025137e-09
42	0x30024fdc	4.740721e-10
43	0x314f608a	3.017734e-09
44	0x31a7f03d	4.8876516e-09
45	0x308752df	9.846096e-10
46	0x3211e450	8.492023e-09
47	0x310b2828	2.0249988e-09
48	0x31d272cf	6.1248566e-09
49	0x32248dce	9.578299e-09
50	0x3299641e	1.7857072e-08
51	0x31f65953	7.1696973e-09
52	0x31c441d7	5.711836e-09
53	0x32762f05	1.4329776e-08
54	0x3264c585	1.3316257e-08
55	0x306e03ea	8.658946e-10
56	0x32b15721	2.0645134e-08
57	0x30c94b2d	1.4646041e-09
58	0x31871c1e	3.9322137e-09
59	0x2f3fd8cd	1.7448372e-10
60	0x32c0061e	2.2354524e-08
61	0x3292832a	1.7056283e-08
62	0x3215e8b6	8.725854e-09
63	0x324daf79	1.1972468e-08
64	0x30e0292a	1.6309845e-09
65	0x3263d6e1	1.3261997e-08
66	0x31b02b57	5.1272013e-09
67	0x32a49cc6	1.9163405e-08
68	0x2d320956	1.01202016e-11
69	0x31065b53	1.9551478e-09
70	0x32979b8e	1.7649452e-08
71	0x2ec1aa32	8.8068566e-11
72	0x321c34ac	9.092371e-09
73	0x32961fd5	1.7476774e-08
74	0x32016c68	7.533437e-09
75	0x307b002a	9.13135e-10
76	0x30d72b94	1.5655695e-09
77	0x3210711c	8.407621e-09
78	0x32aeb9b5	2.0340716e-08
79	0x3114abde	2.163453e-09
80	0x313e5a04	2.7699807e-09
81	0x30771aea	8.9896324e-10
82	0x31c5a2e0	5.7519713e-09
83	0x32c47646	2.2871188e-08
84	0x32ca332e	2.3539169e-08
85	0x30d90fad	1.5793283e-09
86	0x2f2573f5	1.5047859e-10
87	0x3286c477	1.5688995e-08
88	0x303bde2e	6.834594e-10
89	0x331e3448	3.683479e-08
90	0x341b615c	1.4470919e-07
91	0x318fbef2	4.1835557e-09
92	0x3118224f	2.2138413e-09
93	0x32b1ac74	2.0683935e-08
94	0x3206c08e	7.843608e-09
95	0x31c43e76	5.7114518e-09
96	0x32cad898	2.361439e-08
97	0x30dd1571	1.608596e-09
98	0x30578acb	7.841378e-10
99	0x30a3c426	1.191556e-09
100	0x310221dc	1.8936737e-09
101	0x326efa3f	1.3910323e-08
102	0x3039b884	6.756482e-10
103	0x315134b3	3.0443459e-09
104	0x326d090b	1.3797272e-08
105	0x32e42937	2.6561436e-08
106	0x31157a29	2.1751794e-09
107	0x326e8eee	1.3885922e-08
108	0x3369a894	5.440286e-08
109	0x32cdf3fa	2.3976089e-08
110	0x328f1140	1.6655235e-08
111	0x322c709f	1.0037325e-08
112	0x32042025	7.69072e-09
113	0x3250ab51	1.2146146e-08
114	0x316e224b	3.4653052e-09
115	0x33074251	3.149245e-08
116	0x319cff40	4.569216e-09
117	0x31d02638	6.0579417e-09
118	0x30c0bba9	1.4023175e-09
119	0x317e8263	3.703598e-09
120	0x310c1d59	2.0389364e-09
121	0x33d8b2cb	1.0090806e-07
122	0x32a5d597	1.9305658e-08
123	0x32f49189	2.847152e-08
124	0x319df901	4.59761e-09
125	0x339a4d73	7.185272e-08
126	0x3242aa71	1.133104e-08
127	0x3110f338	2.1093012e-09
