Assets/results/firstYamlConfigTest/MyAgent/MyAgent-4256422.onnx (onnx, 95084 bytes, 11 tensors)

network_body.observation_encoder.processors.0.normalizer.running_mean f4 [35]
0	0x3cd829e0	0.026387155
1	0x3f760b94	0.96111417
2	0x00000000	0.0
3	0x3c4c74d3	0.012479025
4	0x3edbb9fc	0.42915332
5	0x3ea1516e	0.31507438
6	0x3f2f2fe3	0.68432444
7	0x00000000	0.0
8	0x3a208f4f	0.000612487
9	0x3ed22729	0.41045502
10	0x3e85b82b	0.26117072
11	0x3f39b15f	0.7253627
12	0x00000000	0.0
13	0x3c5cd6b4	0.013478924
14	0x3ee05926	0.43818015
15	0x3f4f9e8a	0.81101286
16	0x3e418572	0.18898562
17	0x00000000	0.0
18	0x00000000	0.0
19	0x3e919e98	0.2844131
20	0x3f5aa70e	0.85411155
21	0x3e0762ca	0.13221279
22	0x00000000	0.0
23	0x3c5fcc6b	0.013659577
24	0x3ea202b2	0.3164268
25	0x3f69f70a	0.91392577
26	0x3db03a6f	0.08604895
27	0x00000000	0.0
28	0x00000000	0.0
29	0x3e655c21	0.22398426
30	0x3f6d30ea	0.9265276
31	0x3d74f5a1	0.059804562
32	0x00000000	0.0
33	0x3c5fe617	0.013665698
34	0x3e87766e	0.26457542

network_body.observation_encoder.processors.1.normalizer.running_mean f4 [6]
0	0xbf7ebd05	-0.9950717
1	0xb77c4361	-1.5036058e-05
2	0xb77c4361	-1.5036058e-05
3	0xb77c4361	-1.5036058e-05
4	0xb77c4361	-1.5036058e-05
5	0xb77c4361	-1.5036058e-05

network_body._body_endoder.seq_layers.0.weight f4 [128, 41]
0	0xbda82e9f	-0.08212017
1	0xbcb3d342	-0.021951322
2	0xbe6faa31	-0.23404767
3	0x3cf8886a	0.030338485
4	0x3da9c538	0.082895696
5	0x3e2cb95c	0.16867584
6	0x3d104b4f	0.03522807
7	0x3dccdd56	0.10003154
8	0xbcca721f	-0.02471262
9	0x39daf6a9	0.00041763976
10	0xbb5f108b	-0.003403696
11	0x3d4169a8	0.047219902
12	0x3e075158	0.13214624
13	0xbd9b97b0	-0.075972915
14	0x3d508a9f	0.05091345
15	0xbd3036f2	-0.04302115
16	0xbd171529	-0.036885414
17	0x3d6f3874	0.058403447
18	0x3dda20f7	0.10650819
19	0x3c006d35	0.007838537
20	0x3d64860b	0.055791896
21	0xbd5f2a1a	-0.05448351
22	0xbe2197b9	-0.15780534
23	0x3e382778	0.17983806
24	0xbd9309ee	-0.07179628
25	0x3c449fec	0.012001019
26	0xbca04782	-0.019565348
27	0xbbe98af0	-0.0071271583
28	0x3e2a96c0	0.16659069
29	0x3c22647a	0.009911651
30	0x3e092aa3	0.13395171
31	0xbded22a2	-0.11578871
32	0x3e2162f8	0.1576041
33	0xbe086710	-0.13320565
34	0xbe0298dc	-0.12753624
35	0x3ca9c766	0.020724963
36	0x3e9398c9	0.28827503
37	0xbdc3d460	-0.09561992
38	0xbbf77498	-0.007551741
39	0x3e528e7d	0.20562167
40	0x3de4216e	0.11139189
41	0xbdb4bba9	-0.08824856
42	0xbdf97eaa	-0.121823624
43	0xbd0f1039	-0.03492758
44	0xbdc7a829	-0.09748871
45	0x3e3b17bb	0.18270771
46	0x3dd47b4b	0.10375079
47	0xbd9d2160	-0.076723814
48	0x3cce14ff	0.025156496
49	0xbca15541	-0.019693973
50	0xbd5a4083	-0.05328418
51	0xbc5b2913	-0.013376492
52	0xbea6fd82	-0.32615286
53	0xbc111e31	-0.008857296
54	0xbd863c50	-0.065544724
55	0x3d9506e0	0.07276702
56	0xbce74480	-0.028230906
57	0x3cb2f191	0.021843703
58	0x3c1cd02c	0.009571116
59	0x3ce749dd	0.028233463
60	0xbdf879b7	-0.1213259
61	0xbe0ad46b	-0.13557594
62	0x3dca2879	0.09871001
63	0x3e17e959	0.14835109
64	0xbe5a2cbd	-0.21306129
65	0xbc79e062	-0.015251251
66	0x3e8a31f6	0.26991242
67	0xbec70351	-0.38869718
68	0xbdb4338e	-0.08798896
69	0x3e2dfcac	0.16990918
70	0x3d4fa5c9	0.050695214
71	0x3edb069c	0.4277848
72	0x3d51e727	0.051245835
73	0x3d53800c	0.051635787
74	0x3e09fa8d	0.13474484
75	0x3e038028	0.12841856
76	0xbe8a8abf	-0.2705898
77	0xbe72eb39	-0.23722543
78	0x3db9eb9a	0.090781406
79	0xbe2090a9	-0.15680183
80	0xbe8da83c	-0.27667415
81	0x3c3a1979	0.011358612
82	0x3d8cec54	0.068810135
83	0x3e9d909f	0.307744
84	0xbdeb2b08	-0.11482817
85	0x3dc82a87	0.097737364
86	0x3e021af1	0.1270559
87	0xbc441687	-0.011968262
88	0x3db4544f	0.08805143
89	0x3cdcbabe	0.026944514
90	0xbdaa23ee	-0.08307634
91	0x3d6da1ae	0.058015518
92	0xbe6ed6e6	-0.23324165
93	0xbdc30c22	-0.095237985
94	0xbd909e11	-0.07061399
95	0xbe837aec	-0.2567972
96	0xbe2732ed	-0.1632802
97	0x3e1b7247	0.15180312
98	0xbc1c395b	-0.009535159
99	0xbdf74448	-0.120735705
100	0xbc2c95b2	-0.010533737
101	0x3dba9610	0.091106534
102	0x3d94cff3	0.07266226
103	0x3eba3dbb	0.36375222
104	0xbe97f203	-0.29676828
105	0xbb51c258	-0.0032006707
106	0xbca254e5	-0.019815871
107	0x3df1a241	0.117985256
108	0xbe2ffe7f	-0.17186926
109	0xbe24befb	-0.16088478
110	0xbe11034e	-0.14161417
111	0x3e4af6aa	0.19820657
112	0x3eb8b6f5	0.36077085
113	0x3d41b130	0.04728812
114	0xbc84c30b	-0.016206285
115	0xbe079d18	-0.1324352
116	0xbd45a41c	-0.04825221
117	0x3e8bdbaa	0.27316028
118	0x3e4fbfc6	0.20288
119	0xbd532d91	-0.051557127
120	0xbe12985e	-0.14315936
121	0x3eae429a	0.34035188
122	0x3e30b1ee	0.17255375
123	0xbdeee41b	-0.116646014
124	0xbe3aee5d	-0.18254991
125	0xbdf892ac	-0.121373504
126	0xbbe94666	-0.007118988
127	0xbe43f909	-0.19137968
128	0x3eae8777	0.34087726
129	0x3d9bb6a7	0.076031975
130	0xbe2141a8	-0.15747702
131	0xbe296a25	-0.16544397
132	0x3ed447b4	0.41460955
133	0x3cef6fc9	0.029228108
134	0x3dc34e82	0.095364586
135	0xbdcce815	-0.10005204
136	0xbe49f232	-0.19721296
137	0x3dcbae61	0.099453695
138	0x3e813e8c	0.25243032
139	0x3d0cca41	0.03437257
140	0xbe1eb90f	-0.15500282
141	0xbdb32d57	-0.08748882
142	0xbd522f68	-0.05131474
143	0x3deac6e1	0.114637144
144	0xbd169861	-0.036766414
145	0xbe0cd026	-0.13751277
146	0x3d3f3ea4	0.046690598
147	0xbd2296fc	-0.03969477
148	0xbeb57e76	-0.35448045
149	0xbc3d48aa	-0.011552969
150	0x3d12471e	0.035712354
151	0xbeb4d058	-0.35315204
152	0x3c627231	0.013821171
153	0x3e2aa6c8	0.16665184
154	0xbdcc1f65	-0.099669255
155	0xbd01a92f	-0.031655487
156	0xbec5badb	-0.38619122
157	0xbe9d9548	-0.30777955
158	0xbcc7b1a3	-0.024376696
159	0x3dba54d6	0.090982124
160	0xbe4c23a2	-0.19935468
161	0x3e383170	0.17987609
162	0x3e108efd	0.14117046
163	0x3c6a8cad	0.014315766
164	0x3a824c41	0.0009940938
165	0x3e7960bd	0.24353309
166	0xbc84554b	-0.016153952
167	0xbddf2b76	-0.108969614
168	0x3b834248	0.004005704
169	0x3e2098c7	0.1568328
170	0xbe3b6b97	-0.18302761
171	0x3e3f6ebf	0.1869459
172	0x3d8b1d81	0.06792737
173	0x3e2c3372	0.168165
174	0x3dceaa9f	0.10091137
175	0x3e77707a	0.24164
176	0x3d88b67e	0.066754326
177	0xbe10cf72	-0.14141634
178	0xbdd001f8	-0.101566255
179	0xbdcf4814	-0.1012117
180	0xbe6ae647	-0.22939406
181	0x3e339e88	0.17540944
182	0xbc3acd6d	-0.011401516
183	0xbd8ef6da	-0.06980677
184	0x3c479b03	0.012182954
185	0xbe3e3325	-0.18574198
186	0x3e4b12e2	0.19831422
187	0xbd5280b0	-0.051392257
188	0xbd044eeb	-0.032301825
189	0x3e6304ac	0.22169751
190	0x3d3ea77c	0.046546444
191	0x3e28d580	0.16487694
192	0x3eac03c0	0.3359661
193	0x3cf8f8f1	0.030392142
194	0xbcd28a10	-0.025700599
195	0xbe5b9e1b	-0.21447031
196	0xbddbc0e2	-0.10730149
197	0x3df3641d	0.118843295
198	0xbe0bcccc	-0.13652343
199	0x3e01a5ef	0.12660955
200	0x3e63cf05	0.2224694
201	0xbda02062	-0.078186765
202	0xbe3cd373	-0.18440036
203	0x3e7d8926	0.24759349
204	0x3e1915be	0.149497
205	0x3d35b7b1	0.044364635
206	0xbd87f825	-0.06639127
207	0xbf08c8c6	-0.53431356
208	0x3daa5e35	0.0831875
209	0x3d331ad4	0.043726757
210	0x3eadbe6c	0.33934343
211	0x3c824607	0.015902532
212	0x3e7e95e9	0.24861874
213	0xbdf52a05	-0.11970905
214	0xbe91b862	-0.28460985
215	0x3e2591ca	0.16168895
216	0x3de52d99	0.11190338
217	0xbe0e4bf2	-0.13896158
218	0xbd868c67	-0.06569748
219	0x3d47982a	0.0487291
220	0xbd6784e6	-0.056523226
221	0xbd968e5f	-0.07351374
222	0xbd897d5d	-0.06713364
223	0xbdfb697d	-0.1227598
224	0xbe23f211	-0.1601031
225	0xbd97ec1d	-0.07418082
226	0xbd1d9a34	-0.038477138
227	0x3e1709ce	0.14749834
228	0xbe7572af	-0.2396953
229	0xbea15c1e	-0.31515592
230	0x3d89e452	0.06733002
231	0x3e839776	0.25701493
232	0xbe39ee4c	-0.1815731
233	0xbe1658ec	-0.14682359
234	0xbe54b5b4	-0.20772439
235	0xbd704f52	-0.058669396
236	0xbde09339	-0.109655805
237	0x3dc2212d	0.09478984
238	0xbdf34bcf	-0.11879694
239	0xbeb7e297	-0.35915062
240	0x3cb028a5	0.021503756
241	0xbbe91775	-0.007113392
242	0x3e70fa10	0.23532891
243	0xbd539ffa	-0.051666237
244	0x3e0475ce	0.12935564
245	0xbdc16133	-0.094423674
246	0xbe38edb1	-0.18059422
247	0x3e43df05	0.19128044
248	0x3da87b43	0.08226635
249	0x3dc5ef4d	0.096647836
250	0x3da574e4	0.08078936
251	0xbe7be32d	-0.2459838
252	0xbad3c867	-0.0016157747
253	0xbd5c82f4	-0.053835824
254	0xbd45812b	-0.048218887
255	0xbe1afb1e	-0.15134856

network_body._body_endoder.seq_layers.0.bias f4 [128]
0	0xbe1c1747	-0.15243255
1	0xbe3d25e0	-0.1847148
2	0xbdb9c7f2	-0.0907134
3	0xbe6426fd	-0.22280498
4	0xbdfb59d4	-0.12272993
5	0xbc1a0352	-0.009400206
6	0xbd41f9c0	-0.04735732
7	0xbdec4ea0	-0.11538434
8	0xbe12f3ec	-0.14350861
9	0xbdd6d4ef	-0.104898326
10	0xbe1b22be	-0.15149972
11	0xbe50d7a8	-0.20394766
12	0xbe15386e	-0.14572307
13	0xbdfdc7e9	-0.123916455
14	0xbdb0266a	-0.08601077
15	0xbe121dff	-0.14269255
16	0xbe3323d1	-0.17494132
17	0xbddc470d	-0.10755739
18	0xbe41a018	-0.18908727
19	0xbe3f810c	-0.18701571
20	0xbd8dd369	-0.06925089
21	0xbe0979d6	-0.13425383
22	0xbe04ef7c	-0.12981981
23	0xbe7ec3ff	-0.24879454
24	0xbdbf0eba	-0.09328981
25	0xbdfde2e4	-0.123967916
26	0xbe332018	-0.17492712
27	0xbe42325a	-0.1896452
28	0xbcd8dbd1	-0.026472004
29	0xbdb5d90f	-0.08879291
30	0xbe29b080	-0.16571236
31	0xbe381aab	-0.17978923
32	0xbdb8b606	-0.09019093
33	0xbd25d000	-0.040481567
34	0xbe3471a4	-0.17621475
35	0xbe9bd650	-0.30436945
36	0xbddb7409	-0.10715491
37	0xbdfd0ed3	-0.12356343
38	0xbd9d0074	-0.07666102
39	0xbe4a1082	-0.1973286
40	0xbe278929	-0.16360916
41	0xbda64e60	-0.081204176
42	0xbdbda54b	-0.09260043
43	0xbe38839e	-0.18018958
44	0xbde2cc27	-0.11074095
45	0xbe03d398	-0.12873685
46	0xbdf3609d	-0.11883662
47	0xbe2469bc	-0.1605596
48	0xbe378f0c	-0.17925662
49	0xbdb86acc	-0.09004745
50	0xbe70621f	-0.2347493
51	0xbcedb968	-0.029019073
52	0xbe1a090a	-0.1504251
53	0xbe0e6276	-0.13904747
54	0xbe4d834d	-0.20069619
55	0xbe7185a1	-0.23586132
56	0xbe4bb025	-0.19891413
57	0xbe350933	-0.1767929
58	0xbd789a57	-0.060694065
59	0xbdf5d643	-0.12003758
60	0xbd223fbe	-0.03961157
61	0xbe4c0612	-0.1992419
62	0xbdbd197d	-0.09233377
63	0xbe2b2b34	-0.167157
64	0xbe404851	-0.18777587
65	0xbe129360	-0.14314032
66	0xbe40ec28	-0.18840086
67	0xbc8ceb94	-0.017202176
68	0xbe4cee1d	-0.20012708
69	0xbe320285	-0.17383774
70	0xbd883775	-0.066512026
71	0xbe1716ff	-0.14754866
72	0xbe167470	-0.14692855
73	0xbe15d0df	-0.14630459
74	0xbdc926ac	-0.09821829
75	0xbe70fc25	-0.23533686
76	0xbe2bf343	-0.16792016
77	0xbd9ea418	-0.07746142
78	0xbda525c3	-0.08063843
79	0xbdd8929b	-0.10574838
80	0xbdeebda0	-0.11657262
81	0xbe71835f	-0.2358527
82	0xbe93e7a3	-0.28887662
83	0xbcbdffe4	-0.023193307
84	0xbe343802	-0.1759949
85	0xbea041cd	-0.31300202
86	0xbe084243	-0.13306527
87	0xbd86265d	-0.06550286
88	0xbdd368e2	-0.10322739
89	0xbd2815a8	-0.041036278
90	0xbe4f5238	-0.20246208
91	0xbe25d009	-0.1619264
92	0xbd75059d	-0.059819806
93	0xbe338c83	-0.1753407
94	0xbe96897e	-0.29401773
95	0x3c39b436	0.01133447
96	0xbe39f024	-0.18158013
97	0xbe6def19	-0.2323574
98	0xbe47c1d7	-0.19507538
99	0xbdedaae2	-0.11604859
100	0xbe1b27c0	-0.15151882
101	0xbdfa4be5	-0.12221507
102	0xbe2d71fd	-0.16938014
103	0x3cd679ec	0.026181184
104	0xbdadc504	-0.084848434
105	0xbe49d326	-0.19709453
106	0xbe28e5ff	-0.16493987
107	0xbdb3ae60	-0.08773494
108	0xbe746376	-0.23866066
109	0xbe169e1e	-0.14708754
110	0xbdee0fee	-0.11624132
111	0xbd7928c7	-0.060829904
112	0xbdb19216	-0.08670442
113	0xbdacd594	-0.08439174
114	0xbdfb327a	-0.12265487
115	0xbd8dc560	-0.06922412
116	0xbdc98dcd	-0.098414995
117	0xbe10edc8	-0.14153206
118	0xbda3a67f	-0.07990741
119	0x3c6228c5	0.0138036655
120	0xbe39aa73	-0.18131427
121	0xbd6c7360	-0.057727218
122	0xbda17d83	-0.078852676
123	0xbe37eda8	-0.17961752
124	0xbda179b5	-0.07884542
125	0xbd6541f2	-0.055971093
126	0xbe9320e7	-0.2873604
127	0xbe12d9cf	-0.143409

network_body._body_endoder.seq_layers.2.weight f4 [128, 128]
0	0x3c426d65	0.011866902
1	0x3e31dd1b	0.17369501
2	0x3deb3637	0.1148495
3	0xbe31a4d2	-0.1734803
4	0x3d860037	0.0654301
5	0xbe8c4546	-0.273966
6	0xbddfbb6d	-0.109244205
7	0x3bbcd9f5	0.005763287
8	0xbcf9a7cd	-0.030475521
9	0xbd684b0c	-0.056712195
10	0xbcbb31dd	-0.022850925
11	0xbc986ae7	-0.018605663
12	0xbe04a307	-0.12952815
13	0xbd5319b2	-0.051538177
14	0xbda17018	-0.07882708
15	0xbda6c137	-0.081423216
16	0x3bbd0721	0.005768672
17	0x3cf5c165	0.029999444
18	0x3dd87106	0.105684325
19	0x3e0d4826	0.13797054
20	0x3d8f19e0	0.06987357
21	0x3d0e8837	0.034797873
22	0x3e86b47b	0.2630957
23	0x3e2413c1	0.1602316
24	0xbe1fa794	-0.1559127
25	0xbdc9e566	-0.098582074
26	0x3e611da2	0.2198396
27	0x3e7cf4ff	0.24702834
28	0xbe31b335	-0.17353518
29	0x3ce8bb59	0.028409647
30	0x3dcc5e89	0.09978969
31	0x3e34b1a2	0.17645887
32	0x3d2b85f1	0.041875783
33	0x3d4ed3d3	0.05049498
34	0xbd7642be	-0.060122244
35	0x3bc80801	0.0061044698
36	0x3d5cd19c	0.053910837
37	0x3c155056	0.009113392
38	0x3e09e796	0.1346725
39	0xbbc253da	-0.005930406
40	0xbe43a23c	-0.19104856
41	0xbdd8950a	-0.10575302
42	0xbe8b1112	-0.2716146
43	0x3dce90eb	0.10086235
44	0xbbcf4c2d	-0.0063262195
45	0xbd63a99c	-0.055581674
46	0xbdf041b4	-0.11731282
47	0xbd86a70b	-0.0657483
48	0xbded56d4	-0.11588827
49	0x3dab7cd8	0.083734214
50	0xbda599fb	-0.0808601
51	0x3d46ab04	0.048502937
52	0x3dd84fc5	0.1056209
53	0x3cd3240c	0.025774024
54	0xbd27aa07	-0.040933635
55	0xbcc11e18	-0.02357392
56	0x3dac4875	0.084122576
57	0x3e8a64a7	0.27029917
58	0x3dd66b78	0.10469717
59	0xbd482112	-0.048859663
60	0xbec9669c	-0.39336097
61	0x3e325b37	0.17417608
62	0x3cc23ff0	0.023712128
63	0x3c0628cc	0.008188438
64	0xbe4e09a8	-0.20120871
65	0x3e3a7f20	0.18212557
66	0xbd6db802	-0.05803681
67	0xbe5a472e	-0.21316215
68	0x3e33056f	0.17482542
69	0x3d7394a9	0.059467945
70	0xbc99f665	-0.018794248
71	0x3d02db11	0.0319472
72	0xbd199d48	-0.03750351
73	0x3e28e1c4	0.16492373
74	0xbd4d7962	-0.050164588
75	0x3dd5abdb	0.104331695
76	0xbcb555aa	-0.022135574
77	0xbe0fe834	-0.14053422
78	0x3e522fe1	0.20526077
79	0x3e40363a	0.18770686
80	0xbcd305c1	-0.02575958
81	0xbe048a3d	-0.12943359
82	0x3ceba2e5	0.028764198
83	0xbee04d13	-0.43808803
84	0xbc7672b0	-0.015041992
85	0x3d9e9017	0.07742327
86	0xbcb91b58	-0.022596046
87	0xbe132124	-0.14368111
88	0xbeb0db61	-0.34542373
89	0xbe5b10ef	-0.21393178
90	0x3e4eca0b	0.20194261
91	0xbd34e508	-0.044163734
92	0xbbed7daf	-0.0072476487
93	0x3d9069eb	0.07051452
94	0x3dd20188	0.10254198
95	0xbe7bd9f2	-0.24594858
96	0xbd527d5f	-0.051389094
97	0xbcdf82bd	-0.02728402
98	0xbde90b8a	-0.11379154
99	0xbbfb51a3	-0.007669644
100	0x3d703e9a	0.05865345
101	0x3d8b0d6b	0.06789669
102	0x3e45890e	0.19290563
103	0xbd25d3ec	-0.040485308
104	0x3c90b81e	0.017665919
105	0xbdc1f1b9	-0.09469933
106	0xbe62cc44	-0.22148234
107	0x3c158d0c	0.0091278665
108	0xbd283965	-0.04107036
109	0x3e20cf10	0.15703988
110	0x3e487ff0	0.19580054
111	0xbeb49651	-0.35270932
112	0xbda90921	-0.08253694
113	0xbd897c9d	-0.06713221
114	0x3ea62534	0.3245026
115	0xbd2b78ee	-0.041863374
116	0xbdbecde6	-0.09316616
117	0x3d089721	0.033347253
118	0xbe21a2eb	-0.15784805
119	0xbe2aef5b	-0.1669287
120	0xbc8c8f3f	-0.017158149
121	0xbea2308b	-0.3167766
122	0x3dca5992	0.098803654
123	0x3e54f9bd	0.20798393
124	0x3d19fa83	0.037592422
125	0x3e2b1ab5	0.16709407
126	0xbddf19c0	-0.10893583
127	0xbe3322be	-0.17493722
128	0x3e155299	0.1458229
129	0xbd2b935b	-0.041888576
130	0xbe9ec699	-0.31010893
131	0x3d606c8b	0.054791015
132	0x3ddf385c	0.108994216
133	0xbd36cfdf	-0.044631835
134	0x3db0d475	0.08634273
135	0xb9de8b21	-0.000424468
136	0x3e064be2	0.13114884
137	0xbc95b284	-0.0182736
138	0x3e0ffa56	0.1406034
139	0xbd90fe81	-0.07079793
140	0x3c871752	0.016490612
141	0xbd3429b3	-0.04398508
142	0xbd168629	-0.03674904
143	0x3d368836	0.044563495
144	0xbdf06ebd	-0.11739872
145	0x3cce7b31	0.025205227
146	0x3d977c8a	0.07396801
147	0xbe2f2d10	-0.17107034
148	0x3da2bf2d	0.0794662
149	0xbe9ee6d0	-0.3103547
150	0xbd92b6a6	-0.07163744
151	0x3db64138	0.08899158
152	0xbe8fd7ee	-0.2809443
153	0xbe5d7efa	-0.21630469
154	0x3d67df99	0.056609724
155	0x3e425787	0.18978702
156	0xbe520026	-0.20507869
157	0xbd115bb8	-0.03548786
158	0xbcfa7d76	-0.030577403
159	0xbe384110	-0.1799357
160	0xbd81e265	-0.063420095
161	0x3de8c568	0.11365777
162	0xbd9df812	-0.07713331
163	0xbe836a6b	-0.25667128
164	0x3d82007b	0.06347748
165	0x3d49c79e	0.049262635
166	0x3d439462	0.04774893
167	0x3dbfb02b	0.09359773
168	0xbeb0a5c2	-0.34501463
169	0x3c5db455	0.013531764
170	0xbdef9202	-0.11697771
171	0xbd78ac85	-0.060711402
172	0xbdf0f4f8	-0.11765474
173	0xbcae60a3	-0.021286314
174	0xbdaea6ff	-0.08527946
175	0xbc6ceb8a	-0.014460454
176	0x3d1d8393	0.038455557
177	0xbd1f6d11	-0.038922373
178	0x3d7c7a19	0.06163988
179	0xbe9892fd	-0.29799643
180	0x3e0402d0	0.12891698
181	0xb89991f8	-7.322797e-05
182	0xbd0cf8b5	-0.034416873
183	0xbd8ed491	-0.069741376
184	0x3e40c08f	0.18823455
185	0xbdbe9a29	-0.093067475
186	0xbea2d1bd	-0.31800643
187	0xbecaaabe	-0.3958339
188	0x3d73ed3c	0.059552416
189	0xbcd5bbe0	-0.026090562
190	0xbea0df53	-0.31420383
191	0x3dd96d98	0.106166065
192	0xbe073423	-0.13203482
193	0xbdfb8bff	-0.122825615
194	0xbe6e7488	-0.2328664
195	0x3db5f88b	0.088852964
196	0x3e52c105	0.20581444
197	0xbce9fd94	-0.028563298
198	0x3cb5510e	0.022133376
199	0x3ca1588e	0.019695546
200	0x3e484139	0.1955613
201	0xbd391d92	-0.045194216
202	0xbe175955	-0.14780171
203	0x3d91fcb0	0.071282744
204	0x3dbd5d8e	0.0924636
205	0xbdf3330d	-0.118749715
206	0x3d8313e8	0.06400281
207	0x3dab3ad0	0.08360827
208	0x3dca558b	0.09879597
209	0xbe7a86f1	-0.24465539
210	0x3d18f81b	0.037345987
211	0xbe0e0080	-0.13867378
212	0xbc13101e	-0.008976011
213	0xbe0fd5f4	-0.1404646
214	0xbd5ec5ca	-0.054387845
215	0xbd91874b	-0.07105883
216	0xbc0600fe	-0.0081789475
217	0x3d94006b	0.07226642
218	0x3e0e6af6	0.1390799
219	0x3c50b2a5	0.012737905
220	0x3e3a2c77	0.18181024
221	0x3c221651	0.009893016
222	0xbd7dadfd	-0.061933506
223	0xbe56290e	-0.20914099
224	0xbe96d6b6	-0.29460686
225	0x3e047538	0.1293534
226	0x3d3cc768	0.046088606
227	0xbe6b8962	-0.23001626
228	0xbeb0e5d0	-0.34550333
229	0x3b14ce6b	0.0022706043
230	0x3d3c192d	0.045922447
231	0xbe1a333c	-0.15058607
232	0x3e620ade	0.22074458
233	0x3cafa914	0.021442927
234	0xbe8db88f	-0.2767987
235	0xbe808107	-0.2509844
236	0xbe4ddc83	-0.2010365
237	0xbe09cb60	-0.13456488
238	0x3d9b59af	0.07585465
239	0xbea87529	-0.32901886
240	0xbeaf1a3a	-0.34199697
241	0xbeaff73c	-0.34368312
242	0x3d7f4e92	0.06233079
243	0x3c230654	0.009950239
244	0xbe3e2e48	-0.18572342
245	0x3e1bae63	0.15203242
246	0x3e26b1da	0.16278782
247	0x3db741d4	0.089481026
248	0xbda9ca51	-0.08290542
249	0xbe065c8b	-0.1312124
250	0x3e9a6061	0.30151656
251	0x3c745bae	0.014914436
252	0x3df6c33d	0.120489575
253	0x3e06dafd	0.13169475
254	0xbd0d0dda	-0.034437038
255	0xbdf3d34c	-0.11905536

network_body._body_endoder.seq_layers.2.bias f4 [128]
0	0xbe2143e6	-0.15748557
1	0xbe2d0076	-0.16894707
2	0x3b8587de	0.0040750345
3	0xbd4fb928	-0.050713688
4	0x3c45cb5a	0.012072409
5	0xbdf9a331	-0.121893294
6	0xbc4786e6	-0.012178158
7	0xbdc7e9df	-0.09761404
8	0xbd8979af	-0.067126624
9	0xbce0522c	-0.027382933
10	0xbcf5711d	-0.029961163
11	0xbdc0c6e5	-0.09412936
12	0xbcbdb116	-0.02315573
13	0xbd0359de	-0.032068126
14	0xbe225cb9	-0.15855683
15	0xbd364b7b	-0.044505578
16	0xbd9a11dd	-0.075229384
17	0xbd86f8c6	-0.065904185
18	0xbdc8588a	-0.097825125
19	0xbc36274e	-0.011117769
20	0x3cbf0f38	0.023322687
21	0xbdc71cd3	-0.09722295
22	0xbd54e164	-0.05197276
23	0xbbe94067	-0.007118273
24	0xbe15624c	-0.14588279
25	0xbc0fa888	-0.008768208
26	0xbdcd8456	-0.10035007
27	0xbd9ebc7f	-0.077507965
28	0xbe1fa66a	-0.15590826
29	0xbd40eacb	-0.047098916
30	0xbe34efde	-0.17669627
31	0xbcbd70cf	-0.02312508
32	0x3be65a46	0.0070298044
33	0xbda9c7a1	-0.08290029
34	0xbd63815a	-0.05554328
35	0xbd31f3cb	-0.04344539
36	0xbe3fd2e2	-0.18732789
37	0xbd34991d	-0.044091333
38	0xbcfb87a6	-0.03070433
39	0xbdfab840	-0.12242174
40	0xbe821a40	-0.25410652
41	0xbda0fa1a	-0.07860203
42	0xbdb58b99	-0.08864517
43	0xbc903f6e	-0.01760837
44	0xbe472e7b	-0.19451325
45	0xbe492dad	-0.1964633
46	0x3c3d0aa0	0.011538178
47	0xbe199d3d	-0.15001388
48	0xbe1e16a2	-0.15438321
49	0xbd9e0d77	-0.07717412
50	0x3c489274	0.012241948
51	0xbd98c1ec	-0.07458863
52	0xbdc59d5d	-0.09649155
53	0xbd486355	-0.048922855
54	0xbae5ad53	-0.0017522968
55	0xbb690846	-0.003555791
56	0xbce8b63a	-0.028407205
57	0xbd721e54	-0.059110954
58	0xbd004d15	-0.03132351
59	0xbc671b40	-0.014105618
60	0xbe18be8d	-0.1491644
61	0xbd3a0cd1	-0.04542238
62	0xbe0fbc0e	-0.14036581
63	0xbbc4b757	-0.006003301
64	0xbe1458b4	-0.14486963
65	0xbd9ccae7	-0.07655888
66	0xbdb9915d	-0.09060929
67	0xbe12a7d3	-0.14321832
68	0x3cf4c4a1	0.029878916
69	0xbd5a3015	-0.05326851
70	0xbd11342f	-0.035450157
71	0xbd5de4d7	-0.054173317
72	0xbe032fc9	-0.12811197
73	0xbda6b9c8	-0.08140904
74	0xbc8c7939	-0.017147647
75	0xbd4e1f80	-0.05032301
76	0xbcfd535c	-0.030923538
77	0xbd0988dd	-0.03357779
78	0xbe2caeaf	-0.16863512
79	0xbe05944d	-0.13044854
80	0xbd9d06fd	-0.076673485
81	0xbdb147bf	-0.086562626
82	0xbdcbd69d	-0.099530436
83	0xbd9a2dc5	-0.07528261
84	0xbdc9dcdc	-0.09856579
85	0xbdb75f44	-0.08953717
86	0x3caaa460	0.020830333
87	0xbe077bb4	-0.13230783
88	0xbd8df001	-0.06930543
89	0xbcceb489	-0.02523257
90	0xbce930e7	-0.028465701
91	0xbdc34425	-0.09534482
92	0xbde8fca5	-0.11376313
93	0xbe23059d	-0.1592011
94	0xbcea3ac1	-0.02859247
95	0xbcf785e1	-0.030215206
96	0xbd8212fd	-0.06351278
97	0xbd529cd1	-0.051419083
98	0xbd832568	-0.06403619
99	0xbda37e86	-0.07983117
100	0xbd64b9d9	-0.0558413
101	0xbd88b51b	-0.06675168
102	0xbdb73e2b	-0.089474045
103	0xbc4b8d29	-0.012423792
104	0xbde1c889	-0.11024577
105	0xbc89510d	-0.01676228
106	0xbe11f6b4	-0.14254266
107	0xbdc342ba	-0.095342115
108	0xbcf1f808	-0.029537216
109	0xbcd1ae9b	-0.025595954
110	0xbcbbdca4	-0.022932358
111	0xbda1bfb3	-0.07897892
112	0xbdbda39f	-0.09259724
113	0xbb9a9b25	-0.0047182017
114	0xbd7fdb37	-0.06246492
115	0x3c973173	0.018456196
116	0xbe30b257	-0.17255531
117	0xbda1fe49	-0.07909829
118	0x3bc08430	0.005875133
119	0xbd4d6fb7	-0.050155368
120	0xbd139bdb	-0.036037307
121	0xbdc0e15e	-0.094179854
122	0xbd824e74	-0.0636262
123	0xbd495e45	-0.049162168
124	0xbdafb897	-0.085801296
125	0xbdbf4b05	-0.09340481
126	0xbe344a0d	-0.17606373
127	0xbdb06ea8	-0.08614856

action_model._continuous_distribution.log_sigma f4 [1, 2]
0	0x3d1bd2e9	0.038042936
1	0x3d2b0780	0.0417552

action_model._continuous_distribution.mu.weight f4 [2, 128]
0	0xbb85f120	-0.004087582
1	0x3d23c127	0.039979126
2	0xbc41bb59	-0.011824452
3	0xbc119153	-0.008884746
4	0xbad7398f	-0.0016420352
5	0xbc446507	-0.011986977
6	0xbb3fefd6	-0.002928724
7	0x3c74ae81	0.014934183
8	0xbc5e476e	-0.013566835
9	0x3ac216c5	0.0014807811
10	0x3c54428f	0.012955322
11	0xbc04cd01	-0.008105517
12	0x3c2c172f	0.010503574
13	0xbba8550f	-0.005137093
14	0xbc5a2776	-0.013315072
15	0xbc0bb540	-0.0085271
16	0x3bcd20a1	0.006259993
17	0xbc078caf	-0.008273288
18	0xbbf2bb2a	-0.0074075656
19	0x3b46c152	0.003032763
20	0xbb0d2a07	-0.0021539943
21	0xbc1e8ba7	-0.00967685
22	0xbb0d4fc2	-0.0021562432
23	0xbac309ee	-0.0014880279
24	0x3c26b0ae	0.01017396
25	0x3bdfbb2f	0.006827734
26	0xbc0cf27e	-0.0086027365
27	0xbc3c68e2	-0.011499615
28	0x3d080525	0.03320803
29	0xbc2388ff	-0.009981393
30	0xbd16595b	-0.03670631
31	0xbb0f6cfd	-0.002188503
32	0xbab03a22	-0.0013445059
33	0xbc6def82	-0.014522435
34	0xbbfd4418	-0.0077290647
35	0xbba3b9d6	-0.0049965186
36	0xbbdca619	-0.0067336676
37	0x3b869d69	0.00410812
38	0xbc406748	-0.011743374
39	0xbabfef8f	-0.0014643538
40	0xbc4681cf	-0.01211591
41	0xbc478001	-0.012176515
42	0x3c049379	0.008091801
43	0xbc2bcda3	-0.010486039
44	0xbbb5a66d	-0.005543521
45	0xbc9dbc0d	-0.019254709
46	0xbd095ff2	-0.033538766
47	0xbb95c57c	-0.004570661
48	0xbc0a20c9	-0.008430668
49	0x3c3bd692	0.011464732
50	0x3a97423e	0.0011540127
51	0x3be19825	0.006884592
52	0xbc5f6666	-0.0136352535
53	0xbc3ac281	-0.011398912
54	0x3c3d5eb1	0.011558221
55	0xba9b4ece	-0.0011849047
56	0xba3d99ea	-0.0007232713
57	0x3b7b2664	0.0038322443
58	0xbadfc67a	-0.00170727
59	0xbb9a68fd	-0.0047122226
60	0xbc52a51e	-0.01285675
61	0xbb89bbbf	-0.0042032893
62	0xbb78d7c4	-0.0037970403
63	0x3adbbd35	0.0016764762
64	0xbbd647cf	-0.006539322
65	0x3b8bebe2	0.004270063
66	0xbbb75d38	-0.0055958293
67	0xbc689016	-0.014194509
68	0xbb1d0632	-0.0023959992
69	0xbc30a29a	-0.010780955
70	0xba4b5297	-0.00077561423
71	0xbbe4439f	-0.006966069
72	0x3894baa7	7.091957e-05
73	0xbbff0c01	-0.0077834134
74	0x3b669673	0.003518489
75	0xbb6172c1	-0.0034400674
76	0x3c3e7bc7	0.0116261905
77	0x3c1df6c5	0.009641354
78	0xbbe9d9e6	-0.007136571
79	0x3c2c2c0d	0.010508549
80	0xbc310359	-0.010804021
81	0x3c020c38	0.0079374835
82	0x3a5c7104	0.00084091746
83	0x3be12262	0.006870554
84	0x3b32207f	0.0027180014
85	0xbc37d460	-0.011220068
86	0xb973fee2	-0.00023269237
87	0xba9e84fc	-0.0012094076
88	0xbc06a790	-0.008218661
89	0x3b630963	0.0034643046
90	0xbc191cb3	-0.009345221
91	0xbb86b532	-0.0041109556
92	0x3c468c88	0.012118466
93	0xbc072c8d	-0.008250368
94	0xbbc4d773	-0.006007129
95	0x3b8bb161	0.0042630886
96	0xbb1349b8	-0.002247436
97	0xbcafeceb	-0.021475276
98	0xbc364df0	-0.01112698
99	0x3c0a88f0	0.0084555
100	0xbb3974c7	-0.0028298364
101	0xbc3aac1a	-0.011393571
102	0xbbe87b1e	-0.007094755
103	0xbbfe1472	-0.007753902
104	0xbc1a19db	-0.0094055785
105	0x3b6e4d70	0.0036362074
106	0xbc1db768	-0.009626247
107	0xbbf257bd	-0.007395713
108	0xbc47ace3	-0.0121872155
109	0xbb869540	-0.0041071475
110	0x3a0c9146	0.00053622236
111	0xbc4056ad	-0.011739415
112	0xbc0ff5f7	-0.00878667
113	0xbbb6a425	-0.005573767
114	0xbbdc0f53	-0.006715694
115	0xbc14bbce	-0.009077979
116	0xbbfc18ba	-0.0076933773
117	0xbc1a7475	-0.00942718
118	0xbc4298db	-0.011877264
119	0xbbb18f80	-0.005418718
120	0xbb129409	-0.0022366068
121	0xbc598f66	-0.013278818
122	0xbb6aad68	-0.0035808925
123	0x3a25de26	0.0006327353
124	0xbc50c97b	-0.012743349
125	0xbbb8a97c	-0.0056354385
126	0xbbb0f065	-0.005399751
127	0x3d51ec32	0.051250644
128	0xbc11fee9	-0.008910873
129	0xbc5f2c5b	-0.013621415
130	0xbb0c7594	-0.0021432387
131	0xbb78ab42	-0.0037943874
132	0xbbdc12fa	-0.0067161294
133	0xbb8a959e	-0.0042292615
134	0xbc5bf1e2	-0.013424369
135	0xbd264369	-0.04059163
136	0xbbe3a8ff	-0.006947636
137	0x3c3aa97b	0.011392946
138	0xb9b4661e	-0.0003440836
139	0xbbeb5a0c	-0.0071823653
140	0xbb34f501	-0.0027611854
141	0xbc0e7a29	-0.008696117
142	0xbc69be9e	-0.014266638
143	0xb98193fb	-0.0002471505
144	0xbc2e5b14	-0.010641832
145	0xbc112495	-0.0088588195
146	0x3b0f1ee6	0.0021838485
147	0x3c264e7b	0.010150547
148	0x3aa4d8cb	0.0012576816
149	0xbb1d829e	-0.0024034153
150	0x3c15caff	0.009142636
151	0x3bd36e07	0.0064523253
152	0xbd044aa6	-0.032297753
153	0x3c35a706	0.011087185
154	0xbb069c1d	-0.0020539828
155	0xbc1534fd	-0.009106872
156	0xbd1ab67b	-0.037771683
157	0xbb8dcc59	-0.0043273387
158	0xbd33d75c	-0.043906555
159	0x3b16bcbd	0.002300068
160	0x3b30ed61	0.0026996958
161	0xbc402cd7	-0.011729441
162	0xbac0f54a	-0.0014721539
163	0xbb35b0d2	-0.0027723801
164	0xbc76031e	-0.015015392
165	0x3c20a3ea	0.009804705
166	0xbc11aeaf	-0.0088917455
167	0xbae823d3	-0.0017710872
168	0x3b853364	0.004064964
169	0xbbfb0e54	-0.00766162
170	0xbbc52dee	-0.006017438
171	0xbb3670ce	-0.0027838233
172	0xbc21e4b2	-0.009881185
173	0x3cc9774f	0.024593024
174	0x3de2e160	0.11078143
175	0xbb4bc4ba	-0.00310926
176	0xbc2cd0da	-0.010547841
177	0x3af9d654	0.0019061067
178	0x3bdec1e0	0.006798014
179	0x3c044650	0.008073404
180	0x3a337cf7	0.00068469293
181	0xbbc5a43a	-0.00603154
182	0x3b8c31f4	0.004278416
183	0xbbf21d3f	-0.0073887403
184	0x3afd18f4	0.0019309805
185	0xbba865e9	-0.0051391018
186	0x3b74fd7c	0.0037382534
187	0x3c8ba87f	0.017048119
188	0xbc337422	-0.010952981
189	0x3b8241b6	0.0039751185
190	0xbc3f1b4f	-0.011664226
191	0xbc7c54dd	-0.015401092
192	0xbbb2fe3c	-0.005462436
193	0x3b783923	0.0037875853
194	0xbc4087da	-0.01175114
195	0xbc0374b3	-0.008023429
196	0xbb7aac01	-0.0038249495
197	0x3ba4f27e	0.00503379
198	0x3b8807da	0.0041513266
199	0xbc15015f	-0.009094565
200	0xbbbee067	-0.0058250907
201	0x3a7266d4	0.000924689
202	0xbb6d3b5f	-0.0036198718
203	0x3ba2138b	0.0049461774
204	0x39ac1f9d	0.0003282995
205	0x3c31a3fa	0.010842318
206	0xbbdac08e	-0.0066757863
207	0xbd07c4d1	-0.033146683
208	0xbc611f0a	-0.01374031
209	0x3b3e8aab	0.0029074352
210	0xbb90ec33	-0.0044226884
211	0xbc103cd5	-0.008803566
212	0xbc6e5edb	-0.0145489825
213	0xbbbd5d22	-0.0057789246
214	0x3b62e59c	0.003462172
215	0xbc09b5e0	-0.008405179
216	0xb6837390	-3.9175575e-06
217	0x3bc4881d	0.0059976713
218	0xb9ef0634	-0.00045590254
219	0xbbce0193	-0.0062868088
220	0xbb106d85	-0.0022037935
221	0xbb9dcb53	-0.004815498
222	0xbab369b6	-0.001368812
223	0x3c0fb83a	0.00877195
224	0x3b852fda	0.0040645422
225	0xbcfb9341	-0.030709865
226	0xbb5b9c84	-0.0033510039
227	0x3cafe258	0.021470234
228	0x3bdcaa6c	0.006734183
229	0xbbc280c0	-0.0059357584
230	0xbb95cab3	-0.004571283
231	0xbb38c666	-0.0028194427
232	0xbc381144	-0.011234585
233	0x3ad2107b	0.001602664
234	0xbc1b132c	-0.00946502
235	0xbba924d5	-0.0051618614
236	0x3b0e83f2	0.0021746126
237	0xbb9b958b	-0.0047480515
238	0x3bdbdc18	0.006709587
239	0xbc249caa	-0.010047117
240	0xbb3a6dec	-0.0028446866
241	0x3a60f081	0.000858076
242	0xbc2206c0	-0.009889305
243	0xbc817e6a	-0.01580735
244	0xbbb5af9f	-0.0055446173
245	0xbc08c69a	-0.008348132
246	0xbbe5f6ed	-0.0070179612
247	0x3c01c348	0.007920094
248	0x3c749eca	0.014930436
249	0xbc3b399f	-0.011427312
250	0xba80368f	-0.0009781885
251	0x3c059348	0.00815279
252	0xba9e1cdc	-0.0012063044
253	0x3bc98154	0.0061494503
254	0xbc5b4eb0	-0.01338546
255	0x3bcabc03	0.0061869635

action_model._continuous_distribution.mu.bias f4 [2]
0	0xbd00b5a5	-0.03142323
1	0x3bcb450e	0.0062033003

onnx::Div_61 f4 [35]
0	0x3e2421ce	0.1602852
1	0x3e45e991	0.1932738
2	0x39fe2005	0.00048470512
3	0x3de35d43	0.11101773
4	0x3e3a037e	0.18165395
5	0x3eedd8be	0.46454424
6	0x3eedf8ee	0.4647898
7	0x39fe2005	0.00048470512
8	0x3ccaabd7	0.024740143
9	0x3e1fe086	0.15612993
10	0x3ee0e7ef	0.4392695
11	0x3ee486ab	0.44633994
12	0x39fe2005	0.00048470512
13	0x3dec2a35	0.11531488
14	0x3e4b342a	0.19844118
15	0x3ec87342	0.39150435
16	0x3ec87328	0.39150357
17	0x39fe2005	0.00048470512
18	0x39fe2005	0.00048470512
19	0x3dedef36	0.116178915
20	0x3eb4baf6	0.3529889
21	0x3ead6f0a	0.3387378
22	0x39fe2005	0.00048470512
23	0x3dedb644	0.1160703
24	0x3e0dd66d	0.13851328
25	0x3e8f944d	0.28042832
26	0x3e8f941d	0.2804269
27	0x39fe2005	0.00048470512
28	0x39fe2005	0.00048470512
29	0x3db75bf2	0.08953084
30	0x3e8594dc	0.26090133
31	0x3e72d19d	0.23712774
32	0x39fe2005	0.00048470512
33	0x3dedc396	0.11609571
34	0x3df3000d	0.11865244

onnx::Div_64 f4 [6]
0	0x3c1798bc	0.009252723
1	0x3b800cd2	0.0039077783
2	0x3b800cd2	0.0039077783
3	0x3b800cd2	0.0039077783
4	0x3b800cd2	0.0039077783
5	0x3b800cd2	0.0039077783
