Assets/results/firstYamlConfigTest/MyAgent/MyAgent-1999968.onnx (onnx, 95084 bytes, 11 tensors)

network_body.observation_encoder.processors.0.normalizer.running_mean f4 [35]
0.021014327 0.978654 0.0 0.00028900438 0.44736302 0.42703173 0.5729703 0.0
0.0 0.41627485 0.23480475 0.76491934 0.0 0.00028950447 0.4559741 0.86362654
0.136374 0.0 0.0 0.27041453 0.8547006 0.14498763 0.0 0.00030850494
0.3217386 0.9157778 0.08422224 0.0 0.0 0.20562358 0.9235068 0.07618062
0.0 0.00031400495 0.26414725
00000000: 3d26 ac3c 1289 7a3f 0000 0000 8385 9739
00000010: c40c e53e e7a3 da3e 2eae 123f 0000 0000
00000020: 0000 0000 fa21 d53e a870 703e c1d1 433f
00000030: 0000 0000 a2c8 9739 7075 e93e a116 5d3f
00000040: a0a5 0b3e 0000 0000 0000 0000 c673 8a3e
00000050: a9cd 5a3f a377 143e 0000 0000 d5be a139
00000060: ecba a43e 6a70 6a3f b67c ac3d 0000 0000
00000070: 0000 0000 fd8e 523e f16a 6c3f 9604 9c3d
00000080: 0000 0000 08a1 a439 4f3e 873e

network_body.observation_encoder.processors.1.normalizer.running_mean f4 [6]
-0.9956469 0.0 0.0 0.0 0.0 0.0
00000000: b7e2 7ebf 0000 0000 0000 0000 0000 0000
00000010: 0000 0000 0000 0000

network_body._body_endoder.seq_layers.0.weight f4 [128, 41]
-0.14637764 0.029715277 -0.23404767 0.046595693 0.051403716 0.07432352 0.12807916 0.10003154
0.023801455 -0.010318414 0.022391632 0.01737732 0.13214624 -0.05585549 0.03587508 -0.10796291
0.028056115 0.058403447 0.10650819 -0.014163685 0.024841715 -0.01948731 -0.15780534 0.18351974
-0.064457275 0.004918604 -0.012482397 -0.0071271583 0.16659069 -0.016482977 0.1113958 -0.104383804
0.1576041 -0.13506861 -0.10560286 0.00864425 0.28827503 -0.09561992 -0.007551741 0.20562167
0.11139189 0.0050641987 -0.24335 -0.03492758 0.012609568 0.15817198 0.0022935832 0.032018855
0.025156496 -0.1006202 -0.025045762 0.019377325 -0.42284116 -0.008857296 0.0452943 0.06530701
-0.17901897 0.17263158 0.009571116 0.028233463 -0.058252282 -0.21663496 0.014503697 0.14835109
-0.10305997 -0.016733073 0.122043185 -0.24082407 -0.08798896 0.16990918 0.15746264 0.2858059
0.08096716 0.051635787 0.24532813 0.12571177 -0.19846489 -0.23722543 0.090781406 -0.15680183
-0.27667415 0.011358612 0.07976592 0.22074276 -0.11482817 0.20534901 0.19032694 -0.045978345
0.10194808 0.026944514 0.0039878543 0.06765907 -0.21545002 -0.19726594 -0.07061399 -0.12867266
-0.10609544 0.11858878 0.023679376 -0.120735705 -0.010533737 0.1427691 -0.008613116 0.30557463
-0.29676828 0.12533352 0.058616415 0.120632246 -0.17451766 -0.16088478 -0.14161417 0.25800762
0.29447395 -0.06257574 -0.016206285 -0.0051546507 0.036979586 0.33430585 0.20288 -0.051557127
-0.14315936 0.34035188 0.17255375 -0.1250851 -0.19430445 -0.121373504 0.07576928 -0.21395591
0.2789338 0.13096215 -0.15747702 -0.11128521 0.44610077 0.054513734 0.04819053 -0.10005204
-0.112202175 0.064882606 0.14530371 0.14149953 -0.15500282 -0.08748882 -0.04614304 0.08594076
-0.05743325 -0.13751277 0.12242375 -0.062531136 -0.38998652 0.023953613 0.035712354 -0.35315204
0.016387034 0.16019014 -0.17963989 -0.031655487 -0.31801495 -0.3207857 0.017209738 0.090982124
-0.19935468 0.17987609 0.14117046 0.014315766 0.0051233703 0.16147438 -0.016153952 -0.08982891
0.010785269 0.08700431 -0.123597965 0.1869459 0.05937029 0.19287312 0.122765474 0.18043952
0.066754326 -0.1368191 -0.08947732 -0.18246244 -0.1481397 0.17540944 -0.011401516 -0.075573646
-0.11577085 -0.114330694 0.19831422 -0.033995796 -0.01672661 0.16344862 0.10479305 0.16487694
0.3359661 0.027620671 -0.1335368 -0.1652178 -0.10730149 0.13919508 -0.105344824 0.25053242
0.2224694 -0.078186765 -0.18440036 0.24759349 0.149497 -0.055011287 0.0271219 -0.53431356
0.10601792 0.06530929 0.33732548 0.017831415 0.24861874 -0.09556583 -0.24556917 0.11999121
0.15517922 -0.13896158 -0.037755214 0.09030023 -0.042497512 -0.0875392 -0.06713364 -0.1227598
-0.14285289 -0.047766924 -0.06260895 0.14749834 -0.22643356 -0.2568402 0.10003725 0.2243132
-0.1815731 -0.14682359 -0.1715381 0.002626854 -0.17135109 0.09478984 -0.037633024 -0.2541824
-0.0026990545 -0.007113392 0.23532891 -0.051666237 0.12935564 -0.094423674 0.0041991207 0.15017426
0.08226635 0.049018178 0.039787084 -0.22501248 -0.02800892 -0.053835824 -0.05723205 -0.12114971
00000000: 05e4 15be 746d f33c 31aa 6fbe 20db 3e3d
00000010: b48c 523d ee36 983d 2f27 033e 56dd cc3d
00000020: 45fb c23c 910e 29bc a86e b73c e25a 8e3c
00000030: 5851 073e bac8 64bd bff1 123d a81b ddbd
00000040: f0d5 e53c 7438 6f3d f720 da3d cd0e 68bc
00000050: da80 cb3c daa3 9fbc b997 21be 99ec 3b3e
00000060: 2d02 84bd 3e2c a13b f882 4cbc f08a e9bb
00000070: c096 2a3e 4f07 87bc 7b23 e43d 2dc7 d5bd
00000080: f862 213e 6d4f 0abe 5046 d8bd 9da0 0d3c
00000090: c998 933e 60d4 c3bd 9874 f7bb 7d8e 523e
000000a0: 6e21 e43d 94f1 a53b be30 79be 3910 0fbd
000000b0: 5d98 4e3c d6f7 213e f14f 163b 3426 033d
000000c0: ff14 ce3c f711 cebd c52c cdbc 32bd 9e3c
000000d0: a37e d8be 311e 11bc 8486 393d afbf 853d
000000e0: c050 37be 55c6 303e 2cd0 1c3c dd49 e73c
000000f0: f299 6ebd 8ed5 5dbe eaa0 6d3c 59e9 173e
00000100: 1b11 d3bd cc13 89bc c7f1 f93d 969a 76be
00000110: 8e33 b4bd acfc 2d3e e33d 213e 2755 923e
00000120: 1cd2 a53d 0c80 533d 4c37 7b3e 96ba 003e
00000130: 613a 4bbe 39eb 72be 9aeb b93d a990 20be
00000140: 3ca8 8dbe 7919 3a3c 515c a33d 640a 623e
00000150: 082b ebbd 0347 523e 11e5 423e ca53 3cbd
00000160: 28ca d03d beba dc3c 8cac 823b d790 8a3d
00000170: ee9e 5cbe 1500 4abe 119e 90bd c4c2 03be
00000180: 9148 d9bd adde f23d 40fb c13c 4844 f7bd
00000190: b295 2cbc 1032 123e 071e 0dbc 4774 9c3e
000001a0: 03f2 97be 6e57 003e c417 703d 0a0e f73d
000001b0: c2b4 32be fbbe 24be 4e03 11be 9319 843e
000001c0: 4ac5 963e b627 80bd 0bc3 84bc 58e8 a8bb
000001d0: e877 173d 232a ab3e c6bf 4f3e 912d 53bd
000001e0: 5e98 12be 9a42 ae3e eeb1 303e 4f16 00be
000001f0: bff7 46be ac92 f8bd ed2c 9b3d 4217 5bbe
00000200: 69d0 8e3e f11a 063e a841 21be 80e9 e3bd
00000210: 5267 e43e cb49 5f3d 6f63 453d 15e8 ccbd
00000220: 41ca e5bd 2ce1 843d 7fca 143e 41e5 103e
00000230: 0fb9 1ebe 572d b3bd 7c00 3dbd b601 b03d
00000240: 213f 6bbd 26d0 0cbe 4eb9 fa3d 5310 80bd
00000250: 50ac c7be 5e3a c43c 1e47 123d 58d0 b4be
00000260: 1a3e 863c e208 243e 85f3 37be 2fa9 01bd
00000270: dbd2 a2be 063e a4be 70fb 8c3c d654 ba3d
00000280: a223 4cbe 7031 383e fd8e 103e ad8c 6a3c
00000290: f2e1 a73b 8a59 253e 4b55 84bc 38f8 b7bd
000002a0: b2b4 303c 512f b23d ee20 fdbd bf6e 3f3e
000002b0: 432e 733d 8880 453e 776c fb3d 23c5 383e
000002c0: 7eb6 883d 4e1a 0cbe e33f b7bd 6fd7 3abe
000002d0: efb1 17be 889e 333e 6dcd 3abc 5bc6 9abd
000002e0: 4419 edbd 3626 eabd e212 4b3e 2d3f 0bbd
000002f0: 3e06 89bc 135f 273e bd9d d63d 80d5 283e
00000300: c003 ac3e bf44 e23c dfbd 08be db2e 29be
00000310: e2c0 dbbd 2889 0e3e 07bf d7bd c945 803e
00000320: 05cf 633e 6220 a0bd 73d3 3cbe 2689 7d3e
00000330: be15 193e 8453 61bd bf2e de3c c6c8 08bf
00000340: ec1f d93d e1c0 853d edb5 ac3e 3013 923c
00000350: e995 7e3e 05b8 c3bd 7c76 7bbe f4bd f53d
00000360: 4de7 1e3e f24b 0ebe 36a5 1abd 54ef b83d
00000370: df11 2ebd c147 b3bd 5d7d 89bd 7d69 fbbd
00000380: 0748 12be 40a7 43bd 1f39 80bd ce09 173e
00000390: 33de 67be 8f80 83be 54e0 cc3d 5cb2 653e
000003a0: 4cee 39be ec58 16be afa7 2fbe 4c27 2c3b
000003b0: a976 2fbe 2d21 c23d 1625 1abd 3224 82be
000003c0: 9fe2 30bb 7517 e9bb 10fa 703e fa9f 53bd
000003d0: ce75 043e 3361 c1bd c798 893b 48c7 193e
000003e0: 437b a83d 49c7 483d c8f7 223d ac69 66be
000003f0: f672 e5bc f482 5cbd 276c 6abd 571d f8bd

network_body._body_endoder.seq_layers.0.bias f4 [128]
-0.052478 -0.08254445 0.04118311 -0.10363044 -0.019765604 -0.03043152 -0.04376017 -0.041997578
-0.08562451 -0.048139703 -0.10962323 -0.11379825 -0.028887762 -0.024527272 -0.024437014 -0.102783844
-0.025722478 0.015513657 -0.12904797 -0.088608414 -0.016180113 -0.061011598 0.021015044 -0.12001469
-0.058847517 -0.06443303 -0.098203965 -0.07409365 0.0047573694 -0.012098077 -0.053678367 -0.10969026
-0.12092096 0.036267016 -0.1653926 -0.20363592 -0.035411987 -0.047044236 -0.050915476 -0.09628353
-0.12557854 -0.05826765 -0.07421098 -0.06914721 -0.11068046 -0.081690766 -0.07994014 -0.0670775
-0.15527903 -0.052231967 -0.09798137 0.057933517 -0.024196284 -0.010717132 -0.024195822 -0.09177226
-0.087074675 -0.08053808 0.013438992 -0.055464435 0.01462751 -0.12539676 -0.03528155 -0.10030045
-0.14437327 0.01468418 -0.080732636 0.018970804 -0.07230511 -0.13272752 -0.00097586267 -0.1231254
-0.042518128 -0.08441153 -0.03270177 -0.124590665 -0.1374685 0.050411955 0.0062585245 -0.018425189
-0.102681786 -0.1546706 -0.16482086 -0.016177941 -0.08714551 -0.13685517 -0.052060727 -0.011924723
-0.050553553 -0.025917996 -0.014177174 -0.11652767 -0.024700262 -0.07617635 -0.13799642 -0.023844829
-0.07886331 -0.057719693 -0.052331734 -0.010513383 -0.04851002 -0.056776144 -0.09288496 0.004762209
0.035038076 -0.11883314 -0.080182664 0.020813724 -0.09543518 -0.09692805 -0.0063082785 -0.05107742
-0.06696018 -0.02464123 -0.041933794 -0.03430481 -0.011519384 -0.021632662 -0.0134990765 -0.042898174
-0.077528186 -0.01516027 -0.029954618 -0.07737956 -0.049237344 0.017499272 -0.14888176 0.001575108
00000000: 2cf3 56bd 110d a9bd 9faf 283d 323c d4bd
00000010: 7aeb a1bc 864b f9bc dd3d 33bd a705 2cbd
00000020: e75b afbd 232e 45bd 2582 e0bd 0f0f e9bd
00000030: 07a6 ecbc 6bed c8bc 2230 c8bc 5680 d2bd
00000040: f2b7 d2bc fe2c 7e3c 2725 04be 5478 b5bd
00000050: 288c 84bc 4ce7 79bd be27 ac3c 43ca f5bd
00000060: 180a 71bd 77f5 83bd 291f c9bd 69be 97bd
00000070: b5e3 9b3b 0337 46bc d9dd 5bbd 49a5 e0bd
00000080: 69a5 f7bd b98c 143d ae5c 29be ef85 50be
00000090: 290c 11bd 75b1 40bd bf8c 50bd 4d30 c5bd
000000a0: a997 00be 0faa 6ebd edfb 97bd 0d9d 8dbd
000000b0: 70ac e2bd 7d4d a7bd a8b7 a3bd ee5f 89bd
000000c0: 7701 1fbe 30f1 55bd 75aa c8bd b24b 6d3d
000000d0: 4937 c6bc e996 2fbc 5136 c6bc 18f3 bbbd
000000e0: 3554 b2bd 26f1 a4bd 382f 5c3c ad2e 63bd
000000f0: 39a8 6f3c 0268 00be 6383 10bd 536a cdbd
00000100: 96d6 13be ea95 703c 2757 a5bd a968 9b3c
00000110: b414 94bd b9e9 07be 09d1 7fba 2b29 fcbd
00000120: 7d27 2ebd f4df acbd 4bf2 05bd 6429 ffbd
00000130: 8bc4 0cbe c47c 4e3d 4f14 cd3b 6cf0 96bc
00000140: d44a d2bd f861 1ebe cdc6 28be 9a87 84bc
00000150: 5879 b2bd c323 0cbe a13d 55bd ea5f 43bc
00000160: 3e11 4fbd fa51 d4bc 6147 68bc 0fa6 eebd
00000170: 3458 cabc 5902 9cbd ef4e 0dbe 3b56 c3bc
00000180: 1683 a1bd 7c6b 6cbd cd59 56bd 5340 2cbc
00000190: 71b2 46bd 1a8e 68bd 783a bebd 4e0c 9c3b
000001a0: 1684 0f3d ca5e f3bd cf36 a4bd 8b81 aa3c
000001b0: 8573 c3bd 3782 c6bd adb5 cebb 8f36 51bd
000001c0: 6b22 89bd 68dc c9bc c5c2 2bbd 3383 0cbd
000001d0: ccbb 3cbc fb36 b1bc 3b2b 5dbc ffb5 2fbd
000001e0: 19c7 9ebd c862 78bc 6363 f5bc 2d79 9ebd
000001f0: 19ad 49bd a25a 8f3c 7674 18be db73 ce3a

network_body._body_endoder.seq_layers.2.weight f4 [128, 128]
-0.122271255 0.122740574 0.1195232 -0.11557593 -0.015137895 -0.07326697 -6.0159997e-05 0.027176397
-0.11219444 0.045657612 -0.0064209867 -0.18769956 -0.13510899 -0.072149925 0.06719691 -0.012554502
0.003276285 -0.028924141 0.032925174 0.11267607 -0.0045864135 0.02306276 0.2008974 0.097179115
-0.02905532 -0.07196691 0.08394888 0.18276408 -0.15330762 -0.030807717 -0.012227661 0.025560707
0.046242684 0.055302516 -0.12881136 0.09473832 -0.06657039 0.017561505 0.05163767 0.101678565
-0.12655836 -0.084536426 -0.1161951 0.0010644116 -0.0008199752 -0.123984456 0.048322313 -0.062877625
-0.12556562 0.03174583 -0.12842645 -0.01887953 0.023579096 -0.027346643 -0.10563283 0.07602727
0.079085104 0.11705479 0.09495398 0.031173635 -0.22610429 0.09042272 0.036422547 -0.10241114
-0.114501774 0.08148929 0.016437022 -0.12467969 0.13546506 0.008241554 -0.08633453 -0.05908552
-0.04341218 0.08844266 0.010296809 0.08119168 -0.05451422 -0.061039858 0.11232396 0.045777995
-0.058514632 -0.0050693033 0.124278724 -0.30017722 -0.014763668 0.04515196 -0.060080834 -0.0655262
-0.2520247 -0.05124162 0.20193325 -0.0004320535 -0.0061985403 -0.009001814 0.100239195 0.0004671892
-0.025018953 0.015294491 -0.07146913 -0.061289966 0.042502787 0.068470545 0.18689837 0.053281277
0.025736593 -0.1707815 -0.073870994 0.04231257 -0.038796984 0.08786877 0.07427852 -0.17073336
-0.024978017 -0.05542405 0.21012251 0.007024754 -0.034630455 -0.038249314 -0.18742767 -0.12242783
-0.0019490274 -0.10124633 0.016082164 0.11021283 -0.13118647 0.110426016 -0.07579842 -0.15017572
-0.01758498 0.0898855 -0.15010567 -0.09262373 -0.034669783 -0.12776989 0.07206206 0.054815356
0.09102403 -0.033328827 0.09977771 0.003963714 -0.07427933 -0.12493747 0.03284199 0.18173811
-0.023991438 -0.076000035 0.009830832 -0.16775033 0.05455157 -0.11449623 -0.06516146 0.078577355
-0.0784472 -0.1644261 0.1803285 -0.00044508523 -0.0751909 -0.07474356 -0.08151952 -0.09530454
-0.023486586 -0.063161284 -0.10958686 -0.116159044 0.055970665 -0.061011847 -0.01263675 0.17497043
-0.17226945 -0.033968348 0.09490848 -0.09558879 -0.04070891 0.0038049512 0.088553056 -0.018057767
0.028801734 -0.030281251 0.01871961 -0.1422349 -0.012553237 -0.03986285 -0.086666904 0.09050835
0.1783463 -0.079192504 -0.28012657 -0.18341172 0.036246285 0.039443478 -0.17596026 0.13025989
-0.15736064 -0.102042705 -0.042387072 0.05570859 0.17526509 0.009443288 -0.076839216 -0.027900137
0.14036246 -0.014222741 -0.064089164 0.12677626 0.06521496 -0.068121746 -0.061718404 -0.0059652156
0.037935503 -0.08894681 0.09349243 -0.085354276 0.0035776307 -0.07900356 0.04052947 0.04926451
0.06559846 0.07910364 0.038909037 0.013036138 0.15556495 -0.023254918 0.0024080188 -0.20927785
-0.20468692 0.102160916 0.081692964 -0.09476456 -0.16737285 0.016395524 0.106026694 -0.09170982
0.035191625 -0.06802904 -0.07239096 -0.13782756 -0.21373679 -0.123061694 -0.09277275 -0.13552625
-0.05453948 -0.10154216 -0.10572857 0.007945049 -0.10642155 0.08654527 0.10190616 -0.020084664
-0.06806777 0.036438093 0.15992777 -0.109725125 -0.0038617824 0.059906702 0.042698123 0.0470909
00000000: 5a69 fabd 695f fb3d 94c8 f43d 13b3 ecbd
00000010: ef04 78bc fe0c 96bd 4e54 7cb8 09a1 de3c
00000020: 33c6 e5bd 7a03 3b3d 2467 d2bb 5034 40be
00000030: 035a 0abe 57c3 93bd 899e 893d 66b1 4dbc
00000040: f1b6 563b 52f2 ecbc 8cdc 063d b6c2 e63d
00000050: a049 96bb 1dee bc3c 0cb8 4d3e d805 c73d
00000060: 6c05 eebc 6363 93bd 64ed ab3d 8226 3b3e
00000070: acfc 1cbe 7760 fcbc 8756 48bc b064 d13c
00000080: f868 3d3d e484 623d 20e7 03be 2a06 c23d
00000090: 0e56 88bd 25dd 8f3c 0582 533d da3c d03d
000000a0: 8498 01be 6f21 adbd b2f7 edbd ba83 8b3a
000000b0: 9bf3 56ba 90eb fdbd 9eed 453d fcc5 80bd
000000c0: 4694 00be ea07 023d 3982 03be 3ea9 9abc
000000d0: f328 c13c 1106 e0bc 0656 d8bd 2fb4 9b3d
000000e0: 5ff7 a13d 6cba ef3d 3b77 c23d da5f ff3c
000000f0: e287 67be 8c2f b93d cf2f 153d efbc d1bd
00000100: e87f eabd dbe3 a63d efa6 863c 1158 ffbd
00000110: 5ab7 0a3e 9507 073c 28d0 b0bd a903 72bd
00000120: f8d0 31bd 6d21 b53d f2b3 283c d347 a63d
00000130: 4e4a 5fbd ee04 7abd 1b0a e63d b581 3b3d
00000140: 0aad 6fbd 661c a6bb d885 fe3d d4b0 99be
00000150: 50e3 71bc 43f1 383d 5217 76bd 9a32 86bd
00000160: 6209 81be bce2 51bd 97c7 4e3e 3d85 e2b9
00000170: 201d cbbb 587c 13bc 354a cd3d 13f1 f439
00000180: 8cf4 ccbc bf95 7a3c 685e 92bd 300b 7bbd
00000190: 6717 2e3d 493a 8c3d 4962 3f3e 783d 5a3d
000001a0: 8cd5 d23c 58e1 2ebe ad49 97bd f24f 2d3d
000001b0: 96e9 1ebd 8bf4 b33d 561f 983d bad4 2ebe
000001c0: b39e ccbc 5404 63bd 5b2a 573e e82f e63b
000001d0: aad8 0dbd 50ab 1cbd 0aed 3fbe 71bb fabd
000001e0: 8276 ffba 3c5a cfbd bebe 833c 44b7 e13d
000001f0: bf55 06be 0927 e23d 343c 9bbd aac7 19be
00000200: 600e 90bc e415 b83d 4db5 19be 83b1 bdbd
00000210: e701 0ebd 1cd6 02be 4695 933d 1186 603d
00000220: cf6a ba3d cf83 08bd 4258 cc3d 0be2 813b
00000230: c31f 98bd 37df ffbd 5385 063d 8e19 3a3e
00000240: b189 c4bc e8a5 9bbd 7f11 213c bec6 2bbe
00000250: 7871 5f3d 007d eabd 5f73 85bd 2aed a03d
00000260: eda8 a0bd 515f 28be 09a8 383e 545a e9b9
00000270: b0fd 99bd 2713 99bd b5f3 a6bd 072f c3bd
00000280: f166 c0bc b45a 81bd 136f e0bd cbe4 edbd
00000290: 7f41 653d 8fe7 79bd 5f0a 4fbc 732b 333e
000002a0: 6767 30be 6522 0bbd 615f c23d 0ec4 c3bd
000002b0: 63be 26bd 7d5c 793b 4e5b b53d e2ed 93bc
000002c0: 9df1 eb3c 6310 f8bc de59 993c 07a6 11be
000002d0: 18ac 4dbc 3a47 23bd 6b7e b1bd 715c b93d
000002e0: 6aa0 363e ae2f a2bd c06c 8fbe 48d0 3bbe
000002f0: fc76 143d 7c8f 213d ed2e 34be d962 053e
00000300: 2623 21be c4fb d0bd 119e 2dbd b12e 643d
00000310: b178 333e 05b8 1a3c e15d 9dbd d48e e4bc
00000320: 2dbb 0f3e 8006 69bc 2e41 83bd a3d1 013e
00000330: 6c8f 853d 6a83 8bbd 70cc 7cbd db77 c3bb
00000340: 4262 1b3d bf29 b6bd f678 bf3d 39ce aebd
00000350: af76 6a3b 9ecc a1bd 3b02 263d 95c9 493d
00000360: 7c58 863d 1701 a23d 155f 1f3d 8795 553c
00000370: 6b4c 1f3e 1981 bebc dacf 1d3b ef4c 56be
00000380: 7399 51be be39 d13d a44e a73d ec13 c2bd
00000390: ca63 2bbe e84f 863c 8624 d93d 5cd2 bbbd
000003a0: 1825 103d cf52 8bbd b641 94bd ab22 0dbe
000003b0: d1dd 5abe c507 fcbd a4ff bdbd 65c7 0abe
000003c0: ca64 5fbd 56f5 cfbd 3888 d8bd f32b 023c
000003d0: 8bf3 d9bd a63e b13d 2db4 d03d 9888 a4bc
000003e0: 1d67 8bbd 1c40 153d 1bc4 233e 91b7 e0bd
000003f0: f515 7dbb bb60 753d 3ae4 2e3d 63e2 403d

network_body._body_endoder.seq_layers.2.bias f4 [128]
-0.055188876 -0.041393418 0.0130371945 -0.0032552362 0.017218782 -0.029786423 -0.022390693 -0.055103365
-0.00448967 -0.05101026 -0.07689548 -0.04636676 -0.010544044 -0.0123069845 -0.053428464 0.002934246
-0.03532672 -0.044704776 -0.047915872 -0.0024297568 -0.015287857 -0.006257417 -0.016872464 -0.0048454683
-0.053775992 -0.034006935 -0.078598715 -0.007577376 -0.052529123 -0.03049858 -0.059931442 -0.023709737
-0.011771651 -0.037477013 -0.017818017 -0.016793655 -0.03720909 -0.00375144 -0.059619136 -0.045332547
0.030500535 -0.038206883 -0.044844467 0.05686214 -0.054594476 -0.04006545 0.018349137 -0.04821226
-0.06028915 -0.058344495 0.024345275 -0.0032495512 -0.10295304 -0.055401254 -0.013445397 -0.005758831
-0.024553599 -0.0750755 -0.023723261 -0.011711331 -0.049165137 0.0061154687 0.008952928 -0.015211102
-0.0036810562 -0.04130004 -0.03550523 -0.041141093 0.014808351 -0.071681306 -0.002276517 -0.020527314
-0.040649835 -0.0141261155 -0.02817572 -0.043644376 -0.027841918 -0.03308074 0.0011499709 -0.038905844
-0.0068965275 -0.034861397 -0.010460902 0.011189711 -0.048740365 -0.037692267 -0.0055485587 -0.017631304
-0.033946294 -0.012654879 0.008329391 -0.019703824 -0.027045604 -0.016646985 -0.009056344 -0.06637974
-0.031437896 0.0071576512 -0.023217123 -0.041113023 -0.017384417 -0.012248207 -0.06353457 0.021884339
-0.03665057 -0.01169597 -0.021401523 -0.03141004 -0.00022380403 -0.03585859 -0.0028217137 -0.023791058
-0.036451373 0.009787155 -0.0060437596 0.02364113 -0.03443645 -0.046654318 -0.013886815 -0.06268375
-0.031072067 -0.05330908 -0.040552244 -0.05191133 -0.048652418 -0.052834954 -0.059206378 -0.0632039
00000000: bb0d 62bd 258c 29bd f599 553c cd55 55bb
00000010: 670e 8d3c a802 f4bc b06c b7bc 11b4 61bd
00000020: 151e 93bb 22f0 50bd 617b 9dbd 12eb 3dbd
00000030: edc0 2cbc 3ca3 49bc ced7 5abd 7b4c 403b
00000040: c0b2 10bd 5b1c 37bd 6f43 44bd 8e3c 1fbb
00000050: eb79 7abc 050b cdbb 1f38 8abc bcc6 9ebb
00000060: 3744 5cbd db4a 0bbd 5df8 a0bd a34b f8bb
00000070: c728 57bd 28d8 f9bc ac7a 75bd ec3a c2bc
00000080: e2dd 40bc 7f81 19bd 17f7 91bc d992 89bc
00000090: 8f68 18bd b8da 75bb 3233 74bd 9fae 39bd
000000a0: 42dc f93c d27e 1cbd d5ae 37bd 46e8 683d
000000b0: 759e 5fbd ab1b 24bd ee50 963c 387a 45bd
000000c0: c1f1 76bd a3fa 6ebd be6f c73c 6cf6 54bb
000000d0: 0bd9 d2bd 6dec 62bd 154a 5cbc 93b4 bcbb
000000e0: a124 c9bc 2fc1 99bd 4957 c2bc e2e0 3fbc
000000f0: 6261 49bd 4564 c83b 4daf 123c fc37 79bc
00000100: e03d 71bb 3b2a 29bd ef6d 11bd 9083 28bd
00000110: ba9e 723c a6cd 92bd 9e31 15bb e628 a8bc
00000120: 7180 26bd 3971 67bc c4d0 e6bc 72c4 32bd
00000130: bc14 e4bc ac7f 07bd 9fba 963a bc5b 1fbd
00000140: 44fc e1bb d3ca 0ebd 3464 2bbc 0d55 373c
00000150: faa3 47bd 3563 1abd afd0 b5bb 866f 90bc
00000160: 450b 0bbd 6956 4fbc ff77 083c ea69 a1bc
00000170: be8e ddbc 425f 88bc 0f61 14bc 1af2 87bd
00000180: 06c5 00bd bb8a ea3b d631 bebc 2166 28bd
00000190: c469 8ebc b4ac 48bc 6a1e 82bd c946 b33c
000001a0: e81e 16bd 74a0 3fbc 3f52 afbc d0a7 00bd
000001b0: f0ac 6ab9 75e0 12bd 80ec 38bb 77e5 c2bc
000001c0: 094e 15bd 4e5a 203c bb0a c6bb 0bab c13c
000001d0: 3c0d 0dbd 9918 3fbd 8685 63bc 5760 80bd
000001e0: d98a febc 9f5a 5abd 1c1a 26bd faa0 54bd
000001f0: c247 47bd 7769 58bd 6382 72bd 0c71 81bd

action_model._continuous_distribution.log_sigma f4 [1, 2]
0.0005613227 0.002797442
00000000: bb25 133a 4a55 373b

action_model._continuous_distribution.mu.weight f4 [2, 128]
0.015687639 0.02747062 0.008138827 0.008900493 -0.008253717 -0.007512181 -0.002891836 0.022534989
-0.010677058 0.0020984355 -0.0018308635 0.0050777183 -0.008722941 -0.0054409397 0.00079157384 0.008690237
0.0025642149 0.006121723 -0.0055949707 0.00041896297 -0.0033477023 -0.0038679617 0.016547538 -0.0051480993
0.0064164638 -0.0032732196 0.005939907 0.009996943 0.02045487 0.0038984958 0.020694012 -0.008889702
0.005201043 -0.00091933506 -0.008046331 -0.00072984106 0.008306823 -0.003169004 -0.0012373865 -0.0012665591
-0.018326655 0.0034954827 0.0008536426 -0.000666171 -0.002805581 -0.004161832 -0.011259745 0.001183443
-0.0009979297 0.047594473 -0.0037361486 -0.00047745366 0.0048686326 -0.005928236 -0.0076538636 0.0076123765
-0.008080119 0.0004627224 -6.5414795e-05 -0.001255994 0.002308968 -0.00086001627 -0.0066612773 0.006197254
-0.0020161567 -0.00344838 -0.012820762 -0.0012338519 -0.00917468 0.011017159 0.0020066446 -0.0036092955
-0.003887031 -0.002017004 0.00214598 -0.0059974715 -0.0043259137 -0.0066040363 -0.0056575 0.006071487
-0.0054669054 -0.00046681016 -0.005932199 -0.0017558472 0.012873389 0.0044044163 0.0045963875 -0.004338437
0.002853976 0.0037411503 0.0013967094 -0.0024616383 -0.00072831125 -0.00546619 0.0020843446 -0.0065202843
0.0006547202 -0.02820086 -0.001273494 -0.0066568 -0.0023759326 -0.00021561532 -0.0003304204 -0.021605296
-0.0018161761 0.008902764 0.0007814127 0.0015970465 -0.0014935234 -0.004801136 0.011302977 0.0045489874
-0.0061212704 -0.006144644 -0.0047816713 0.0057614446 -0.004336776 0.01121942 -0.005831234 -0.0015629866
-0.0034875346 0.0030051637 0.0049698576 0.014009799 0.0056492523 0.0013480139 0.009685767 0.013314936
-0.043504264 -0.053671494 -0.0014015686 -0.0010428646 0.00025100342 0.002747227 -0.053319138 -0.016193675
-0.0006811032 -0.032134756 0.004296098 -0.0019223472 0.000348705 0.002409291 -0.03976482 0.0008089785
0.0029933236 -0.010090668 0.002688829 0.0012832229 -0.00049146527 0.0023608282 0.0004061739 0.0007471058
-0.03247794 0.0030599341 0.004048144 -0.002554265 -0.03263899 0.00019883113 -0.017791292 0.00015487809
0.0019997836 0.0013290492 0.0035858196 0.0011598261 -0.015870657 0.00047534704 0.0020929277 0.004008656
-0.039202847 -0.00064710603 0.0025225498 -0.0005576151 0.0047231712 -0.013929505 0.07650983 -0.003133556
0.0025769884 -0.027169911 0.0007799065 -0.021767117 0.0064918534 0.0016672123 0.002913342 0.0023807143
3.05929e-05 0.0011435106 0.0046984972 -0.045109488 0.00046845662 0.0010556611 -5.90556e-05 0.0009786241
0.00251245 -0.00044211006 0.00086696655 0.0037093936 0.0035251256 -0.025829814 -0.0010133302 0.0012777832
0.002577819 0.0024231786 0.001544752 0.0047078864 0.005221353 0.00061402866 -0.0003480591 -0.008804454
-0.0009801788 -0.00069252064 0.00097154174 -0.0022997656 -0.049559504 0.0022846356 0.00035020753 0.0024476747
0.0030324224 -0.0015629113 0.0041337833 0.0027800812 0.0008665893 -0.0021350335 -0.0009933322 0.0016982559
0.0043218513 -0.03881497 0.0024502892 0.0008800585 -0.0002789372 -0.0009999259 -0.00053280726 -0.04931718
0.0039696014 0.0017148354 0.001429287 0.003725437 -0.0011837836 0.00038109586 3.6512865e-05 -0.044073354
0.0022334808 0.00039673454 -0.0025641012 -0.0010371851 0.0002723858 0.0010322271 -0.0005012315 0.0026043197
0.00488584 -0.00076904934 -0.00020307719 -9.6420226e-05 0.000745372 0.004119543 -0.015188045 -0.015484306
00000000: 5d83 803c 110a e13c b758 053c 60d3 113c
00000010: 993a 07bc be28 f6bb f584 3dbb 4c9b b83c
00000020: d4ee 2ebc e885 093b 96f9 efba fd62 a63b
00000030: abea 0ebc e949 b2bb 9f81 4f3a 7f61 0e3c
00000040: 630c 283b bc98 c83b 0456 b7bb 42a8 db39
00000050: 2065 5bbb a17d 7dbb b48e 873c 63b1 a8bb
00000060: 3341 d23b 8383 56bb 8da3 c23b 38ca 233c
00000070: f990 a73c e87d 7f3b 7d86 a93c 1da6 11bc
00000080: 836d aa3b 88ff 70ba c2d4 03bc ce52 3fba
00000090: 5719 083c 11af 4fbb cd2f a2ba ac02 a6ba
000000a0: c821 96bc 7814 653b fcc6 5f3a fba1 2eba
000000b0: d7dd 37bb fa5f 88bb cb7a 38bc c21d 9b3a
000000c0: f7cc 82ba 6cf2 423d 2cda 74bb bf52 fab9
000000d0: 0d89 9f3b a641 c2bb 43cd fabb 3e71 f93b
000000e0: 7a62 04bc 8d99 f239 4d2f 89b8 2aa0 a4ba
000000f0: 0e52 173b b772 61ba d846 dabb 5612 cb3b
00000100: 7f21 04bb 37fe 61bb 2c0e 52bc 33b9 a1ba
00000110: 6651 16bc 5081 343c e981 033b ee89 6cbb
00000120: 8fbd 7ebb b62f 04bb 92a3 0c3b 7086 c4bb
00000130: 65c0 8dbb ac66 d8bb 8d62 b9bb 53f3 c63b
00000140: ba23 b3bb 33be f4b9 e462 c2bb 7524 e6ba
00000150: e8ea 523c ec52 903b 4b9d 963b 7329 8ebb
00000160: c609 3b3b 162e 753b ca11 b73a 7053 21bb
00000170: 24ec 3eba ba1d b3bb 8099 083b 1ca8 d5bb
00000180: 87a1 2b3a 7d05 e7bc 5eeb a6ba 4921 dabb
00000190: 89b5 1bbb cc16 62b9 463c adb9 97fd b0bc
000001a0: c20c eeba e6dc 113c b8d7 4c3a fd53 d13a
000001b0: 54c2 c3ba d952 9dbb 1f30 393c ac0f 953b
000001c0: f094 c8bb 0359 c9bb 91af 9cbb 80ca bc3b
000001d0: 841b 8ebb a8d1 373c f013 bfbb 21dd ccba
000001e0: 1f8f 64bb 48f2 443b 30da a23b 5b89 653c
000001f0: 5d1d b93b d7af b03a 0db1 1e3c e426 5a3c
00000200: 8731 32bd a4d6 5bbd d7b4 b7ba bbb0 88ba
00000210: 1c99 8339 d20a 343b 2b65 5abd 99a8 84bc
00000220: 108c 32ba bc9f 03bd 48c6 8c3b 45f7 fbba
00000230: 65d2 b639 32e5 1d3b 70e0 22bd a111 543a
00000240: a32b 443b 5453 25bc 1137 303b d131 a83a
00000250: add5 00ba 20b8 1a3b bdf3 d439 6cd9 433a
00000260: 9707 05bd 2d89 483b 4ba6 843b 7565 27bb
00000270: 76b0 05bd 537d 5039 0bbf 91bc c566 2239
00000280: cd0e 033b 7e33 ae3a 1200 6b3b 4e05 983a
00000290: 2e03 82bc 0038 f939 8029 093b 0b5b 833b
000002a0: 2a93 20bd 8da2 29ba 5d51 253b ea2c 12ba
000002b0: d5c4 9a3b 9438 64bc 30b1 9c3d 595c 4dbb
000002c0: b1e2 283b 6f93 debc a472 4c3a f450 b2bc
000002d0: 9db9 d43b 5d86 da3a c5ed 3e3b c205 1c3b
000002e0: e050 0038 d9e1 953a daf5 993b bac4 38bd
000002f0: 2f9b f539 1c5e 8a3a 78b2 77b8 2d45 803a
00000300: eba7 243b 02cb e7b9 2445 633a 4c19 733b
00000310: cb05 673b 0c99 d3bc b8d1 84ba 4a7b a73a
00000320: a0f0 283b 31ce 1e3b 4779 ca3a 9d44 9a3b
00000330: e217 ab3b c4f6 203a b47b b6b9 8e40 10bc
00000340: 5879 80ba 468a 35ba 10af 7e3a aab7 16bb
00000350: e8fe 4abd d3b9 153b 0f9c b739 2b69 203b
00000360: 9bbb 463b 9ada ccba b074 873b 0632 363b
00000370: d32b 633a ebeb 0bbb b332 82ba 0398 de3a
00000380: 519e 8d3b 72fc 1ebd 0895 203b bab3 663a
00000390: 513e 92b9 f20f 83ba 17ac 0bba d000 4abd
000003a0: 6e13 823b 54c4 e03a ea56 bb3a 7626 743b
000003b0: 3029 9bba d2cd c739 6425 1938 4386 34bd
000003c0: 975f 123b cf00 d039 7b0a 28bb 28f2 87ba
000003d0: 01cf 8e39 cb4b 873a 1465 03ba 3cad 2a3b
000003e0: 6619 a03b 079a 49ba 1ef1 54b9 3735 cab8
000003f0: 1165 433a 3bfd 863b 47d7 78bc e3b1 7dbc

action_model._continuous_distribution.mu.bias f4 [2]
-0.033425488 0.059796274
00000000: 2ae9 08bd f0ec 743d

onnx::Div_61 f4 [35]
0.14343376 0.1443901 0.00070711225 0.01701237 0.1767097 0.49464786 0.49464694 0.00070711225
0.00070711225 0.15618503 0.42387754 0.4240606 0.00070711225 0.017027052 0.19446282 0.34318542
0.3431841 0.00070711225 0.00070711225 0.11587258 0.35240343 0.35209227 0.00070711225 0.017575819
0.11854585 0.27772298 0.27772233 0.00070711225 0.00070711225 0.0803548 0.26578945 0.26528853
0.00070711225 0.017731499 0.08467339
00000000: 4de0 123e 00db 133e 805d 393a 875d 8b3c
00000010: 63f3 343e 7c42 fd3e 5d42 fd3e 805d 393a
00000020: 805d 393a f8ee 1f3e 7a06 d93e 791e d93e
00000030: 805d 393a 517c 8b3c 4321 473e 00b6 af3e
00000040: d4b5 af3e 805d 393a 805d 393a 9a4e ed3d
00000050: 396e b43e 7045 b43e 805d 393a 2afb 8f3c
00000060: 2bc8 f23d b531 8e3e 9f31 8e3e 805d 393a
00000070: 805d 393a 0f91 a43d 8e15 883e e6d3 873e
00000080: 805d 393a a641 913c 3e69 ad3d

onnx::Div_64 f4 [6]
0.0076947315 0.00070711225 0.00070711225 0.00070711225 0.00070711225 0.00070711225
00000000: 1624 fc3b 805d 393a 805d 393a 805d 393a
00000010: 805d 393a 805d 393a
