Assets/results/firstYamlConfigTest/MyAgent/MyAgent-2499968.pt (torch, 641085 bytes, 67 tensors)

network_body.observation_encoder.processors.0.normalizer.running_mean f4 [35]
0	0x3cfda4ce	0.030962374
1	0x3f75606a	0.9585024
2	0x00000000	0.0
3	0x3c2c070e	0.010499729
4	0x3ee19d2d	0.44065228
5	0x3eb7eefa	0.35924512
6	0x3f23cd44	0.63985085
7	0x00000000	0.0
8	0x3a6d30d5	0.0009048109
9	0x3ed44870	0.41461515
10	0x3e87987f	0.26483533
11	0x3f394b4a	0.72380507
12	0x00000000	0.0
13	0x3c3a2d57	0.011363349
14	0x3ee39458	0.44449115
15	0x3f54e9b0	0.8316908
16	0x3e2c5870	0.16830611
17	0x00000000	0.0
18	0x00000000	0.0
19	0x3e8fec66	0.28110045
20	0x3f591999	0.84804684
21	0x3e0fe460	0.14051962
22	0x00000000	0.0
23	0x3c3b34c5	0.011426155
24	0x3ea2f560	0.3182783
25	0x3f68924b	0.90848225
26	0x3dbb65f4	0.091503054
27	0x00000000	0.0
28	0x00000000	0.0
29	0x3e5e7ced	0.21727343
30	0x3f6b3f0f	0.91893095
31	0x3d8e9bd4	0.069633156
32	0x00000000	0.0
33	0x3c3b472c	0.011430543
34	0x3e879d60	0.26487255

network_body.observation_encoder.processors.0.normalizer.running_variance f4 [35]
0	0x47928240	75012.5
1	0x47c20a27	99348.305
2	0x3f800000	1.0
3	0x46caed6b	25974.709
4	0x47a86eb5	86237.414
5	0x490c7e9b	575465.7
6	0x490ca645	576100.3
7	0x3f800000	1.0
8	0x450d4e64	2260.8994
9	0x4778aa72	63658.445
10	0x48edaa52	486738.56
11	0x48f40894	499780.62
12	0x3f800000	1.0
13	0x46db6ba2	28085.816
14	0x47c8d58d	102827.1
15	0x48aadf4d	349946.4
16	0x48aadf06	349944.2
17	0x3f800000	1.0
18	0x3f800000	1.0
19	0x47136f9f	37743.62
20	0x489d4e31	322161.53
21	0x48936e22	301937.06
22	0x3f800000	1.0
23	0x46dc9e48	28239.14
24	0x473d7c78	48508.47
25	0x484af3e2	207823.53
26	0x484af3ea	207823.66
27	0x3f800000	1.0
28	0x3f800000	1.0
29	0x46a79e78	21455.234
30	0x4835df28	186236.62
31	0x481e2957	161957.36
32	0x3f800000	1.0
33	0x46dcb3c4	28249.883
34	0x4703e033	33760.2

network_body.observation_encoder.processors.1.normalizer.running_mean f4 [6]
0	0xbf7e9037	-0.99438804
1	0x00000000	0.0
2	0x00000000	0.0
3	0x00000000	0.0
4	0x00000000	0.0
5	0x00000000	0.0

network_body.observation_encoder.processors.1.normalizer.running_variance f4 [6]
0	0x439afb2e	309.96234
1	0x3f800000	1.0
2	0x3f800000	1.0
3	0x3f800000	1.0
4	0x3f800000	1.0
5	0x3f800000	1.0

network_body.processors.0.normalizer.running_mean f4 [35]
0	0x3cfda4ce	0.030962374
1	0x3f75606a	0.9585024
2	0x00000000	0.0
3	0x3c2c070e	0.010499729
4	0x3ee19d2d	0.44065228
5	0x3eb7eefa	0.35924512
6	0x3f23cd44	0.63985085
7	0x00000000	0.0
8	0x3a6d30d5	0.0009048109
9	0x3ed44870	0.41461515
10	0x3e87987f	0.26483533
11	0x3f394b4a	0.72380507
12	0x00000000	0.0
13	0x3c3a2d57	0.011363349
14	0x3ee39458	0.44449115
15	0x3f54e9b0	0.8316908
16	0x3e2c5870	0.16830611
17	0x00000000	0.0
18	0x00000000	0.0
19	0x3e8fec66	0.28110045
20	0x3f591999	0.84804684
21	0x3e0fe460	0.14051962
22	0x00000000	0.0
23	0x3c3b34c5	0.011426155
24	0x3ea2f560	0.3182783
25	0x3f68924b	0.90848225
26	0x3dbb65f4	0.091503054
27	0x00000000	0.0
28	0x00000000	0.0
29	0x3e5e7ced	0.21727343
30	0x3f6b3f0f	0.91893095
31	0x3d8e9bd4	0.069633156
32	0x00000000	0.0
33	0x3c3b472c	0.011430543
34	0x3e879d60	0.26487255

network_body.processors.0.normalizer.running_variance f4 [35]
0	0x47928240	75012.5
1	0x47c20a27	99348.305
2	0x3f800000	1.0
3	0x46caed6b	25974.709
4	0x47a86eb5	86237.414
5	0x490c7e9b	575465.7
6	0x490ca645	576100.3
7	0x3f800000	1.0
8	0x450d4e64	2260.8994
9	0x4778aa72	63658.445
10	0x48edaa52	486738.56
11	0x48f40894	499780.62
12	0x3f800000	1.0
13	0x46db6ba2	28085.816
14	0x47c8d58d	102827.1
15	0x48aadf4d	349946.4
16	0x48aadf06	349944.2
17	0x3f800000	1.0
18	0x3f800000	1.0
19	0x47136f9f	37743.62
20	0x489d4e31	322161.53
21	0x48936e22	301937.06
22	0x3f800000	1.0
23	0x46dc9e48	28239.14
24	0x473d7c78	48508.47
25	0x484af3e2	207823.53
26	0x484af3ea	207823.66
27	0x3f800000	1.0
28	0x3f800000	1.0
29	0x46a79e78	21455.234
30	0x4835df28	186236.62
31	0x481e2957	161957.36
32	0x3f800000	1.0
33	0x46dcb3c4	28249.883
34	0x4703e033	33760.2

network_body.processors.1.normalizer.running_mean f4 [6]
0	0xbf7e9037	-0.99438804
1	0x00000000	0.0
2	0x00000000	0.0
3	0x00000000	0.0
4	0x00000000	0.0
5	0x00000000	0.0

network_body.processors.1.normalizer.running_variance f4 [6]
0	0x439afb2e	309.96234
1	0x3f800000	1.0
2	0x3f800000	1.0
3	0x3f800000	1.0
4	0x3f800000	1.0
5	0x3f800000	1.0

network_body._body_endoder.seq_layers.0.weight f4 [128, 41]
0	0xbe067f21	-0.13134433
1	0x3cb9cb91	0.022680076
2	0xbe6faa31	-0.23404767
3	0x3d2a5dcc	0.041593358
4	0x3da455ee	0.08024202
5	0x3e1c91d4	0.15290004
6	0x3d4ac34f	0.049502667
7	0x3dccdd56	0.10003154
8	0x3cc2fb45	0.023801455
9	0xbb60fe54	-0.003433128
10	0xbc38e038	-0.011283927
11	0x3d5bb64c	0.05364065
12	0x3e075158	0.13214624
13	0xbd806381	-0.06268979
14	0x3d2b7954	0.041863754
15	0xbd656c62	-0.056011565
16	0xbcc3bfc1	-0.023895146
17	0x3d6f3874	0.058403447
18	0x3dda20f7	0.10650819
19	0x3be8dff0	0.0071067736
20	0x3d2a0279	0.041506264
21	0xbd02d090	-0.031937182
22	0xbe2197b9	-0.15780534
23	0x3e3a41cc	0.18189162
24	0xbd997ed4	-0.07494894
25	0x3a8927b7	0.0010464106
26	0xbc0d1106	-0.008610016
27	0xbbe98af0	-0.0071271583
28	0x3e2a96c0	0.16659069
29	0xbba1045a	-0.004913849
30	0x3e02d552	0.12776688
31	0xbded874e	-0.11598073
32	0x3e2162f8	0.1576041
33	0xbdfffbab	-0.12499174
34	0xbe01b047	-0.126649
35	0x3b74fbda	0.003738156
36	0x3e9398c9	0.28827503
37	0xbdc3d460	-0.09561992
38	0xbbf77498	-0.007551741
39	0x3e528e7d	0.20562167
40	0x3de4216e	0.11139189
41	0xbcdfd880	-0.027324915
42	0xbe4cbdf9	-0.19994344
43	0xbd0f1039	-0.03492758
44	0xbd49816d	-0.049195696
45	0x3e3912c0	0.18073559
46	0x3d3bad15	0.04581936
47	0xbc3c8936	-0.011507323
48	0x3cce14ff	0.025156496
49	0xbdce11f7	-0.1006202
50	0xbbe534f1	-0.0069948365
51	0x3c8c2c54	0.017110981
52	0xbecf79dc	-0.4052266
53	0xbc111e31	-0.008857296
54	0xbc869a84	-0.0164311
55	0x3dad20aa	0.08453496
56	0xbdc83823	-0.09776332
57	0x3dbb2334	0.09137574
58	0x3c1cd02c	0.009571116
59	0x3ce749dd	0.028233463
60	0xbd98b4f6	-0.074563906
61	0xbe2e28b3	-0.17007713
62	0x3ca43bea	0.0200481
63	0x3e17e959	0.14835109
64	0xbe2959d4	-0.16538173
65	0xba751fec	-0.0009350765
66	0x3e59e24a	0.21277729
67	0xbea9c1a2	-0.33155543
68	0xbdb4338e	-0.08798896
69	0x3e2dfcac	0.16990918
70	0x3dfed965	0.124438085
71	0x3ebf955f	0.3741865
72	0x3d405d75	0.046964128
73	0x3d53800c	0.051635787
74	0x3e3ad4ff	0.18245314
75	0x3e135878	0.14389217
76	0xbe5b43f4	-0.21412641
77	0xbe72eb39	-0.23722543
78	0x3db9eb9a	0.090781406
79	0xbe2090a9	-0.15680183
80	0xbe8da83c	-0.27667415
81	0x3c3a1979	0.011358612
82	0x3d195aa5	0.03743996
83	0x3e907733	0.28215942
84	0xbdeb2b08	-0.11482817
85	0x3e531e39	0.20616998
86	0x3e2f86d5	0.17141278
87	0x3c5a3d44	0.013320271
88	0x3d2eb134	0.042649463
89	0x3cdcbabe	0.026944514
90	0x3b82ac8c	0.0039878543
91	0x3c8f0b4e	0.017461445
92	0xbe8fdd50	-0.28098536
93	0xbde1de83	-0.11028769
94	0xbd909e11	-0.07061399
95	0xbe02de26	-0.12780055
96	0xbdb284ea	-0.087167576
97	0x3e053a25	0.13010462
98	0x3c474a2e	0.012163682
99	0xbdf74448	-0.120735705
100	0xbc2c95b2	-0.010533737
101	0x3db3c481	0.087777145
102	0xbcbfc0ba	-0.023407329
103	0x3eba9e06	0.36448687
104	0xbe97f203	-0.29676828
105	0x3e03357c	0.12813371
106	0x3d9edfd9	0.07757539
107	0x3de1e9a7	0.11030894
108	0xbe28225f	-0.16419362
109	0xbe24befb	-0.16088478
110	0xbe11034e	-0.14161417
111	0x3e581723	0.21102576
112	0x3e89ba50	0.26899958
113	0x3b80d27d	0.003931342
114	0xbc84c30b	-0.016206285
115	0xba953f5d	-0.0011386682
116	0x3d5fb722	0.05461801
117	0x3e8e3bf8	0.27780128
118	0x3e4fbfc6	0.20288
119	0xbd532d91	-0.051557127
120	0xbe12985e	-0.14315936
121	0x3eae429a	0.34035188
122	0x3e30b1ee	0.17255375
123	0xbe19b47a	-0.15010253
124	0xbe29d2c9	-0.16584314
125	0xbdf892ac	-0.121373504
126	0x3da8872a	0.082289055
127	0xbe19780c	-0.149872
128	0x3eaf0d07	0.34189627
129	0x3d8b4385	0.06799988
130	0xbe2141a8	-0.15747702
131	0xbde3e980	-0.11128521
132	0x3edfe0af	0.43726107
133	0x3c079dce	0.00827737
134	0x3dc6ca3e	0.097065434
135	0xbdcce815	-0.10005204
136	0xbdd8943d	-0.10575149
137	0x3e0ef170	0.13959289
138	0x3e6ed7dc	0.23324531
139	0x3d5b5fd1	0.053558175
140	0xbe1eb90f	-0.15500282
141	0xbdb32d57	-0.08748882
142	0xbd9fd162	-0.078036085
143	0x3dabf8d1	0.08397067
144	0xbd4f61f9	-0.050630543
145	0xbe0cd026	-0.13751277
146	0x3e00a58b	0.1256315
147	0x3b3a215b	0.002840123
148	0xbeb92be0	-0.36166286
149	0xbb8f1dd6	-0.0043675704
150	0x3d12471e	0.035712354
151	0xbeb4d058	-0.35315204
152	0xbce5f9ee	-0.028073277
153	0x3de5cf56	0.11221187
154	0xbe017c1c	-0.12645
155	0xbd01a92f	-0.031655487
156	0xbe9cfd60	-0.3066206
157	0xbe8604e0	-0.26175594
158	0xbd4869c6	-0.048929
159	0x3dba54d6	0.090982124
160	0xbe4c23a2	-0.19935468
161	0x3e383170	0.17987609
162	0x3e108efd	0.14117046
163	0x3c6a8cad	0.014315766
164	0xbc414917	-0.011797211
165	0x3e47a473	0.19496326
166	0xbc84554b	-0.016153952
167	0xbd298c6e	-0.04139369
168	0x3d3c70ea	0.04600612
169	0x3e1a645d	0.15077348
170	0xbe3fdd23	-0.187367
171	0x3e3f6ebf	0.1869459
172	0x3d732e43	0.05937029
173	0x3e428c7c	0.18998903
174	0x3dc2cc56	0.0951163
175	0x3e5ee223	0.21765952
176	0x3d88b67e	0.066754326
177	0xbdb174bf	-0.08664846
178	0xbd73da05	-0.05953409
179	0xbdef5058	-0.11685246
180	0xbe5ae185	-0.21375091
181	0x3e339e88	0.17540944
182	0xbc3acd6d	-0.011401516
183	0xbdbe3fbc	-0.092895
184	0xbd63fa2f	-0.055658516
185	0xbe15f914	-0.14645797
186	0x3e4b12e2	0.19831422
187	0xbaadb671	-0.0013253224
188	0x3c3f9667	0.011693574
189	0x3e2cb5af	0.16866182
190	0x3dcbf075	0.09957973
191	0x3e28d580	0.16487694
192	0x3eac03c0	0.3359661
193	0xb7743826	-1.4556606e-05
194	0xbdb62bf8	-0.08895105
195	0xbe30c577	-0.17262827
196	0xbddbc0e2	-0.10730149
197	0x3e2c9449	0.16853441
198	0xbdb22a87	-0.08699518
199	0x3e3cf2e7	0.18452035
200	0x3e63cf05	0.2224694
201	0xbda02062	-0.078186765
202	0xbe3cd373	-0.18440036
203	0x3e7d8926	0.24759349
204	0x3e1915be	0.149497
205	0x3bb4db69	0.00551932
206	0xbcd522a2	-0.02601749
207	0xbf08c8c6	-0.53431356
208	0x3d94e03f	0.07269334
209	0x3d600a13	0.054697108
210	0x3ea9e0d6	0.3317935
211	0x3cbf691d	0.023365552
212	0x3e7e95e9	0.24861874
213	0xbdc3b805	-0.09556583
214	0xbe84f6c8	-0.2596953
215	0x3dd5fa19	0.10448093
216	0x3e2f3f9b	0.17114107
217	0xbe0e4bf2	-0.13896158
218	0xbd8f3b9a	-0.0699379
219	0x3d91e4d5	0.07123724
220	0xbd5737b4	-0.052543357
221	0xbd9eb516	-0.07749383
222	0xbd897d5d	-0.06713364
223	0xbdfb697d	-0.1227598
224	0xbe2915be	-0.165122
225	0xbd69f5f1	-0.057119314
226	0xbd58b0f5	-0.052903134
227	0x3e1709ce	0.14749834
228	0xbe81cf54	-0.2535349
229	0xbe923401	-0.285553
230	0x3dbac921	0.091203935
231	0x3e6ebd37	0.23314367
232	0xbe39ee4c	-0.1815731
233	0xbe1658ec	-0.14682359
234	0xbe501fd2	-0.20324638
235	0xbc89cd37	-0.016821487
236	0xbe18d09d	-0.1492333
237	0x3dc2212d	0.09478984
238	0xbe030102	-0.12793353
239	0xbea05dd9	-0.313216
240	0xbc97fcea	-0.018553216
241	0xbbe91775	-0.007113392
242	0x3e70fa10	0.23532891
243	0xbd539ffa	-0.051666237
244	0x3e0475ce	0.12935564
245	0xbdc16133	-0.094423674
246	0xbe10ed76	-0.14153084
247	0x3e594e54	0.21221286
248	0x3da87b43	0.08226635
249	0x3d915608	0.07096487
250	0x3cc46b18	0.023976848
251	0xbe7d3224	-0.24726158
252	0xbbbcb5f8	-0.005758997
253	0xbd5c82f4	-0.053835824
254	0xbd6a6c27	-0.05723205
255	0xbe317c6f	-0.17332624

network_body._body_endoder.seq_layers.0.bias f4 [128]
0	0xbdf613a7	-0.12015467
1	0xbdf17138	-0.11789173
2	0xbd42b3df	-0.04753482
3	0xbe36fe76	-0.17870507
4	0xbdf89e5d	-0.121395804
5	0xbcaa14ba	-0.020761836
6	0xbd00e1c7	-0.031465318
7	0xbdd39383	-0.1033087
8	0xbdc7b78c	-0.09751806
9	0xbdb39617	-0.08768862
10	0xbd3d2825	-0.046180863
11	0xbe3de892	-0.1854575
12	0xbd0ec7c0	-0.034858465
13	0xbcfb7ca0	-0.030699074
14	0xbd066468	-0.0328106
15	0xbe1826d1	-0.14858557
16	0xbe0d79de	-0.1381602
17	0xbddf3c4e	-0.10900174
18	0xbe24f3c5	-0.16108616
19	0xbdf81a86	-0.12114434
20	0xbcbb7240	-0.022881627
21	0xbde7b84a	-0.11314447
22	0xbcf7de87	-0.030257476
23	0xbe444712	-0.19167736
24	0xbd9ba744	-0.07600263
25	0xbd7caf50	-0.06169063
26	0xbe0b9aa7	-0.13633214
27	0xbe0f6c1d	-0.14006086
28	0x3b027af5	0.0019909714
29	0xbd8cf856	-0.06883304
30	0xbdbbf4f8	-0.091775835
31	0xbe2d2395	-0.16908105
32	0xbde889e3	-0.11354425
33	0x3d1d6792	0.03842885
34	0xbe0d3ccb	-0.13792722
35	0xbe65f171	-0.22455384
36	0xbd9402e0	-0.07227111
37	0xbd673ec8	-0.056456357
38	0xbdc1087a	-0.09425445
39	0xbe219cd5	-0.15782483
40	0xbdee4086	-0.116334006
41	0xbd42380c	-0.04741673
42	0xbda15287	-0.07877069
43	0xbe020083	-0.12695508
44	0xbdb6379e	-0.08897327
45	0xbda3e1e6	-0.08002071
46	0xbe10433e	-0.14088151
47	0xbda4ffc1	-0.08056594
48	0xbe14176f	-0.14462064
49	0xbd8db2ad	-0.06918845
50	0xbe088eba	-0.13335696
51	0xbbc0e33a	-0.0058864625
52	0xbd73ddbb	-0.05953763
53	0xbdf6983f	-0.120407574
54	0xbdb9253f	-0.09040307
55	0xbe2cc1e4	-0.16870838
56	0xbe015e70	-0.12633681
57	0xbdffea7b	-0.124958955
58	0xbc4a9214	-0.012363929
59	0xbde8e7f0	-0.113723636
60	0x3d290458	0.04126391
61	0xbe3b6638	-0.18300712
62	0xbcc9eeb3	-0.024649953
63	0xbdc6cede	-0.097074255
64	0xbe2aaf51	-0.1666844
65	0xbd349573	-0.04408784
66	0xbe092276	-0.13392052
67	0x3daec862	0.08534314
68	0xbe04f5ff	-0.12984465
69	0xbe08a093	-0.13342504
70	0xbce03420	-0.027368605
71	0xbdbeb10b	-0.09311112
72	0xbddefcd7	-0.10888069
73	0xbdb36b02	-0.087606445
74	0xbd756248	-0.05990818
75	0xbe3243a5	-0.17408617
76	0xbdd26ba8	-0.1027444
77	0xbc952583	-0.018206364
78	0xbcfab6b3	-0.030604696
79	0xbd17295b	-0.036904674
80	0xbde8b93b	-0.11363455
81	0xbe5e67dd	-0.21719308
82	0xbe6d4b9e	-0.23173377
83	0xbc89675e	-0.016772922
84	0xbe048767	-0.12942277
85	0xbe6a7c45	-0.22898968
86	0xbdbf2255	-0.0933272
87	0xbca83306	-0.020532142
88	0xbde19cac	-0.11016211
89	0xbd36f4c0	-0.044667006
90	0xbdc7196c	-0.09721646
91	0xbdd69cbc	-0.104791135
92	0xbcdfdb54	-0.027326263
93	0xbe0075d1	-0.12544943
94	0xbe4e7f95	-0.20165856
95	0xbaa8e2f2	-0.0012885018
96	0xbe0ddad9	-0.13853015
97	0xbdb3e389	-0.08783633
98	0xbdeb52a2	-0.1149037
99	0xbd760000	-0.060058594
100	0xbe03c183	-0.12866788
101	0xbdde25b9	-0.10847039
102	0xbdfc7495	-0.12326924
103	0x3c251b6c	0.010077339
104	0x3ba00c5e	0.004884287
105	0xbe22716d	-0.15863581
106	0xbe19135b	-0.1494879
107	0xbd3ddf76	-0.046355687
108	0xbe077d22	-0.13231328
109	0xbde9959d	-0.114054896
110	0xbd84a035	-0.064758696
111	0xbd8e5e11	-0.069515355
112	0xbdd98efc	-0.10622975
113	0xbd56f60c	-0.052480742
114	0xbdfcd426	-0.123451516
115	0xbd969d37	-0.07354205
116	0xbd7788cd	-0.060433198
117	0xbd9b6c6c	-0.07589039
118	0xbd29fed8	-0.041502804
119	0x3d446b95	0.04795416
120	0xbdd4d96d	-0.10393033
121	0xbd471878	-0.04860732
122	0x39ada596	0.00033120502
123	0xbe0749e0	-0.13211775
124	0x3b0fe006	0.0021953597
125	0xbc4f6cdc	-0.012660231
126	0xbe3a2742	-0.18179038
127	0xbd869749	-0.06571824

network_body._body_endoder.seq_layers.2.weight f4 [128, 128]
0	0xbe1d0bc4	-0.1533652
1	0x3d857ea8	0.065182984
2	0x3dd3e88c	0.10347089
3	0xbe26c397	-0.16285549
4	0xbd46423a	-0.048403002
5	0xbe2e057d	-0.16994281
6	0xbcf8a0a1	-0.030350031
7	0xbc9c967a	-0.019114722
8	0xbdc0b375	-0.09409229
9	0xbae7ccc8	-0.0017684931
10	0xbd72290b	-0.059121173
11	0xbe1dae23	-0.15398459
12	0xbe363cb1	-0.1779659
13	0xbdb9d549	-0.09073884
14	0x3da77d6d	0.0817822
15	0x3cd4a220	0.025956213
16	0xbc707e60	-0.014678568
17	0xbd9fcdc1	-0.07802916
18	0x3c783678	0.015149705
19	0x3e1f60bf	0.1556425
20	0xbd070003	-0.032958996
21	0x3d80e573	0.06293764
22	0x3e6c72a5	0.23090608
23	0x3e0dde9a	0.13854447
24	0xbc3634be	-0.011120973
25	0xbdc56a7e	-0.096394524
26	0x3df52bd1	0.11971248
27	0x3e3104bb	0.17286961
28	0xbde3be85	-0.11120323
29	0xbd403e46	-0.04693439
30	0xbd24500f	-0.040115412
31	0x3d90e21a	0.070743755
32	0x3d575004	0.052566543
33	0x3c1ee0b8	0.009697132
34	0xbe2800f1	-0.16406609
35	0x3e006876	0.12539849
36	0xbd5692f5	-0.052386243
37	0xbcc9326b	-0.024560174
38	0xba6f7d9d	-0.00091358443
39	0x3bce35db	0.006293041
40	0xbda5bac4	-0.08092263
41	0xbe05a288	-0.13050282
42	0xbda502ac	-0.0805715
43	0x3cac29dd	0.021016056
44	0x3d67980f	0.0565415
45	0xbdf190ba	-0.117951825
46	0x3d374c4f	0.044750508
47	0xbdb9f59d	-0.0908005
48	0xbe5738b2	-0.21017721
49	0x3d745a9d	0.059656728
50	0xbe1cbfbc	-0.15307516
51	0x3b13814c	0.0022507487
52	0xbcd2e827	-0.025745464
53	0x3cd5e71f	0.026111184
54	0xbde3b57b	-0.11118599
55	0x3dd52e8d	0.104092695
56	0x3d4cc7e3	0.049995314
57	0x3e26b664	0.16280514
58	0x3cd6eb32	0.026235197
59	0x3d767eb5	0.06017943
60	0xbe722ab4	-0.23649102
61	0x3dbe1a35	0.09282342
62	0x3da6db79	0.0814733
63	0xb9bd8b0b	-0.00036152484
64	0xbe30b65e	-0.17257068
65	0x3dd50756	0.1040179
66	0x3cfd3082	0.03090692
67	0xbdf9ff19	-0.12206859
68	0x3e032acb	0.12809293
69	0x3beeafdd	0.007284148
70	0xbdc5d1fa	-0.096591905
71	0xbd922d5b	-0.07137557
72	0xbd3e13a0	-0.046405435
73	0x3e01433b	0.12623303
74	0x3c052d60	0.008128494
75	0x3e1b1794	0.15145713
76	0xbd744638	-0.05963728
77	0xbdaa12a5	-0.083043374
78	0x3df6ff57	0.12060421
79	0x3d72b9db	0.059259277
80	0xbd4db955	-0.050225575
81	0x3d107379	0.035266373
82	0x3d609f5c	0.054839477
83	0xbe9cae7b	-0.30601868
84	0xbd8798ff	-0.066209786
85	0x3c557765	0.013028954
86	0xbc241b4b	-0.010016273
87	0xbce63d0f	-0.028105287
88	0xbe616551	-0.22011305
89	0xbdaf0f71	-0.08547867
90	0x3e15c1a2	0.14624646
91	0xbccbfd78	-0.024901137
92	0xbdbc11f4	-0.09183112
93	0x3cfb9f2d	0.03071555
94	0x3dcaca30	0.099018455
95	0xbddcdcd9	-0.10784311
96	0xbd1cf596	-0.038320147
97	0x3b921540	0.0044580996
98	0xbd96efae	-0.07369934
99	0xbd91fec3	-0.0712867
100	0x3c5d08b5	0.013490845
101	0x3d152aa4	0.03641762
102	0x3e49adb5	0.1969517
103	0x3d9113df	0.07083868
104	0xbc4e5a37	-0.012594751
105	0xbe42b391	-0.19013812
106	0xbd4fd11d	-0.050736535
107	0x3d6d66fa	0.057959534
108	0xbd53ffbc	-0.05175756
109	0x3da2d066	0.07949905
110	0x3d4b18ac	0.049584076
111	0xbe281b8a	-0.16416755
112	0x3b80dae3	0.0039323433
113	0x3b755b86	0.0037438585
114	0x3e31b2b9	0.17353334
115	0xbc9fbd01	-0.019499304
116	0xbc9e7656	-0.019343536
117	0x3ce7a42a	0.028276522
118	0xbe57e37d	-0.21082874
119	0xbe5f3b3f	-0.21799944
120	0xbb04dfd0	-0.0020275004
121	0xbe14a7ae	-0.1451709
122	0x3d0e3f47	0.034728315
123	0x3e256243	0.16150765
124	0xbdfb15c2	-0.12260009
125	0x3dc5a7e8	0.09651166
126	0xbdd3d9c1	-0.10344268
127	0xbdf45232	-0.1192974
128	0x3e02b861	0.12765647
129	0xbd48da07	-0.049036052
130	0xbea02590	-0.31278658
131	0xbb82321f	-0.00397326
132	0x3d70e5f4	0.05881305
133	0xbd876577	-0.0661115
134	0x3ddc0401	0.10742951
135	0xbc260383	-0.010132673
136	0x3dd12606	0.102123305
137	0xbd9b4749	-0.07581956
138	0x3dd7841f	0.10523247
139	0xbdf0ab4f	-0.117514245
140	0x3b785f69	0.0037898666
141	0xbd87ef42	-0.06637432
142	0xbbfb7537	-0.007673885
143	0x3daf35c8	0.0855518
144	0xbdaebe00	-0.085323334
145	0xbd02465d	-0.031805385
146	0x3c89487d	0.016758198
147	0xbe436e3e	-0.19085023
148	0x3dafed74	0.085902125
149	0xbe958622	-0.29203898
150	0xbde4077f	-0.11134242
151	0xbc345ee7	-0.011008955
152	0xbe3bd64b	-0.18343465
153	0xbe50cd5a	-0.20390835
154	0x3d402425	0.04690947
155	0x3e18740a	0.14888015
156	0xbe561926	-0.20908031
157	0xbd29c320	-0.04144585
158	0xbd6da03d	-0.058014143
159	0xbe212c17	-0.15739475
160	0xbd743259	-0.059618328
161	0x3db7c502	0.08973123
162	0xbdde2007	-0.108459525
163	0xbe6e5d9a	-0.23277894
164	0x3dcf0cf3	0.10109892
165	0x3d87185c	0.06596443
166	0xbc40411d	-0.011734274
167	0x3dc029ea	0.093829945
168	0xbe992c3f	-0.2991657
169	0xbccfaa1a	-0.025349665
170	0xbd235139	-0.03987238
171	0xbdaa221a	-0.083072856
172	0xbdd5c2ac	-0.10437521
173	0xbd19612a	-0.03744618
174	0xbbada9ac	-0.0052997675
175	0xbc4712bd	-0.012150464
176	0x3d3038bc	0.043022856
177	0xbd8da83a	-0.06916852
178	0x3b1ab719	0.002360767
179	0xbe9f7313	-0.31142482
180	0x3bda2f18	0.006658446
181	0xbde50d4c	-0.11184177
182	0xbd6e7b59	-0.058223102
183	0xbce7774e	-0.028255131
184	0x3e608394	0.21925193
185	0xbe147b3e	-0.14500138
186	0xbeb545c5	-0.35404792
187	0xbec44000	-0.38330078
188	0x3d9d9ad6	0.07695548
189	0xbd3808f3	-0.04493041
190	0xbea050f9	-0.31311777
191	0x3e050340	0.12989521
192	0xbe1fad54	-0.15593463
193	0xbe234472	-0.15944079
194	0xbe1e6ee1	-0.15471984
195	0x3d9a4382	0.07532407
196	0x3e662267	0.22474061
197	0xbd53e33e	-0.051730387
198	0x3d0f336b	0.034961145
199	0x3b8d26cf	0.004307605
200	0x3e34b189	0.1764585
201	0xbdb4272f	-0.08796536
202	0xbe318dd6	-0.17339262
203	0x3d1fc566	0.039006613
204	0x3d86b73c	0.06577918
205	0xbdd35cfb	-0.10320469
206	0x3c5a939f	0.01334086
207	0xbc2d9375	-0.0105942385
208	0x3d33bfc1	0.043884043
209	0xbe60e87b	-0.21963684
210	0x3c5dd757	0.013540111
211	0xbe0f8b78	-0.14018047
212	0x3cb9d52d	0.022684658
213	0xbe25aab5	-0.16178401
214	0xbd29fcbe	-0.0415008
215	0xbd99f384	-0.0751715
216	0x3d0c631d	0.03427421
217	0x3d6fffa8	0.058593422
218	0x3dd15d1c	0.10222837
219	0x3d6c55da	0.057699062
220	0x3e542d49	0.207204
221	0xbcbe3a23	-0.023221081
222	0xbd9c11ce	-0.076205835
223	0xbe34ebad	-0.17668028
224	0xbe9bc744	-0.30425465
225	0x3d893112	0.066988125
226	0x3c715c85	0.014731531
227	0xbe6fca69	-0.23417057
228	0xbea6a9af	-0.32551333
229	0xbcb7bcac	-0.022428833
230	0x3ba01a20	0.004885927
231	0xbe1537f4	-0.14572126
232	0x3e2910d3	0.16510324
233	0xbaa8463e	-0.0012838317
234	0xbe376197	-0.17908321
235	0xbe74d03a	-0.23907557
236	0xbe6b717c	-0.2299251
237	0xbe26ba37	-0.16281973
238	0x39f022aa	0.00045802194
239	0xbe838747	-0.25689146
240	0xbe6f169a	-0.23348466
241	0xbe9d6830	-0.3074355
242	0xbcfa1d61	-0.030531587
243	0xbc9300c0	-0.017944694
244	0xbe07bbca	-0.1325523
245	0x3d875f77	0.06610005
246	0x3e3e611d	0.18591733
247	0x3a01293e	0.0004927105
248	0xbe213f49	-0.15746798
249	0xbd5f429c	-0.054506883
250	0x3e712b5a	0.23551694
251	0xbd68c14c	-0.056824967
252	0x3d612774	0.054969266
253	0x3df15e3c	0.11785552
254	0xbcc839bf	-0.024441598
255	0xbd92ebbe	-0.071738705

network_body._body_endoder.seq_layers.2.bias f4 [128]
0	0xbd871b89	-0.06597049
1	0xbe14afc3	-0.14520173
2	0xbc9a4eb5	-0.018836359
3	0xbcb516cb	-0.022105595
4	0x3c9b9ca7	0.018995596
5	0xbd820015	-0.06347672
6	0xbcbfc1d0	-0.023407847
7	0xbd9e8f0b	-0.07742127
8	0xbcc69404	-0.024240501
9	0xbd77a8dc	-0.06046377
10	0xbd8b46b0	-0.06800592
11	0xbd9b16fd	-0.07572744
12	0xbc995013	-0.01871494
13	0xbd949379	-0.07254691
14	0xbd00a37a	-0.031405903
15	0xbd154a40	-0.036447763
16	0xbd6ceb76	-0.05784174
17	0xbd2a62fb	-0.0415983
18	0xbd5b1a42	-0.05349184
19	0xbc4ddf16	-0.012565395
20	0xbc8b0b7b	-0.016973248
21	0xbd2b0ed3	-0.041762184
22	0xbd3d28b0	-0.04618138
23	0xbcb700d7	-0.022339268
24	0xbdd98846	-0.10621695
25	0xbd072faf	-0.03300446
26	0xbde0e13c	-0.1098046
27	0xbd4a25f1	-0.04935259
28	0xbdfcf285	-0.123509444
29	0xbd1909b0	-0.037362754
30	0xbd8e777c	-0.069563836
31	0xbc84a37a	-0.016191233
32	0xbc982c09	-0.018575685
33	0xbd9c2704	-0.07624629
34	0xbd10ddff	-0.035367962
35	0xbd2aaa95	-0.041666586
36	0xbde4563f	-0.11149263
37	0xbd250e5f	-0.04029691
38	0xbd599d99	-0.053128812
39	0xbdda77a0	-0.10667348
40	0xbda9c09a	-0.08288689
41	0xbcf3c915	-0.02975897
42	0xbd4a4665	-0.04938354
43	0x3cd00bf0	0.025396317
44	0xbe0550e0	-0.13019133
45	0xbe1c5209	-0.15265669
46	0x3d269dc3	0.040677797
47	0xbdfd3200	-0.12363052
48	0xbe11d33d	-0.14240737
49	0xbda2d59b	-0.07950898
50	0x3cc74740	0.024325967
51	0xbd156ef9	-0.036482785
52	0xbdcd8f3e	-0.10037087
53	0xbd34395a	-0.044000007
54	0xbc924b14	-0.017858066
55	0xbc92ad62	-0.017904941
56	0xbcc44caa	-0.023962338
57	0xbd96fd05	-0.073724784
58	0xbcc6ab29	-0.024251537
59	0xbc9cd095	-0.019142428
60	0xbdbdb080	-0.0926218
61	0xbc795529	-0.015218058
62	0xbd6596b5	-0.05605193
63	0xbc6d950c	-0.014500868
64	0xbd55ad34	-0.052167132
65	0xbd4f6ce5	-0.05064096
66	0xbd6d7154	-0.057969406
67	0xbd848cac	-0.064721435
68	0x3c8b7611	0.017024072
69	0xbce6dc8c	-0.028181337
70	0xbd10dea5	-0.03536858
71	0xbd4b2e7e	-0.049604885
72	0xbdcf47e2	-0.101211324
73	0xbccc96d9	-0.024974274
74	0xbcc4d624	-0.024027891
75	0xbd6154e5	-0.055012602
76	0xbcadda11	-0.021222146
77	0xbd2b06b0	-0.041754425
78	0xbdba98bf	-0.09111165
79	0xbdea512e	-0.11441265
80	0xbd27cb63	-0.04096545
81	0xbdde1a48	-0.108448565
82	0xbda8f84e	-0.08250485
83	0xbd347368	-0.044055372
84	0xbdf32cbe	-0.11873768
85	0xbd147716	-0.03624638
86	0xbca74349	-0.020417826
87	0xbd9415a6	-0.072306916
88	0xbcf1963c	-0.029490583
89	0xbd09e017	-0.033660974
90	0x3be44ec1	0.006967396
91	0xbd3ac3fc	-0.04559706
92	0xbdefa61b	-0.11701604
93	0xbdc90d8e	-0.098170385
94	0xbc871419	-0.016489075
95	0xbd55c2da	-0.052187778
96	0xbd4df9f6	-0.05028721
97	0xbc811905	-0.015759
98	0xbd3ac4bc	-0.045597777
99	0xbd6ccb38	-0.057810992
100	0xbd06d1a3	-0.03291477
101	0xbd2535a8	-0.040334374
102	0xbd887362	-0.066626325
103	0x3b7c964b	0.003854173
104	0xbd2360e6	-0.03988733
105	0xbcba1f64	-0.022720046
106	0xbd8903ca	-0.06690176
107	0xbd3d011e	-0.046143644
108	0xbcc8d97a	-0.024517763
109	0xbd35fcb8	-0.044430465
110	0x3b581bfa	0.003297566
111	0x396ff4b8	0.00022883981
112	0xbd5c86e6	-0.053839587
113	0x3b167c59	0.00229623
114	0xbc925f5f	-0.017867742
115	0x3cd2a962	0.025715534
116	0xbdd2a9fc	-0.10286328
117	0xbd95fc22	-0.07323481
118	0xbc1179b6	-0.008879116
119	0xbd12721a	-0.035753347
120	0xbd0c4d76	-0.03425356
121	0xbd9a3ac6	-0.075307414
122	0xbd941fca	-0.07232626
123	0xbd6bb4b9	-0.057545397
124	0xbd2d44db	-0.042301994
125	0xbd7ee813	-0.062233042
126	0xbdab1249	-0.08353097
127	0xbdc16c8d	-0.094445325

action_model._continuous_distribution.log_sigma f4 [1, 2]
0	0x3c9a1410	0.018808395
1	0x3ccf9a38	0.025342092

action_model._continuous_distribution.mu.weight f4 [2, 128]
0	0xbac1117c	-0.0014729942
1	0x3cbe49ef	0.023228614
2	0xbb479a95	-0.0030457128
3	0xbb4c6cf3	-0.0031192868
4	0xb9361824	-0.00017365866
5	0xbbbcc57d	-0.005760847
6	0xbab96fce	-0.00141477
7	0x3c3b08d8	0.011415683
8	0x3a518be8	0.0007993565
9	0x3b823f37	0.003974821
10	0x3c06ccb8	0.00822752
11	0xbc44726c	-0.011990171
12	0xbbc9a432	-0.006153607
13	0x3bb48350	0.0055088177
14	0xbc2ce2df	-0.010552137
15	0xbbe4ff7b	-0.0069884635
16	0xba78dcfb	-0.0009493378
17	0x3bedf3e0	0.007261738
18	0xbbaac0a2	-0.005210952
19	0xbb91f114	-0.0044537876
20	0x3bfdd0f9	0.0077458587
21	0x3b51b1e6	0.0031996905
22	0x3aab369f	0.0013062543
23	0x3bade996	0.0053073866
24	0x3c028727	0.007966793
25	0x3b609a6b	0.0034271728
26	0xba655098	-0.0008747666
27	0x3b2a4f18	0.0025987085
28	0x3cc34c54	0.023840107
29	0xbb8a0336	-0.0042118086
30	0xbc399272	-0.011326419
31	0x3c078932	0.008272456
32	0x3b0e9adf	0.002175979
33	0x3b779ad9	0.0037781505
34	0x3bb30fbe	0.005464523
35	0x3b489eeb	0.00306123
36	0x3c1e5222	0.009663137
37	0x3b125385	0.0022327614
38	0x3c6be3a8	0.014397539
39	0x3c0be14b	0.008537601
40	0xbc0a7f52	-0.008453207
41	0x39ef5138	0.00045646145
42	0x3c0a5736	0.008443644
43	0xbc1a6163	-0.009422633
44	0x3ba5b1bd	0.0050565884
45	0xbbb35822	-0.0054731527
46	0xbceee433	-0.029161548
47	0x3c3db7e5	0.011579488
48	0x3c454a4c	0.01204164
49	0x3c239e52	0.009986477
50	0xbbea46d8	-0.0071495585
51	0x3b868c42	0.0041060755
52	0x3b9a3d4a	0.0047070133
53	0x3c100bf3	0.008791911
54	0x3baa9cfa	0.0052067013
55	0xbb5c0272	-0.0033570793
56	0x3c461116	0.012089035
57	0xbb9f3c9f	-0.0048595215
58	0x3b283e90	0.0025672056
59	0xbc46a126	-0.012123382
60	0xbb06280b	-0.0020470645
61	0x3ba6caf8	0.0050901137
62	0x3b91a079	0.0044441787
63	0x3c053aec	0.008131724
64	0x3b8d1931	0.0043059816
65	0x3a0fd4d4	0.0005486731
66	0xbba85161	-0.0051366542
67	0xbbce4902	-0.0062953243
68	0x3bd96a7f	0.00663501
69	0x3b21c41a	0.0024683536
70	0xbb3cfa42	-0.0028835689
71	0x3adad08c	0.0016694232
72	0x3baaa1d6	0.0052072806
73	0xbb4287f3	-0.0029683083
74	0x3c2fa461	0.010720343
75	0x3bbca802	0.005757333
76	0xbb0ebefe	-0.002178132
77	0x3bd107a2	0.0063790837
78	0x3b8be1d3	0.0042688637
79	0x3cb0cfa5	0.021583388
80	0x3b9fa6d1	0.004872181
81	0x3c5199b0	0.01279299
82	0x3be47038	0.0069713853
83	0x3b69f204	0.003569723
84	0x3c141995	0.009039302
85	0x3bf92197	0.007602881
86	0x3b4edc95	0.0031564583
87	0x3bb99bef	0.0056643407
88	0x3ba3cfe9	0.00499915
89	0xbb43d7a4	-0.002988317
90	0x3bb49e11	0.005512007
91	0xbb534f40	-0.0032243282
92	0x3beac39c	0.0071644317
93	0x3ba9a9f1	0.0051777293
94	0x3c03c5fc	0.008042809
95	0x3c0b8479	0.008515471
96	0x3b15463c	0.0022777459
97	0xbbda3d2a	-0.0066601234
98	0x3bf36e9f	0.0074289585
99	0x39ec8e04	0.00045119238
100	0x3b6e24a2	0.0036337753
101	0x3b701dde	0.0036638896
102	0xb833d6bc	-4.2876913e-05
103	0xba8699ae	-0.0010269189
104	0xbad694c9	-0.0016371246
105	0x3bae4714	0.0053185318
106	0x3c5789e3	0.013155433
107	0xbb94bc9e	-0.0045390865
108	0x3b93b994	0.0045082066
109	0x3bdb1cf8	0.006686803
110	0x3ad36838	0.0016129082
111	0x3be98084	0.007125916
112	0x3abda654	0.0014469125
113	0x3bc30bd4	0.0059523378
114	0x3c2f2156	0.0106891
115	0xbc248cfb	-0.010043378
116	0x3b5676eb	0.003272469
117	0x3b079a78	0.0020691436
118	0x3a1678d2	0.00057400495
119	0x3b35676d	0.0027680055
120	0x3c343238	0.010998301
121	0x3b403341	0.0029327425
122	0x3b564d09	0.0032699725
123	0xb98aacf7	-0.0002645028
124	0xbbcb9524	-0.0062128473
125	0xbbe8caba	-0.007104245
126	0xbaa1986a	-0.0012328748
127	0x3d3ec88d	0.04657798
128	0xbc6b95ef	-0.014379009
129	0xbcda4743	-0.026645308
130	0xb97a3d2a	-0.00023864643
131	0xbbad4d08	-0.005288724
132	0x3b6a35ea	0.0035737702
133	0xba88b2e1	-0.0010429287
134	0xbae193ca	-0.0017210182
135	0xbc9cdd76	-0.01914857
136	0x3b0665fc	0.0020507565
137	0x39805078	0.00024474016
138	0xba40ad45	-0.0007350038
139	0x3b1e9e38	0.0024203192
140	0xba48275b	-0.0007635259
141	0x3b01a772	0.0019783643
142	0xbc233247	-0.0099607175
143	0xbabf8e8e	-0.0014614628
144	0xba4fc4b6	-0.00079257356
145	0x3ba14b9a	0.0049223425
146	0xbb2e3772	-0.002658334
147	0xbbc30a94	-0.0059521887
148	0x3a5c63d5	0.000840721
149	0x3a2ece7d	0.00066683424
150	0xbb8b09d7	-0.0042431164
151	0xbc3f9860	-0.011694044
152	0xbba072b1	-0.004896485
153	0xbb8cb4f5	-0.0042940327
154	0x3a785944	0.0009473751
155	0x3b6cd7e6	0.0036139428
156	0xbd2d5290	-0.042315066
157	0xbb8a5c58	-0.004222434
158	0xbd170736	-0.03687211
159	0xbbc25396	-0.0059303744
160	0xbb404939	-0.002934052
161	0xbb3f31a4	-0.0029173875
162	0x3ad321ab	0.0016108056
163	0xbb0c09d9	-0.0021368174
164	0xbc1e2b4d	-0.009653878
165	0xbb9ce6c4	-0.0047882516
166	0xb9d79e17	-0.00041125782
167	0x3aa95f06	0.0012921996
168	0xba014d49	-0.0004932476
169	0xb9cd93a9	-0.00039210662
170	0xbbd5c6e3	-0.0065239533
171	0xb9d2f10e	-0.0004023392
172	0x3a204d26	0.00061150116
173	0x3c76616d	0.015037877
174	0x3dd4371d	0.103620745
175	0xba343ec1	-0.0006875806
176	0xbc10dd2a	-0.008841792
177	0xbce5bd3a	-0.028044332
178	0xba679e4b	-0.0008835538
179	0x3b85950a	0.0040766047
180	0xbb802c69	-0.003911544
181	0xbb4893a0	-0.003060557
182	0xb97a0da6	-0.00023846942
183	0x3b46bc1b	0.0030324522
184	0xb8d4a969	-0.00010140503
185	0x3b626d99	0.0034550189
186	0xbbc76304	-0.0060848016
187	0xb9c16eb2	-0.00036894303
188	0xbb47d759	-0.0030493347
189	0x3a8d0431	0.0010758695
190	0x3b74114c	0.0037241755
191	0x3a7dae94	0.0009677198
192	0xbb622efd	-0.003451287
193	0xbc0e2653	-0.008676129
194	0x3b1d5cf0	0.0024011694
195	0xb8013cf0	-3.081275e-05
196	0xbbe5a2e0	-0.0070079416
197	0xbba08f14	-0.0048998687
198	0xbb31dada	-0.0027138502
199	0xbb7ee9e1	-0.0038896727
200	0xbc18285c	-0.009286966
201	0x3a87b2de	0.0010352989
202	0xbad4d2d3	-0.0016237147
203	0x3c8d6f80	0.017265081
204	0x3b4c307b	0.0031156826
205	0xbb35a8b1	-0.0027718956
206	0xba639e48	-0.00086829485
207	0xbcc9c528	-0.024630144
208	0xbbc7db64	-0.0060991514
209	0xbb4a42bd	-0.0030862533
210	0xbb42472d	-0.0029644475
211	0xbc637b9d	-0.013884452
212	0x3b2e093e	0.0026555802
213	0xbbbfb2b2	-0.0058501596
214	0x3b84b5ed	0.0040500076
215	0xbbe5d54d	-0.007013953
216	0x3ad2d897	0.0016086277
217	0xbba0bac2	-0.0049050758
218	0x3b67c533	0.0035365343
219	0xbb762e52	-0.003756423
220	0x3c282d6e	0.0102647375
221	0xbc03dd60	-0.008048385
222	0xbb2c50aa	-0.0026293197
223	0xbb086df4	-0.002081749
224	0xba8d5a50	-0.0010784362
225	0xbd05a8f9	-0.032631848
226	0xba73b1f4	-0.00092962314
227	0x3b2c3b43	0.002628044
228	0xbb92c447	-0.0044789645
229	0x3a72cb92	0.0009261902
230	0xbb050498	-0.0020296928
231	0xbab63e10	-0.0013903994
232	0x3b29d7a8	0.0025915895
233	0x3c308dc2	0.010775985
234	0xbba0631f	-0.0048946287
235	0xbb904a16	-0.004403363
236	0xbb4037bc	-0.0029330095
237	0xba154a43	-0.0005694965
238	0xbbbe1dae	-0.005801878
239	0x3a5ac469	0.00083453074
240	0xbbe28956	-0.0069133444
241	0x3aa6882f	0.0012705381
242	0xbb667c18	-0.003516918
243	0x3c0d9142	0.008640589
244	0xbbebfe69	-0.007201959
245	0xbac145f5	-0.001474558
246	0x38e0580f	0.000106975545
247	0xbb3846e9	-0.0028118438
248	0x3ce3a51c	0.027788691
249	0x3b96a3e7	0.0045971754
250	0x3a4523e4	0.0007520302
251	0x3b06b7f3	0.002055642
252	0xbc0dbe30	-0.008651301
253	0x3aacafb3	0.0013174921
254	0xbc5c6868	-0.013452627
255	0xbc8822d2	-0.016618166

action_model._continuous_distribution.mu.bias f4 [2]
0	0xbcc4d2bd	-0.02402627
1	0x3d0c0fb9	0.03419468

exp_avg f4 [128, 41]
0	0xb80c7ced	-3.3494947e-05
1	0x380c1594	3.3398697e-05
2	0x00000000	0.0
3	0xb3a669ed	-7.749245e-08
4	0x378f6726	1.709496e-05
5	0x378b0c96	1.6575952e-05
6	0xb78b0cbe	-1.6576025e-05
7	0x00000000	0.0
8	0x00000000	0.0
9	0x36d2a235	6.277371e-06
10	0xb77c7e9d	-1.504985e-05
11	0x377b9758	1.4996003e-05
12	0x00000000	0.0
13	0xb3a6c632	-7.766029e-08
14	0x37efca62	2.8585262e-05
15	0x371393ed	8.796324e-06
16	0xb7139414	-8.79636e-06
17	0x00000000	0.0
18	0x00000000	0.0
19	0xb7905173	-1.7204065e-05
20	0x37d95425	2.5907599e-05
21	0xb7d9fd44	-2.5986352e-05
22	0x00000000	0.0
23	0xb3b43e56	-8.393242e-08
24	0x37de504a	2.650185e-05
25	0x37c92a60	2.39808e-05
26	0xb7c92a81	-2.398086e-05
27	0x00000000	0.0
28	0x00000000	0.0
29	0xb7985281	-1.815823e-05
30	0xb516ffe4	-5.6251724e-07
31	0x350362b8	4.894496e-07
32	0x00000000	0.0
33	0xb3b81076	-8.571162e-08
34	0x36f7a0c0	7.3798874e-06
35	0x363f0ca2	2.8468571e-06
36	0x00000000	0.0
37	0x00000000	0.0
38	0x00000000	0.0
39	0x00000000	0.0
40	0x00000000	0.0
41	0xb84cb4a0	-4.880561e-05
42	0x3857a396	5.1412346e-05
43	0x00000000	0.0
44	0xb602c582	-1.9486474e-06
45	0xb5edf400	-1.7728889e-06
46	0x36e8ebac	6.9415746e-06
47	0xb6e8ea8e	-6.9414446e-06
48	0x00000000	0.0
49	0x00000000	0.0
50	0x375094d5	1.2432419e-05
51	0xb6a851e2	-5.0163226e-06
52	0x36d00bf6	6.2002755e-06
53	0x00000000	0.0
54	0xb602bc53	-1.9481129e-06
55	0x37374968	1.0924741e-05
56	0x37fdceca	3.0256244e-05
57	0xb7fdceea	-3.0256302e-05
58	0x00000000	0.0
59	0x00000000	0.0
60	0xb5b0143a	-1.3118909e-06
61	0x3541f28d	7.225106e-07
62	0x353c4aea	7.014447e-07
63	0x00000000	0.0
64	0xb60164f5	-1.9281263e-06
65	0x373f6220	1.1407334e-05
66	0xb5148662	-5.532985e-07
67	0x351486e4	5.533059e-07
68	0x00000000	0.0
69	0x00000000	0.0
70	0xb7d48899	-2.5335978e-05
71	0xb79a9944	-1.84296e-05
72	0x37aac0cf	2.0355363e-05
73	0x00000000	0.0
74	0xb601038d	-1.9224565e-06
75	0x3748b889	1.1963894e-05
76	0xb8b767da	-8.745464e-05
77	0x00000000	0.0
78	0x00000000	0.0
79	0x00000000	0.0
80	0x00000000	0.0
81	0x00000000	0.0
82	0xb7c595a1	-2.3553906e-05
83	0x37cdcce3	2.4533312e-05
84	0x00000000	0.0
85	0xb4ee13f4	-4.4345472e-07
86	0x3819760c	3.6587982e-05
87	0x37545569	1.2656071e-05
88	0xb75454ef	-1.265596e-05
89	0x00000000	0.0
90	0x00000000	0.0
91	0x3814f5de	3.551493e-05
92	0x374d1719	1.222433e-05
93	0xb7458db9	-1.1775112e-05
94	0x00000000	0.0
95	0xb4edd36c	-4.429852e-07
96	0x3814a67e	3.5441008e-05
97	0x38188baf	3.6369715e-05
98	0xb8188bc9	-3.636981e-05
99	0x00000000	0.0
100	0x00000000	0.0
101	0x3830c37b	4.2143725e-05
102	0x37d8fcb2	2.5866877e-05
103	0xb7d4b8bd	-2.5358395e-05
104	0x00000000	0.0
105	0xb4e46668	-4.254282e-07
106	0x38405b1f	4.586123e-05
107	0x387666cf	5.874672e-05
108	0xb87666f6	-5.874686e-05
109	0x00000000	0.0
110	0x00000000	0.0
111	0x3809e2ee	3.287469e-05
112	0xb7a600cf	-1.9789119e-05
113	0x37ac3b7b	2.0531696e-05
114	0x00000000	0.0
115	0xb4e1b9d4	-4.2044724e-07
116	0x385a5dcd	5.206261e-05
117	0xb8cea301	-9.853207e-05
118	0x00000000	0.0
119	0x00000000	0.0
120	0x00000000	0.0
121	0x00000000	0.0
122	0x00000000	0.0
123	0xb89c4e8e	-7.4532916e-05
124	0x389b4bbc	7.4050826e-05
125	0x00000000	0.0
126	0x350ff172	5.3623e-07
127	0xb61feaab	-2.382944e-06
128	0x3740a149	1.1481644e-05
129	0xb740a150	-1.148165e-05
130	0x00000000	0.0
131	0x00000000	0.0
132	0xb7ea6929	-2.7943943e-05
133	0xb8073201	-3.2233078e-05
134	0x38062c4c	3.1989344e-05
135	0x00000000	0.0
136	0x350ff49c	5.3627605e-07
137	0x377f6dcc	1.52247485e-05
138	0xb5c74318	-1.4846182e-06
139	0x35c74384	1.4846305e-06
140	0x00000000	0.0
141	0x00000000	0.0
142	0xb8880488	-6.485829e-05
143	0xb72b4c9e	-1.0210233e-05
144	0x3726cd65	9.942193e-06
145	0x00000000	0.0
146	0x35106ad9	5.3799664e-07
147	0x37888fc8	1.6279417e-05
148	0xb7aa9244	-2.033369e-05
149	0x37aa925f	2.0333739e-05
150	0x00000000	0.0
151	0x00000000	0.0
152	0xb8919a7d	-6.9429145e-05
153	0x35d480d8	1.5832729e-06
154	0xb603226c	-1.9540557e-06
155	0x00000000	0.0
156	0x35108c66	5.3848487e-07
157	0x3757db97	1.2866126e-05
158	0xb7d5cb9c	-2.5486392e-05
159	0x00000000	0.0
160	0x00000000	0.0
161	0x00000000	0.0
162	0x00000000	0.0
163	0x00000000	0.0
164	0xb78b1909	-1.658175e-05
165	0x3798ba60	1.82066e-05
166	0x00000000	0.0
167	0xb60288ae	-1.9451068e-06
168	0x377f3438	1.52113425e-05
169	0x379af158	1.8470615e-05
170	0xb79af1a0	-1.8470746e-05
171	0x00000000	0.0
172	0x00000000	0.0
173	0x368e0dbd	4.233529e-06
174	0xb75720d8	-1.2822646e-05
175	0x37638384	1.3560875e-05
176	0x00000000	0.0
177	0xb6028ea3	-1.9454535e-06
178	0x37c23ba8	2.3154382e-05
179	0x375bf99e	1.3111536e-05
180	0xb75bf9f8	-1.3111618e-05
181	0x00000000	0.0
182	0x00000000	0.0
183	0xb75f537f	-1.3311276e-05
184	0x37555ec4	1.2717854e-05
185	0xb7467e12	-1.1831073e-05
186	0x00000000	0.0
187	0xb6036d4c	-1.958414e-06
188	0x379feccb	1.9064542e-05
189	0x37155b6b	8.902377e-06
190	0xb7155b80	-8.902396e-06
191	0x00000000	0.0
192	0x00000000	0.0
193	0xb755a496	-1.273411e-05
194	0xb78e6e43	-1.6979064e-05
195	0x3798b339	1.8203269e-05
196	0x00000000	0.0
197	0xb603ac77	-1.962091e-06
198	0x3792d1b8	1.7502214e-05
199	0xb7783612	-1.4794541e-05
200	0x00000000	0.0
201	0x00000000	0.0
202	0x00000000	0.0
203	0x00000000	0.0
204	0x00000000	0.0
205	0xb690870a	-4.307255e-06
206	0x36968d74	4.4868157e-06
207	0x00000000	0.0
208	0xb53cbe20	-7.0312126e-07
209	0xb980777d	-0.00024503088
210	0xb899ffa7	-7.3432275e-05
211	0x3899ffb1	7.343235e-05
212	0x00000000	0.0
213	0x00000000	0.0
214	0xb98c8b79	-0.00026806796
215	0xb8697850	-5.566358e-05
216	0x3869b87a	5.5723336e-05
217	0x00000000	0.0
218	0xb53ce047	-7.0361824e-07
219	0xb96ff9df	-0.000228859
220	0xb951f3e1	-0.00020022645
221	0x3951f401	0.00020022692
222	0x00000000	0.0
223	0x00000000	0.0
224	0xb9965869	-0.000286761
225	0xb95b4a78	-0.0002091321
226	0x395b9805	0.00020942099
227	0x00000000	0.0
228	0xb541d90a	-7.2213936e-07
229	0xb997144d	-0.0002881609
230	0xb9b5f2ec	-0.00034704
231	0x39b5f312	0.00034704112
232	0x00000000	0.0
233	0x00000000	0.0
234	0xb9daaf30	-0.00041710725
235	0x3a5a372e	0.00083242625
236	0xba5a9760	-0.00083385967
237	0x00000000	0.0
238	0xb5434212	-7.2739306e-07
239	0xb9bad1e6	-0.0003563307
240	0x39882ac9	0.0002597182
241	0x00000000	0.0
242	0x00000000	0.0
243	0x00000000	0.0
244	0x00000000	0.0
245	0x00000000	0.0
246	0xb72f7cc2	-1.045986e-05
247	0x379e526c	1.8873448e-05
248	0x00000000	0.0
249	0xb70615c8	-7.992094e-06
250	0xb6135f69	-2.1960243e-06
251	0x36a6f862	4.976101e-06
252	0xb6a6f802	-4.9760574e-06
253	0x00000000	0.0
254	0x00000000	0.0
255	0xb6a0bf9c	-4.790678e-06

exp_avg_sq f4 [128, 41]
0	0x32f96953	2.9035311e-08
1	0x32f96d3e	2.9037093e-08
2	0x00000000	0.0
3	0x2d065415	7.635688e-12
4	0x33100484	3.353172e-08
5	0x31e2f569	6.6053656e-09
6	0x31e2f534	6.605342e-09
7	0x00000000	0.0
8	0x00000000	0.0
9	0x3310438c	3.3589046e-08
10	0x323deabe	1.1054622e-08
11	0x323dc014	1.1044921e-08
12	0x00000000	0.0
13	0x2d06667e	7.639776e-12
14	0x33035368	3.0576672e-08
15	0x331fadc1	3.71781e-08
16	0x331fae06	3.7178346e-08
17	0x00000000	0.0
18	0x00000000	0.0
19	0x3321fcbe	3.77156e-08
20	0x323fedc3	1.1171724e-08
21	0x32407093	1.1201467e-08
22	0x00000000	0.0
23	0x2d22f868	9.263791e-12
24	0x3326ae46	3.8808388e-08
25	0x3353677c	4.9221384e-08
26	0x335367bd	4.9221615e-08
27	0x00000000	0.0
28	0x00000000	0.0
29	0x334cd45b	4.7690587e-08
30	0x318d7118	4.1164974e-09
31	0x318d7f03	4.1180797e-09
32	0x00000000	0.0
33	0x2d3b500b	1.06474924e-11
34	0x334ee9d4	4.8175778e-08
35	0x33d46300	9.890027e-08
36	0x00000000	0.0
37	0x00000000	0.0
38	0x00000000	0.0
39	0x00000000	0.0
40	0x00000000	0.0
41	0x353c6a71	7.019035e-07
42	0x354296c3	7.249002e-07
43	0x00000000	0.0
44	0x32cb02ce	2.3633586e-08
45	0x33e2a0eb	1.0553216e-07
46	0x32dd9b75	2.579848e-08
47	0x32dd9b2e	2.5798354e-08
48	0x00000000	0.0
49	0x00000000	0.0
50	0x33240486	3.818834e-08
51	0x33d0ec2d	9.728715e-08
52	0x33d610ee	9.968231e-08
53	0x00000000	0.0
54	0x32cb02d9	2.3633605e-08
55	0x3402358b	1.2126672e-07
56	0x34276629	1.5590253e-07
57	0x3427666b	1.5590346e-07
58	0x00000000	0.0
59	0x00000000	0.0
60	0x34ad3ed3	3.2269472e-07
61	0x327c2a63	1.4677968e-08
62	0x321d7141	9.164354e-09
63	0x00000000	0.0
64	0x32cb0876	2.3636158e-08
65	0x343aade2	1.7385858e-07
66	0x319b7548	4.524427e-09
67	0x319b7574	4.5244466e-09
68	0x00000000	0.0
69	0x00000000	0.0
70	0x34f7e887	4.617652e-07
71	0x3281c537	1.510726e-08
72	0x317efce8	3.7105625e-09
73	0x00000000	0.0
74	0x32cb2474	2.3648887e-08
75	0x346894e9	2.1660857e-07
76	0x34ee3b68	4.4374178e-07
77	0x00000000	0.0
78	0x00000000	0.0
79	0x00000000	0.0
80	0x00000000	0.0
81	0x00000000	0.0
82	0x353f7708	7.132626e-07
83	0x35887b69	1.0168707e-06
84	0x00000000	0.0
85	0x349cf63b	2.923642e-07
86	0x34922705	2.722301e-07
87	0x3330422e	4.1038383e-08
88	0x333041ef	4.103816e-08
89	0x00000000	0.0
90	0x00000000	0.0
91	0x33c404ae	9.1278125e-08
92	0x33fa4e2b	1.1655751e-07
93	0x3423df2d	1.5261749e-07
94	0x00000000	0.0
95	0x349cf63a	2.9236418e-07
96	0x34844f64	2.464468e-07
97	0x349445f9	2.761806e-07
98	0x3494463d	2.7618253e-07
99	0x00000000	0.0
100	0x00000000	0.0
101	0x350a7f20	5.1594e-07
102	0x33ddeeda	1.0334561e-07
103	0x331d4123	3.6613653e-08
104	0x00000000	0.0
105	0x349cf780	2.9237344e-07
106	0x350492de	4.938755e-07
107	0x336220d6	5.264959e-08
108	0x3362211f	5.264985e-08
109	0x00000000	0.0
110	0x00000000	0.0
111	0x355fb6bc	8.333989e-07
112	0x342a7cc1	1.5877869e-07
113	0x32b47d7c	2.1011822e-08
114	0x00000000	0.0
115	0x349cf891	2.923812e-07
116	0x3513706e	5.4925374e-07
117	0x355a1171	8.123671e-07
118	0x00000000	0.0
119	0x00000000	0.0
120	0x00000000	0.0
121	0x00000000	0.0
122	0x00000000	0.0
123	0x33c68ff8	9.246281e-08
124	0x33c6a984	9.250928e-08
125	0x00000000	0.0
126	0x2e3b3855	4.256891e-11
127	0x330cae33	3.2754723e-08
128	0x31bfc487	5.581174e-09
129	0x31bfc44f	5.5811493e-09
130	0x00000000	0.0
131	0x00000000	0.0
132	0x32ee82e2	2.7766365e-08
133	0x329975d6	1.786513e-08
134	0x32994771	1.7844032e-08
135	0x00000000	0.0
136	0x2e3b3cd6	4.257291e-11
137	0x33059f90	3.1111597e-08
138	0x331ed8c9	3.6984407e-08
139	0x331ed903	3.6984613e-08
140	0x00000000	0.0
141	0x00000000	0.0
142	0x334e8d4c	4.809162e-08
143	0x31fa94d7	7.2928787e-09
144	0x31fb6331	7.316338e-09
145	0x00000000	0.0
146	0x2e419e2d	4.4023608e-11
147	0x33312606	4.1245606e-08
148	0x332a1257	3.959789e-08
149	0x332a127f	3.959803e-08
150	0x00000000	0.0
151	0x00000000	0.0
152	0x338d0836	6.567318e-08
153	0x317c59a8	3.672179e-09
154	0x317b86fa	3.6602033e-09
155	0x00000000	0.0
156	0x2e430395	4.4341048e-11
157	0x3364eedf	5.330264e-08
158	0x33ab5d02	7.979726e-08
159	0x00000000	0.0
160	0x00000000	0.0
161	0x00000000	0.0
162	0x00000000	0.0
163	0x00000000	0.0
164	0x321e0b71	9.199412e-09
165	0x32301c6a	1.0251009e-08
166	0x00000000	0.0
167	0x309170b3	1.058217e-09
168	0x32c39659	2.2769358e-08
169	0x3203a07f	7.661696e-09
170	0x3203a072	7.661685e-09
171	0x00000000	0.0
172	0x00000000	0.0
173	0x32dcb016	2.5691445e-08
174	0x3287e996	1.5822291e-08
175	0x328923f1	1.5965243e-08
176	0x00000000	0.0
177	0x309170d7	1.058221e-09
178	0x329ed1dc	1.8489054e-08
179	0x32a8f8d8	1.9670935e-08
180	0x32a8f925	1.9671072e-08
181	0x00000000	0.0
182	0x00000000	0.0
183	0x32f89d48	2.8942523e-08
184	0x3202ac53	7.606178e-09
185	0x31f646ca	7.16759e-09
186	0x00000000	0.0
187	0x31109fc2	2.104557e-09
188	0x32d79962	2.5099045e-08
189	0x32f45e40	2.8448198e-08
190	0x32f45e89	2.8448328e-08
191	0x00000000	0.0
192	0x00000000	0.0
193	0x32f5800e	2.8579986e-08
194	0x31ff6e27	7.4339996e-09
195	0x31db319c	6.379379e-09
196	0x00000000	0.0
197	0x31277c6a	2.437242e-09
198	0x32fff593	2.9797581e-08
199	0x33c947e3	9.372868e-08
200	0x00000000	0.0
201	0x00000000	0.0
202	0x00000000	0.0
203	0x00000000	0.0
204	0x00000000	0.0
205	0x35e99742	1.7403875e-06
206	0x35e9a262	1.7407112e-06
207	0x00000000	0.0
208	0x2faf71d0	3.1913183e-10
209	0x36dc0ccf	6.558002e-06
210	0x355ea242	8.293756e-07
211	0x355ea1fe	8.2937174e-07
212	0x00000000	0.0
213	0x00000000	0.0
214	0x36f157df	7.1925892e-06
215	0x354bae4d	7.5877034e-07
216	0x354b99e7	7.584735e-07
217	0x00000000	0.0
218	0x2fafbf52	3.1968256e-10
219	0x36bf4530	5.700298e-06
220	0x36e79092	6.9011667e-06
221	0x36e790f5	6.9012117e-06
222	0x00000000	0.0
223	0x00000000	0.0
224	0x36b5883c	5.41008e-06
225	0x36a6e3bc	4.9736973e-06
226	0x36a75125	4.9864343e-06
227	0x00000000	0.0
228	0x300b66de	5.071409e-10
229	0x36f77fdf	7.37606e-06
230	0x3742566e	1.1583425e-05
231	0x374256ae	1.1583483e-05
232	0x00000000	0.0
233	0x00000000	0.0
234	0x36d29306	6.2756035e-06
235	0x37050bf3	7.9302e-06
236	0x3705ab91	7.967364e-06
237	0x00000000	0.0
238	0x31f72d55	7.1938e-09
239	0x3712ced3	8.750433e-06
240	0x3724be4d	9.81947e-06
241	0x00000000	0.0
242	0x00000000	0.0
243	0x00000000	0.0
244	0x00000000	0.0
245	0x00000000	0.0
246	0x314142c9	2.812316e-09
247	0x3382f64c	6.098398e-08
248	0x00000000	0.0
249	0x337ae2a9	5.8413807e-08
250	0x337bee67	5.8657317e-08
251	0x32005c21	7.471528e-09
252	0x32005bf4	7.471488e-09
253	0x00000000	0.0
254	0x00000000	0.0
255	0x33396758	4.316766e-08

exp_avg f4 [128]
0	0x373fa88b	1.1423729e-05
1	0xb81a8403	-3.6839407e-05
2	0xb806ad4c	-3.2109485e-05
3	0xb64b68fe	-3.031047e-06
4	0x37c30659	2.3248767e-05
5	0x380d1878	3.3639808e-05
6	0xb75a8d94	-1.3026776e-05
7	0xb7f6e0e3	-2.9430206e-05
8	0x3798e12f	1.8224671e-05
9	0xb844b2c4	-4.689653e-05
10	0x361335ae	2.1935953e-06
11	0xb70ab73b	-8.268103e-06
12	0xb6e72346	-6.888443e-06
13	0xb85c49a5	-5.2520674e-05
14	0x380a175c	3.292352e-05
15	0xb7ecf1b5	-2.8245946e-05
16	0xb847e052	-4.765421e-05
17	0x3491a7f0	2.7130545e-07
18	0x37df2e34	2.6605187e-05
19	0x38d5f16c	0.000102016
20	0x379b806c	1.8537241e-05
21	0xb8976c4a	-7.2204115e-05
22	0x36f0b8f3	7.1740883e-06
23	0x3772de64	1.4476103e-05
24	0xb9207665	-0.00015302894
25	0xb5108dde	-5.3850624e-07
26	0xb90c4053	-0.00013375403
27	0x381f015a	3.7909813e-05
28	0x37487f66	1.1950591e-05
29	0x384a29c6	4.8199458e-05
30	0x3728dbb0	1.006473e-05
31	0x3711cdf3	8.690625e-06
32	0xb6514946	-3.1186078e-06
33	0x35acb327	1.2867139e-06
34	0xb6e9b8ce	-6.965455e-06
35	0xb88fbbc0	-6.8537425e-05
36	0x37759708	1.4638303e-05
37	0x37d01928	2.4807247e-05
38	0x36bbb798	5.5944074e-06
39	0xb808ddfd	-3.263167e-05
40	0xb775c22c	-1.4648347e-05
41	0xb7da319e	-2.601073e-05
42	0xb8bb7dc3	-8.94028e-05
43	0x3735fe15	1.0847599e-05
44	0x382beee9	4.099208e-05
45	0x379593fe	1.7831098e-05
46	0xb7b502ba	-2.1578151e-05
47	0x3820c00d	3.8325834e-05
48	0xb71fef4c	-9.532854e-06
49	0x379e6db2	1.8886149e-05
50	0x3439ca00	1.7302955e-07
51	0x384d93bb	4.9013393e-05
52	0xb7592838	-1.2943572e-05
53	0x355a2694	8.1267467e-07
54	0x368e38be	4.2385354e-06
55	0xb89cc276	-7.474881e-05
56	0x382ca8d4	4.116523e-05
57	0xb7bcf4b9	-2.2525304e-05
58	0x37b8131e	2.1943411e-05
59	0xb8be5ed4	-9.077569e-05
60	0xb6fc8886	-7.5260787e-06
61	0x37e45cc1	2.722291e-05
62	0xb7ec4e47	-2.8169843e-05
63	0xb696191c	-4.4732715e-06
64	0xb5bab22d	-1.3909936e-06
65	0xb70377e2	-7.836121e-06
66	0xb8ba5412	-8.8848305e-05
67	0xb6e150b0	-6.714916e-06
68	0xb7394995	-1.1043991e-05
69	0x3653cf84	3.156224e-06
70	0x380c20c9	3.3409135e-05
71	0x36082566	2.0287348e-06
72	0x37e84848	2.7690214e-05
73	0x3609ce28	2.053459e-06
74	0xb83ea553	-4.54535e-05
75	0xb819de88	-3.668529e-05
76	0xb7623cfc	-1.3484849e-05
77	0xb83dc0e5	-4.524076e-05
78	0x3874a4ed	5.8327732e-05
79	0x3664f6b6	3.4118252e-06
80	0x37803816	1.5284906e-05
81	0xb7df5d8f	-2.6627238e-05
82	0xb8c4596c	-9.3626644e-05
83	0xb7db32ba	-2.6130456e-05
84	0x32fe66d0	2.9616245e-08
85	0x36fc7eda	7.5249527e-06
86	0xb80af5fd	-3.313086e-05
87	0xb797f419	-1.811427e-05
88	0xb810a49e	-3.4485587e-05
89	0xb889ecff	-6.576813e-05
90	0x375c1e96	1.3120143e-05
91	0x382306de	3.8868624e-05
92	0xb786c3d9	-1.6065243e-05
93	0x37cdb261	2.4520969e-05
94	0xb80fe415	-3.4306275e-05
95	0xb4ce9a40	-3.8482722e-07
96	0x355f2d60	8.3140003e-07
97	0xb7a25d96	-1.9355484e-05
98	0xb7a9dfa2	-2.0250507e-05
99	0xb78176e6	-1.5433365e-05
100	0xb894c69c	-7.094184e-05
101	0xb7c4f2da	-2.3478107e-05
102	0x3711c6f4	8.688996e-06
103	0x38a2bd3c	7.7600096e-05
104	0x37bd6a05	2.2579925e-05
105	0x382bf308	4.0995918e-05
106	0xb8a2d51e	-7.764458e-05
107	0xb8bcb9fe	-8.999182e-05
108	0xb6a66b81	-4.9597006e-06
109	0x3706dc9f	8.03839e-06
110	0x3775fb2a	1.4661617e-05
111	0x36809b0c	3.832747e-06
112	0xb864b601	-5.452894e-05
113	0xb84edc2a	-4.931927e-05
114	0x37d023ce	2.4812205e-05
115	0xb7148f75	-8.854889e-06
116	0x38408e9e	4.590919e-05
117	0xb6024d1c	-1.9416393e-06
118	0x38060368	3.1951262e-05
119	0xb874773a	-5.828517e-05
120	0xb802f79e	-3.1225027e-05
121	0xb8547150	-5.065027e-05
122	0xb6d2d41b	-6.28318e-06
123	0x382e2733	4.152134e-05
124	0xb7d3b17d	-2.523581e-05
125	0x37f303c7	2.8969616e-05
126	0x3709822c	8.196144e-06
127	0xb862f06a	-5.4106502e-05
