Assets/results/firstYamlConfigTest/MyAgent/MyAgent-4499990.onnx (onnx, 92484 bytes, 9 tensors)

network_body.observation_encoder.processors.0.normalizer.running_mean f4 [35]
000000 b4 48 ce 3c f8 86 76 3f 00 00 00 00 de 63 41 3c
       0.025181152 0.96299696 0.0 0.011803595
000010 55 65 d3 3e e0 ce 98 3e 41 73 33 3f 00 00 00 00
       0.41288248 0.29845333 0.7009774 0.0
000020 7a de 17 3a 7a 90 ca 3e 11 49 7f 3e e0 ea 3c 3f
       0.00057933445 0.39563352 0.24930216 0.7379589
000030 00 00 00 00 b5 e2 50 3c 90 f2 d7 3e 7e b6 46 3f
       0.0 0.012749364 0.42177248 0.7762221
000040 dc 25 65 3e 00 00 00 00 00 00 00 00 23 24 8e 3e
       0.22377723 0.0 0.0 0.27761945
000050 b6 dd 4f 3f 27 4a 33 3e 00 00 00 00 6e af 53 3c
       0.8119768 0.17508756 0.0 0.012920244
000060 f2 e3 9d 3e cd 5e 67 3f 45 02 c5 3d 00 00 00 00
       0.3083797 0.9037903 0.096195735 0.0
000070 00 00 00 00 31 d6 62 3e ea 94 68 3f e4 e1 a0 3d
       0.0 0.2215202 0.90852225 0.07855585
000080 00 00 00 00 ac c7 53 3c df 6b 87 3e
       0.0 0.012926023 0.26449487

network_body._body_endoder.seq_layers.0.weight f4 [128, 36]
000000 12 09 a9 3e 32 c3 75 bd bf 55 42 be 04 7f 1e be
       0.33014733 -0.060000606 -0.18978022 -0.1547814
000010 52 a8 33 3e df 6e 69 bd 04 16 3b be af 50 74 bd
       0.17544678 -0.0569905 -0.18270117 -0.05964726
000020 65 50 0a 3e ff 19 de bd ee 14 e5 3b 0f a1 6c 3e
       0.1350723 -0.10844802 0.0069910204 0.23108314
000030 37 06 96 bd 1a d8 ee bd cc 07 43 3e 34 31 c7 bd
       -0.07325404 -0.11662312 0.19045943 -0.097261816
000040 87 6d b3 3e ca 08 64 be 86 db 17 3e bc bb 49 3e
       0.350445 -0.22268978 0.14829835 0.19700521
000050 a8 48 e6 3d 02 9f b6 3d d3 55 72 3e ca 16 f2 bd
       0.11244327 0.08917047 0.23665552 -0.11820753
000060 2b f1 2a 3e 7e aa 3a be 6b ec ef 3d 66 90 97 bd
       0.16693561 -0.182291 0.11715015 -0.07400589
000070 92 cd 99 3d 43 ae b1 3e 0e 80 f5 bd be d4 22 3e
       0.075099126 0.34703264 -0.11987315 0.15901467
000080 c2 83 97 be bb e3 24 3e 38 58 a3 3e f8 93 28 be
       -0.2959271 0.16102497 0.31903243 -0.16462696
000090 98 53 f6 3d aa d9 14 3d c0 4c 60 be ea 71 26 3d
       0.12027663 0.036340393 -0.21904278 0.04063598
0000a0 33 a4 86 be 36 70 41 be ac ad f5 bb 3f 8f 7d be
       -0.2629715 -0.18890461 -0.00749751 -0.24761675
0000b0 e3 5a 63 3d c3 47 41 be 17 5c bf 3b a9 9c 28 be
       0.0555066 -0.18875031 0.0058398354 -0.16466011
0000c0 6f 47 73 3e 2b 08 af bc 17 20 75 3d 20 c3 42 3d
       0.23757719 -0.0213662 0.059845056 0.047549367
0000d0 94 e7 d2 3e d3 ab 33 3d 8a 96 38 3d d6 b2 e2 bc
       0.41192305 0.043865036 0.04506544 -0.027673166
0000e0 d0 9a 05 3e 68 f4 14 be 2a 3a 2b 3e 36 bf 08 3e
       0.13047338 -0.14546359 0.16721407 0.13354191
0000f0 23 78 d7 bd ae d0 a7 3d 17 8b 21 be 86 ef cd bc
       -0.10520961 0.08194099 -0.15775715 -0.025138628
000100 fb 0e 17 3e 3c a5 35 3e ca 9e 95 3e f0 31 43 bd
       0.14751808 0.17738813 0.2922271 -0.047655046
000110 d3 99 23 3e b8 a4 95 3e 30 80 3d 3e f6 71 d4 bc
       0.15976648 0.29227233 0.18505931 -0.025933247
000120 ab 4b 60 3c e6 fd ef 3d 7e ab 18 be f3 25 90 3e
       0.013689916 0.11718349 -0.14909169 0.28153953
000130 20 9f db bd f0 29 08 be 24 74 8f 3e df 4f 35 3e
       -0.1072371 -0.13297248 0.28018296 0.1770625
000140 20 a2 6f 3d 87 c2 79 bd 47 f2 b1 bc 2f 39 87 3e
       0.058504224 -0.06097653 -0.021721972 0.26410815
000150 db b6 02 3e 88 28 2a be 6a 04 de 3c 14 61 53 3c
       0.12765066 -0.16617024 0.027101714 0.012901563
000160 26 88 27 3d 77 33 31 be ec 84 9b 3c bf c8 16 3e
       0.040901326 -0.17304789 0.01898428 0.14725016
000170 ee 31 30 bd d8 67 62 3d 47 30 39 3d f2 34 b3 bd
       -0.043016367 0.055274814 0.045212056 -0.08750333
000180 4a a2 2c be dc bb 0f 3e a3 f6 75 be 9b 99 20 bd
       -0.16858783 0.14036506 -0.24019866 -0.03920899
000190 eb 82 4a bd 5e 13 08 3e 5c e1 14 3e 98 75 7c 3e
       -0.04944126 0.13288638 0.14539093 0.24654233
0001a0 7e 51 50 3e 0e a2 e9 bd ce 0c d8 bd 34 54 2c 3e
       0.20343587 -0.114078626 -0.10549317 0.16828996
0001b0 2c b0 c3 3d fa df aa 3e f0 97 e8 3d a4 17 0c be
       0.095550865 0.33374006 0.11357105 -0.13680893
0001c0 dc df 42 3e 52 6e 09 3e 27 55 65 3d da aa 45 be
       0.19030708 0.1342099 0.05598941 -0.19303456
0001d0 8e 5e 51 be 2e 9f 0a bd 46 ea 84 bd e3 1d 81 bc
       -0.20446226 -0.03384321 -0.064899966 -0.015761321
0001e0 73 92 63 3e 3a f6 d3 bd 4c b4 5f bd c3 3a f7 3d
       0.22223835 -0.10349698 -0.054615304 0.12071755
0001f0 84 38 4f 3e 28 6c 6d 3e 60 46 c9 bc 91 e3 21 be
       0.20236403 0.2318579 -0.02456969 -0.15809466
000200 38 79 99 be c8 18 10 be 0f 59 8e 3e 56 d6 36 bd
       -0.29975295 -0.14071953 0.2780232 -0.044638
000210 f0 b3 5f bd bb a1 b9 3d 0f b7 f6 bd f6 8f 9f be
       -0.05461496 0.09064051 -0.120466344 -0.3116452
000220 e8 b5 0f be 9f 2d 7e 3d 02 fb c6 3b 48 10 61 be
       -0.14034235 0.062055226 0.006072403 -0.21978867
000230 15 bb 29 be 84 8d 07 3e e0 31 2a 3e 86 76 7e be
       -0.16575272 0.13237578 0.16620588 -0.248499
000240 5b 64 cf 3a e8 c7 90 bd 8f fe c3 3d 64 06 6b 3d
       0.0015822755 -0.07069379 0.095700376 0.05737914
000250 68 59 47 bd 0c 93 0b be ac fd 2a 3e 8c 95 ff 3c
       -0.04866925 -0.13630313 0.1669833 0.03119924
000260 77 92 43 3d a7 5d 4d bd 87 dd 2c bd b7 67 9c 3e
       0.0477471 -0.050138142 -0.042203452 0.30547878
000270 20 1d 8d 3d 2a 65 e5 3d fb 8c 26 3e f8 6a c3 3d
       0.06890321 0.11200936 0.16264717 0.09541887
000280 ee eb 38 be 58 cf 95 be ef aa 3f be 01 97 11 bd
       -0.1805875 -0.29259753 -0.1871755 -0.0355444
000290 94 ff a7 bc 92 a9 32 bc 5e c7 b7 bd 8c 2e c0 bd
       -0.020507611 -0.0109046865 -0.08973573 -0.09383878
0002a0 74 01 ed bb e2 78 67 bd b2 53 31 be 96 ee 1a 3e
       -0.0072328392 -0.056511767 -0.17317083 0.15130076
0002b0 ea c3 2f be f7 a9 cb bc 9c b2 c5 bd 7c 7d c8 bc
       -0.17164579 -0.024861319 -0.09653208 -0.024473898
0002c0 e0 4d 31 3d e2 be 86 3e 1c 1c 5a 3b 94 5d 01 3c
       0.043287158 0.26317507 0.0033280915 0.007895846
0002d0 d0 8e 2a bd 98 86 08 3e 4c 85 4a 3e 0b ef 6d be
       -0.041640103 0.13332593 0.19777411 -0.23235719
0002e0 86 b3 6e 3e 56 d9 d9 3d 18 1e 7f bd 1e 66 47 be
       0.2331067 0.10637157 -0.06228456 -0.19472548
0002f0 c7 bb 49 3d 03 40 8e 3d ba 2b 8e be 2e f0 ba bd
       0.049251344 0.06945803 -0.27767736 -0.09127842
000300 34 7b b1 be 1a 20 ba be 30 a7 a6 3d 63 bb b4 bb
       -0.3466431 -0.36352617 0.08137357 -0.0055155023
000310 3f 77 2b be ac 8d 54 bc cb 4d d3 be a6 e8 60 3e
       -0.16744708 -0.01297323 -0.4127029 0.21963748
000320 04 bb 92 be 92 23 91 3e 3f e0 78 3d 72 34 fe bd
       -0.28658307 0.2834745 0.060760733 -0.12412347
000330 06 97 57 bd 8c fc 50 bd d4 b4 eb bd 22 4a 61 3d
       -0.05263426 -0.051022097 -0.115090996 0.05500234
000340 ae 8d 95 bd 54 11 87 3e 52 75 2e 3d 18 e8 5b 3e
       -0.07302414 0.26380408 0.042592354 0.21475255
000350 0c aa e7 be 59 f2 92 3e 28 f6 97 3d e7 f6 c8 3b
       -0.45246923 0.28700522 0.074199975 0.0061329487
000360 c3 49 0f bd b8 e4 cc 3d 6a 42 24 be 1e f0 3c 3e
       -0.034982454 0.10004562 -0.1604096 0.18450972
000370 ab 4b 5d 3e aa e9 ba bc 4b eb 8a be 14 c8 39 3e
       0.21610896 -0.022816498 -0.2713264 0.1814273
000380 88 f3 58 be a3 76 e8 3d f4 23 6d 3e be 08 21 be
       -0.2118665 0.11350753 0.23158246 -0.15725991
000390 af a0 94 3c 56 98 3a be 5e 3e 4f bd 9e ae d4 3d
       0.018143026 -0.18222174 -0.050596587 0.10384868
0003a0 60 28 66 be 90 9e 92 bc 33 51 ae 3e a2 b0 20 3b
       -0.2247634 -0.017897874 0.34046325 0.0024519344
0003b0 a6 f3 20 be 00 5e 38 3d 89 7e 87 bd 26 e7 67 3e
       -0.15717945 0.04501152 -0.066159315 0.2264677
0003c0 96 23 2f 3d ed b5 99 bd 12 bd a6 be b9 60 07 be
       0.042758547 -0.07505403 -0.32566124 -0.1322049
0003d0 96 24 6d 3e 7f e6 4c 3e 63 cf 33 bc 2a 38 9f bd
       0.23158488 0.20009802 -0.010974738 -0.07774384
0003e0 ea cf 32 3e b7 a8 80 3e 76 85 5a 3d 9a c0 8c 3e
       0.17462125 0.2512872 0.053349935 0.27490693
0003f0 ee 15 4e be ca 13 0d 3e 88 59 27 3e 2e 88 da bd
       -0.20125553 0.1377708 0.16342747 -0.106705055

network_body._body_endoder.seq_layers.0.bias f4 [128]
000000 47 17 1c be e0 25 3d be f2 c7 b9 bd fd 26 64 be
       -0.15243255 -0.1847148 -0.0907134 -0.22280498
000010 d4 59 fb bd 52 03 1a bc c0 f9 41 bd a0 4e ec bd
       -0.12272993 -0.009400206 -0.04735732 -0.11538434
000020 ec f3 12 be ef d4 d6 bd be 22 1b be a8 d7 50 be
       -0.14350861 -0.104898326 -0.15149972 -0.20394766
000030 6e 38 15 be e9 c7 fd bd 6a 26 b0 bd ff 1d 12 be
       -0.14572307 -0.123916455 -0.08601077 -0.14269255
000040 d1 23 33 be 0d 47 dc bd 18 a0 41 be 0c 81 3f be
       -0.17494132 -0.10755739 -0.18908727 -0.18701571
000050 69 d3 8d bd d6 79 09 be 7c ef 04 be ff c3 7e be
       -0.06925089 -0.13425383 -0.12981981 -0.24879454
000060 ba 0e bf bd e4 e2 fd bd 18 20 33 be 5a 32 42 be
       -0.09328981 -0.123967916 -0.17492712 -0.1896452
000070 d1 db d8 bc 0f d9 b5 bd 80 b0 29 be ab 1a 38 be
       -0.026472004 -0.08879291 -0.16571236 -0.17978923
000080 06 b6 b8 bd 00 d0 25 bd a4 71 34 be 50 d6 9b be
       -0.09019093 -0.040481567 -0.17621475 -0.30436945
000090 09 74 db bd d3 0e fd bd 74 00 9d bd 82 10 4a be
       -0.10715491 -0.12356343 -0.07666102 -0.1973286
0000a0 29 89 27 be 60 4e a6 bd 4b a5 bd bd 9e 83 38 be
       -0.16360916 -0.081204176 -0.09260043 -0.18018958
0000b0 27 cc e2 bd 98 d3 03 be 9d 60 f3 bd bc 69 24 be
       -0.11074095 -0.12873685 -0.11883662 -0.1605596
0000c0 0c 8f 37 be cc 6a b8 bd 1f 62 70 be 68 b9 ed bc
       -0.17925662 -0.09004745 -0.2347493 -0.029019073
0000d0 0a 09 1a be 76 62 0e be 4d 83 4d be a1 85 71 be
       -0.1504251 -0.13904747 -0.20069619 -0.23586132
0000e0 25 b0 4b be 33 09 35 be 57 9a 78 bd 43 d6 f5 bd
       -0.19891413 -0.1767929 -0.060694065 -0.12003758
0000f0 be 3f 22 bd 12 06 4c be 7d 19 bd bd 34 2b 2b be
       -0.03961157 -0.1992419 -0.09233377 -0.167157
000100 51 48 40 be 60 93 12 be 28 ec 40 be 94 eb 8c bc
       -0.18777587 -0.14314032 -0.18840086 -0.017202176
000110 1d ee 4c be 85 02 32 be 75 37 88 bd ff 16 17 be
       -0.20012708 -0.17383774 -0.066512026 -0.14754866
000120 70 74 16 be df d0 15 be ac 26 c9 bd 25 fc 70 be
       -0.14692855 -0.14630459 -0.09821829 -0.23533686
000130 43 f3 2b be 18 a4 9e bd c3 25 a5 bd 9b 92 d8 bd
       -0.16792016 -0.07746142 -0.08063843 -0.10574838
000140 a0 bd ee bd 5f 83 71 be a3 e7 93 be e4 ff bd bc
       -0.11657262 -0.2358527 -0.28887662 -0.023193307
000150 02 38 34 be cd 41 a0 be 43 42 08 be 5d 26 86 bd
       -0.1759949 -0.31300202 -0.13306527 -0.06550286
000160 e2 68 d3 bd a8 15 28 bd 38 52 4f be 09 d0 25 be
       -0.10322739 -0.041036278 -0.20246208 -0.1619264
000170 9d 05 75 bd 83 8c 33 be 7e 89 96 be 36 b4 39 3c
       -0.059819806 -0.1753407 -0.29401773 0.01133447
000180 24 f0 39 be 19 ef 6d be d7 c1 47 be e2 aa ed bd
       -0.18158013 -0.2323574 -0.19507538 -0.11604859
000190 c0 27 1b be e5 4b fa bd fd 71 2d be ec 79 d6 3c
       -0.15151882 -0.12221507 -0.16938014 0.026181184
0001a0 04 c5 ad bd 26 d3 49 be ff e5 28 be 60 ae b3 bd
       -0.084848434 -0.19709453 -0.16493987 -0.08773494
0001b0 76 63 74 be 1e 9e 16 be ee 0f ee bd c7 28 79 bd
       -0.23866066 -0.14708754 -0.11624132 -0.060829904
0001c0 16 92 b1 bd 94 d5 ac bd 7a 32 fb bd 60 c5 8d bd
       -0.08670442 -0.08439174 -0.12265487 -0.06922412
0001d0 cd 8d c9 bd c8 ed 10 be 7f a6 a3 bd c5 28 62 3c
       -0.098414995 -0.14153206 -0.07990741 0.0138036655
0001e0 73 aa 39 be 60 73 6c bd 83 7d a1 bd a8 ed 37 be
       -0.18131427 -0.057727218 -0.078852676 -0.17961752
0001f0 b5 79 a1 bd f2 41 65 bd e7 20 93 be cf d9 12 be
       -0.07884542 -0.055971093 -0.2873604 -0.143409

network_body._body_endoder.seq_layers.2.weight f4 [128, 128]
000000 65 6d 42 3c 1b dd 31 3e 37 36 eb 3d d2 a4 31 be
       0.011866902 0.17369501 0.1148495 -0.1734803
000010 37 00 86 3d 46 45 8c be 6d bb df bd f5 d9 bc 3b
       0.0654301 -0.273966 -0.109244205 0.005763287
000020 cd a7 f9 bc 0c 4b 68 bd dd 31 bb bc e7 6a 98 bc
       -0.030475521 -0.056712195 -0.022850925 -0.018605663
000030 07 a3 04 be b2 19 53 bd 18 70 a1 bd 37 c1 a6 bd
       -0.12952815 -0.051538177 -0.07882708 -0.081423216
000040 21 07 bd 3b 65 c1 f5 3c 06 71 d8 3d 26 48 0d 3e
       0.005768672 0.029999444 0.105684325 0.13797054
000050 e0 19 8f 3d 37 88 0e 3d 7b b4 86 3e c1 13 24 3e
       0.06987357 0.034797873 0.2630957 0.1602316
000060 94 a7 1f be 66 e5 c9 bd a2 1d 61 3e ff f4 7c 3e
       -0.1559127 -0.098582074 0.2198396 0.24702834
000070 35 b3 31 be 59 bb e8 3c 89 5e cc 3d a2 b1 34 3e
       -0.17353518 0.028409647 0.09978969 0.17645887
000080 f1 85 2b 3d d3 d3 4e 3d be 42 76 bd 01 08 c8 3b
       0.041875783 0.05049498 -0.060122244 0.0061044698
000090 9c d1 5c 3d 56 50 15 3c 96 e7 09 3e da 53 c2 bb
       0.053910837 0.009113392 0.1346725 -0.005930406
0000a0 3c a2 43 be 0a 95 d8 bd 12 11 8b be eb 90 ce 3d
       -0.19104856 -0.10575302 -0.2716146 0.10086235
0000b0 2d 4c cf bb 9c a9 63 bd b4 41 f0 bd 0b a7 86 bd
       -0.0063262195 -0.055581674 -0.11731282 -0.0657483
0000c0 d4 56 ed bd d8 7c ab 3d fb 99 a5 bd 04 ab 46 3d
       -0.11588827 0.083734214 -0.0808601 0.048502937
0000d0 c5 4f d8 3d 0c 24 d3 3c 07 aa 27 bd 18 1e c1 bc
       0.1056209 0.025774024 -0.040933635 -0.02357392
0000e0 75 48 ac 3d a7 64 8a 3e 78 6b d6 3d 12 21 48 bd
       0.084122576 0.27029917 0.10469717 -0.048859663
0000f0 9c 66 c9 be 37 5b 32 3e f0 3f c2 3c cc 28 06 3c
       -0.39336097 0.17417608 0.023712128 0.008188438
000100 a8 09 4e be 20 7f 3a 3e 02 b8 6d bd 2e 47 5a be
       -0.20120871 0.18212557 -0.05803681 -0.21316215
000110 6f 05 33 3e a9 94 73 3d 65 f6 99 bc 11 db 02 3d
       0.17482542 0.059467945 -0.018794248 0.0319472
000120 48 9d 19 bd c4 e1 28 3e 62 79 4d bd db ab d5 3d
       -0.03750351 0.16492373 -0.050164588 0.104331695
000130 aa 55 b5 bc 34 e8 0f be e1 2f 52 3e 3a 36 40 3e
       -0.022135574 -0.14053422 0.20526077 0.18770686
000140 c1 05 d3 bc 3d 8a 04 be e5 a2 eb 3c 13 4d e0 be
       -0.02575958 -0.12943359 0.028764198 -0.43808803
000150 b0 72 76 bc 17 90 9e 3d 58 1b b9 bc 24 21 13 be
       -0.015041992 0.07742327 -0.022596046 -0.14368111
000160 61 db b0 be ef 10 5b be 0b ca 4e 3e 08 e5 34 bd
       -0.34542373 -0.21393178 0.20194261 -0.044163734
000170 af 7d ed bb eb 69 90 3d 88 01 d2 3d f2 d9 7b be
       -0.0072476487 0.07051452 0.10254198 -0.24594858
000180 5f 7d 52 bd bd 82 df bc 8a 0b e9 bd a3 51 fb bb
       -0.051389094 -0.02728402 -0.11379154 -0.007669644
000190 9a 3e 70 3d 6b 0d 8b 3d 0e 89 45 3e ec d3 25 bd
       0.05865345 0.06789669 0.19290563 -0.040485308
0001a0 1e b8 90 3c b9 f1 c1 bd 44 cc 62 be 0c 8d 15 3c
       0.017665919 -0.09469933 -0.22148234 0.0091278665
0001b0 65 39 28 bd 10 cf 20 3e f0 7f 48 3e 51 96 b4 be
       -0.04107036 0.15703988 0.19580054 -0.35270932
0001c0 21 09 a9 bd 9d 7c 89 bd 34 25 a6 3e ee 78 2b bd
       -0.08253694 -0.06713221 0.3245026 -0.041863374
0001d0 e6 cd be bd 21 97 08 3d eb a2 21 be 5b ef 2a be
       -0.09316616 0.033347253 -0.15784805 -0.1669287
0001e0 3f 8f 8c bc 8b 30 a2 be 92 59 ca 3d bd f9 54 3e
       -0.017158149 -0.3167766 0.098803654 0.20798393
0001f0 83 fa 19 3d b5 1a 2b 3e c0 19 df bd be 22 33 be
       0.037592422 0.16709407 -0.10893583 -0.17493722
000200 99 52 15 3e 5b 93 2b bd 99 c6 9e be 8b 6c 60 3d
       0.1458229 -0.041888576 -0.31010893 0.054791015
000210 5c 38 df 3d df cf 36 bd 75 d4 b0 3d 21 8b de b9
       0.108994216 -0.044631835 0.08634273 -0.000424468
000220 e2 4b 06 3e 84 b2 95 bc 56 fa 0f 3e 81 fe 90 bd
       0.13114884 -0.0182736 0.1406034 -0.07079793
000230 52 17 87 3c b3 29 34 bd 29 86 16 bd 36 88 36 3d
       0.016490612 -0.04398508 -0.03674904 0.044563495
000240 bd 6e f0 bd 31 7b ce 3c 8a 7c 97 3d 10 2d 2f be
       -0.11739872 0.025205227 0.07396801 -0.17107034
000250 2d bf a2 3d d0 e6 9e be a6 b6 92 bd 38 41 b6 3d
       0.0794662 -0.3103547 -0.07163744 0.08899158
000260 ee d7 8f be fa 7e 5d be 99 df 67 3d 87 57 42 3e
       -0.2809443 -0.21630469 0.056609724 0.18978702
000270 26 00 52 be b8 5b 11 bd 76 7d fa bc 10 41 38 be
       -0.20507869 -0.03548786 -0.030577403 -0.1799357
000280 65 e2 81 bd 68 c5 e8 3d 12 f8 9d bd 6b 6a 83 be
       -0.063420095 0.11365777 -0.07713331 -0.25667128
000290 7b 00 82 3d 9e c7 49 3d 62 94 43 3d 2b b0 bf 3d
       0.06347748 0.049262635 0.04774893 0.09359773
0002a0 c2 a5 b0 be 55 b4 5d 3c 02 92 ef bd 85 ac 78 bd
       -0.34501463 0.013531764 -0.11697771 -0.060711402
0002b0 f8 f4 f0 bd a3 60 ae bc ff a6 ae bd 8a eb 6c bc
       -0.11765474 -0.021286314 -0.08527946 -0.014460454
0002c0 93 83 1d 3d 11 6d 1f bd 19 7a 7c 3d fd 92 98 be
       0.038455557 -0.038922373 0.06163988 -0.29799643
0002d0 d0 02 04 3e f8 91 99 b8 b5 f8 0c bd 91 d4 8e bd
       0.12891698 -7.322797e-05 -0.034416873 -0.069741376
0002e0 8f c0 40 3e 29 9a be bd bd d1 a2 be be aa ca be
       0.18823455 -0.093067475 -0.31800643 -0.3958339
0002f0 3c ed 73 3d e0 bb d5 bc 53 df a0 be 98 6d d9 3d
       0.059552416 -0.026090562 -0.31420383 0.106166065
000300 23 34 07 be ff 8b fb bd 88 74 6e be 8b f8 b5 3d
       -0.13203482 -0.122825615 -0.2328664 0.088852964
000310 05 c1 52 3e 94 fd e9 bc 0e 51 b5 3c 8e 58 a1 3c
       0.20581444 -0.028563298 0.022133376 0.019695546
000320 39 41 48 3e 92 1d 39 bd 55 59 17 be b0 fc 91 3d
       0.1955613 -0.045194216 -0.14780171 0.071282744
000330 8e 5d bd 3d 0d 33 f3 bd e8 13 83 3d d0 3a ab 3d
       0.0924636 -0.118749715 0.06400281 0.08360827
000340 8b 55 ca 3d f1 86 7a be 1b f8 18 3d 80 00 0e be
       0.09879597 -0.24465539 0.037345987 -0.13867378
000350 1e 10 13 bc f4 d5 0f be ca c5 5e bd 4b 87 91 bd
       -0.008976011 -0.1404646 -0.054387845 -0.07105883
000360 fe 00 06 bc 6b 00 94 3d f6 6a 0e 3e a5 b2 50 3c
       -0.0081789475 0.07226642 0.1390799 0.012737905
000370 77 2c 3a 3e 51 16 22 3c fd ad 7d bd 0e 29 56 be
       0.18181024 0.009893016 -0.061933506 -0.20914099
000380 b6 d6 96 be 38 75 04 3e 68 c7 3c 3d 62 89 6b be
       -0.29460686 0.1293534 0.046088606 -0.23001626
000390 d0 e5 b0 be 6b ce 14 3b 2d 19 3c 3d 3c 33 1a be
       -0.34550333 0.0022706043 0.045922447 -0.15058607
0003a0 de 0a 62 3e 14 a9 af 3c 8f b8 8d be 07 81 80 be
       0.22074458 0.021442927 -0.2767987 -0.2509844
0003b0 83 dc 4d be 60 cb 09 be af 59 9b 3d 29 75 a8 be
       -0.2010365 -0.13456488 0.07585465 -0.32901886
0003c0 3a 1a af be 3c f7 af be 92 4e 7f 3d 54 06 23 3c
       -0.34199697 -0.34368312 0.06233079 0.009950239
0003d0 48 2e 3e be 63 ae 1b 3e da b1 26 3e d4 41 b7 3d
       -0.18572342 0.15203242 0.16278782 0.089481026
0003e0 51 ca a9 bd 8b 5c 06 be 61 60 9a 3e ae 5b 74 3c
       -0.08290542 -0.1312124 0.30151656 0.014914436
0003f0 3d c3 f6 3d fd da 06 3e da 0d 0d bd 4c d3 f3 bd
       0.120489575 0.13169475 -0.034437038 -0.11905536

network_body._body_endoder.seq_layers.2.bias f4 [128]
000000 e6 43 21 be 76 00 2d be de 87 85 3b 28 b9 4f bd
       -0.15748557 -0.16894707 0.0040750345 -0.050713688
000010 5a cb 45 3c 31 a3 f9 bd e6 86 47 bc df e9 c7 bd
       0.012072409 -0.121893294 -0.012178158 -0.09761404
000020 af 79 89 bd 2c 52 e0 bc 1d 71 f5 bc e5 c6 c0 bd
       -0.067126624 -0.027382933 -0.029961163 -0.09412936
000030 16 b1 bd bc de 59 03 bd b9 5c 22 be 7b 4b 36 bd
       -0.02315573 -0.032068126 -0.15855683 -0.044505578
000040 dd 11 9a bd c6 f8 86 bd 8a 58 c8 bd 4e 27 36 bc
       -0.075229384 -0.065904185 -0.097825125 -0.011117769
000050 38 0f bf 3c d3 1c c7 bd 64 e1 54 bd 67 40 e9 bb
       0.023322687 -0.09722295 -0.05197276 -0.007118273
000060 4c 62 15 be 88 a8 0f bc 56 84 cd bd 7f bc 9e bd
       -0.14588279 -0.008768208 -0.10035007 -0.077507965
000070 6a a6 1f be cb ea 40 bd de ef 34 be cf 70 bd bc
       -0.15590826 -0.047098916 -0.17669627 -0.02312508
000080 46 5a e6 3b a1 c7 a9 bd 5a 81 63 bd cb f3 31 bd
       0.0070298044 -0.08290029 -0.05554328 -0.04344539
000090 e2 d2 3f be 1d 99 34 bd a6 87 fb bc 40 b8 fa bd
       -0.18732789 -0.044091333 -0.03070433 -0.12242174
0000a0 40 1a 82 be 1a fa a0 bd 99 8b b5 bd 6e 3f 90 bc
       -0.25410652 -0.07860203 -0.08864517 -0.01760837
0000b0 7b 2e 47 be ad 2d 49 be a0 0a 3d 3c 3d 9d 19 be
       -0.19451325 -0.1964633 0.011538178 -0.15001388
0000c0 a2 16 1e be 77 0d 9e bd 74 92 48 3c ec c1 98 bd
       -0.15438321 -0.07717412 0.012241948 -0.07458863
0000d0 5d 9d c5 bd 55 63 48 bd 53 ad e5 ba 46 08 69 bb
       -0.09649155 -0.048922855 -0.0017522968 -0.003555791
0000e0 3a b6 e8 bc 54 1e 72 bd 15 4d 00 bd 40 1b 67 bc
       -0.028407205 -0.059110954 -0.03132351 -0.014105618
0000f0 8d be 18 be d1 0c 3a bd 0e bc 0f be 57 b7 c4 bb
       -0.1491644 -0.04542238 -0.14036581 -0.006003301
000100 b4 58 14 be e7 ca 9c bd 5d 91 b9 bd d3 a7 12 be
       -0.14486963 -0.07655888 -0.09060929 -0.14321832
000110 a1 c4 f4 3c 15 30 5a bd 2f 34 11 bd d7 e4 5d bd
       0.029878916 -0.05326851 -0.035450157 -0.054173317
000120 c9 2f 03 be c8 b9 a6 bd 39 79 8c bc 80 1f 4e bd
       -0.12811197 -0.08140904 -0.017147647 -0.05032301
000130 5c 53 fd bc dd 88 09 bd af ae 2c be 4d 94 05 be
       -0.030923538 -0.03357779 -0.16863512 -0.13044854
000140 fd 06 9d bd bf 47 b1 bd 9d d6 cb bd c5 2d 9a bd
       -0.076673485 -0.086562626 -0.099530436 -0.07528261
000150 dc dc c9 bd 44 5f b7 bd 60 a4 aa 3c b4 7b 07 be
       -0.09856579 -0.08953717 0.020830333 -0.13230783
000160 01 f0 8d bd 89 b4 ce bc e7 30 e9 bc 25 44 c3 bd
       -0.06930543 -0.02523257 -0.028465701 -0.09534482
000170 a5 fc e8 bd 9d 05 23 be c1 3a ea bc e1 85 f7 bc
       -0.11376313 -0.1592011 -0.02859247 -0.030215206
000180 fd 12 82 bd d1 9c 52 bd 68 25 83 bd 86 7e a3 bd
       -0.06351278 -0.051419083 -0.06403619 -0.07983117
000190 d9 b9 64 bd 1b b5 88 bd 2b 3e b7 bd 29 8d 4b bc
       -0.0558413 -0.06675168 -0.089474045 -0.012423792
0001a0 89 c8 e1 bd 0d 51 89 bc b4 f6 11 be ba 42 c3 bd
       -0.11024577 -0.01676228 -0.14254266 -0.095342115
0001b0 08 f8 f1 bc 9b ae d1 bc a4 dc bb bc b3 bf a1 bd
       -0.029537216 -0.025595954 -0.022932358 -0.07897892
0001c0 9f a3 bd bd 25 9b 9a bb 37 db 7f bd 73 31 97 3c
       -0.09259724 -0.0047182017 -0.06246492 0.018456196
0001d0 57 b2 30 be 49 fe a1 bd 30 84 c0 3b b7 6f 4d bd
       -0.17255531 -0.07909829 0.005875133 -0.050155368
0001e0 db 9b 13 bd 5e e1 c0 bd 74 4e 82 bd 45 5e 49 bd
       -0.036037307 -0.094179854 -0.0636262 -0.049162168
0001f0 97 b8 af bd 05 4b bf bd 0d 4a 34 be a8 6e b0 bd
       -0.085801296 -0.09340481 -0.17606373 -0.08614856

action_model._continuous_distribution.log_sigma f4 [1, 2]
000000 e9 d2 1b 3d 80 07 2b 3d
       0.038042936 0.0417552

action_model._continuous_distribution.mu.weight f4 [2, 128]
000000 20 f1 85 bb 27 c1 23 3d 59 bb 41 bc 53 91 11 bc
       -0.004087582 0.039979126 -0.011824452 -0.008884746
000010 8f 39 d7 ba 07 65 44 bc d6 ef 3f bb 81 ae 74 3c
       -0.0016420352 -0.011986977 -0.002928724 0.014934183
000020 6e 47 5e bc c5 16 c2 3a 8f 42 54 3c 01 cd 04 bc
       -0.013566835 0.0014807811 0.012955322 -0.008105517
000030 2f 17 2c 3c 0f 55 a8 bb 76 27 5a bc 40 b5 0b bc
       0.010503574 -0.005137093 -0.013315072 -0.0085271
000040 a1 20 cd 3b af 8c 07 bc 2a bb f2 bb 52 c1 46 3b
       0.006259993 -0.008273288 -0.0074075656 0.003032763
000050 07 2a 0d bb a7 8b 1e bc c2 4f 0d bb ee 09 c3 ba
       -0.0021539943 -0.00967685 -0.0021562432 -0.0014880279
000060 ae b0 26 3c 2f bb df 3b 7e f2 0c bc e2 68 3c bc
       0.01017396 0.006827734 -0.0086027365 -0.011499615
000070 25 05 08 3d ff 88 23 bc 5b 59 16 bd fd 6c 0f bb
       0.03320803 -0.009981393 -0.03670631 -0.002188503
000080 22 3a b0 ba 82 ef 6d bc 18 44 fd bb d6 b9 a3 bb
       -0.0013445059 -0.014522435 -0.0077290647 -0.0049965186
000090 19 a6 dc bb 69 9d 86 3b 48 67 40 bc 8f ef bf ba
       -0.0067336676 0.00410812 -0.011743374 -0.0014643538
0000a0 cf 81 46 bc 01 80 47 bc 79 93 04 3c a3 cd 2b bc
       -0.01211591 -0.012176515 0.008091801 -0.010486039
0000b0 6d a6 b5 bb 0d bc 9d bc f2 5f 09 bd 7c c5 95 bb
       -0.005543521 -0.019254709 -0.033538766 -0.004570661
0000c0 c9 20 0a bc 92 d6 3b 3c 3e 42 97 3a 25 98 e1 3b
       -0.008430668 0.011464732 0.0011540127 0.006884592
0000d0 66 66 5f bc 81 c2 3a bc b1 5e 3d 3c ce 4e 9b ba
       -0.0136352535 -0.011398912 0.011558221 -0.0011849047
0000e0 ea 99 3d ba 64 26 7b 3b 7a c6 df ba fd 68 9a bb
       -0.0007232713 0.0038322443 -0.00170727 -0.0047122226
0000f0 1e a5 52 bc bf bb 89 bb c4 d7 78 bb 35 bd db 3a
       -0.01285675 -0.0042032893 -0.0037970403 0.0016764762
000100 cf 47 d6 bb e2 eb 8b 3b 38 5d b7 bb 16 90 68 bc
       -0.006539322 0.004270063 -0.0055958293 -0.014194509
000110 32 06 1d bb 9a a2 30 bc 97 52 4b ba 9f 43 e4 bb
       -0.0023959992 -0.010780955 -0.00077561423 -0.006966069
000120 a7 ba 94 38 01 0c ff bb 73 96 66 3b c1 72 61 bb
       7.091957e-05 -0.0077834134 0.003518489 -0.0034400674
000130 c7 7b 3e 3c c5 f6 1d 3c e6 d9 e9 bb 0d 2c 2c 3c
       0.0116261905 0.009641354 -0.007136571 0.010508549
000140 59 03 31 bc 38 0c 02 3c 04 71 5c 3a 62 22 e1 3b
       -0.010804021 0.0079374835 0.00084091746 0.006870554
000150 7f 20 32 3b 60 d4 37 bc e2 fe 73 b9 fc 84 9e ba
       0.0027180014 -0.011220068 -0.00023269237 -0.0012094076
000160 90 a7 06 bc 63 09 63 3b b3 1c 19 bc 32 b5 86 bb
       -0.008218661 0.0034643046 -0.009345221 -0.0041109556
000170 88 8c 46 3c 8d 2c 07 bc 73 d7 c4 bb 61 b1 8b 3b
       0.012118466 -0.008250368 -0.006007129 0.0042630886
000180 b8 49 13 bb eb ec af bc f0 4d 36 bc f0 88 0a 3c
       -0.002247436 -0.021475276 -0.01112698 0.0084555
000190 c7 74 39 bb 1a ac 3a bc 1e 7b e8 bb 72 14 fe bb
       -0.0028298364 -0.011393571 -0.007094755 -0.007753902
0001a0 db 19 1a bc 70 4d 6e 3b 68 b7 1d bc bd 57 f2 bb
       -0.0094055785 0.0036362074 -0.009626247 -0.007395713
0001b0 e3 ac 47 bc 40 95 86 bb 46 91 0c 3a ad 56 40 bc
       -0.0121872155 -0.0041071475 0.00053622236 -0.011739415
0001c0 f7 f5 0f bc 25 a4 b6 bb 53 0f dc bb ce bb 14 bc
       -0.00878667 -0.005573767 -0.006715694 -0.009077979
0001d0 ba 18 fc bb 75 74 1a bc db 98 42 bc 80 8f b1 bb
       -0.0076933773 -0.00942718 -0.011877264 -0.005418718
0001e0 09 94 12 bb 66 8f 59 bc 68 ad 6a bb 26 de 25 3a
       -0.0022366068 -0.013278818 -0.0035808925 0.0006327353
0001f0 7b c9 50 bc 7c a9 b8 bb 65 f0 b0 bb 32 ec 51 3d
       -0.012743349 -0.0056354385 -0.005399751 0.051250644
000200 e9 fe 11 bc 5b 2c 5f bc 94 75 0c bb 42 ab 78 bb
       -0.008910873 -0.013621415 -0.0021432387 -0.0037943874
000210 fa 12 dc bb 9e 95 8a bb e2 f1 5b bc 69 43 26 bd
       -0.0067161294 -0.0042292615 -0.013424369 -0.04059163
000220 ff a8 e3 bb 7b a9 3a 3c 1e 66 b4 b9 0c 5a eb bb
       -0.006947636 0.011392946 -0.0003440836 -0.0071823653
000230 01 f5 34 bb 29 7a 0e bc 9e be 69 bc fb 93 81 b9
       -0.0027611854 -0.008696117 -0.014266638 -0.0002471505
000240 14 5b 2e bc 95 24 11 bc e6 1e 0f 3b 7b 4e 26 3c
       -0.010641832 -0.0088588195 0.0021838485 0.010150547
000250 cb d8 a4 3a 9e 82 1d bb ff ca 15 3c 07 6e d3 3b
       0.0012576816 -0.0024034153 0.009142636 0.0064523253
000260 a6 4a 04 bd 06 a7 35 3c 1d 9c 06 bb fd 34 15 bc
       -0.032297753 0.011087185 -0.0020539828 -0.009106872
000270 7b b6 1a bd 59 cc 8d bb 5c d7 33 bd bd bc 16 3b
       -0.037771683 -0.0043273387 -0.043906555 0.002300068
000280 61 ed 30 3b d7 2c 40 bc 4a f5 c0 ba d2 b0 35 bb
       0.0026996958 -0.011729441 -0.0014721539 -0.0027723801
000290 1e 03 76 bc ea a3 20 3c af ae 11 bc d3 23 e8 ba
       -0.015015392 0.009804705 -0.0088917455 -0.0017710872
0002a0 64 33 85 3b 54 0e fb bb ee 2d c5 bb ce 70 36 bb
       0.004064964 -0.00766162 -0.006017438 -0.0027838233
0002b0 b2 e4 21 bc 4f 77 c9 3c 60 e1 e2 3d ba c4 4b bb
       -0.009881185 0.024593024 0.11078143 -0.00310926
0002c0 da d0 2c bc 54 d6 f9 3a e0 c1 de 3b 50 46 04 3c
       -0.010547841 0.0019061067 0.006798014 0.008073404
0002d0 f7 7c 33 3a 3a a4 c5 bb f4 31 8c 3b 3f 1d f2 bb
       0.00068469293 -0.00603154 0.004278416 -0.0073887403
0002e0 f4 18 fd 3a e9 65 a8 bb 7c fd 74 3b 7f a8 8b 3c
       0.0019309805 -0.0051391018 0.0037382534 0.017048119
0002f0 22 74 33 bc b6 41 82 3b 4f 1b 3f bc dd 54 7c bc
       -0.010952981 0.0039751185 -0.011664226 -0.015401092
000300 3c fe b2 bb 23 39 78 3b da 87 40 bc b3 74 03 bc
       -0.005462436 0.0037875853 -0.01175114 -0.008023429
000310 01 ac 7a bb 7e f2 a4 3b da 07 88 3b 5f 01 15 bc
       -0.0038249495 0.00503379 0.0041513266 -0.009094565
000320 67 e0 be bb d4 66 72 3a 5f 3b 6d bb 8b 13 a2 3b
       -0.0058250907 0.000924689 -0.0036198718 0.0049461774
000330 9d 1f ac 39 fa a3 31 3c 8e c0 da bb d1 c4 07 bd
       0.0003282995 0.010842318 -0.0066757863 -0.033146683
000340 0a 1f 61 bc ab 8a 3e 3b 33 ec 90 bb d5 3c 10 bc
       -0.01374031 0.0029074352 -0.0044226884 -0.008803566
000350 db 5e 6e bc 22 5d bd bb 9c e5 62 3b e0 b5 09 bc
       -0.0145489825 -0.0057789246 0.003462172 -0.008405179
000360 90 73 83 b6 1d 88 c4 3b 34 06 ef b9 93 01 ce bb
       -3.9175575e-06 0.0059976713 -0.00045590254 -0.0062868088
000370 85 6d 10 bb 53 cb 9d bb b6 69 b3 ba 3a b8 0f 3c
       -0.0022037935 -0.004815498 -0.001368812 0.00877195
000380 da 2f 85 3b 41 93 fb bc 84 9c 5b bb 58 e2 af 3c
       0.0040645422 -0.030709865 -0.0033510039 0.021470234
000390 6c aa dc 3b c0 80 c2 bb b3 ca 95 bb 66 c6 38 bb
       0.006734183 -0.0059357584 -0.004571283 -0.0028194427
0003a0 44 11 38 bc 7b 10 d2 3a 2c 13 1b bc d5 24 a9 bb
       -0.011234585 0.001602664 -0.00946502 -0.0051618614
0003b0 f2 83 0e 3b 8b 95 9b bb 18 dc db 3b aa 9c 24 bc
       0.0021746126 -0.0047480515 0.006709587 -0.010047117
0003c0 ec 6d 3a bb 81 f0 60 3a c0 06 22 bc 6a 7e 81 bc
       -0.0028446866 0.000858076 -0.009889305 -0.01580735
0003d0 9f af b5 bb 9a c6 08 bc ed f6 e5 bb 48 c3 01 3c
       -0.0055446173 -0.008348132 -0.0070179612 0.007920094
0003e0 ca 9e 74 3c 9f 39 3b bc 8f 36 80 ba 48 93 05 3c
       0.014930436 -0.011427312 -0.0009781885 0.00815279
0003f0 dc 1c 9e ba 54 81 c9 3b b0 4e 5b bc 03 bc ca 3b
       -0.0012063044 0.0061494503 -0.01338546 0.0061869635

action_model._continuous_distribution.mu.bias f4 [2]
000000 a5 b5 00 bd 0e 45 cb 3b
       -0.03142323 0.0062033003

onnx::Div_61 f4 [35]
000000 bd 6f 20 3e 39 41 41 3e e8 26 f7 39 9f 31 dd 3d
       0.15667625 0.18872537 0.000471405 0.1080048
000010 1d 44 43 3e b8 47 ea 3e 66 69 ea 3e e8 26 f7 39
       0.19068952 0.45757842 0.45783538 0.000471405
000020 2b 1c c5 3c 34 99 29 3e b1 7e dd 3e 65 27 e1 3e
       0.024061283 0.16562349 0.4326072 0.43975368
000030 e8 26 f7 39 6d c6 e5 3d d4 d7 52 3e 59 64 d5 3e
       0.000471405 0.11219487 0.20590144 0.41678122
000040 44 64 d5 3e e8 26 f7 39 e8 26 f7 39 d4 e5 f1 3d
       0.4167806 0.000471405 0.000471405 0.11811414
000050 23 0d c8 3e 65 96 c2 3e e8 26 f7 39 78 47 e7 3d
       0.39072523 0.38005367 0.000471405 0.112929285
000060 84 76 0f 3e ab f6 96 3e 9f f6 96 3e e8 26 f7 39
       0.14010054 0.29485068 0.29485032 0.000471405
000070 e8 26 f7 39 e1 5b b5 3d ac 9a 93 3e 8a c0 89 3e
       0.000471405 0.08855415 0.28828943 0.26904708
000080 e8 26 f7 39 6c 54 e7 3d 57 c3 ee 3d
       0.000471405 0.11295399 0.11658352
