Assets/results/ppo/MyAgent/MyAgent-10256.onnx (onnx, 93022 bytes, 7 tensors)

network_body._body_endoder.seq_layers.0.weight f4 [128, 41]
0.03460606 0.19259752 -0.25917348 0.15375142 0.060561042 -0.15278764 -0.3227434 0.076204315
-0.007443856 -0.10164183 -0.14122888 0.103486285 -0.028279282 0.18620428 -0.07964697 0.012181949
0.0661655 0.0013187124 0.062465876 -0.16329429 0.06747295 -0.170535 0.016389078 0.017242167
0.08245679 -0.07315768 -0.07068574 0.11267195 0.027932769 -0.058097586 0.08777989 -0.2107022
0.0032547805 0.19598252 -0.27428278 0.069818825 0.013448279 -0.27640828 0.032561217 0.15209389
0.15953057 0.28027195 -0.017329276 0.28791308 0.019369386 -0.38190368 -0.11912509 -0.019646721
0.051968873 -0.10329783 -0.078151286 0.04041768 0.021094136 0.15350176 0.03698911 -0.030969435
-0.17997935 -0.041524403 -0.06863325 0.19744056 0.064310774 -0.10730561 -0.055155165 -0.1591914
0.18667834 -0.3232593 -0.049349383 0.22296946 0.11702493 0.026537608 -0.109850556 0.043218493
0.080430746 -0.21209359 0.1671264 -0.20065005 -0.1500349 -0.073002465 -0.19000258 -0.15488027
0.10176788 -0.17086853 -0.28383473 -0.19084463 -0.14350879 -0.05451278 0.052783486 -0.20031741
-0.034563765 0.23250374 -0.099112414 -0.1355673 -0.09516365 -0.013823986 -0.040494848 -0.11502189
-0.08216269 0.09018878 0.20788854 0.16612364 -0.34851977 0.12174494 0.076164 0.1679361
-0.07187052 -0.21678069 0.24179581 0.15898827 0.16059217 -0.13332355 0.23101053 0.038264297
0.045993224 0.010969644 -0.051547986 0.0818853 0.23857772 -0.22444262 -0.078209534 0.06193609
-0.07899273 -0.08938806 -0.13516468 0.3153536 0.15343359 -0.015013826 -0.12197404 -0.13208538
-0.22300702 0.048241396 -0.220895 -0.1380408 0.21208484 -0.05990771 -0.21697368 -0.13461652
-0.07749815 -0.06260738 0.06883123 0.12007267 0.13577788 0.200169 0.024904419 0.08450379
-0.038155857 0.0718544 -0.10944327 -0.05985118 0.089112975 0.07329495 -0.19555491 -0.08329076
0.12514253 -0.1152048 0.16587414 -0.052573796 0.31717765 -0.28588656 0.44238997 0.14430241
0.08062708 -0.00887109 0.030018311 0.13989782 0.3066329 -0.10958734 0.022134772 -0.11789081
-0.08068711 -0.14821474 -0.19847433 -0.00356685 -0.10273791 0.051821247 -0.16839369 0.44453073
0.020280747 -0.0033022596 -0.10887385 0.09228399 0.09919541 -0.031135712 -0.016541487 -0.01388314
0.26451966 -0.054407936 0.019868681 -0.10273109 0.16095313 0.23928718 -0.09270692 -0.3400754
-0.1870045 0.112072475 -0.04159991 -0.16170117 -0.100314274 -0.0021618383 0.07413065 -0.040144153
0.005223445 0.039327994 -0.033136144 0.22818647 0.16700259 0.41588116 0.02792821 -0.020136263
-0.0901533 0.033013735 0.08202048 -0.049529456 0.3197344 0.038093016 -0.00701479 0.040576715
0.009311093 -0.04386724 -0.31502363 -0.07624902 -0.21893263 0.34398177 -0.20998412 -0.27557918
-0.15974328 -0.38075328 -0.1934758 0.048898622 0.15687533 0.22180857 0.01692338 0.089822076
-0.14458314 -0.3476413 -0.1575767 0.05449323 0.0011443242 0.07219138 0.056354538 0.029446749
-0.0059018168 -0.14365341 0.18686895 -0.24105586 0.36171472 0.05970498 0.022331169 -0.103539675
0.05027861 -0.10772389 -0.061445422 0.010344662 -0.27481306 0.27639213 0.18246241 0.33638233
00000000: 15bf 0d3d 4938 453e 63b2 84be 0371 1d3e
00000010: db0e 783d 5d74 1cbe 9f3e a5be 0211 9c3d
00000020: 97eb f3bb 9729 d0bd 4e9e 10be 9ef0 d33d
00000030: f4a9 e7bc 56ac 3e3e f31d a3bd cc96 473c
00000040: c781 873d a5d8 ac3a 38dc 7f3d 9e36 27be
00000050: 422f 8a3d baa0 2ebe 6342 863c 723f 8d3c
00000060: 1bdf a83d b2d3 95bd afc3 90bd 8dc0 e63d
00000070: 43d3 e43c bcf7 6dbd f1c5 b33d 51c2 57be
00000080: 284e 553b a4af 483e cb6e 8cbe 2cfd 8e3d
00000090: 2c56 5c3c 6385 8dbe e95e 053d 80be 1b3e
000000a0: fb5b 233e ce7f 8f3e 20f6 8dbc 5869 933e
000000b0: 8cac 9e3c e188 c3be dbf7 f3bd 29f2 a0bc
000000c0: 50dd 543d d08d d3bd c80d a0bd 028d 253d
000000d0: 9ccd ac3c 912f 1d3e e581 173d 9db3 fdbc
000000e0: 824c 38be 7e15 2abd 978f 8cbd dc2d 4a3e
000000f0: 5eb5 833d 0bc3 dbbd 62ea 61bd 1203 23be
00000100: 9b28 3f3e 3e82 a5be 9422 4abd 1b52 643e
00000110: c4aa ef3d 6665 d93c 54f9 e0bd e005 313d
00000120: e0b8 a43d 102f 59be 2f23 2b3e 3577 4dbe
00000130: c0a2 19be 5182 95bd 0990 42be ef98 1ebe
00000140: ae6b d03d 29f8 2ebe c952 91be c66c 43be
00000150: f8f3 12be cb48 5fbd 7f33 583d 0220 4dbe
00000160: bc92 0dbd 7615 6e3e 73fb cabd 27d2 0abe
00000170: 29e5 c2bd 007e 62bc eddd 25bd 9990 ebbd
00000180: ea44 a8bd e5b4 b83d bce0 543e 511c 2a3e
00000190: 2f71 b2be 6955 f93d dffb 9b3d 71f7 2b3e
000001a0: da30 93bd c2fb 5dbe 5299 773e d2cd 223e
000001b0: 4672 243e f885 08be 068e 6c3e 06bb 1c3d
000001c0: 6463 3c3d 06ba 333c fb23 53bd 7bb3 a73d
000001d0: b84d 743e 49d4 65be 522c a0bd b3b0 7d3d
000001e0: f1c6 a1bd 1611 b7bd 9c68 0abe 0776 a13e
000001f0: b21d 1d3e 8dfc 75bc 87cd f9bd 6441 07be
00000200: f45b 64be c598 453d 4d32 62be 915a 0dbe
00000210: c52c 593e c961 75bd 592e 5ebe ead8 09be
00000220: 5ab7 9ebd 4c38 80bd 63f7 8c3d a9e8 f53d
00000230: 5b09 0b3e 1af9 4c3e 5a04 cc3c 5310 ad3d
00000240: 5149 1cbd 6628 933d cb23 e0bd 8326 75bd
00000250: dd80 b63d aa1b 963d 8c3f 48be 5994 aabd
00000260: 5d25 003e 7ff0 ebbd e9da 293e 9f57 57bd
00000270: 1c65 a23e b95f 92be f080 e23e 03c4 133e
00000280: cf1f a53d 0c58 11bc f6e8 f53c 6041 0f3e
00000290: fdfe 9c3e 546f e0bd fb53 b53c bd70 f1bd
000002a0: 493f a5bd 9bc5 17be db3c 4bbe d0c1 69bb
000002b0: 4168 d2bd 8442 543d 656f 2cbe 8899 e33e
000002c0: cf23 a63c b96a 58bb 41f9 debd 63ff bc3d
000002d0: f726 cb3d 5210 ffbc 0382 87bc 1c76 63bc
000002e0: 1f6f 873e dbda 5ebd a5c3 a23c ad64 d2bd
000002f0: e6d0 243e b307 753e 20dd bdbd 5d1e aebe
00000300: 1c7e 3fbe 4186 e53d ab64 2abd fe94 25be
00000310: 9271 cdbd a1ad 0dbb cfd1 973d 326e 24bd
00000320: 6f29 ab3b 6416 213d c4b9 07bd b7a9 693e
00000330: ba02 2b3e 60ee d43e b4c9 e43c cef4 a4bc
00000340: 4ba2 b8bd 6939 073d 5afa a73d 66df 4abd
00000350: 3ab4 a33e 6c07 1c3d 53dc e5bb c533 263d
00000360: 8e8d 183c 23ae 33bd c74a a1be 7228 9cbd
00000370: e02f 60be 611e b03e 1406 57be b718 8dbe
00000380: be93 23be 18f2 c2be 851e 46be ec49 483d
00000390: eda3 203e c921 633e e6a2 8a3c a3f4 b73d
000003a0: 9a0d 14be 0afe b1be c95b 21be 4b34 5f3d
000003b0: 26fd 953a 13d9 933d 04d4 663d 4f3a f13c
000003c0: 0764 c1bb e119 13be 935a 3f3e 59d7 76be
000003d0: ac32 b93e 368d 743d dbef b63c 9c0c d4bd
000003e0: f2f0 4d3d 589e dcbd 32ae 7bbd a87c 293c
000003f0: 4cb4 8cbe 4583 8d3e 6dd7 3a3e 4e3a ac3e

network_body._body_endoder.seq_layers.0.bias f4 [128]
-0.0015266719 0.0044831377 0.0024131828 -1.6903487e-05 -0.0024677163 0.0035038153 -0.0020501087 -0.0030614475
0.0041852044 -0.002871008 0.00096117996 0.00054538454 -0.0005161494 -0.0026762865 -0.003364582 -0.0010296394
0.0037199152 0.0022449817 0.0029298882 0.00043869068 -0.0013202794 -0.00034482774 0.0026945516 -0.0016028776
-0.0037132353 0.00029403344 0.0021003662 -0.0019393533 0.003917112 0.0005088102 -0.0012200802 -0.003531597
0.00017489212 0.0028599997 0.0019959586 0.0024965648 0.0029931027 -0.0027336676 -0.0017320763 0.0029249704
-0.0012701461 0.00432317 0.0038087408 0.0026821618 0.0051742904 0.0015497613 0.0035092924 -0.00095317786
-0.0032494722 -0.0012479716 -0.0018938164 -0.00066081516 -0.0030868617 -0.0005023012 0.0027787266 -0.0020710365
-0.00279424 -0.00058781996 -0.0018593213 -0.0021391232 0.00035855817 0.0028837721 -0.003033681 -0.0012987654
0.00236081 -0.0016239297 0.00010011841 0.0025141274 0.0031951123 -0.001499866 -0.0013868198 0.001042225
0.0025998454 0.00092262524 -0.001274845 -0.0026858728 -0.0019725983 -0.0024857176 -0.0022894898 -0.000735738
0.0012473364 0.0040178457 0.0011397058 -0.00075881096 -0.0015994111 -0.0031086258 0.0023972203 0.0039084004
0.0017191524 0.0036047904 0.0012523731 -0.0025138636 0.005084986 0.0016896458 -0.0024595626 -0.0033704634
-0.004264142 0.0011424789 -0.004246473 -0.002647451 0.0015266606 0.00079329975 -0.0036421882 0.0020430232
-0.002544783 -0.0043382226 -0.003998294 0.0007203741 -0.004177193 -0.0024583424 -0.0016696493 -0.0015291153
-0.0021580372 -0.0006154428 8.172712e-06 0.0047363746 0.0029501945 0.0033488763 -0.0039759474 -0.0014435238
0.0007552861 0.003611944 -0.003254354 0.0036233047 0.00024378426 0.004343081 0.0027724293 -0.0009748004
00000000: 9c1a c8ba 49e7 923b 7d26 1e3b f6cb 8db7
00000010: 69b9 21bb 44a0 653b 1e5b 06bb 91a2 48bb
00000020: 0a24 893b 8527 3cbb b2f7 7b3a 23f8 0e3a
00000030: 334e 07ba a364 2fbb 5280 5cbb f7f4 86ba
00000040: d2c9 733b 8b20 133b 5e03 403b 1100 e639
00000050: 3a0d adba ffc9 b4b9 1397 303b a617 d2ba
00000060: c059 73bb 8028 9a39 4ca6 093b e631 feba
00000070: 1e5b 803b ad61 053a 19eb 9fba 5e72 67bb
00000080: 3f63 3739 d56e 3b3b a1ce 023b 689d 233b
00000090: ee27 443b 5527 33bb d606 e3ba dcb0 3f3b
000000a0: 087b a6ba 61a9 8d3b 119c 793b 35c7 2f3b
000000b0: 188d a93b 5c21 cb3a 28fc 653b afde 79ba
000000c0: 19f5 54bb fa92 a3ba ef39 f8ba 8e3a 2dba
000000d0: f24c 4abb ddac 03ba 4c1b 363b 3aba 07bb
000000e0: 911f 37bb ee17 1aba 78b4 f3ba 8830 0cbb
000000f0: ddfc bb39 abfd 3c3b b9d0 46bb 563b aaba
00000100: d2b7 1a3b 0ada d4ba a9f6 d138 0fc4 243b
00000110: 1765 513b 2797 c4ba f3c5 b5ba 459b 883a
00000120: 2b62 2a3b 55dc 713a b318 a7ba 7805 30bb
00000130: b546 01bb 6ce7 22bb 440b 16bb 8bde 40ba
00000140: aa7d a33a 22a8 833b 2e62 953a f1ea 46ba
00000150: 55a3 d1ba 16ba 4bbb af1a 1d3b 0a12 803b
00000160: 2f55 e13a 593e 6c3b ab26 a43a a2bf 24bb
00000170: f49f a63b 1b77 dd3a 9d30 21bb fee2 5cbb
00000180: 37ba 8bbb 3bbf 953a ff25 8bbb db80 2dbb
00000190: 3b1a c83a 72f5 4f3a c7b1 6ebb 3ee4 053b
000001a0: 60c6 26bb a627 8ebb 1f04 83bb 7dd7 3c3a
000001b0: d6e0 88bb 241c 21bb 22d8 daba 986c c8ba
000001c0: db6d 0dbb ab55 21ba 881d 0937 9733 9b3b
000001d0: 0d58 413b d278 5b3b aa48 82bb 9f34 bdba
000001e0: 64fe 453a 5db6 6c3b 0047 55bb f774 6d3b
000001f0: 57a0 7f39 6750 8e3b a5b1 353b bf89 7fba

network_body._body_endoder.seq_layers.2.weight f4 [128, 128]
-0.013478775 0.09165138 0.015350725 -0.027157474 0.056667194 0.087348774 0.07276707 -0.026291503
0.10227861 -0.06806668 0.15519197 -0.00657845 -0.023042986 0.047723915 -0.085573815 -0.12126852
-0.014060785 0.022397054 -0.08305408 0.02783832 -0.03122777 0.0007237552 -0.054052312 -0.03923441
0.06318089 -0.023232969 0.06508647 0.054371294 0.020121703 0.031979658 0.06336744 0.086169295
-0.018999381 0.025341159 0.05133803 0.12941536 0.07944657 0.07736052 0.05775682 -0.11190993
-0.066338964 -0.15842187 -0.019490445 -0.074568965 -0.002470129 -0.069806874 0.017121052 0.12639393
0.03609335 0.05970105 0.00058840675 0.05678743 -0.018609958 -0.022485305 -0.11001135 0.01720705
0.009075173 0.08489461 -0.027518876 0.06971869 0.05068029 -0.068090454 0.033089772 0.02838698
-0.07714288 -0.026133543 0.17587914 -0.08657866 0.06089672 -0.0716629 -0.04693098 0.0004325515
0.12143022 0.05389879 -0.12262033 0.059366126 -0.018716222 -0.126943 0.08674889 0.058853358
0.021684652 -0.016303487 -0.06081333 0.24144508 0.046972796 -0.049334932 0.10104937 0.005554057
-0.068325326 -0.12488789 0.058939133 0.07887344 -0.094811305 0.0049314657 0.099647164 0.1368477
0.018311428 0.0532177 0.029797494 -0.051209163 0.06846555 0.16234624 0.04390401 -0.06205274
0.012086809 0.08591253 0.018969467 0.003284275 -0.017629754 0.07594888 0.07684429 0.035027366
-0.065486275 0.0005500052 0.060434967 -0.06436956 -0.020825636 0.012134647 -0.10445228 0.05055707
-0.13822056 -0.034215655 -0.14985758 0.07423414 -0.14668816 0.14460155 -0.047926564 0.09165957
0.13353187 -0.08260817 0.0048961076 -0.10982529 -0.04990276 -0.16086979 0.047669828 0.004972511
-0.17062241 0.23585929 -0.085253246 0.07136278 0.053196136 0.013341517 0.006018761 -0.06965108
0.13465582 -0.03581959 0.0564644 0.025234275 -0.18943574 0.024111224 0.11231693 -0.07964341
-0.19340903 -0.028461557 0.050429694 -0.06335764 0.1471557 0.1728763 0.05919533 0.034842394
-0.02423337 0.10176032 -0.14614108 -0.07648305 0.062815994 0.18553723 -0.08161372 -0.023238517
-0.012465805 -0.011727109 0.16057436 0.17704643 0.03851825 -0.10146786 -0.14148301 0.03520055
0.012614109 0.103945434 0.0088200085 -0.06115022 -0.02894926 -0.12301246 -0.073131315 -0.08413109
0.07549967 -0.1025881 0.118342616 -0.08071803 0.064553626 0.061357494 -0.03934237 -0.12885268
0.027906032 0.026572196 0.058829974 -0.053428598 -0.013970733 0.13560905 -0.028445454 0.036073264
0.016917786 -0.15745057 0.00694134 0.114203475 -0.08615584 0.02047542 0.18174785 -0.057816803
-0.14642714 -0.054647718 -0.16665938 0.06418839 0.03368349 0.12381978 -0.008436901 0.006566378
-0.015482309 -0.038149823 0.0034078786 0.007690118 0.18019244 -0.0070118383 0.13051453 -0.05030493
0.1337999 0.16506459 -0.11345429 -0.072785735 -0.06305127 -0.013879608 0.05946758 -0.022511115
-0.015056523 0.07259087 0.027881453 0.10306039 0.03943534 0.09028783 -0.13310286 0.3120117
0.0124166235 -0.07748367 -0.0057732025 -0.035146225 0.08778594 0.15007752 0.04572933 0.13885434
0.09030655 -0.06882569 -0.17888671 -0.07331022 -0.07735712 0.11097629 0.1666572 -0.09801767
00000000: 14d6 5cbc b8b3 bb3d 9b81 7b3c 5a79 debc
00000010: dc1b 683d eae3 b23d e706 953d 4761 d7bc
00000020: 7377 d13d 8b66 8bbd a5ea 1e3e 0a90 d7bb
00000030: a5c4 bcbc 277a 433d 5341 afbd a15b f8bd
00000040: 355f 66bc 077a b73c 4218 aabd 300d e43c
00000050: 61d1 ffbc 64ba 3d3a f565 5dbd 43b4 20bd
00000060: fc64 813d 1153 bebc 0e4c 853d 6fb4 5e3d
00000070: 45d6 a43c 1afd 023d cac6 813d 8779 b03d
00000080: 97a4 9bbc 4398 cf3c d347 523d 7685 043e
00000090: e2b4 a23d 316f 9e3d 6a92 6c3d 0931 e5bd
000000a0: b9dc 87bd 5839 22be 6daa 9fbc 9db7 98bd
000000b0: e3e1 21bb e8f6 8ebd 7341 8c3c 696d 013e
000000c0: 9fd6 133d 1789 743d 4f3f 1a3a f099 683d
000000d0: e973 98bc 1a33 b8bc a14d e1bd cdf5 8c3c
000000e0: 09b0 143c 3add ad3d 446f e1bc acc8 8e3d
000000f0: 2396 4f3d 0273 8bbd 2489 073d d08b e83c
00000100: 16fd 9dbd 0316 d6bc a919 343e 2750 b1bd
00000110: d76e 793d 00c4 92bd b33a 40bd 14c8 e239
00000120: 68b0 f83d fac4 5c3d 5e20 fbbd e529 733d
00000130: c352 99bc 59fd 01be 67a9 b13d 3810 713d
00000140: 03a4 b13c e48e 85bc 6617 79bd 613d 773e
00000150: 8c66 403d 6d13 4abd f9f2 ce3d cffe b53b
00000160: 26ee 8bbd 39c5 ffbd 296a 713d 6688 a13d
00000170: 6e2c c2bd 2298 a13b d013 cc3d ce21 0c3e
00000180: d901 963c cefa 593d e019 f43c b3c0 51bd
00000190: ab37 8c3d 183e 263e b1d4 333d 042b 7ebd
000001a0: c007 463c e9f2 af3d db65 9b3c fe3c 573b
000001b0: 466c 90bc 168b 9b3d 8a60 9d3d db78 0f3d
000001c0: ab1d 86bd 392e 103a a88a 773d 30d4 83bd
000001d0: 869a aabc 66d0 463c 14eb d5bd ee14 4f3d
000001e0: b189 0dbe b725 0cbd 4474 19be 1208 983d
000001f0: 6c35 16be 6e12 143e a54e 44bd 03b8 bb3d
00000200: 94bc 083e 792e a9bd 876f a03b 15ec e0bd
00000210: d666 4cbd 0dbb 24be 7041 433d 72f0 a23b
00000220: a4b7 2ebe 1985 713e 4199 aebd a626 923d
00000230: 31e4 593d 6196 5a3c 0739 c53b 3aa5 8ebd
00000240: 37e3 093e 90b7 12bd 3747 673d 1cb8 ce3c
00000250: 71fb 41be e784 c53c 6b06 e63d 161c a3bd
00000260: 040d 46be 3628 e9bc 5e8f 4e3d a6c1 81bd
00000270: fcaf 163e 7c06 313e cd76 723d e6b6 0e3d
00000280: 0f85 c6bc b767 d03d 02a6 15be 25a3 9cbd
00000290: aca5 803d 79fd 3d3e 1825 a7bd b45e bebc
000002a0: 603d 4cbc 0f23 40bc 9b6d 243e a94b 353e
000002b0: 50c5 1d3d 62ce cfbd ece0 10be 742e 103d
000002c0: 68ab 4e3c 58e1 d43d cc81 103c a778 7abd
000002d0: 0027 edbc f5ed fbbd dfc5 95bd ec4c acbd
000002e0: 929f 9a3d b619 d2bd 9d5d f23d 7f4f a5bd
000002f0: b134 843d ff51 7b3d 7725 21bd f5f1 03be
00000300: 319b e43c efad d93c b3f7 703d f2d7 5abd
00000310: 80e5 64bc 19dd 0a3e 7106 e9bc 8fc1 133d
00000320: 2b97 8a3c b93a 21be 2e74 e33b 83e3 e93d
00000330: 7972 b0bd 11bc a73c 1c1c 3a3e 50d1 6cbd
00000340: fff0 15be 49d6 5fbd c2a8 2abe 3475 833d
00000350: b3f7 093d 3a95 fd3d ed3a 0abc c52a d73b
00000360: 83a9 7dbc fd42 1cbd b756 5f3b 63fd fb3b
00000370: 5e84 383e 90c3 e5bb 9aa5 053e 8b0c 4ebd
00000380: d702 093e b106 293e b95a e8bd b010 95bd
00000390: 0621 81bd 4c67 63bc 4794 733d 3b69 b8bc
000003a0: a2af 76bc 86aa 943d a567 e43c 5311 d33d
000003b0: f386 213d d3e8 b83d 1e4c 08be ffbf 9f3e
000003c0: 186f 4b3c c2af 9ebd 222d bdbb 7df5 0fbd
000003d0: 1dc9 b33d ecad 193e ae4e 3b3d d52f 0e3e
000003e0: a4f2 b83d 7cf4 8cbd 142e 37be ab23 96bd
000003f0: 696d 9ebd 8a47 e33d 2fa8 2a3e 7dbd c8bd

network_body._body_endoder.seq_layers.2.bias f4 [128]
0.0028657205 -0.0010100418 0.004399728 -0.002618505 0.0009001236 -0.0033158562 0.0026522772 0.0028110782
-0.0027577667 0.0007855905 -0.0022201007 -0.0020858285 0.0016448112 -0.0039076284 0.0033354606 -0.0026695663
0.004352853 0.002971886 -0.0012982815 -0.004027543 0.00019892471 -0.0016308223 0.002077474 0.002586878
0.0008658725 0.0028806317 0.0015474922 0.0032412626 0.0036559333 0.0037890947 0.0030959123 0.0024549519
0.002785145 0.0036921927 -0.0016865598 -0.0019764032 0.0016616941 0.0031436551 0.0021062447 0.003257734
0.0023697682 -0.0027981023 -0.003833205 0.00019682747 -0.0013892635 0.0010587499 -0.0019982331 0.003806896
-0.0025472096 0.0010621651 0.003017818 0.0017392254 0.0004478072 0.003217545 -0.002229988 -0.00022144617
0.0009362862 -0.0035640576 -0.0005945306 0.0031839814 -0.000779025 -0.0003577876 -0.003645807 0.0009238648
0.0041144704 -0.0015682519 -0.0034984045 0.0019739077 0.0033521084 0.003951331 0.0025665849 -0.0036386396
-0.0031819057 0.0006812126 0.0032415364 -0.0020105927 -0.00095577596 0.00280709 -0.0027832498 0.0036932295
0.0036674505 0.0026142627 0.0023838622 0.0034530545 0.004168357 -0.0015394841 0.0029574363 -0.0035573773
-0.0024357839 -0.0027493872 -0.0008172438 0.0030112043 0.0012807975 -0.002915492 -0.0036126901 -0.0039662807
-0.0021694058 0.0039597154 0.0020076768 -0.002943526 0.0011045196 0.0021565899 -0.002802813 -0.0027012618
-0.0021448275 0.000855783 -0.0022213927 -0.0035666737 0.00059105747 0.0028287158 -0.0016188908 0.0012398784
-0.0035163043 -0.0013479247 -0.0040456792 -0.0040439432 0.0017913171 0.0010300903 0.0022764336 -0.0036883904
0.0033942114 0.0027389056 0.0014944036 0.003898761 -0.001678881 -0.003358042 -0.0036901862 -0.0014978144
00000000: d0ce 3b3b 6163 84ba 982b 903b 399b 2bbb
00000010: 46f6 6b3a d64e 59bb d4d1 2d3b 113a 383b
00000020: a6bb 34bb 16f0 4d3a 1c7f 11bb 65b2 08bb
00000030: b596 d73a 900b 80bb be97 5a3b e4f3 2ebb
00000040: 61a2 8e3b f9c3 423b 192b aaba 7bf9 83bb
00000050: 7296 5039 51c1 d5ba 3b26 083b 9c88 293b
00000060: b8fb 623a fbc8 3c3b 39d5 ca3a 5d6b 543b
00000070: 6298 6f3b 7652 783b cae4 4a3b 42e3 203b
00000080: fb86 363b b7f8 713b 8e0f ddba 8b86 01bb
00000090: 34cd d93a c805 4e3b ec08 0a3b b57f 553b
000000a0: 1d4e 1b3b 5e60 37bb 8236 7bbb 7963 4e39
000000b0: f317 b6ba c0c5 8a3a caf4 02bb 1e7d 793b
000000c0: 16ef 26bb 5938 8b3a 96c6 453b b8f6 e33a
000000d0: aac7 ea39 73dd 523b fe24 12bb 0134 68b9
000000e0: 1a71 753a f792 69bb 46da 1bba 58aa 503b
000000f0: 7c37 4cba 7095 bbb9 7eee 6ebb 842f 723a
00000100: aed2 863b cd8d cdba 7d45 65bb ad5c 013b
00000110: 0caf 5b3b 2b7a 813b 2634 283b 3e76 6ebb
00000120: 8587 50bb 6793 323a f56f 543b 26c4 03bb
00000130: 0a8d 7aba 28f7 373b 2f67 36bb 1c0a 723b
00000140: 9c59 703b 0d54 2b3b 923a 1c3b a44c 623b
00000150: b696 883b 84c8 c9ba 8cd1 413b e322 69bb
00000160: aca1 1fbb 102f 34bb 4e3c 56ba a057 453b
00000170: 6fe0 a73a d711 3fbb e2c2 6cbb 93f7 81bb
00000180: 972c 0ebb 80c0 813b 3a93 033b 2ce8 40bb
00000190: 87c5 903a 9355 0d3b 66af 37bb a707 31bb
000001a0: 3c90 0cbb a056 603a c994 11bb dbbe 69bb
000001b0: 32f1 1a3a fa61 393b f630 d4ba 6a83 a23a
000001c0: cc71 66bb d9ac b0ba 9e91 84bb 0e83 84bb
000001d0: a1ca ea3a 1804 873a 3830 153b ecb8 71bb
000001e0: 6b71 5e3b 367f 333b dddf c33a 5b82 7f3b
000001f0: e60d dcba 9912 5cbb 0dd7 71bb 5052 c4ba

action_model._continuous_distribution.log_sigma f4 [1, 2]
0.00083915604 -0.0011705391
00000000: cffa 5b3a c66c 99ba

action_model._continuous_distribution.mu.weight f4 [2, 128]
-0.009558981 0.006270906 -0.026893219 0.0013585573 0.015495995 0.0036215284 -0.003552057 -0.00045990164
0.0184908 0.012197843 -0.0006739376 0.013804741 -0.02381625 0.026007162 -0.009669455 0.0069673373
-0.010165538 -0.045118257 -0.015485713 0.01691316 -0.020338453 -0.008773271 0.0027299419 -0.015284571
-0.0045657204 -0.021161791 0.00042078682 -0.007281481 -0.015410442 -0.009922663 -0.01848279 0.00010757465
0.0057917205 -0.02247297 0.0108385505 0.0108689815 0.0015345095 -0.001141057 0.02019335 -0.007771862
-0.0017690579 0.009712973 0.017019885 -0.013455638 -0.008356973 0.0096977865 0.014537799 -0.012394342
-0.01306923 0.026501268 -0.00013357215 -0.041548185 0.009456081 -0.010657865 -0.0029449286 -0.014231264
0.03000485 0.018301053 0.014544791 -0.022139668 0.0050452026 -0.02842617 0.011898654 -0.03251419
-0.03426461 -0.0024981105 0.027764495 0.013596813 -0.008293169 -0.017320307 0.00027985292 0.03321938
0.014724202 0.027789256 -0.00298463 -0.005514644 -0.011644174 -0.0010692027 0.017363627 -0.013032524
-0.023970118 -0.034124568 0.002532247 -0.0049850023 -0.031141456 0.0015184953 -0.03640099 0.011778792
-0.0026089968 -0.0061846944 0.0075972835 -0.017185017 0.0032743807 0.020028431 -0.00023713168 0.0050984216
-0.0059682354 -0.014615863 0.0060694665 0.016077869 0.014421602 0.0036889971 0.011997353 -0.0060712476
-0.0029151174 0.015093006 -0.004389135 0.031061526 -0.03224867 0.0011285743 -0.005827825 -0.01996993
0.03207501 0.022765474 0.0041659083 0.021244971 0.010486111 0.007684437 -0.0022805252 0.009914318
-0.0073647634 -0.0026111112 -0.013299938 -0.016101867 0.0077771996 0.015102287 0.018257992 -0.008679311
0.009507267 -0.010462736 0.01730344 -0.009986818 0.019737396 -0.03312674 0.00763918 0.012272067
0.0026418546 0.016019754 -0.0331018 0.0044322703 -0.0012460896 -0.01273361 0.021110957 -0.0031636788
0.0070683984 0.0012063646 -0.013717412 -0.004393954 -0.0081472155 -0.020695671 0.012092137 0.030258441
-0.005610858 0.0048984666 -0.003253219 0.017340623 0.017844213 0.005846283 0.010300803 0.021349091
0.035687163 0.01006633 -0.0007082738 0.0043192287 -0.0022374596 0.010141102 0.050639648 0.014682636
0.009976911 -0.033399 -0.015563118 -0.0052547785 -0.021105405 0.017054902 0.005901254 0.004707773
-0.040955994 0.028828144 0.008124783 -0.004289323 0.011827114 0.042015433 -0.029917264 -0.0052471925
0.03029642 -0.016035572 0.0027009991 0.0022383826 0.0054824036 -0.016951565 -0.0074813445 -0.008192068
0.02930884 -0.048732355 -0.0031540534 0.060142193 0.03177731 0.00956054 0.030181902 -0.023370458
-0.029660149 0.025674203 0.02983717 -0.005059436 -0.007100524 0.016357902 -0.0297873 0.020212132
0.03546662 0.0015791957 0.015765555 0.017953161 0.027553504 -0.017035032 0.0059557823 -0.009979892
-0.04089319 -0.01649822 -3.107272e-05 0.003263903 0.0100295115 -0.041294284 -0.0019763235 0.0013233537
-0.031238751 0.030390477 0.021211024 -0.00070614775 0.020688666 0.014132686 -0.03668222 -0.021699062
-0.005663475 0.019488808 -0.0130485855 -0.02983784 -0.019974986 0.012941317 -0.023464845 -0.009470011
-0.019398917 0.009810556 0.0010402 -0.0026765657 0.019129844 0.0077900407 0.006652605 0.0013596683
0.014744408 0.020619288 -0.0057382244 0.012573402 0.0044245245 -0.014647302 -0.04018872 -0.007636453
00000000: 469d 1cbc 2c7c cd3b 2b4f dcbc 9e11 b23a
00000010: eae2 7d3c 2a57 6d3b a1c9 68bb f41e f1b9
00000020: 057a 973c 76d9 473c 30ab 30ba 482d 623c
00000030: 4c1a c3bc f90c d53c a26c 1ebc 434e e43b
00000040: 5b8d 26bc eccd 38bd cab7 7dbc 788d 8a3c
00000050: d49c a6bc c4bd 0fbc d3e8 323b 236c 7abc
00000060: 0a9c 95bb 7e5b adbc 0d9d dc39 7d99 eebb
00000070: 147c 7cbc aa92 22bc 3869 97bc b399 e138
00000080: 79c8 bd3b 3c19 b8bc 2d94 313c d013 323c
00000090: 9821 c93a 858f 95ba 866c a53c 1bab febb
000000a0: bcdf e7ba 2923 1f3c 496d 8b3c 0975 5cbc
000000b0: afeb 08bc 77e3 1e3c f32f 6e3c a311 4bbc
000000c0: 5320 56bc 3019 d93c 800f 0cb9 6e2e 2abd
000000d0: aeed 1a3c 539e 2ebc b4ff 40bb 3f2a 69bc
000000e0: bbcc f53c 17ec 953c 464d 6e3c 405e b5bc
000000f0: 3a52 a53b 00de e8bc 92f2 423c 992d 05bd
00000100: 0c59 0cbd 57b7 23bb 5e72 e33c 2bc5 5e3c
00000110: 12e0 07bc 51e3 8dbc 39b9 9239 0b11 083d
00000120: c83d 713c 4ba6 e33c c899 43bb 30b4 b4bb
00000130: 35c7 3ebc 7d24 8cba 2a3e 8e3c 5e86 55bc
00000140: fb5c c4bc 34c6 0bbd 0ef4 253b 3b59 a3bb
00000150: 5e1c ffbc 3f08 c73a 3419 15bd d6fb 403c
00000160: b4fb 2abb faa8 cabb a2f2 f83b 98c7 8cbc
00000170: fe96 563b aa12 a43c 8da6 78b9 a910 a73b
00000180: 3091 c3bb 5f77 6fbc 60e2 c63b bcb5 833c
00000190: 9548 6c3c 1ac3 713b 8c90 443c 51f1 c6bb
000001a0: 8e0b 3fbb a848 773c bcd2 8fbb be74 fe3c
000001b0: 2e17 04bd abec 933a 57f7 bebb fb97 a3bc
000001c0: 1661 033d a97e ba3c 2c82 883b ef09 ae3c
000001d0: f0cd 2b3c bbcd fb3b dd74 15bb aa6f 223c
000001e0: 1d54 f1bb 2d1f 2bbb fce7 59bc 10e8 83bc
000001f0: e1d7 fe3b 956f 773c c991 953c ab33 0ebc
00000200: 5ec4 1b3c e56b 2bbc f2bf 8d3c c09f 23bc
00000210: 52b0 a13c e8af 07bd 1652 fa3b c810 493c
00000220: f722 2d3b dc3b 833c c195 07bd 943c 913b
00000230: d453 a3ba a2a0 50bc e3f0 ac3c b955 4fbb
00000240: 069e e73b e11e 9e3a ffbe 60bc 28fb 8fbb
00000250: e67b 05bc f889 a9bc 191e 463c 8de0 f73c
00000260: 4adb b7bb 5183 a03b f533 55bb ec0d 8e3c
00000270: 072e 923c 2d92 bf3b b3c4 283c 4ae4 ae3c
00000280: b42c 123d 40ed 243c 73ab 39ba 5188 8d3b
00000290: 58a2 12bb dd26 263c 856b 4f3d 708f 703c
000002a0: 3376 233c 64cd 08bd 73fc 7ebc 4730 acbb
000002b0: 3ee5 acbc b9b6 8b3c 4e5f c13b aa43 9a3b
000002c0: 79c1 27bd 0029 ec3c cf1d 053c 738d 8cbb
000002d0: 83c6 413c 6018 2c3d 0d15 f5bc a4f0 abbb
000002e0: 3330 f83c 085d 83bc 3f03 313b d4b1 123b
000002f0: bca5 b33b 02de 8abc 1126 f5bb 0638 06bc
00000300: 1819 f03c 949b 47bd 3cb4 4ebb a957 763d
00000310: ed28 023d d0a3 1c3c 0940 f73c 6773 bfbc
00000320: d7f9 f2bc b552 d23c 156d f43c a0c9 a5bb
00000330: 83ab e8bb 0201 863c 7f04 f4bc ea93 a53c
00000340: 7245 113d 04fd ce3a c426 813c 8212 933c
00000350: e3b7 e13c 0d8d 8bbc b928 c33b b382 23bc
00000360: 9e7f 27bd 4627 87bc 1454 02b8 35e7 553b
00000370: d252 243c 3224 29bd 3585 01bb 6274 ad3a
00000380: 69e8 ffbc 73f5 f83c bec2 ad3c c61c 39ba
00000390: 477b a93c c88c 673c 1840 16bd 3bc2 b1bc
000003a0: ac94 b9bb fea6 9f3c bcc9 55bc 7c6e f4bc
000003b0: 95a2 a3bc d107 543c 5939 c0bc 1b28 1bbc
000003c0: 7aea 9ebc 74bc 203c 5257 883a 5269 2fbb
000003d0: 31b6 9c3c 9943 ff3b 18fe d93b e636 b23a
000003e0: 8892 713c c8e9 a83c b707 bcbb ac00 4e3c
000003f0: 9afb 903b 3dfb 6fbc ed9c 24bd 363b fabb

action_model._continuous_distribution.mu.bias f4 [2]
-0.0025485985 0.0026941518
00000000: 6306 27bb 5e90 303b
