Assets/results/testOnSimpleTracknew/MyAgent/checkpoint.pt (torch, 284962 bytes, 43 tensors)

discrete_act_size_vector f4 [1, 2]
00000000: 0000 4040 0000 4040
3.0 3.0

network_body.observation_encoder.processors.0.normalizer.running_mean f4 [35]
00000000: 0000 0000 a6fe 7f3f 0000 0000 0000 0000
00000010: 118b 883e 8a1b 3f3d 670d 743f 0000 0000
00000020: 0000 0000 4042 923e 8c18 123d 9cdd 763f
00000030: 0000 0000 0000 0000 c7f9 933e 188f 013f
00000040: 17e0 fc3e 0000 0000 0000 0000 ed90 8d3e
00000050: be7e 0f3f c600 e13e 0000 0000 0000 0000
00000060: 2534 903e d751 693f 4c6a b53d 0000 0000
00000070: 0000 0000 0ef0 7a3e 8c52 6a3f a464 ad3d
00000080: 0000 0000 0000 0000 853e 7d3e
0.0 0.9999794 0.0 0.0 0.266686 0.046657123 0.9533295 0.0
0.0 0.2856617 0.03566794 0.964319 0.0 0.0 0.28901502 0.5060897
0.49389717 0.0 0.0 0.27649632 0.5605277 0.43945903 0.0 0.0
0.28164783 0.911405 0.08858165 0.0 0.0 0.24505636 0.91532207 0.08466461
0.0 0.0 0.2473088

network_body.observation_encoder.processors.0.normalizer.running_variance f4 [35]
00000000: 0000 803f 38ff ff3f 0000 803f 0000 803f
00000010: 2dd7 c944 a502 5045 1d11 5045 0000 803f
00000020: 0000 803f 76b3 d544 6bdd 2045 4bec 2045
00000030: 0000 803f 0000 803f ab30 dc44 f314 9246
00000040: ed14 9246 0000 803f 0000 803f 8f15 0744
00000050: 6df6 8f46 2ff6 8f46 0000 803f 0000 803f
00000060: e97e 0844 12c7 bc45 72c0 bc45 0000 803f
00000070: 0000 803f 9d2f 1b43 3235 b545 922e b545
00000080: 0000 803f 0000 803f 8f7a 1443
1.0 1.9999762 1.0 1.0 1614.7242 3328.1653 3329.0696 1.0
1.0 1709.6082 2573.8386 2574.7683 1.0 1.0 1761.5209 18698.475
18698.463 1.0 1.0 540.33685 18427.213 18427.092 1.0 1.0
545.983 6040.884 6040.0557 1.0 1.0 155.18599 5798.6494 5797.8213
1.0 1.0 148.47874

network_body.observation_encoder.processors.1.normalizer.running_mean f4 [6]
00000000: 05f3 7fbf 0000 0000 0000 0000 0000 0000
00000010: 0000 0000 0000 0000
-0.99980193 0.0 0.0 0.0 0.0 0.0

network_body.observation_encoder.processors.1.normalizer.running_variance f4 [6]
00000000: 3941 0040 0000 803f 0000 803f 0000 803f
00000010: 0000 803f 0000 803f
2.0039809 1.0 1.0 1.0 1.0 1.0

network_body.processors.0.normalizer.running_mean f4 [35]
00000000: 0000 0000 a6fe 7f3f 0000 0000 0000 0000
00000010: 118b 883e 8a1b 3f3d 670d 743f 0000 0000
00000020: 0000 0000 4042 923e 8c18 123d 9cdd 763f
00000030: 0000 0000 0000 0000 c7f9 933e 188f 013f
00000040: 17e0 fc3e 0000 0000 0000 0000 ed90 8d3e
00000050: be7e 0f3f c600 e13e 0000 0000 0000 0000
00000060: 2534 903e d751 693f 4c6a b53d 0000 0000
00000070: 0000 0000 0ef0 7a3e 8c52 6a3f a464 ad3d
00000080: 0000 0000 0000 0000 853e 7d3e
0.0 0.9999794 0.0 0.0 0.266686 0.046657123 0.9533295 0.0
0.0 0.2856617 0.03566794 0.964319 0.0 0.0 0.28901502 0.5060897
0.49389717 0.0 0.0 0.27649632 0.5605277 0.43945903 0.0 0.0
0.28164783 0.911405 0.08858165 0.0 0.0 0.24505636 0.91532207 0.08466461
0.0 0.0 0.2473088

network_body.processors.0.normalizer.running_variance f4 [35]
00000000: 0000 803f 38ff ff3f 0000 803f 0000 803f
00000010: 2dd7 c944 a502 5045 1d11 5045 0000 803f
00000020: 0000 803f 76b3 d544 6bdd 2045 4bec 2045
00000030: 0000 803f 0000 803f ab30 dc44 f314 9246
00000040: ed14 9246 0000 803f 0000 803f 8f15 0744
00000050: 6df6 8f46 2ff6 8f46 0000 803f 0000 803f
00000060: e97e 0844 12c7 bc45 72c0 bc45 0000 803f
00000070: 0000 803f 9d2f 1b43 3235 b545 922e b545
00000080: 0000 803f 0000 803f 8f7a 1443
1.0 1.9999762 1.0 1.0 1614.7242 3328.1653 3329.0696 1.0
1.0 1709.6082 2573.8386 2574.7683 1.0 1.0 1761.5209 18698.475
18698.463 1.0 1.0 540.33685 18427.213 18427.092 1.0 1.0
545.983 6040.884 6040.0557 1.0 1.0 155.18599 5798.6494 5797.8213
1.0 1.0 148.47874

network_body.processors.1.normalizer.running_mean f4 [6]
00000000: 05f3 7fbf 0000 0000 0000 0000 0000 0000
00000010: 0000 0000 0000 0000
-0.99980193 0.0 0.0 0.0 0.0 0.0

network_body.processors.1.normalizer.running_variance f4 [6]
00000000: 3941 0040 0000 803f 0000 803f 0000 803f
00000010: 0000 803f 0000 803f
2.0039809 1.0 1.0 1.0 1.0 1.0

network_body._body_endoder.seq_layers.0.weight f4 [128, 41]
00000000: 0135 57bd ef5d 853e 9cb6 b8bd 785e 98bd
00000010: b085 0f3e f98f c2be 5c62 373e e9ee 763b
00000020: 2aa4 fb3b 54c1 81be 6432 ed3d 3840 0b3e
00000030: 2f0f e83d 54d3 1abe f97c 1b3e 64fb 53bd
00000040: 1187 3ebd bfc6 c93d 60a2 86bd 5838 27be
00000050: 575b 9a3d 166d 8a3d ee9a 173e 54aa a6bd
00000060: 2990 bcbe 4e2e 4cbc 9caf 94bd 6838 e2bc
00000070: 8a04 1fbe ef4c 21be a0aa 7e3d d880 60be
00000080: 387f 72be d18c 69bd 1fab 0ebe 136a 3d3e
00000090: ed06 233e 4072 563d 9a3b 11bc 6020 33bd
000000a0: d16f e33d b115 433d 50d5 a13e 1e65 aebe
000000b0: 394a 51be 30dc 483d 7220 2fbe 7710 d73d
000000c0: 42f4 223d cb43 91bd e520 c4bd 1148 dc3d
000000d0: a662 b3bc d864 fabd 8a58 043d b45e b3bd
000000e0: 1f2a bd3c 427b d53d 333b 8dbd 7509 8c3d
000000f0: 1c64 d6bd af91 42bd a640 c9be 7d27 0bbd
00000100: fa1e ecbd 5bd1 933e 4b15 8fbc 7fdd 54be
00000110: b913 edbd 6b91 96be 5d33 d6bd dab9 443e
00000120: 648c 9dbd d0f1 e9bd ac02 92be 7ce0 273d
00000130: 8e8b e5bc a6c2 423e 1cfa 713d f35f 2abe
00000140: 19a5 e7bd 1b2b 1fbe afb1 043e 38e8 f4bd
00000150: 12bb b63e d484 f4bd e74e b93d e2dd 95be
00000160: 09ea 023d e0e6 863c 8aa4 ffbc 022d 23bc
00000170: 1943 1ebd 0781 dfbc 3443 77be 934f 07be
00000180: f073 463e 9bad 053e dfde 1d3e 7e20 833d
00000190: 4970 07be b92d 54be 144d 123e cd29 043e
000001a0: dd19 bfbd d898 7dbd 40af c23d ef45 24bd
000001b0: 5ebc 28be 344e c23d 4f37 8dbe d230 68bd
000001c0: 6333 1ebe eb50 eb3e 9d47 92be 8d3d 1b3e
000001d0: cab5 cbbd 51d5 cfbb 7ff4 523e e148 453d
000001e0: fce0 58be eecb be3d d0d9 d7bc 51f5 cc3d
000001f0: 399b 633e e66b 46bc 31fd d1bd a364 8d3e
00000200: afbd fe3c 9403 8dbe 0f11 963d 803d 5c3e
00000210: c182 a1be 74bb 56be 4691 afbc 13a2 bbbd
00000220: 883d 4abd 5375 ba3d 1c33 87be 42c6 6cbd
00000230: ae6b efbd bcb1 c4bd 178e 193e fe7e 68bd
00000240: 5697 783d fd5e 2d3d 2d5c ba3c 1b31 cdbd
00000250: 843b 05bf 078f 48bd 314e 9ebe 763d df3d
00000260: ba82 f4bd 7bef 13be 478b a83d 6604 1fbe
00000270: 6ba7 92bd 0940 54be 0483 203e fccd 813e
00000280: c57b c3bd 76d2 09bc bd53 97be 5d53 d13d
00000290: c490 8c3e 493a febc 0210 fabd d31a a03e
000002a0: 8959 1b3c 6421 d6bc 0eee 8cbd c281 99bd
000002b0: 5b8a 503c 5128 c4bd 1bb9 0bbb 68e0 833c
000002c0: 0828 85bc 1ff1 193e 7dcf 033e b600 313c
000002d0: 4063 78be 1c05 9e3c 6db6 713e 8e44 033d
000002e0: 9d84 183e a2eb 62be 2ff0 acbd a4b6 afbd
000002f0: 8a7e 923c 20db 85bd efe1 943e 4439 9c3a
00000300: b0f3 b7bd bdd0 973e 5b6b 273d 2008 30be
00000310: 471b d83d 2819 7e3e 92e9 703d 7b87 ab3e
00000320: 61ac 1abe e1f1 3fbe df37 adbe 4518 83be
00000330: d538 96be 789c 673e 4ab3 46be 3306 afbd
00000340: dc90 4a3e 07f4 62bd 8f0c a53d 9362 c4bd
00000350: 0a90 973e b07d 863d 5a92 46bd 0eb7 e3bd
00000360: 03ff e4bc 7a4d 89bc b297 ca3d 919c 243d
00000370: b81e 8cbe fc8a c4bd 3345 e33c 6218 9cbe
00000380: a979 c7bd efe2 07bd 50d7 3dbd fe74 343e
00000390: 49b3 0bbe 2e7a 423d ad8d 893e ee83 b73d
000003a0: 40d8 ebbc 1e6c 0bbd f910 18be 2cad 843d
000003b0: ecb2 04be 7a70 933d 55f2 9cbc 5d3b 2abe
000003c0: 19c9 303d ee66 453e 4dd6 06be 240b 1ebe
000003d0: 9b0e 2ebe 5475 d8bd 28b2 0cbd 8dc8 9fbd
000003e0: acc4 c13d 3ef9 423e ee8d 97bd 5331 1dbe
000003f0: 5591 3e3c 61b5 bd3d 97b3 41be df61 d93d
-0.052540783 0.26048228 -0.09019205 -0.074398935 0.14015841 -0.38000467 0.17908615 0.0037679023
0.007679482 -0.2534281 0.11581877 0.13598716 0.11331021 -0.15119678 0.15184392 -0.051753417
-0.046515528 0.09852361 -0.06573939 -0.16330087 0.07536953 0.06759088 0.14805195 -0.08137956
-0.36828735 -0.012462212 -0.07260057 -0.027614787 -0.15529075 -0.15752004 0.06217444 -0.2192415
-0.23681343 -0.05701906 -0.13932465 0.18497495 0.1592061 0.05235505 -0.008864308 -0.043732047
0.11105312 0.04762811 0.31608057 -0.3406152 -0.2043847 0.049038112 -0.1710222 0.10501187
0.039783724 -0.070930086 -0.09576587 0.10755933 -0.021897625 -0.12226266 0.032311 -0.087582976
0.023091374 0.104239 -0.06896057 0.06837741 -0.10468313 -0.047502216 -0.39307135 -0.033973206
-0.11529346 0.28870663 -0.017466208 -0.20787619 -0.115760274 -0.2940782 -0.104590155 0.19211522
-0.07692793 -0.11423075 -0.28517663 0.04098557 -0.028020646 0.19019565 0.059076414 -0.16638164
-0.11310787 -0.15543787 0.12958406 -0.11958355 0.35689598 -0.119393975 0.090482526 -0.29270846
0.031961475 0.016467512 -0.031206388 -0.009959461 -0.038638208 -0.027283205 -0.2414673 -0.13213949
0.19380164 0.13054506 0.1541705 0.06402682 -0.13226427 -0.20720567 0.14287215 0.1290657
-0.09331105 -0.06191334 0.095060825 -0.040105756 -0.16478106 0.09487572 -0.2758126 -0.056687184
-0.1544929 0.45960173 -0.28570262 0.15160199 -0.09946783 -0.006342568 0.2060108 0.048165206
-0.21179575 0.0931624 -0.026348978 0.10007728 0.22227181 -0.012110686 -0.102533706 0.27615842
0.031096308 -0.27541792 0.073274724 0.21507835 -0.3154507 -0.20969945 -0.021431576 -0.091617726
-0.049375087 0.09104409 -0.2640618 -0.05780626 -0.1169046 -0.09604213 0.14995609 -0.056761734
0.0606912 0.042326916 0.022749031 -0.10019132 -0.5204394 -0.048964527 -0.3091903 0.109003946
-0.119389966 -0.14446823 0.0822969 -0.15529022 -0.07160839 -0.20727552 0.15674978 0.25352466
-0.095450915 -0.008411994 -0.29556075 0.102209784 0.27454197 -0.031033652 -0.122100845 0.31270465
0.009481796 -0.026138969 -0.06881343 -0.074954525 0.012728299 -0.09578002 -0.0021320048 0.016098216
-0.01625444 0.15033387 0.12872119 0.010803392 -0.24256611 0.019289546 0.23604746 0.0320478
0.14894338 -0.221602 -0.08444249 -0.08579758 0.017882604 -0.065359354 0.29078624 0.0011918922
-0.089820266 0.29651442 0.040873867 -0.171906 0.10552078 0.24814284 0.0588165 0.335018
-0.1510482 -0.18744613 -0.3383169 -0.25604454 -0.29340234 0.22618282 -0.19404331 -0.08546104
0.19781822 -0.055408504 0.08059036 -0.09589114 0.2960208 0.06566942 -0.048479415 -0.11118899
-0.02795363 -0.016760577 0.09892215 0.040188376 -0.27367187 -0.09596822 0.027742958 -0.30487353
-0.09740002 -0.033175405 -0.046347916 0.17622754 -0.1364261 0.0474798 0.26865903 0.089607105
-0.02878964 -0.034038655 -0.14850225 0.064783424 -0.12958878 0.071991876 -0.019158522 -0.16624208
0.04316053 0.19277546 -0.13167687 -0.15433937 -0.16997759 -0.105692536 -0.03434959 -0.07801924
0.0946134 0.19040391 -0.07400118 -0.15350847 0.01163133 0.09263111 -0.18916164 0.106143706

network_body._body_endoder.seq_layers.0.bias f4 [128]
00000000: 0000 0000 0000 0000 0000 0000 0000 0000
00000010: 0000 0000 0000 0000 0000 0000 0000 0000
00000020: 0000 0000 0000 0000 0000 0000 0000 0000
00000030: 0000 0000 0000 0000 0000 0000 0000 0000
00000040: 0000 0000 0000 0000 0000 0000 0000 0000
00000050: 0000 0000 0000 0000 0000 0000 0000 0000
00000060: 0000 0000 0000 0000 0000 0000 0000 0000
00000070: 0000 0000 0000 0000 0000 0000 0000 0000
00000080: 0000 0000 0000 0000 0000 0000 0000 0000
00000090: 0000 0000 0000 0000 0000 0000 0000 0000
000000a0: 0000 0000 0000 0000 0000 0000 0000 0000
000000b0: 0000 0000 0000 0000 0000 0000 0000 0000
000000c0: 0000 0000 0000 0000 0000 0000 0000 0000
000000d0: 0000 0000 0000 0000 0000 0000 0000 0000
000000e0: 0000 0000 0000 0000 0000 0000 0000 0000
000000f0: 0000 0000 0000 0000 0000 0000 0000 0000
00000100: 0000 0000 0000 0000 0000 0000 0000 0000
00000110: 0000 0000 0000 0000 0000 0000 0000 0000
00000120: 0000 0000 0000 0000 0000 0000 0000 0000
00000130: 0000 0000 0000 0000 0000 0000 0000 0000
00000140: 0000 0000 0000 0000 0000 0000 0000 0000
00000150: 0000 0000 0000 0000 0000 0000 0000 0000
00000160: 0000 0000 0000 0000 0000 0000 0000 0000
00000170: 0000 0000 0000 0000 0000 0000 0000 0000
00000180: 0000 0000 0000 0000 0000 0000 0000 0000
00000190: 0000 0000 0000 0000 0000 0000 0000 0000
000001a0: 0000 0000 0000 0000 0000 0000 0000 0000
000001b0: 0000 0000 0000 0000 0000 0000 0000 0000
000001c0: 0000 0000 0000 0000 0000 0000 0000 0000
000001d0: 0000 0000 0000 0000 0000 0000 0000 0000
000001e0: 0000 0000 0000 0000 0000 0000 0000 0000
000001f0: 0000 0000 0000 0000 0000 0000 0000 0000
0.0 0.0 0.0 0.0 0.0 0.0 0.0 0.0
0.0 0.0 0.0 0.0 0.0 0.0 0.0 0.0
0.0 0.0 0.0 0.0 0.0 0.0 0.0 0.0
0.0 0.0 0.0 0.0 0.0 0.0 0.0 0.0
0.0 0.0 0.0 0.0 0.0 0.0 0.0 0.0
0.0 0.0 0.0 0.0 0.0 0.0 0.0 0.0
0.0 0.0 0.0 0.0 0.0 0.0 0.0 0.0
0.0 0.0 0.0 0.0 0.0 0.0 0.0 0.0
0.0 0.0 0.0 0.0 0.0 0.0 0.0 0.0
0.0 0.0 0.0 0.0 0.0 0.0 0.0 0.0
0.0 0.0 0.0 0.0 0.0 0.0 0.0 0.0
0.0 0.0 0.0 0.0 0.0 0.0 0.0 0.0
0.0 0.0 0.0 0.0 0.0 0.0 0.0 0.0
0.0 0.0 0.0 0.0 0.0 0.0 0.0 0.0
0.0 0.0 0.0 0.0 0.0 0.0 0.0 0.0
0.0 0.0 0.0 0.0 0.0 0.0 0.0 0.0

network_body._body_endoder.seq_layers.2.weight f4 [128, 128]
00000000: da68 11bc e355 633e 0a1d 153e 417a b43d
00000010: d9af 0cbd a89f bbbc b021 893d 7009 e4bd
00000020: 930b 823c cb20 773d 02d6 3cbd 8578 8f3e
00000030: e3a6 6d3d 3791 cc3d fe05 7fbd 7cd2 34bd
00000040: 8e45 d4bd 3486 6ebc bf9e 9e3d 0b9c 113e
00000050: 20e3 923d 6c8c 2c3d 6ec7 023e 979d 70bd
00000060: 73d3 01bd 2792 2e3d ccad 123e a8ad e83b
00000070: c835 4e3d 4f20 d4bd 6df8 39bd 552f 8abd
00000080: 9003 ccbd db78 7abe cce8 c13a de22 eabd
00000090: 0dd9 d23d 1b22 ea3c 613f dcbd 84ad be3d
000000a0: a603 39bc 5eaa 0abd c73e 2abd 741b 403e
000000b0: a2ed e3bd 83ed 203b 426c 563d fec3 59bd
000000c0: ab2f 03bd 1765 cd3d 0c83 08bd 8afb c4bd
000000d0: 2df9 5d3d 575b a0bd 0487 d23d 8119 27be
000000e0: 3ae4 ebbc a2f9 82ba 42b2 e23d 4566 fe3d
000000f0: 47f5 91bb d16d cf3d 98a9 033e f1aa c03c
00000100: 73b1 2ebc 9e5d fc3d e8b8 f23c 23f8 d4bd
00000110: b401 88bd 1a72 ee3d 66ec fe3a 29d4 c8bc
00000120: a3cc 8e3d a5ec c93d b421 d9bb dc58 96b9
00000130: 0b22 693d 4cb0 703d 128a 4d3d 8caa 073d
00000140: 402d e8b9 9c98 2c3d 3435 25be 2aea abbd
00000150: 9807 1e3c 08c2 65bd de45 9abd 73d0 cc3d
00000160: 8bc7 22bd 11f6 9e3d af51 543e 8e94 863d
00000170: d9c2 4cbb ff87 2dbc ee8e 7abd 77ba d93d
00000180: 6c26 5fbc 6a4e e83d 39e5 ef3c ba23 0f3c
00000190: f716 89bb b9dd 19be 68fd f93c e3aa 57be
000001a0: 5b48 ab3d 0dfd dcbb 2860 c93c fa3a b0bd
000001b0: 7e91 f83d 79fc 2abe c746 e6bd 2219 a4bd
000001c0: b98e 33bd 63d8 0d3d a0e2 0bbe 9742 023e
000001d0: 76ca f8bd d47b fe3b e534 963e 9845 10bd
000001e0: f6a4 a43d 6ed2 df3d 70db 1bbe e27c 363e
000001f0: 6136 983d 7814 ce3a d948 b0bd 538a 083e
00000200: 8de3 e3bb bdab e33d c7fd 243e 5ef3 643d
00000210: 1db7 debc 3450 8f3d ee8b 933c 1f99 24bd
00000220: 5a9b 6bbd 01c9 e73d fd92 13bd 356e a83d
00000230: cfaa 57bc e31a 8c3c 4ee3 10bd 24b3 60be
00000240: 7cf7 45be 5ca9 8b3d adcc 61bd 5434 563d
00000250: 2b00 913d e9d3 7fbe ad97 7db9 7b22 543d
00000260: eb84 07be 4eef 5c3d f821 e3bd 949d 5d3d
00000270: 9274 a9bd c9af c33d 3dae bfbd 1b0f a6bd
00000280: 28de 433e 0f47 213c a9e3 06bc 6f04 3539
00000290: aa43 073d 67ee 0fbd 59c9 cd3d a37f 20be
000002a0: da3c ecbc 43c8 2ebd 368b c8bd 2412 dabd
000002b0: ec8e 2abd 52b3 24be cb02 1c3d f677 a03d
000002c0: a4cd b2bd 0ebc 24be 5419 25be 8222 bf3d
000002d0: f0ba babd 9e41 92bc 624b aebd 7297 15be
000002e0: eab6 26bd bfd4 e3bc 7add 5abd 1f76 cf3c
000002f0: ce5f 40bc 03a9 1dbd be91 94bd 453b 4fbd
00000300: 437c 2fbd 0838 5e3e 2e67 833d 4c6b c93d
00000310: 1378 c13d 933d 2fbd f22b 31bd 19f2 6abc
00000320: 41c9 2bbd d4e3 3bbe d12a e73d 20dc 9c3a
00000330: a4e0 ccbc e3af 4dbd 24b1 6bbd e485 403d
00000340: 3f42 94bb b1ff dfbc f12e 29bd 23d5 9c3b
00000350: 6d89 efbd 9941 f93d b6c1 d13d 1314 1c3e
00000360: b524 c8bd 9105 d2bd 190f 64bd c4a1 173e
00000370: 9d52 c23d 6fd2 bfbc fc3e 623d 414f 933d
00000380: 4826 863c 88b5 dfbd 8271 90be 4000 013e
00000390: fcfe 4bbc 600d 0c3e 4324 3cbc 43f9 913d
000003a0: eb2f b8bd 29db 0d3e 90f2 80bd d26f c8bd
000003b0: 105c 3abe 4240 8e3c a647 4cbc d505 913c
000003c0: 14fc 11be 123f 443c 1cc2 54be eac2 f93d
000003d0: 11d1 903e 0b5f 7c3d 6695 1fbe b771 a9bd
000003e0: f242 5a3d 5968 153e 83b4 4bbd c809 da3c
000003f0: d91c b03d 3c33 bc3d 1ab2 f23d 6fbd 60bd
-0.008875096 0.22200732 0.14561859 0.088123806 -0.03434739 -0.022903278 0.066958785 -0.111346126
0.01587466 0.06033401 -0.04610253 0.28021637 0.058020484 0.09988635 -0.062261574 -0.044146046
-0.10364829 -0.014558364 0.07745122 0.14219682 0.07172227 0.042126104 0.12771389 -0.05874404
-0.031695794 0.04261985 0.14324111 0.0071007796 0.05034426 -0.10357725 -0.045402933 -0.06747309
-0.09961617 -0.24460165 0.001479411 -0.11432432 0.102953054 0.028580716 -0.10754276 0.09310439
-0.011292374 -0.03385388 -0.041563775 0.18760473 -0.11129309 0.002455563 0.052349336 -0.05316543
-0.03202788 0.10029047 -0.0333281 -0.0961829 0.05419271 -0.07829922 0.102796584 -0.16318323
-0.02879535 -0.0009992609 0.11069156 0.1242185 -0.004454288 0.10128368 0.12857664 0.023519011
-0.010662424 0.123225436 0.029629186 -0.10398891 -0.0664095 0.11642857 0.0019449114 -0.024515228
0.06972625 0.098595895 -0.006626332 -0.00028676435 0.05691723 0.05876188 0.050180502 0.03312163
-0.00044284202 0.042137727 -0.16133577 -0.083942726 0.009645365 -0.056093246 -0.07532857 0.10000696
-0.03974108 0.07761777 0.20734285 0.06571303 -0.0031244068 -0.010591506 -0.061171465 0.106312685
-0.01362 0.11343081 0.029284107 0.008736545 -0.004183646 -0.15025987 0.030516341 -0.21061282
0.0836341 -0.006744033 0.024581984 -0.08604999 0.121371254 -0.16697873 -0.112439685 -0.08012606
-0.043837283 0.03463019 -0.1366067 0.12720715 -0.12147991 0.0077662263 0.2933723 -0.03522262
0.08039276 0.10928808 -0.15220428 0.17821077 0.07432247 0.0015722653 -0.086076446 0.13334017
-0.0069546164 0.11116741 0.16112433 0.055896156 -0.027186925 0.069977194 0.01801106 -0.04018509
-0.0575212 0.11317635 -0.03602885 0.08224145 -0.013163283 0.017102664 -0.035373025 -0.21943337
-0.19332689 0.06819412 -0.055126835 0.052295998 0.0708011 -0.24983181 -0.00024184464 0.051790696
-0.13234298 0.053939156 -0.110904634 0.054105356 -0.08274187 0.09555013 -0.09359405 -0.0810835
0.19127715 0.009843602 -0.008232989 0.00017263157 0.033023514 -0.035139468 0.1004817 -0.1567369
-0.02883761 -0.042671453 -0.097921774 -0.10647991 -0.041640207 -0.1608403 0.0380886 0.07835381
-0.08730629 -0.16087362 -0.16122943 0.09332754 -0.09117687 -0.017853554 -0.08510472 -0.14608553
-0.040701784 -0.027811406 -0.053433873 0.02532488 -0.011741592 -0.03849126 -0.072543606 -0.050593633
-0.042843115 0.21701062 0.06416164 0.098349184 0.094467305 -0.04278333 -0.0432548 -0.014339947
-0.041939978 -0.18348628 0.112874635 0.0011967458 -0.02500946 -0.050216567 -0.05754198 0.047002688
-0.0045244987 -0.027343603 -0.041304532 0.00478615 -0.11696134 0.12170715 0.102420256 0.15242033
-0.09772626 -0.10254968 -0.05567846 0.14807802 0.094884135 -0.023415772 0.055235848 0.07192851
0.016375676 -0.10923296 -0.282116 0.12597752 -0.01245093 0.13676977 -0.011483255 0.07127621
-0.089935146 0.13853134 -0.06296265 -0.09786953 -0.18199182 0.017364625 -0.012468254 0.017702976
-0.14256316 0.011977928 -0.20777172 0.1219538 0.28284505 0.061614078 -0.15584335 -0.082736425
0.0532865 0.14590587 -0.049732696 0.026615992 0.08599252 0.0918946 0.118503764 -0.054868158

network_body._body_endoder.seq_layers.2.bias f4 [128]
00000000: 0000 0000 0000 0000 0000 0000 0000 0000
00000010: 0000 0000 0000 0000 0000 0000 0000 0000
00000020: 0000 0000 0000 0000 0000 0000 0000 0000
00000030: 0000 0000 0000 0000 0000 0000 0000 0000
00000040: 0000 0000 0000 0000 0000 0000 0000 0000
00000050: 0000 0000 0000 0000 0000 0000 0000 0000
00000060: 0000 0000 0000 0000 0000 0000 0000 0000
00000070: 0000 0000 0000 0000 0000 0000 0000 0000
00000080: 0000 0000 0000 0000 0000 0000 0000 0000
00000090: 0000 0000 0000 0000 0000 0000 0000 0000
000000a0: 0000 0000 0000 0000 0000 0000 0000 0000
000000b0: 0000 0000 0000 0000 0000 0000 0000 0000
000000c0: 0000 0000 0000 0000 0000 0000 0000 0000
000000d0: 0000 0000 0000 0000 0000 0000 0000 0000
000000e0: 0000 0000 0000 0000 0000 0000 0000 0000
000000f0: 0000 0000 0000 0000 0000 0000 0000 0000
00000100: 0000 0000 0000 0000 0000 0000 0000 0000
00000110: 0000 0000 0000 0000 0000 0000 0000 0000
00000120: 0000 0000 0000 0000 0000 0000 0000 0000
00000130: 0000 0000 0000 0000 0000 0000 0000 0000
00000140: 0000 0000 0000 0000 0000 0000 0000 0000
00000150: 0000 0000 0000 0000 0000 0000 0000 0000
00000160: 0000 0000 0000 0000 0000 0000 0000 0000
00000170: 0000 0000 0000 0000 0000 0000 0000 0000
00000180: 0000 0000 0000 0000 0000 0000 0000 0000
00000190: 0000 0000 0000 0000 0000 0000 0000 0000
000001a0: 0000 0000 0000 0000 0000 0000 0000 0000
000001b0: 0000 0000 0000 0000 0000 0000 0000 0000
000001c0: 0000 0000 0000 0000 0000 0000 0000 0000
000001d0: 0000 0000 0000 0000 0000 0000 0000 0000
000001e0: 0000 0000 0000 0000 0000 0000 0000 0000
000001f0: 0000 0000 0000 0000 0000 0000 0000 0000
0.0 0.0 0.0 0.0 0.0 0.0 0.0 0.0
0.0 0.0 0.0 0.0 0.0 0.0 0.0 0.0
0.0 0.0 0.0 0.0 0.0 0.0 0.0 0.0
0.0 0.0 0.0 0.0 0.0 0.0 0.0 0.0
0.0 0.0 0.0 0.0 0.0 0.0 0.0 0.0
0.0 0.0 0.0 0.0 0.0 0.0 0.0 0.0
0.0 0.0 0.0 0.0 0.0 0.0 0.0 0.0
0.0 0.0 0.0 0.0 0.0 0.0 0.0 0.0
0.0 0.0 0.0 0.0 0.0 0.0 0.0 0.0
0.0 0.0 0.0 0.0 0.0 0.0 0.0 0.0
0.0 0.0 0.0 0.0 0.0 0.0 0.0 0.0
0.0 0.0 0.0 0.0 0.0 0.0 0.0 0.0
0.0 0.0 0.0 0.0 0.0 0.0 0.0 0.0
0.0 0.0 0.0 0.0 0.0 0.0 0.0 0.0
0.0 0.0 0.0 0.0 0.0 0.0 0.0 0.0
0.0 0.0 0.0 0.0 0.0 0.0 0.0 0.0

action_model._discrete_distribution.branches.0.weight f4 [3, 128]
00000000: cd9d 49bb 4bb3 8a3c d0f9 cabb b0b9 63bb
00000010: 7a07 5dbc 43f8 bebb 9c55 8f3b 2bc7 af3a
00000020: 426e 623b 531f a43c 160f 94bb e387 7d3b
00000030: a2ec a03c ade1 79bb a6c2 4b3c e241 98bb
00000040: 5fa2 703c 4f36 fbba 49c1 1fbb 0fc0 54bc
00000050: 7602 093c dae7 7cbc c7d1 8bbb 3d96 17ba
00000060: e384 4fbc 624f 623c 0b63 943a eab6 64bc
00000070: ef30 e3bb 0f74 47bb f0f4 b4bb 50ce adba
00000080: 5c59 1a3b 9b63 9d3c 7350 9a3a 6372 16ba
00000090: d07c dc3b d19a c2bb 50cf 773b 2009 37bc
000000a0: 042d 303c 3b1a fe3b 701b 473c 8755 04bc
000000b0: 0705 52bb 2f12 493c b43b 483c 49ad 2cbc
000000c0: 18c0 58b9 bb5a d3bb 657a fbba d088 9abb
000000d0: d198 9fba c548 f7bb b797 48ba d8a8 143c
000000e0: 8233 ef3b b8ff 7fbb 80fb 7f3b f9c6 1ebc
000000f0: debe 2f3c 6dc9 663c 6378 00bc 3829 31ba
00000100: d02a 883c 604b e0ba 720f 1dbb 55df db3b
00000110: 83d2 2cbc c777 16bb cf60 0cbb 732c 57b9
00000120: cb0e 113b e4cc a9bb 1ded 14bc 4f01 eebb
00000130: 43c1 2dbc 023e 6c3c 2b07 5abc 8f56 393b
00000140: a354 9e3b 7f9b 753b 89df a3ba b6bf 39bc
00000150: 823e 0ebc 0d67 53bc 860a 96bc c1c5 063c
00000160: 8bf6 06bc 595f 84bc 63a0 b23a 7dbb 31bc
00000170: cec4 31bc 8ba0 9ebb 5d85 6dbc f748 0c3c
00000180: 73c8 953b d0a5 893b f1b2 45bc 5e00 8abc
00000190: fb05 7e3a 2b90 6d3b 3b6b c53b 4b51 853c
000001a0: 103b 65bb 2714 d93b 65f8 3a3c ca20 4a38
000001b0: a5ed 07bc c078 763c e0c5 ec39 1dc3 91bc
000001c0: 17ac 9abb 63c4 a1bb 5f29 413c 2b8a 57bc
000001d0: 6bea f739 98d6 64bc c047 863b 37df c9bb
000001e0: 69a7 31bc ab40 623b 9a01 2639 b296 093c
000001f0: f26d 333c d37f 12bc 3f27 e83b 8c5c 843c
00000200: e7d2 513b 9d90 403a 1876 f73b cba3 033c
00000210: 2074 d2bc dad8 8038 147d 063c 0b8b ec39
00000220: b353 c73a e9b0 08bc 8dd1 423a a1f1 153c
00000230: 3b15 82bb 3336 55bc 150f 533c 23c0 dc3a
00000240: 1a51 533c 091a 9ebc 545a 193b 1721 c73a
00000250: e345 46ba 4714 9d3b 3abe 4d39 ed56 6dbb
00000260: 0f77 db3b 9076 a0bb d62b 003c 0456 2bbc
00000270: af1c b7bb 2d3c e1ba f8de 443c 858e 1fbc
00000280: a5f3 923c 4b5d ccbb 43dc b5bb be5f 0cbc
00000290: a3a8 8bb9 05b3 ebb9 8762 cfbb 2908 84ba
000002a0: 6ba4 363c dfb1 353b b817 1bbb 9bc2 efbb
000002b0: 9b8c 2d3b c6cf 04bc c3db 13bb d8f5 00bb
000002c0: 0381 bd3b ef71 3cbc f2d5 66bc df11 5a3b
000002d0: 4b28 26bb 19fa c2bb 0d44 dabb b7ba 95ba
000002e0: 4a2a 163c 5943 1abc a0c5 e53b 6775 d9bb
000002f0: db9b 47bc 30a3 c03b 6741 e7ba 655c 84bc
00000300: a516 b0bb cfc7 5dbc ffbb a839 3be3 89ba
00000310: fbbe 8ebb fdfa e6bb 55f2 133a 327b 12bc
00000320: e8c4 a93b 4a2f 203c 2bea 42bb 53ae b33b
00000330: f35a 05bc 5eed 0abc 95d4 69bb 4416 08bb
00000340: df2d 2b3b b7ea 8d3b 8a52 e43b 789d c33b
00000350: cbb0 4a3c 18bc 8cba f829 0bbb 5b7e b6ba
00000360: 0109 b2b9 3b4e 5e3c 4031 5cbc b684 21bc
00000370: 23d7 74bb 5bf4 a2ba 2b4b 913b d485 bbbb
00000380: 8260 2f3c 5c70 1abc db8e 063c 1032 f3ba
00000390: 9f1f 33b9 236a a0b9 1bef b1bb 92d4 69bc
000003a0: 37e6 453b db8e a1bb 0f6d 4ebc 0155 24ba
000003b0: 3b09 543b 77a4 eeb9 d7cd 963a 5f85 ae3b
000003c0: 4218 593c 91d9 3e3c a321 6bbc 4145 b7bb
000003d0: 53eb 19bc 75e2 38bc ac6b 323c d170 8f3c
000003e0: a9d0 0abc 5de2 babb 1da1 5b3b 19ec 1839
000003f0: 0785 f73b 055a 813b 7e60 023b 3ba4 153b
-0.0030764223 0.016931197 -0.0061943308 -0.003474813 -0.013490552 -0.005827935 0.004374219 0.0013410797
0.0034550582 0.020034468 -0.0045184 0.003868573 0.019644085 -0.0038128898 0.0124365445 -0.0046465257
0.01468715 -0.0019165965 -0.0024376682 -0.012985243 0.008362403 -0.015436137 -0.004266951 -0.000578258
-0.01266596 0.013812872 0.0011321021 -0.013959626 -0.0069333236 -0.0030434167 -0.005522363 -0.0013260338
0.0023551797 0.019212535 0.0011773243 -0.0005739091 0.006728746 -0.0059388657 0.0037812777 -0.011171609
0.01075292 0.0077545918 0.012152538 -0.008077032 -0.0032046454 0.012272402 0.012221266 -0.010539361
-0.00020670926 -0.006450025 -0.0019186257 -0.0047160164 -0.001217628 -0.0075465166 -0.0007652002 0.009073459
0.0072998414 -0.0039062332 0.0039059818 -0.009690993 0.010726659 0.01408611 -0.007841202 -0.0006758156
0.016621977 -0.0017112307 -0.0023965505 0.006709973 -0.010548237 -0.0022959576 -0.0021420007 -0.00020520556
0.0022134061 -0.0051818956 -0.009089735 -0.0072633396 -0.010605159 0.014419081 -0.013307373 0.0028280353
0.004831867 0.0037476716 -0.0012502532 -0.011337211 -0.008681895 -0.012902987 -0.018315565 0.008225859
-0.008237491 -0.016158747 0.0013628121 -0.010847923 -0.010850145 -0.0048409156 -0.014497128 0.008562318
0.0045710145 0.0042006746 -0.012066589 -0.016845878 0.0009690222 0.003624926 0.0060247458 0.016274115
-0.003497783 0.006624717 0.011411761 4.819109e-05 -0.008296405 0.0150434375 0.00045160856 -0.017793233
-0.0047202217 -0.004936741 0.011789649 -0.0131555 0.00047286166 -0.013967179 0.0040979087 -0.0061606425
-0.010843136 0.0034523408 0.0001583159 0.008397745 0.010951506 -0.0089416085 0.0070847566 0.016157411
0.0032016577 0.0007345768 0.0075519197 0.008034657 -0.025690138 6.1439074e-05 0.008208532 0.00045117023
0.001520744 -0.00834296 0.0007431738 0.009151847 -0.003969816 -0.01301341 0.012882014 0.0016841929
0.012897754 -0.019299524 0.0023399787 0.0015192357 -0.00075635145 0.004793677 0.00019621188 -0.0036215142
0.0066975425 -0.0048969463 0.007822951 -0.010457519 -0.005588136 -0.0017184071 0.0120160505 -0.009738569
0.017938444 -0.0062367073 -0.005549939 -0.008567749 -0.0002663779 -0.00044956073 -0.006328884 -0.0010073233
0.011147599 0.0027724428 -0.002366526 -0.0073169 0.0026481512 -0.008106178 -0.0022561408 -0.0019677784
0.0057832017 -0.011501773 -0.0140890945 0.0033274812 -0.0025353606 -0.005950224 -0.0066609443 -0.0011423443
0.009165356 -0.009415471 0.007012084 -0.00663631 -0.012183155 0.0058788285 -0.0017643393 -0.016157338
-0.005373793 -0.013536408 0.00032183525 -0.001051999 -0.0043562627 -0.007048963 0.0005643715 -0.008940505
0.0051809438 0.0097769 -0.0029741626 0.0054834276 -0.00813936 -0.008479444 -0.0035679687 -0.0020765224
0.002611987 0.0043309587 0.0069678472 0.0059696995 0.012371252 -0.0010737209 -0.0021234732 -0.0013923155
-0.00033957514 0.013568456 -0.0134394765 -0.009858301 -0.0037359677 -0.0012432443 0.0044340095 -0.0057227407
0.010704162 -0.009426203 0.00821277 -0.0018554348 -0.0001708255 -0.00030596656 -0.005430115 -0.014271872
0.0030197033 -0.00493036 -0.012599244 -0.000626877 0.0032354135 -0.00045517433 0.0011505437 0.0053259577
0.013250412 0.011648552 -0.014351281 -0.0055929725 -0.009394485 -0.01128446 0.010889929 0.01750985
-0.0084726 -0.005703254 0.003351278 0.00014583803 0.0075537 0.0039474987 0.001989394 0.0022833485

action_model._discrete_distribution.branches.0.bias f4 [3]
00000000: 0000 0000 0000 0000 0000 0000
0.0 0.0 0.0

action_model._discrete_distribution.branches.1.weight f4 [3, 128]
00000000: e662 85ba 6e2c 8b3b 8eeb a139 7345 c03b
00000010: 419b 2b3b dbd2 54bb d8d8 e0ba f3b0 903b
00000020: 17a8 9e3b 1907 35bc 3cf1 9f3b 71eb b5bb
00000030: e8dd 79bb a108 833b f6a4 44bb 2800 753b
00000040: 7870 473c 95cc be3a 4022 f33b c508 ddbb
00000050: 0fdc 0d3c 0598 683c a00a 283c d575 713c
00000060: 3e32 923c 6636 0dbb 07aa e0ba 47bd 77bb
00000070: 7948 1d39 4630 cabb 73e6 aa3b b787 7b3b
00000080: 77cf a03b 940a 48bc 19c9 c5bc 7d52 6b3b
00000090: cf53 e6bb 0d6e 8fbc bf1e 85bc 3750 963c
000000a0: b84d 613c 1502 81bc 7843 fcbb 3d3b b53a
000000b0: 8ab1 e53a ebd8 743b 34d3 c43b c03a e0bb
000000c0: 376c 093c 2c9b 463c ddf5 143c 997b 05bc
000000d0: 836b 8b3a cd68 df3b 4bbb 7d3a e762 a3bb
000000e0: f314 faba 67cf 97ba c7af ce39 04c1 963a
000000f0: b6c7 93bc fbee 123b 52e5 d6bb db58 c0bb
00000100: 7799 02bc b59b 9ebb 373d 673c cd98 0bbc
00000110: e0b0 66bb 9973 b83a 8b04 d73b 674e dc39
00000120: 3d3b 843c 2ba1 6a3c 5037 8fbc 6d9e 6e3a
00000130: cb84 c8ba 457f 7b3c 0bb0 0dbc cf40 1ebc
00000140: f40f 04bc 2dae 733c b3c3 f4ba f045 333c
00000150: 8b40 a13a 66fa 333b 621d 193c 28c3 a93b
00000160: 3df5 e7ba 0254 27bc 988c 65ba 10eb e33b
00000170: e300 abba afb0 a3bc d7e3 213c 1de7 67bb
00000180: 3d02 7bbc 16d2 0dbc 7498 87bb 3d53 9c3b
00000190: d28a 07bb 5540 333c cb57 f5ba e3f2 c5bb
000001a0: f31d f5ba 20fe 1e3a 180c 853b eb5b 5dbb
000001b0: bb1d 953a 651f 323c 1b04 733b 6f1d ff3a
000001c0: 4087 05bc 2db0 ba3b fde7 873c 6780 94bb
000001d0: f5f3 f63a d314 72bb 8fba a3bb 6d2f 543c
000001e0: e5ec 943c c102 ba3a f08d d33b 66c3 a9ba
000001f0: 573e ce38 23d4 903b 0e89 8abb c734 15bc
00000200: 9ec7 993b b5fa dcbb ca23 4bbc 171a 673b
00000210: 8782 ce3b fdc4 d03c e931 a43b 3fc0 74bb
00000220: 9535 773b 7b01 023c 9c74 053c ab11 5cbc
00000230: 1b5b 9fbc 4f3e a63a 13ee cc3a 9f86 043c
00000240: fab0 90bb 5369 d63a 4508 ffbb 939b 143b
00000250: 4cfb 10bc c18b 083c 7232 443c 333e f6ba
00000260: c70b 893c e551 6dbc 1bb4 883a e2fb b53b
00000270: f8fc 283c 5a38 fa3b e0a3 e4bb 5389 2f3c
00000280: cd9a 07bc fa44 0d3c 0330 69bb 2f7d f5bb
00000290: 8de1 77bb 737a 2c3c 6051 c3bb 3f88 3ebb
000002a0: 8202 e7bb 8b79 323b 3732 1b3c 8887 48bc
000002b0: b592 4d3c 3f6c 02bc b1cf 3fbc 3f89 8d3c
000002c0: edca a5bb 1019 333b 0b14 90bc 189c fb3b
000002d0: dbf7 16bc a6ac 4c3c 0ad3 fe3b 5773 7c3b
000002e0: 69ef a5bb cb1a 87bb 5b83 7cbc a4a3 cbbb
000002f0: f87d 073c b05e 493b 848c 353c 72d7 e5bb
00000300: d363 bf3b 0620 ad3b 6308 133c d0aa 9d3b
00000310: f37d d93b 71be b03b 33a7 243c 8f27 98ba
00000320: 1363 bd3c f651 823c 1f72 28bb 978b 1c3a
00000330: de9d 093c cf98 00bb e37c 6e3a 4b72 0dbb
00000340: fdba 1d3b af7a 0eba b0c4 e7bb a564 71bc
00000350: ba76 c83b 80e9 ec3a 3d8f 7cbc 1213 593b
00000360: 7d17 e4bb e861 d3bb 0bd0 863b e18b 3fbc
00000370: 8600 33bc 90c9 06bc 6001 be3b 65fa 3a3b
00000380: 7404 18bc 52fb f13b 5f95 013b a504 32bb
00000390: 3564 d23b f5e4 ec3b f185 a43a a83f cb3a
000003a0: e5b0 643b 5c7a 11bb e7fb 183c a783 49bc
000003b0: 7003 fabb e863 7b3b db2e 02bc 6761 333b
000003c0: 88f8 5a3b 17d1 1fbc 5b7d f8bb 3fab d13b
000003d0: 055a 993c 9310 47bc 539b b7bb 9233 543b
000003e0: a78d 8abb 3ff8 f1bb cd7c f13b 2395 38bb
000003f0: 17a9 c43b 276d cb3b b7aa 93bb 373c d8bc
-0.0010176569 0.00424724 0.00030883815 0.005867654 0.0026185068 -0.0032474312 -0.0017154468 0.0044156252
0.004841815 -0.0110490555 0.0048810523 -0.0055517484 -0.0038126651 0.0039988314 -0.003000555 0.0037384126
0.012172811 0.001455682 0.0074198544 -0.00674543 0.008658423 0.0141964005 0.010256439 0.014737566
0.017846223 -0.0021547317 -0.0017140516 -0.0037802027 0.00014999685 -0.0061703054 0.00521546 0.0038380453
0.0049075442 -0.012209553 -0.024143742 0.003590732 -0.0070290337 -0.017508531 -0.016250012 0.018348796
0.01375144 -0.015748063 -0.0076984726 0.0013826858 0.0017524224 0.0037360738 0.0060066227 -0.006842941
0.008387617 0.012121957 0.0090918215 -0.008147144 0.0010636899 0.006817913 0.0009679093 -0.0049861553
-0.001907973 -0.0011582196 0.00039422346 0.0011501615 -0.018039566 0.0022420275 -0.006558099 -0.0058699674
-0.007971159 -0.004840339 0.014113716 -0.008520317 -0.003520064 0.0014072537 0.006561821 0.00042020084
0.016141528 0.014320652 -0.01748243 0.0009102587 -0.0015298364 0.015350168 -0.008647929 -0.009659006
-0.008060444 0.01487307 -0.0018674046 0.010941967 0.001230256 0.0027462482 0.009345384 0.005180735
-0.0017696988 -0.0102129 -0.0008756607 0.006955512 -0.0013046529 -0.01998171 0.009880981 -0.0035385557
-0.015320358 -0.008656045 -0.004138047 0.004770665 -0.0020682109 0.010940631 -0.0018718181 -0.0060409172
-0.0018700942 0.0006065089 0.0040602796 -0.0033776711 0.0011376658 0.010871743 0.0037081304 0.0019463728
-0.008149922 0.0056972713 0.016590113 -0.0045319083 0.0018841015 -0.0036938682 -0.0049966048 0.01295076
0.018179366 0.0014191495 0.0064561293 -0.001295191 9.834457e-05 0.00441982 -0.004227764 -0.009106821
0.0046929857 -0.006743754 -0.0123986695 0.0035263353 0.006302181 0.025484556 0.0050108326 -0.0037346033
0.0037721146 0.007934923 0.008145478 -0.013431947 -0.019452622 0.0012683364 0.0015634916 0.008088737
-0.0044156285 0.0016358293 -0.007782968 0.0022675737 -0.008848976 0.008334101 0.011974918 -0.0018786847
0.016729249 -0.014484857 0.0010429652 0.0055537084 0.010314219 0.007636112 -0.0069775432 0.010713893
-0.0082766535 0.008622402 -0.0035581596 -0.0074917297 -0.0037823648 0.010527241 -0.0059606284 -0.0029072908
-0.0070498595 0.002723309 0.009472421 -0.012239344 0.012547185 -0.007960378 -0.011707232 0.017277358
-0.005059591 0.002732817 -0.017587682 0.00767852 -0.009214367 0.0124923345 0.0077766227 0.0038520896
-0.0050639403 -0.004123067 -0.015412177 -0.006214576 0.008269779 0.0030726604 0.011080865 -0.0070142085
0.0058407574 0.0052833585 0.0089741675 0.004811622 0.006637329 0.005393796 0.010049629 -0.0011608469
0.023118531 0.015908223 -0.0025702787 0.0005971728 0.008399455 -0.001962233 0.0009097589 -0.0021583016
0.0024067753 -0.00054351514 -0.0070730075 -0.014733468 0.006117669 0.001807496 -0.01541501 0.003312294
-0.006960808 -0.0064508803 0.004114156 -0.011691065 -0.010925418 -0.008226767 0.0057985038 0.0028530594
-0.009278405 0.007384696 0.001977287 -0.0027163413 0.006420637 0.0072294422 0.0012552125 0.0015506642
0.0034895476 -0.0022198176 0.009337402 -0.012299455 -0.0076298043 0.003835911 -0.0079457415 0.0027371289
0.0033412296 -0.009754441 -0.007583303 0.006398588 0.018719682 -0.012149948 -0.005603233 0.003237937
-0.004228312 -0.0073843296 0.0073696137 -0.0028165064 0.0060016024 0.0062080803 -0.004506435 -0.0263959

action_model._discrete_distribution.branches.1.bias f4 [3]
00000000: 0000 0000 0000 0000 0000 0000
0.0 0.0 0.0

network_body.observation_encoder.processors.0.normalizer.running_mean f4 [35]
00000000: 0000 0000 a6fe 7f3f 0000 0000 0000 0000
00000010: 118b 883e 8a1b 3f3d 670d 743f 0000 0000
00000020: 0000 0000 4042 923e 8c18 123d 9cdd 763f
00000030: 0000 0000 0000 0000 c7f9 933e 188f 013f
00000040: 17e0 fc3e 0000 0000 0000 0000 ed90 8d3e
00000050: be7e 0f3f c600 e13e 0000 0000 0000 0000
00000060: 2534 903e d751 693f 4c6a b53d 0000 0000
00000070: 0000 0000 0ef0 7a3e 8c52 6a3f a464 ad3d
00000080: 0000 0000 0000 0000 853e 7d3e
0.0 0.9999794 0.0 0.0 0.266686 0.046657123 0.9533295 0.0
0.0 0.2856617 0.03566794 0.964319 0.0 0.0 0.28901502 0.5060897
0.49389717 0.0 0.0 0.27649632 0.5605277 0.43945903 0.0 0.0
0.28164783 0.911405 0.08858165 0.0 0.0 0.24505636 0.91532207 0.08466461
0.0 0.0 0.2473088

network_body.observation_encoder.processors.0.normalizer.running_variance f4 [35]
00000000: 0000 803f 38ff ff3f 0000 803f 0000 803f
00000010: 2dd7 c944 a502 5045 1d11 5045 0000 803f
00000020: 0000 803f 76b3 d544 6bdd 2045 4bec 2045
00000030: 0000 803f 0000 803f ab30 dc44 f314 9246
00000040: ed14 9246 0000 803f 0000 803f 8f15 0744
00000050: 6df6 8f46 2ff6 8f46 0000 803f 0000 803f
00000060: e97e 0844 12c7 bc45 72c0 bc45 0000 803f
00000070: 0000 803f 9d2f 1b43 3235 b545 922e b545
00000080: 0000 803f 0000 803f 8f7a 1443
1.0 1.9999762 1.0 1.0 1614.7242 3328.1653 3329.0696 1.0
1.0 1709.6082 2573.8386 2574.7683 1.0 1.0 1761.5209 18698.475
18698.463 1.0 1.0 540.33685 18427.213 18427.092 1.0 1.0
545.983 6040.884 6040.0557 1.0 1.0 155.18599 5798.6494 5797.8213
1.0 1.0 148.47874

network_body.observation_encoder.processors.1.normalizer.running_mean f4 [6]
00000000: 05f3 7fbf 0000 0000 0000 0000 0000 0000
00000010: 0000 0000 0000 0000
-0.99980193 0.0 0.0 0.0 0.0 0.0

network_body.observation_encoder.processors.1.normalizer.running_variance f4 [6]
00000000: 3941 0040 0000 803f 0000 803f 0000 803f
00000010: 0000 803f 0000 803f
2.0039809 1.0 1.0 1.0 1.0 1.0

network_body.processors.0.normalizer.running_mean f4 [35]
00000000: 0000 0000 a6fe 7f3f 0000 0000 0000 0000
00000010: 118b 883e 8a1b 3f3d 670d 743f 0000 0000
00000020: 0000 0000 4042 923e 8c18 123d 9cdd 763f
00000030: 0000 0000 0000 0000 c7f9 933e 188f 013f
00000040: 17e0 fc3e 0000 0000 0000 0000 ed90 8d3e
00000050: be7e 0f3f c600 e13e 0000 0000 0000 0000
00000060: 2534 903e d751 693f 4c6a b53d 0000 0000
00000070: 0000 0000 0ef0 7a3e 8c52 6a3f a464 ad3d
00000080: 0000 0000 0000 0000 853e 7d3e
0.0 0.9999794 0.0 0.0 0.266686 0.046657123 0.9533295 0.0
0.0 0.2856617 0.03566794 0.964319 0.0 0.0 0.28901502 0.5060897
0.49389717 0.0 0.0 0.27649632 0.5605277 0.43945903 0.0 0.0
0.28164783 0.911405 0.08858165 0.0 0.0 0.24505636 0.91532207 0.08466461
0.0 0.0 0.2473088

network_body.processors.0.normalizer.running_variance f4 [35]
00000000: 0000 803f 38ff ff3f 0000 803f 0000 803f
00000010: 2dd7 c944 a502 5045 1d11 5045 0000 803f
00000020: 0000 803f 76b3 d544 6bdd 2045 4bec 2045
00000030: 0000 803f 0000 803f ab30 dc44 f314 9246
00000040: ed14 9246 0000 803f 0000 803f 8f15 0744
00000050: 6df6 8f46 2ff6 8f46 0000 803f 0000 803f
00000060: e97e 0844 12c7 bc45 72c0 bc45 0000 803f
00000070: 0000 803f 9d2f 1b43 3235 b545 922e b545
00000080: 0000 803f 0000 803f 8f7a 1443
1.0 1.9999762 1.0 1.0 1614.7242 3328.1653 3329.0696 1.0
1.0 1709.6082 2573.8386 2574.7683 1.0 1.0 1761.5209 18698.475
18698.463 1.0 1.0 540.33685 18427.213 18427.092 1.0 1.0
545.983 6040.884 6040.0557 1.0 1.0 155.18599 5798.6494 5797.8213
1.0 1.0 148.47874

network_body.processors.1.normalizer.running_mean f4 [6]
00000000: 05f3 7fbf 0000 0000 0000 0000 0000 0000
00000010: 0000 0000 0000 0000
-0.99980193 0.0 0.0 0.0 0.0 0.0

network_body.processors.1.normalizer.running_variance f4 [6]
00000000: 3941 0040 0000 803f 0000 803f 0000 803f
00000010: 0000 803f 0000 803f
2.0039809 1.0 1.0 1.0 1.0 1.0

network_body._body_endoder.seq_layers.0.weight f4 [128, 41]
00000000: ff04 afbd 16e9 a93c f19f 1bbe 6bb1 33be
00000010: ab36 543d 899c 20be 2fa4 813d 1532 aebd
00000020: efbf a5bd 5c0b ccbe d3a7 0bbe 2491 b7be
00000030: 5c64 02bf 6b90 4b3e 6315 f03d f0a7 2cbd
00000040: d0c0 0b3e b58c e4bd 3b40 e8bd c6d3 84bd
00000050: 3861 4b3e 7225 4d3e 78a7 80bd bf88 69be
00000060: 4403 743c 585d 7ebd f09e 5abd c52f 00bd
00000070: 2ca7 003f 9786 f43d 2e24 bf3c 0a1f 753e
00000080: 2948 b53e 762c 56bd 39ed 9b3e eb74 05be
00000090: 6118 fb3d eb6c cebd 867c d93b 57bc 9abd
000000a0: 7111 9d3e 0a93 3cbe 53ba bd3e cc1c 29bd
000000b0: 3183 bc3e 759e f43d c0e8 da3d d57b 433e
000000c0: 32c5 583e 8849 703c 6056 473e 3878 65be
000000d0: 5abc 233e 7e2f fcbc 03b8 1fbe 436d 0bbe
000000e0: 1bd9 d33e 77d9 633d 0eb7 103e 31ea ca3c
000000f0: fb05 16be f60e 65be ed7c 1a3e b27c a13d
00000100: 91eb 0abe 7350 22bc 18b7 9f3e abb6 9cbd
00000110: eddd 333c 7289 93be 3a42 e4bd f944 b83d
00000120: 6051 39bd 5e8d 56bd 769e 403e 39d3 1c3e
00000130: 7f98 bb3c ba3f f4bb 4619 4a3c 356a 083e
00000140: fc2f 8b3d e1dd 2ebc 0122 6fbe 5f55 613d
00000150: f78e 08bd a7a3 24bc aed5 3b3e dd7d 573e
00000160: 6e40 c53c 70db a6bd bf8d 5ebd 424f 953e
00000170: b078 df3c d3e5 d7be 630c 81bd 7635 af3d
00000180: c24d a13d 3805 5cbd 02af 673e c1d6 623c
00000190: 6ae9 a6bc 5100 033e a7a2 cd3d b968 43bc
000001a0: 6115 d8bd 7f02 bebc ebdf 44be cfd2 7e3c
000001b0: d790 33be 59a1 8a3c c096 ee3d 4719 913d
000001c0: a86c ec3d 49e2 bdbd 79c6 53bc 644b a6bb
000001d0: 515c 38be f628 11bd f0ed 793d 5a82 4e3e
000001e0: 1c9a afbb 5829 1fbd e0e7 863d ae83 81be
000001f0: d7e2 dc3b 8458 54be cf00 4c3e 8cd9 45bd
00000200: b66e e13d 6508 a33d d35f a93d 9663 c6bd
00000210: 1713 523e 434d 423e 0c12 27be b72e 303d
00000220: 45cd 86bd 358a 1c3e 22fe b7bd 76a8 b6bd
00000230: f5b5 85bb 1949 813c ee26 e0bd d821 1fbe
00000240: e227 9d3e 3764 bcbd 55cf 403e e6a0 81be
00000250: 7561 57be f13b 2bbd d1b8 4fbe 8c03 9fbd
00000260: 9052 b73d 8359 63bd 4e46 2a3d cb98 033c
00000270: 6939 b2bd efc3 b13d 5a03 9dbc ab77 1ebe
00000280: 8723 8dbd 79d8 b23e 1d20 c2bc f385 813d
00000290: 6e25 e8bd 4e05 803e 7701 8e3c 4094 283e
000002a0: c349 9ebe 8fb0 b63c fdab 523d d7a4 9c3b
000002b0: 7d2c 063e 429f 5ebe 8f0b 823e 8a2c 5ebe
000002c0: 26cf 193d 2fd7 463e cd93 a8be 15a8 05be
000002d0: 9b7b 57bd 5f8e 2e3d 5d76 633d f267 45be
000002e0: 13b9 7abc 433c c2bd 10c0 cbbb 9cdc 6f3e
000002f0: ae2f 89be f406 1fbe 31fe ed3d 04d7 383e
00000300: 8351 88bd 559e 013e ac95 6b3d f587 33be
00000310: fbba e5bd db01 dd3d 52ac 973d 5f8b 5fbd
00000320: 2bc0 65bd 3ef8 cd3d c66a df3d f086 823e
00000330: 2582 6bbe a4a9 363e 51c5 4f3c 5814 3cbe
00000340: 9f8a 1cbc feaf b3bd e5a2 c33c 823d ed3d
00000350: 2303 48bd cf3c 943b 741c aebd 0080 ddbd
00000360: eaaf 32be 3352 a63e d457 a4be 56bf 433e
00000370: f992 7f3e 5657 233e 1220 86be 107d 2a3e
00000380: 9bd0 53bd e0d5 c6bd a4f5 d5bd e44a 993e
00000390: 82b0 153e 18ea 0cbd febd 113d fecc 5e3c
000003a0: 49b7 8f3e c60f 23bd d207 fc3d 01c4 153d
000003b0: e193 103e e7f9 453e c055 8e3e c79c 62bc
000003c0: 6314 f5bd 9e8d ae3d ec2b 093e 334a 41bd
000003d0: 57c7 1a3d 45f7 f1bb bdd9 dc3c 1d79 58be
000003e0: 3dd0 de3d 51f6 c2bc d554 98bd 9452 e5bd
000003f0: 763c 4a3e cf4b 1a3e 57f5 0d3e dd07 60be
-0.08545875 0.020741027 -0.15197732 -0.17548148 0.051809948 -0.15684713 0.06330144 -0.08505646
-0.08093249 -0.39852417 -0.13638239 -0.3585292 -0.50934386 0.1987931 0.11722829 -0.042152345
0.13647771 -0.1115965 -0.11340376 -0.06485705 0.19861305 0.20033816 -0.06281942 -0.2280607
0.014893357 -0.06210074 -0.05337423 -0.031295557 0.50255084 0.119397335 0.023332682 0.23937622
0.35406616 -0.052288495 0.30454424 -0.13032882 0.12260509 -0.10079368 0.006637159 -0.07555454
0.3067737 -0.18415466 0.37056217 -0.04128723 0.3681884 0.11944286 0.10688925 0.19090207
0.21168974 0.014665969 0.19466543 -0.22409141 0.15989819 -0.030784365 -0.15597539 -0.13615899
0.41376576 0.055627313 0.1413233 0.024769874 -0.14650719 -0.22368988 0.15086718 0.07885112
-0.13566424 -0.009906876 0.31194377 -0.07652029 0.010978204 -0.288158 -0.11145444 0.089975305
-0.04524362 -0.052380912 0.18810448 0.1531495 0.022899864 -0.007453886 0.012335127 0.13321765
0.06796262 -0.010673017 -0.23352815 0.055013057 -0.033339467 -0.010048783 0.18343231 0.21044107
0.024078574 -0.08147323 -0.0543344 0.2916203 0.027279228 -0.4216753 -0.06301191 0.08555119
0.07876159 -0.053715914 0.22625354 0.013845147 -0.020374972 0.1279309 0.10040789 -0.011926823
-0.10550953 -0.02319455 -0.19226043 0.01555319 -0.17535721 0.01692264 0.11649847 0.070848994
0.11544162 -0.09271676 -0.012925738 -0.005074905 -0.18003966 -0.035439454 0.06101793 0.20166913
-0.0053589474 -0.038857788 0.065871954 -0.25295776 0.0067409086 -0.20736891 0.19922183 -0.048303172
0.110074446 0.079605855 0.0827023 -0.09686963 0.20515095 0.18974786 -0.16315478 0.0430133
-0.06582121 0.15287097 -0.08984019 -0.0891885 -0.004080529 0.015781926 -0.10944925 -0.15540254
0.3069449 -0.09198802 0.18829091 -0.25318068 -0.2103327 -0.04180521 -0.20285346 -0.077643484
0.089512944 -0.055505287 0.041570954 0.008032034 -0.08702356 0.086799495 -0.019166637 -0.15475337
-0.06891542 0.3493078 -0.023696953 0.06324377 -0.11335264 0.25004047 0.017334683 0.16462803
-0.3091565 0.022300987 0.051433552 0.0047803926 0.13102908 -0.2174044 0.25399444 -0.21696678
0.037551068 0.19418024 -0.32925263 -0.130524 -0.052608114 0.042616244 0.055532802 -0.19277933
-0.015302914 -0.0948415 -0.006217964 0.23424 -0.2679419 -0.15529996 0.11620749 0.18050772
-0.06656172 0.12658055 0.057515785 -0.17532332 -0.11217304 0.107913695 0.07405914 -0.054576274
-0.05609147 0.10057114 0.10909037 0.25493574 -0.22998865 0.1783815 0.012681321 -0.18367136
-0.009554534 -0.08773802 0.023881385 0.11583997 -0.048831116 0.0045238505 -0.08501521 -0.1081543
-0.17449918 0.32484588 -0.32098258 0.19115958 0.2495841 0.15951285 -0.26196343 0.1664927
-0.051712614 -0.09708762 -0.10447243 0.2993995 0.14618114 -0.034402937 0.03558158 0.013598679
0.28069523 -0.039809965 0.12306179 0.036563877 0.14118911 0.19333611 0.27799797 -0.013831324
-0.11966779 0.08523105 0.13395661 -0.047189903 0.03778776 -0.007384213 0.026959294 -0.21139951
0.10879562 -0.023799093 -0.074380554 -0.11197391 0.19749627 0.15067981 0.13863121 -0.21878

network_body._body_endoder.seq_layers.0.bias f4 [128]
00000000: 0000 0000 0000 0000 0000 0000 0000 0000
00000010: 0000 0000 0000 0000 0000 0000 0000 0000
00000020: 0000 0000 0000 0000 0000 0000 0000 0000
00000030: 0000 0000 0000 0000 0000 0000 0000 0000
00000040: 0000 0000 0000 0000 0000 0000 0000 0000
00000050: 0000 0000 0000 0000 0000 0000 0000 0000
00000060: 0000 0000 0000 0000 0000 0000 0000 0000
00000070: 0000 0000 0000 0000 0000 0000 0000 0000
00000080: 0000 0000 0000 0000 0000 0000 0000 0000
00000090: 0000 0000 0000 0000 0000 0000 0000 0000
000000a0: 0000 0000 0000 0000 0000 0000 0000 0000
000000b0: 0000 0000 0000 0000 0000 0000 0000 0000
000000c0: 0000 0000 0000 0000 0000 0000 0000 0000
000000d0: 0000 0000 0000 0000 0000 0000 0000 0000
000000e0: 0000 0000 0000 0000 0000 0000 0000 0000
000000f0: 0000 0000 0000 0000 0000 0000 0000 0000
00000100: 0000 0000 0000 0000 0000 0000 0000 0000
00000110: 0000 0000 0000 0000 0000 0000 0000 0000
00000120: 0000 0000 0000 0000 0000 0000 0000 0000
00000130: 0000 0000 0000 0000 0000 0000 0000 0000
00000140: 0000 0000 0000 0000 0000 0000 0000 0000
00000150: 0000 0000 0000 0000 0000 0000 0000 0000
00000160: 0000 0000 0000 0000 0000 0000 0000 0000
00000170: 0000 0000 0000 0000 0000 0000 0000 0000
00000180: 0000 0000 0000 0000 0000 0000 0000 0000
00000190: 0000 0000 0000 0000 0000 0000 0000 0000
000001a0: 0000 0000 0000 0000 0000 0000 0000 0000
000001b0: 0000 0000 0000 0000 0000 0000 0000 0000
000001c0: 0000 0000 0000 0000 0000 0000 0000 0000
000001d0: 0000 0000 0000 0000 0000 0000 0000 0000
000001e0: 0000 0000 0000 0000 0000 0000 0000 0000
000001f0: 0000 0000 0000 0000 0000 0000 0000 0000
0.0 0.0 0.0 0.0 0.0 0.0 0.0 0.0
0.0 0.0 0.0 0.0 0.0 0.0 0.0 0.0
0.0 0.0 0.0 0.0 0.0 0.0 0.0 0.0
0.0 0.0 0.0 0.0 0.0 0.0 0.0 0.0
0.0 0.0 0.0 0.0 0.0 0.0 0.0 0.0
0.0 0.0 0.0 0.0 0.0 0.0 0.0 0.0
0.0 0.0 0.0 0.0 0.0 0.0 0.0 0.0
0.0 0.0 0.0 0.0 0.0 0.0 0.0 0.0
0.0 0.0 0.0 0.0 0.0 0.0 0.0 0.0
0.0 0.0 0.0 0.0 0.0 0.0 0.0 0.0
0.0 0.0 0.0 0.0 0.0 0.0 0.0 0.0
0.0 0.0 0.0 0.0 0.0 0.0 0.0 0.0
0.0 0.0 0.0 0.0 0.0 0.0 0.0 0.0
0.0 0.0 0.0 0.0 0.0 0.0 0.0 0.0
0.0 0.0 0.0 0.0 0.0 0.0 0.0 0.0
0.0 0.0 0.0 0.0 0.0 0.0 0.0 0.0
