Assets/results/testOnSimpleTracknew/MyAgent/MyAgent-5120.pt (torch, 268870 bytes, 33 tensors)

network_body.observation_encoder.processors.0.normalizer.running_mean f4 [35]
000000 00 00 00 00 35 f3 7f 3f 00 00 00 00 00 00 00 00
       0.0 0.9998048 0.0 0.0
000010 c7 ce bb 3e 00 00 00 00 35 f3 7f 3f 00 00 00 00
       0.36681196 0.0 0.9998048 0.0
000020 00 00 00 00 61 ae cd 3e 00 00 00 00 35 f3 7f 3f
       0.0 0.40172103 0.0 0.9998048
000030 00 00 00 00 00 00 00 00 94 67 cb 3e bb 42 49 3f
       0.0 0.0 0.3972746 0.7861745
000040 dc c1 5a 3e 00 00 00 00 00 00 00 00 f9 3f a1 3e
       0.21363014 0.0 0.0 0.3149412
000050 c6 8f 44 3f bd 8d 6d 3e 00 00 00 00 00 00 00 00
       0.7678188 0.231986 0.0 0.0
000060 27 6c a4 3e 35 f3 7f 3f 00 00 00 00 00 00 00 00
       0.32113764 0.9998048 0.0 0.0
000070 00 00 00 00 44 51 83 3e 35 f3 7f 3f 00 00 00 00
       0.0 0.25647938 0.9998048 0.0
000080 00 00 00 00 00 00 00 00 28 bc 84 3e
       0.0 0.0 0.25924802

network_body.observation_encoder.processors.0.normalizer.running_variance f4 [35]
000000 00 00 80 3f 9e f9 ff 3f 00 00 80 3f 00 00 80 3f
       1.0 1.9998052 1.0 1.0
000010 38 78 81 42 00 00 80 3f 9e f9 ff 3f 00 00 80 3f
       64.7348 1.0 1.9998052 1.0
000020 00 00 80 3f e2 21 9c 42 00 00 80 3f 9e f9 ff 3f
       1.0 78.06618 1.0 1.9998052
000030 00 00 80 3f 00 00 80 3f c2 50 96 42 1f 77 57 44
       1.0 1.0 75.15773 861.86127
000040 7c 52 57 44 00 00 80 3f 00 00 80 3f ad b5 b9 40
       861.2888 1.0 1.0 5.803427
000050 ee 7b 64 44 a6 59 64 44 00 00 80 3f 00 00 80 3f
       913.9364 913.40076 1.0 1.0
000060 5b a9 d9 40 9e f9 ff 3f 00 00 80 3f 00 00 80 3f
       6.8019233 1.9998052 1.0 1.0
000070 00 00 80 3f 9e 24 89 3f 9e f9 ff 3f 00 00 80 3f
       1.0 1.07143 1.9998052 1.0
000080 00 00 80 3f 00 00 80 3f d4 58 89 3f
       1.0 1.0 1.0730233

network_body.processors.0.normalizer.running_mean f4 [35]
000000 00 00 00 00 35 f3 7f 3f 00 00 00 00 00 00 00 00
       0.0 0.9998048 0.0 0.0
000010 c7 ce bb 3e 00 00 00 00 35 f3 7f 3f 00 00 00 00
       0.36681196 0.0 0.9998048 0.0
000020 00 00 00 00 61 ae cd 3e 00 00 00 00 35 f3 7f 3f
       0.0 0.40172103 0.0 0.9998048
000030 00 00 00 00 00 00 00 00 94 67 cb 3e bb 42 49 3f
       0.0 0.0 0.3972746 0.7861745
000040 dc c1 5a 3e 00 00 00 00 00 00 00 00 f9 3f a1 3e
       0.21363014 0.0 0.0 0.3149412
000050 c6 8f 44 3f bd 8d 6d 3e 00 00 00 00 00 00 00 00
       0.7678188 0.231986 0.0 0.0
000060 27 6c a4 3e 35 f3 7f 3f 00 00 00 00 00 00 00 00
       0.32113764 0.9998048 0.0 0.0
000070 00 00 00 00 44 51 83 3e 35 f3 7f 3f 00 00 00 00
       0.0 0.25647938 0.9998048 0.0
000080 00 00 00 00 00 00 00 00 28 bc 84 3e
       0.0 0.0 0.25924802

network_body.processors.0.normalizer.running_variance f4 [35]
000000 00 00 80 3f 9e f9 ff 3f 00 00 80 3f 00 00 80 3f
       1.0 1.9998052 1.0 1.0
000010 38 78 81 42 00 00 80 3f 9e f9 ff 3f 00 00 80 3f
       64.7348 1.0 1.9998052 1.0
000020 00 00 80 3f e2 21 9c 42 00 00 80 3f 9e f9 ff 3f
       1.0 78.06618 1.0 1.9998052
000030 00 00 80 3f 00 00 80 3f c2 50 96 42 1f 77 57 44
       1.0 1.0 75.15773 861.86127
000040 7c 52 57 44 00 00 80 3f 00 00 80 3f ad b5 b9 40
       861.2888 1.0 1.0 5.803427
000050 ee 7b 64 44 a6 59 64 44 00 00 80 3f 00 00 80 3f
       913.9364 913.40076 1.0 1.0
000060 5b a9 d9 40 9e f9 ff 3f 00 00 80 3f 00 00 80 3f
       6.8019233 1.9998052 1.0 1.0
000070 00 00 80 3f 9e 24 89 3f 9e f9 ff 3f 00 00 80 3f
       1.0 1.07143 1.9998052 1.0
000080 00 00 80 3f 00 00 80 3f d4 58 89 3f
       1.0 1.0 1.0730233

network_body._body_endoder.seq_layers.0.weight f4 [128, 36]
000000 83 bc 33 3e 6c 06 22 be f8 7d 79 be 89 d1 02 be
       0.1755238 -0.15822762 -0.2436446 -0.12775244
000010 26 16 34 be c8 ca 06 be 81 bb 9b bd d4 8d ea 3c
       -0.17586574 -0.13163292 -0.07604123 0.028632082
000020 de 33 8d bc 4e 64 d4 bd 40 8d 65 3d 02 27 61 3e
       -0.017236646 -0.10370694 0.05604291 0.21987537
000030 e7 d6 85 be 7b 9d 5a 3d d6 4e 8a bc 4d b4 98 3d
       -0.2614052 0.05337284 -0.016883295 0.07456265
000040 bf da bf be 15 1a 0d be 6b 8c e9 bd a1 84 19 be
       -0.37471578 -0.13779481 -0.11403736 -0.14992
000050 8b 8b 4e be c7 1b 4b be 5e 02 bd bd bf b4 43 3d
       -0.20170419 -0.19834815 -0.09228967 0.047779795
000060 36 a8 07 bd a5 0f 82 3e 03 f7 7a 3c b6 2c ef 3a
       -0.033119403 0.2540256 0.015317681 0.0018247578
000070 9c c0 d7 3c 60 5a e6 3c db 22 e4 bd 5c 83 39 3c
       0.02633696 0.028119266 -0.11139461 0.011322822
000080 f6 5d 85 3e f3 16 b3 3d da 57 52 3e 30 23 a8 3e
       0.2604825 0.087446116 0.20541325 0.32839346
000090 fb 97 7d be 2e 57 cb be 9c 95 14 3d 18 75 ae 3d
       -0.24765007 -0.3971495 0.03627549 0.085184276
0000a0 ed 38 1e be da ae 89 bd ca df 1e be 60 c3 7d 3c
       -0.15451403 -0.067228034 -0.15515056 0.015488476
0000b0 ea 1c f1 bd aa ff 72 be f6 97 b1 bb 63 21 65 be
       -0.11773093 -0.2373034 -0.0054197265 -0.22376017
0000c0 38 fd d7 be 52 68 08 3e 53 bd eb bd 04 d5 20 be
       -0.42185378 0.13321045 -0.1151072 -0.15706259
0000d0 7f 97 95 3e 4e 93 09 be de fe 43 be 75 eb 96 3e
       0.29217145 -0.13435099 -0.19140193 0.29476514
0000e0 44 da cc bb b2 5d 05 3e fa 7f e5 bd bd 29 8d 3b
       -0.006251605 0.13024023 -0.1120605 0.004307954
0000f0 ac 6a 21 be a2 be 8c 3e b8 c9 29 bb 9f 02 52 3e
       -0.15763348 0.2748919 -0.0025907587 0.20508812
000100 00 09 0e 3c e4 3a e7 bd d0 83 55 3e 02 85 1a be
       0.008669138 -0.11290529 0.20851064 -0.15089801
000110 41 fe 9a bc 1d 9f a5 be b0 1c 03 be 48 61 90 3c
       -0.018920066 -0.32347956 -0.12803912 0.017624512
000120 ec d1 09 bd 04 a8 56 3e 6f f9 75 be de 89 97 bd
       -0.033647463 0.2096253 -0.24020933 -0.07399343
000130 85 81 06 be bd 1c 87 3e 0a 6b 0a 3e 94 38 99 3d
       -0.13135345 0.26389113 0.13517395 0.074814945
000140 fa 76 1f 3e b6 d5 9a be e6 18 c0 3d 8a 0a 07 3c
       0.1557273 -0.30241174 0.09379749 0.008242259
000150 b0 63 ae be 10 81 96 3d 84 e8 27 3e d4 69 c8 3d
       -0.3406043 0.073488355 0.16397291 0.0978581
000160 e8 82 2c be 0e 45 68 be 94 3c 6a bd 2c 51 5a 3e
       -0.16846812 -0.22682592 -0.057186678 0.21320027
000170 5e a1 a5 3d 62 85 1b 3e 37 a3 2d bd 5e 49 a0 3d
       0.08087419 0.151876 -0.042391982 0.07826494
000180 a7 d1 2d bd 19 9e 18 3d d6 d7 40 be 14 b1 8c bd
       -0.04243627 0.03726015 -0.18832335 -0.068697125
000190 48 72 2c be e0 9a 16 3e df c3 e2 3c 66 b7 62 3e
       -0.1684047 0.14707518 0.02768129 0.22140273
0001a0 c8 e9 f0 bb 6b 7c 60 be 90 3f 27 3e f8 01 3e bd
       -0.0073520876 -0.21922462 0.16332841 -0.046388596
0001b0 a1 1d 0f 3e 21 81 82 bc 56 d7 dc bd f3 da 38 bd
       0.13976146 -0.015930714 -0.107832596 -0.04513068
0001c0 8e b0 8b be a2 be 8b be 08 22 f1 bd 28 cc 3a be
       -0.27283138 -0.2729388 -0.11774069 -0.18241942
0001d0 67 c8 36 3e a8 e8 60 be ef 5b ae 3d 34 33 a3 be
       0.17849885 -0.21963751 0.08513629 -0.31875002
0001e0 94 cb 56 3e 9b 7d 94 bd 8f 68 2d 3e 15 fe 1e 3e
       0.20976096 -0.0725052 0.16934417 0.15526612
0001f0 a8 d2 d7 bd 15 ab 12 3e a4 d1 6a 3e 16 f2 48 3d
       -0.10538226 0.14323075 0.22931534 0.049058996
000200 d6 53 ab 3d 88 65 7d ba e7 5b a1 3d ab 51 92 bd
       0.083656 -0.00096663134 0.07878857 -0.07144483
000210 d0 c8 84 bd 73 fc e8 ba 42 de a8 3d 6a 51 12 be
       -0.064836144 -0.0017775431 0.08245517 -0.1428887
000220 c4 32 69 3e 83 a4 30 3d 23 b6 25 be 75 a7 8b be
       0.22773272 0.04312564 -0.16182761 -0.27276197
000230 c4 ec 05 3d f5 a6 18 be 4e 1c 53 be 10 ee b4 bd
       0.0326965 -0.14907439 -0.20616266 -0.08834469
000240 a1 9c 94 be a0 74 97 bb ff 7c 88 3e 78 32 95 be
       -0.29025748 -0.004622057 0.26657864 -0.29140067
000250 36 c1 17 be 72 a6 a3 bd bc 56 3d bd 9f ee 16 be
       -0.14819798 -0.07990731 -0.046225294 -0.14739464
000260 6a b5 e1 3c b6 67 8e 3e 5f 88 a9 3c 98 66 e8 3d
       0.027552325 0.278135 0.02069491 0.11347693
000270 dc 0f 81 be a0 63 ab 3c c4 6b bc 3d da c0 2b 3e
       -0.25207412 0.020921528 0.09200242 0.16772786
000280 43 ab 4f 3d 34 ae 45 3e b9 69 95 be 83 72 b0 be
       0.050700437 0.19304734 -0.29182222 -0.34462366
000290 b4 52 11 3e 42 e6 36 3e e0 5f 28 be 2e 99 4d bd
       0.14191705 0.17861274 -0.16442823 -0.05019491
0002a0 c4 a4 4d bd 8e 80 8b bd 72 8b ea bd 6a b5 b1 3e
       -0.05020596 -0.06811629 -0.11452378 0.3470872
0002b0 8c 69 be 3d 96 ed a8 3c 73 19 e0 bd 0a b3 31 3e
       0.09297475 0.020621102 -0.10942354 0.17353454
0002c0 f4 d0 f7 3e a8 17 43 be 06 48 3f 3e 9b ca ca 3d
       0.48401606 -0.19051993 0.18679819 0.09901925
0002d0 a6 dd 2c 3e 0d 16 26 be 89 b5 12 bd 8f b3 9a 3d
       0.16881427 -0.16219349 -0.035817657 0.07553779
0002e0 af 2e 35 3e 6f 14 92 be 87 cf b4 be ff 08 68 3d
       0.1769359 -0.28531215 -0.3531458 0.056649204
0002f0 bc ab 33 3e 4b 47 8a 3e 08 f1 1b 3e be 63 55 3e
       0.1754598 0.27007517 0.15228665 0.2083883
000300 92 df 12 3d a2 f7 49 bd 8f 56 d6 3d 76 44 16 bd
       0.035857745 -0.049308427 0.104657285 -0.036686383
000310 a1 8d 03 bd 10 20 a7 be 06 e4 33 3e 62 02 9b be
       -0.03211749 -0.3264165 0.17567453 -0.30275255
000320 4c f5 49 bd bf 5d 5d 3d 98 1c 17 3d a2 b6 66 3e
       -0.0493062 0.05404448 0.036892503 0.22530606
000330 ef f6 86 3e ec 25 93 3e bb 0c 3c be 16 12 86 bd
       0.2636027 0.2873987 -0.18364231 -0.06546418
000340 bc 1b d1 bd da 8f 03 be f4 60 98 be 00 ac 2d be
       -0.10210368 -0.12847844 -0.2976147 -0.16960144
000350 6f 16 56 3d f0 cd e4 3e e8 51 76 3d 2b 42 f3 3c
       0.052267488 0.44688368 0.060136706 0.029694637
000360 3e b6 a4 3e f4 a8 81 3e 68 a2 c4 3d de c1 32 3e
       0.3217029 0.25324214 0.09601289 0.17456767
000370 94 07 db bd a7 ab d6 3d 7a 54 01 be 82 07 75 3d
       -0.10694805 0.10481959 -0.12629882 0.059821613
000380 cb 28 06 3e 88 59 8c 3d 7b 97 59 be 96 b2 f8 bd
       0.13101499 0.06853014 -0.21249191 -0.121434376
000390 f3 b4 e8 b9 86 b7 17 be 26 60 4e 3d d8 a0 dc 3d
       -0.00044385306 -0.14816102 0.050384663 0.10772866
0003a0 23 22 ef 3e 87 2d bc 3d 61 df 1c be fb e8 d6 bd
       0.46705732 0.09188371 -0.15319587 -0.10493656
0003b0 7a 8e 67 3e 88 30 a0 3e 6f 23 c7 bc a2 64 28 3e
       0.22612944 0.31287026 -0.024308888 0.16444638
0003c0 1e 5a 1a 3d 50 62 b9 3d c6 d4 6a bd 30 c7 aa 3d
       0.0376836 0.09051955 -0.057331823 0.08338773
0003d0 fe 9b 28 3e a3 e2 2d 3e 2f 20 8f be b4 2e de 3d
       0.16465756 0.16980986 -0.27954242 0.10848752
0003e0 64 3e 94 bc d4 cf 2c 3e 3f 2b d2 3d 46 a7 3b 3e
       -0.018096156 0.16876155 0.10262155 0.18325529
0003f0 68 24 58 3e 79 72 0a be 54 9d 29 3e 73 31 45 be
       0.21107638 -0.1352023 0.16563922 -0.19257145

network_body._body_endoder.seq_layers.0.bias f4 [128]
000000 00 00 00 00 00 00 00 00 00 00 00 00 00 00 00 00
       0.0 0.0 0.0 0.0
000010 00 00 00 00 00 00 00 00 00 00 00 00 00 00 00 00
       0.0 0.0 0.0 0.0
000020 00 00 00 00 00 00 00 00 00 00 00 00 00 00 00 00
       0.0 0.0 0.0 0.0
000030 00 00 00 00 00 00 00 00 00 00 00 00 00 00 00 00
       0.0 0.0 0.0 0.0
000040 00 00 00 00 00 00 00 00 00 00 00 00 00 00 00 00
       0.0 0.0 0.0 0.0
000050 00 00 00 00 00 00 00 00 00 00 00 00 00 00 00 00
       0.0 0.0 0.0 0.0
000060 00 00 00 00 00 00 00 00 00 00 00 00 00 00 00 00
       0.0 0.0 0.0 0.0
000070 00 00 00 00 00 00 00 00 00 00 00 00 00 00 00 00
       0.0 0.0 0.0 0.0
000080 00 00 00 00 00 00 00 00 00 00 00 00 00 00 00 00
       0.0 0.0 0.0 0.0
000090 00 00 00 00 00 00 00 00 00 00 00 00 00 00 00 00
       0.0 0.0 0.0 0.0
0000a0 00 00 00 00 00 00 00 00 00 00 00 00 00 00 00 00
       0.0 0.0 0.0 0.0
0000b0 00 00 00 00 00 00 00 00 00 00 00 00 00 00 00 00
       0.0 0.0 0.0 0.0
0000c0 00 00 00 00 00 00 00 00 00 00 00 00 00 00 00 00
       0.0 0.0 0.0 0.0
0000d0 00 00 00 00 00 00 00 00 00 00 00 00 00 00 00 00
       0.0 0.0 0.0 0.0
0000e0 00 00 00 00 00 00 00 00 00 00 00 00 00 00 00 00
       0.0 0.0 0.0 0.0
0000f0 00 00 00 00 00 00 00 00 00 00 00 00 00 00 00 00
       0.0 0.0 0.0 0.0
000100 00 00 00 00 00 00 00 00 00 00 00 00 00 00 00 00
       0.0 0.0 0.0 0.0
000110 00 00 00 00 00 00 00 00 00 00 00 00 00 00 00 00
       0.0 0.0 0.0 0.0
000120 00 00 00 00 00 00 00 00 00 00 00 00 00 00 00 00
       0.0 0.0 0.0 0.0
000130 00 00 00 00 00 00 00 00 00 00 00 00 00 00 00 00
       0.0 0.0 0.0 0.0
000140 00 00 00 00 00 00 00 00 00 00 00 00 00 00 00 00
       0.0 0.0 0.0 0.0
000150 00 00 00 00 00 00 00 00 00 00 00 00 00 00 00 00
       0.0 0.0 0.0 0.0
000160 00 00 00 00 00 00 00 00 00 00 00 00 00 00 00 00
       0.0 0.0 0.0 0.0
000170 00 00 00 00 00 00 00 00 00 00 00 00 00 00 00 00
       0.0 0.0 0.0 0.0
000180 00 00 00 00 00 00 00 00 00 00 00 00 00 00 00 00
       0.0 0.0 0.0 0.0
000190 00 00 00 00 00 00 00 00 00 00 00 00 00 00 00 00
       0.0 0.0 0.0 0.0
0001a0 00 00 00 00 00 00 00 00 00 00 00 00 00 00 00 00
       0.0 0.0 0.0 0.0
0001b0 00 00 00 00 00 00 00 00 00 00 00 00 00 00 00 00
       0.0 0.0 0.0 0.0
0001c0 00 00 00 00 00 00 00 00 00 00 00 00 00 00 00 00
       0.0 0.0 0.0 0.0
0001d0 00 00 00 00 00 00 00 00 00 00 00 00 00 00 00 00
       0.0 0.0 0.0 0.0
0001e0 00 00 00 00 00 00 00 00 00 00 00 00 00 00 00 00
       0.0 0.0 0.0 0.0
0001f0 00 00 00 00 00 00 00 00 00 00 00 00 00 00 00 00
       0.0 0.0 0.0 0.0

network_body._body_endoder.seq_layers.2.weight f4 [128, 128]
000000 c7 b5 51 3d 62 86 f2 3d 75 15 0a 3d 82 3a 4d bc
       0.051198747 0.11842038 0.03371187 -0.012526156
000010 61 a9 f7 3d 83 51 1c 3d 32 fd 18 bc 20 ff 0d bd
       0.12092853 0.038163673 -0.00933771 -0.034667134
000020 1e 80 89 3c b3 e0 2c 3d 6b db 3c 3d 9f 4a f2 bb
       0.016784724 0.042206477 0.04610769 -0.0073941494
000030 3a 6a 2d 3d 3c f4 64 bd 46 49 82 bd f6 d4 96 3d
       0.042337634 -0.055896983 -0.06361632 0.07364838
000040 b2 94 82 3d 68 e6 a1 bb d2 ed 66 bd 42 03 5f be
       0.06376018 -0.0049407966 -0.056379147 -0.21778587
000050 23 36 d8 bd a3 41 2d bd d0 4e ac 3c 5c 9f 0b bc
       -0.10557201 -0.042298924 0.021033674 -0.008521881
000060 65 7c 91 bd c0 9e 24 3d a1 fe ad 3d b3 c4 23 3e
       -0.071038045 0.04019046 0.08495832 0.15993004
000070 93 3d 14 3e de 0b c0 bd c6 30 f7 3b 0a 54 f4 3d
       0.14476614 -0.093772635 0.007543656 0.11930092
000080 46 47 a1 bc d4 5b 04 bd 3a 83 ec ba cf b6 82 bd
       -0.019687306 -0.032314137 -0.001804448 -0.06382524
000090 29 59 01 bd 11 8b a5 bc 16 e5 9e 3d 7a 88 b3 3d
       -0.03157917 -0.020207914 0.077585384 0.08766265
0000a0 d3 af dd 3d 41 0c 82 3d 82 e2 c0 3c c6 8c 80 bc
       0.108245514 0.063499935 0.023545507 -0.015692126
0000b0 cb ff 2a 3c 16 2d 05 3d 20 0e f1 bd 4f 67 a9 3d
       0.010436962 0.0325137 -0.11770272 0.08271658
0000c0 8b 3f 1e 3e e5 ef 50 3e 33 f5 b7 bc a1 9f dd 3d
       0.15453927 0.20404013 -0.022455787 0.108214624
0000d0 ee 73 7a bd e9 6c 83 3c e5 30 db 3b e1 aa 44 bc
       -0.061145715 0.016043143 0.0066891783 -0.012003631
0000e0 8b bd 21 be 5a 0a cd bd c4 bb ad 3d af 87 b0 3c
       -0.15794961 -0.1001174 0.08483079 0.021549074
0000f0 ca 9f 73 3d 8b 82 6f bd 7e 86 44 bd 54 22 0e bd
       0.05947856 -0.058474105 -0.047979824 -0.034700707
000100 8b f8 77 39 41 e7 9d 3b d7 d9 51 bb a2 73 04 3e
       0.00023648345 0.0048188274 -0.0032020712 0.12934735
000110 6c d8 b2 3c d9 08 b2 3d 05 91 3f 3c c3 ae 1a 3d
       0.021831714 0.08693094 0.01169229 0.037764322
000120 f1 9d b1 3d 42 eb b8 bd 61 c3 25 3e 38 7b f3 3b
       0.08672703 -0.09029247 0.16187812 0.0074304603
000130 ed 07 73 3d f2 69 be 3b 98 a1 88 bc 50 d9 16 3e
       0.05933373 0.0058109695 -0.016678616 0.14731336
000140 d6 ca 97 bd 5b ce c3 bd de d4 75 bd 3a e8 50 bd
       -0.07411735 -0.095608436 -0.06001746 -0.05100272
000150 21 b8 af bd 58 29 7a 3d 40 02 88 3d 6b f5 62 be
       -0.08580042 0.061074585 0.06641054 -0.22163932
000160 1b c1 1b bc 26 ce f3 bc 6c 17 45 3d 40 f6 e4 bc
       -0.009506489 -0.029761385 0.04811804 -0.027949452
000170 ea a3 7b 3b 70 3a ea bd 53 a3 60 3d 47 58 16 3b
       0.003839726 -0.11436927 0.054843258 0.00229408
000180 2a 28 16 3d cc 6e 58 bd 98 9d 33 3d 27 60 c1 bc
       0.036659397 -0.05284004 0.043851465 -0.02360542
000190 c0 c7 02 be b7 96 f6 bc ad 89 81 bc 6b c4 2d 3e
       -0.12771511 -0.030101163 -0.01581272 0.16969459
0001a0 58 0c 15 bd 52 94 43 be 67 f6 56 3e ff 4b 7f 3d
       -0.036388725 -0.19099548 0.20992433 0.062328335
0001b0 4f 1c af 3c 81 27 8f 3d 10 8a 33 3e 2d 77 1b 3e
       0.021375803 0.06989957 0.17533135 0.1518218
0001c0 3f 0d f0 3d 18 6b f5 3d 55 31 e7 3d 10 e5 02 be
       0.117212765 0.11983317 0.11288706 -0.12782693
0001d0 9b 21 b8 3c 4b 2b d7 3d 64 45 b4 bd c5 d4 91 bd
       0.022476962 0.10506304 -0.08802298 -0.07120661
0001e0 fd 0e 26 be 14 7b 1d bd 43 10 6a 3b e2 45 f1 3d
       -0.16216655 -0.038447455 0.003571526 0.11780907
0001f0 8b 06 fd bc 6b 6e 06 be 68 23 f9 3c fb 46 06 be
       -0.030886909 -0.13128059 0.03041239 -0.13113014
000200 68 84 2b 3e 02 73 03 3c 8b 10 a2 3d 60 5e 48 bd
       0.16749728 0.0080230255 0.079133116 -0.048918128
000210 56 7b cd 3d a9 66 da 3c 50 16 96 3d ad 3a 1c 3c
       0.1003329 0.02666028 0.073284745 0.009535474
000220 4f 0f 32 bd 98 36 11 be 94 21 f8 3c 57 b6 cc bd
       -0.04347163 -0.14180982 0.030289449 -0.09995716
000230 f2 cf 87 bd 4b 7c 6f 3d 66 ed e8 bd e7 ee 0a 3d
       -0.06631459 0.058468144 -0.11373405 0.03391924
000240 ce ff 9f bc eb 92 ef 3d 07 7d 13 3b 91 da 09 bc
       -0.019531157 0.11697944 0.0022504942 -0.008413927
000250 e0 db 98 3d 43 8c 23 be 5c 71 e7 bd 90 7c fc 3d
       0.07463813 -0.15971474 -0.113009185 0.12328446
000260 26 2a c7 3d 53 6c 85 bd 09 6d 47 bc bd aa 1c bd
       0.09724836 -0.06514802 -0.012171992 -0.038248766
000270 f1 70 11 3e 21 2f 84 3c ec b1 9a 3d c2 72 8a bd
       0.1420324 0.016135754 0.07553467 -0.067601696
000280 e1 c9 3c 3e f1 72 a4 bd a6 e9 6c be 08 e0 02 bd
       0.18436386 -0.08029736 -0.23136005 -0.031951934
000290 33 a6 77 bd 89 fd b6 bd ee 18 42 bd 75 ea 53 bd
       -0.060461234 -0.08935077 -0.047387056 -0.051737268
0002a0 0c f6 00 be d5 88 54 3d 4e f4 e4 bd b1 33 a4 3d
       -0.1259386 0.051888306 -0.1117941 0.08017672
0002b0 96 ca f8 3c 0e 54 46 bd 7a 6f 57 bb 98 f1 3e 3d
       0.030370038 -0.048420005 -0.0032872842 0.04661712
0002c0 ed c6 21 bd ec 23 9f 3d c7 84 98 bc 04 c0 b3 bc
       -0.03949635 0.077705234 -0.018618 -0.021942146
0002d0 fb 05 e5 3c ec 36 79 bd 57 2f cd 3c 58 8c 9c 3d
       0.027956953 -0.060843393 0.025046987 0.07643956
0002e0 6a 04 aa 3d 46 53 8a bc 4d 77 b6 bd af 60 dd 3d
       0.08301623 -0.016885411 -0.089094736 0.108094566
0002f0 f9 2a c9 bd 34 a4 8f bd 4d 1e 03 3d f6 41 37 bd
       -0.098226495 -0.07013741 0.03201132 -0.04474064
000300 eb f3 a0 bc 6e 43 aa bd 7f 0a 94 3c 29 ac 18 3d
       -0.01964756 -0.083136424 0.018071411 0.03727356
000310 9f 4e 8f 3d f3 89 68 3d 95 6b 3a bd 3a 7c 87 3d
       0.06997418 0.056772184 -0.045512754 0.06615491
000320 6d c4 b6 3d d0 cb 5d bd 26 b6 2a be 56 c6 04 bd
       0.08924184 -0.05414945 -0.16671047 -0.03241571
000330 44 eb 9f bd 95 dd 9d bd 1d 33 65 3c d2 88 b7 bb
       -0.07808545 -0.07708279 0.013989237 -0.005601027
000340 0b f9 18 bd 26 b2 fa 3d 24 c5 c1 3d ba 36 6a bc
       -0.03734688 0.1224101 0.0946143 -0.014295274
000350 d2 17 a9 3d 06 8f a2 bd 23 a2 f1 bb 0d 2c 62 3c
       0.082564965 -0.07937436 -0.0073740645 0.013804448
000360 7a 41 a1 3d cd d9 8c bd 9d de a6 bc d2 06 02 3b
       0.07873817 -0.0687748 -0.020369822 0.001984049
000370 31 6b c1 3c b0 8b 80 bd 2b a1 70 bd 73 b7 24 bd
       0.023610683 -0.06276643 -0.05874745 -0.040214013
000380 16 1d d4 3d ad 26 4d bd 81 60 4d 3a 3a e4 7f bd
       0.1035711 -0.050085712 0.00078345096 -0.062473513
000390 db f3 af bd 03 8d 42 3c 4d 19 0e be 56 5b 15 3d
       -0.085914336 0.01187444 -0.13876839 0.036464058
0003a0 b9 f4 dc 3b 3b e1 a1 3d e4 6a 13 bd 70 44 9c 3c
       0.0067430404 0.079042874 -0.03599061 0.019075602
0003b0 05 2a 8b 3d fc 52 48 3d b8 b6 d1 bc 84 31 e5 3d
       0.06795124 0.048907265 -0.025599822 0.11191085
0003c0 46 6e ea 3a ab c3 84 bc bb 3e 50 3e fc c0 58 bd
       0.0017885647 -0.016206583 0.2033643 -0.05291842
0003d0 4d 59 9b 3d 02 75 0c 3d 9b e3 02 be ca ec eb 3b
       0.07585392 0.034291275 -0.12782137 0.0071998583
0003e0 6d 06 c8 bd 3d 7f 1c be c3 f8 60 bb bd 96 58 3c
       -0.097668506 -0.15282913 -0.003432796 0.013219533
0003f0 31 aa 44 bc 32 b7 b7 3d 7d c7 ab bc 83 3d 8c bd
       -0.012003467 0.089704886 -0.020969147 -0.0684767

network_body._body_endoder.seq_layers.2.bias f4 [128]
000000 00 00 00 00 00 00 00 00 00 00 00 00 00 00 00 00
       0.0 0.0 0.0 0.0
000010 00 00 00 00 00 00 00 00 00 00 00 00 00 00 00 00
       0.0 0.0 0.0 0.0
000020 00 00 00 00 00 00 00 00 00 00 00 00 00 00 00 00
       0.0 0.0 0.0 0.0
000030 00 00 00 00 00 00 00 00 00 00 00 00 00 00 00 00
       0.0 0.0 0.0 0.0
000040 00 00 00 00 00 00 00 00 00 00 00 00 00 00 00 00
       0.0 0.0 0.0 0.0
000050 00 00 00 00 00 00 00 00 00 00 00 00 00 00 00 00
       0.0 0.0 0.0 0.0
000060 00 00 00 00 00 00 00 00 00 00 00 00 00 00 00 00
       0.0 0.0 0.0 0.0
000070 00 00 00 00 00 00 00 00 00 00 00 00 00 00 00 00
       0.0 0.0 0.0 0.0
000080 00 00 00 00 00 00 00 00 00 00 00 00 00 00 00 00
       0.0 0.0 0.0 0.0
000090 00 00 00 00 00 00 00 00 00 00 00 00 00 00 00 00
       0.0 0.0 0.0 0.0
0000a0 00 00 00 00 00 00 00 00 00 00 00 00 00 00 00 00
       0.0 0.0 0.0 0.0
0000b0 00 00 00 00 00 00 00 00 00 00 00 00 00 00 00 00
       0.0 0.0 0.0 0.0
0000c0 00 00 00 00 00 00 00 00 00 00 00 00 00 00 00 00
       0.0 0.0 0.0 0.0
0000d0 00 00 00 00 00 00 00 00 00 00 00 00 00 00 00 00
       0.0 0.0 0.0 0.0
0000e0 00 00 00 00 00 00 00 00 00 00 00 00 00 00 00 00
       0.0 0.0 0.0 0.0
0000f0 00 00 00 00 00 00 00 00 00 00 00 00 00 00 00 00
       0.0 0.0 0.0 0.0
000100 00 00 00 00 00 00 00 00 00 00 00 00 00 00 00 00
       0.0 0.0 0.0 0.0
000110 00 00 00 00 00 00 00 00 00 00 00 00 00 00 00 00
       0.0 0.0 0.0 0.0
000120 00 00 00 00 00 00 00 00 00 00 00 00 00 00 00 00
       0.0 0.0 0.0 0.0
000130 00 00 00 00 00 00 00 00 00 00 00 00 00 00 00 00
       0.0 0.0 0.0 0.0
000140 00 00 00 00 00 00 00 00 00 00 00 00 00 00 00 00
       0.0 0.0 0.0 0.0
000150 00 00 00 00 00 00 00 00 00 00 00 00 00 00 00 00
       0.0 0.0 0.0 0.0
000160 00 00 00 00 00 00 00 00 00 00 00 00 00 00 00 00
       0.0 0.0 0.0 0.0
000170 00 00 00 00 00 00 00 00 00 00 00 00 00 00 00 00
       0.0 0.0 0.0 0.0
000180 00 00 00 00 00 00 00 00 00 00 00 00 00 00 00 00
       0.0 0.0 0.0 0.0
000190 00 00 00 00 00 00 00 00 00 00 00 00 00 00 00 00
       0.0 0.0 0.0 0.0
0001a0 00 00 00 00 00 00 00 00 00 00 00 00 00 00 00 00
       0.0 0.0 0.0 0.0
0001b0 00 00 00 00 00 00 00 00 00 00 00 00 00 00 00 00
       0.0 0.0 0.0 0.0
0001c0 00 00 00 00 00 00 00 00 00 00 00 00 00 00 00 00
       0.0 0.0 0.0 0.0
0001d0 00 00 00 00 00 00 00 00 00 00 00 00 00 00 00 00
       0.0 0.0 0.0 0.0
0001e0 00 00 00 00 00 00 00 00 00 00 00 00 00 00 00 00
       0.0 0.0 0.0 0.0
0001f0 00 00 00 00 00 00 00 00 00 00 00 00 00 00 00 00
       0.0 0.0 0.0 0.0

action_model._continuous_distribution.log_sigma f4 [1, 2]
000000 00 00 00 00 00 00 00 00
       0.0 0.0

action_model._continuous_distribution.mu.weight f4 [2, 128]
000000 e5 9e a0 bc 13 dd 76 39 a8 82 2f bc 03 57 1e bc
       -0.019607017 0.00023542745 -0.010712303 -0.0096643
000010 68 66 a5 3c f2 d7 b8 3c e3 b5 2b bd 5f 4b 7d bc
       0.020190433 0.022563908 -0.041921508 -0.015459864
000020 57 dc e3 3b ab 7e fe 3c 4f 39 e8 bc c2 39 dc 39
       0.006953757 0.03106626 -0.02834764 0.00042004703
000030 17 af 62 bd 4b 90 02 ba 99 98 4b bc 63 f9 3b bc
       -0.05534276 -0.0004980608 -0.012426519 -0.011473033
000040 df cc fb bc 72 5f 5a 3c 8b c3 2f 3c 87 0a 11 bc
       -0.030737339 0.01332842 0.010727773 -0.008852608
000050 ee d1 27 bc 99 bc a7 bc 8e bf 0a bc 5d c2 4c ba
       -0.010242922 -0.020475673 -0.008468522 -0.0007810945
000060 5a 63 0e bc f0 d1 e5 3c fb a2 9f bb 00 0f 99 bb
       -0.008690679 0.028054208 -0.0048717237 -0.0046709776
000070 eb cf 92 bb 9d 4b e3 bc 1b 7a 01 bc 95 06 db ba
       -0.004480352 -0.027746016 -0.007902647 -0.0016710336
000080 08 95 a3 3c e3 24 53 3c 93 9e 5e bc 07 d7 54 bc
       0.019968525 0.012887212 -0.013587612 -0.01299072
000090 df b0 9f 3c 3d 28 cf 3c b2 24 14 3b dd d9 67 3c
       0.019493518 0.025287742 0.002260488 0.014151064
0000a0 f3 2d 49 bc c3 87 2b 3c 77 86 f4 3b a7 b7 39 3c
       -0.012279022 0.01046938 0.0074623185 0.01133529
0000b0 2b d3 02 bd 76 9f b8 bc d6 9f 84 bb 93 ae 23 3d
       -0.031939667 -0.022536974 -0.0040473742 0.03996141
0000c0 79 2c ab 3c c7 92 92 3c 53 e1 eb ba 9f 27 e7 3b
       0.02089523 0.017892255 -0.0017996229 0.0070542837
0000d0 80 c9 e9 3b e1 9c be 39 53 8c 74 3c 52 40 88 ba
       0.0071346164 0.00036356508 0.014926034 -0.0010395146
0000e0 c2 b5 c5 3b b5 b0 f9 3b 92 95 c2 bc f8 25 d6 ba
       0.00603363 0.007619942 -0.023752961 -0.001633822
0000f0 c7 c1 b3 3c 2f 86 ae ba c3 5d 8e bc b0 0b 5b bc
       0.021942986 -0.0013315136 -0.017378693 -0.013369486
000100 b8 ef e7 bc fa 3b 39 3b 65 0d b0 bb 82 24 91 3c
       -0.028312549 0.0028264509 -0.0053726905 0.017717604
000110 42 ed dc bb 37 0d 33 bb 8b 90 5d 3b 4d 96 3a 3b
       -0.0067421505 -0.002732111 0.0033808078 0.0028470934
000120 72 0f a7 3c fe 03 06 3c 3a df ec 3c f5 b6 1a 3c
       0.020393107 0.008179663 0.028915036 0.009443034
000130 2d 12 3c 3c 6f 7d 99 3b 4d a0 47 bc 1b 6a f6 bc
       0.011478943 0.0046841423 -0.012184215 -0.030079892
000140 2c da 00 3b 06 2c 08 3d 6b be d3 3b d3 0a 9c bc
       0.001966129 0.03324511 0.0064619086 -0.01904813
000150 50 a8 ac bc f2 2b f4 3b 74 52 15 3d 7f 26 90 bc
       -0.021076351 0.0074515278 0.036455587 -0.017596481
000160 3f 3c f0 bc b4 c7 11 bd 81 50 af 3c 7f 82 fb 3b
       -0.029325603 -0.035590842 0.021400692 0.0076754685
000170 78 d0 70 3c 0e 78 15 3c 2b f5 c6 3c cc e1 9b 3c
       0.01469814 0.009122862 0.024286827 0.019028567
000180 c7 1c 2f bc ff 94 1d 3c cb b6 a2 3b 24 87 01 3b
       -0.010688013 0.009618043 0.0049656383 0.0019764388
000190 66 69 2d 3c 88 0c 7f 3b 5b 63 1f 3d d9 2a 33 ba
       0.010584211 0.0038917381 0.038913112 -0.0006834693
0001a0 29 15 4c bc 6e cb 8e bc 65 91 6a 3b d1 14 1a 3c
       -0.012456217 -0.017430987 0.0035792228 0.009404377
0001b0 39 81 ad 3c 59 4a ca bb a3 d5 30 39 ea 85 f8 bb
       0.021179782 -0.0061734137 0.00016864254 -0.007584323
0001c0 8b 53 3e bc 5e 3d 39 3b 93 e2 0e 3c 4b 2a 82 bb
       -0.011616598 0.0028265337 0.008721012 -0.003972327
0001d0 4e df 9a bc a2 cc 7e bb bd ba 25 bc 10 ea 21 3b
       -0.018905308 -0.0038879295 -0.010115323 0.0024706163
0001e0 9a 6d 69 3b 08 29 60 bc 3e 6d 33 3d 90 e1 1a bd
       0.0035618306 -0.013681658 0.043805353 -0.03781277
0001f0 b1 08 c6 3c 1b 4e a5 b9 47 7c ae bc 58 68 60 3b
       0.024174066 -0.00031529446 -0.021299494 0.0034241881
000200 63 2f cf 3b 73 7f 49 bc de 6a c0 ba 63 5e 5e bb
       0.0063227876 -0.012298453 -0.0014680286 -0.003393077
000210 8f e3 17 bb de 4f be 3c 7d 66 75 bc 2f d7 95 bb
       -0.0023176407 0.023231443 -0.014978048 -0.004572771
000220 c5 a5 b2 3b eb dc 38 bd 51 45 b2 3a 92 b8 d9 39
       0.00545189 -0.04513256 0.001360098 0.0004152698
000230 d2 01 7b 3b 72 19 4e bc c9 ab b9 3c 1e 2e c7 3c
       0.0038300646 -0.012579309 0.022664921 0.024313983
000240 8d 10 1c 3c 5a 2e b9 3c 01 02 12 3d 4b 8e a7 bc
       0.00952543 0.02260511 0.035646442 -0.020453593
000250 60 56 b7 3c e7 c2 8f 39 ba 17 8c bc 62 fa 04 3c
       0.022380054 0.000274203 -0.017101157 0.008116337
000260 3f 9e 81 3a 3b e9 2e bb fe 8e 13 3c 37 7d b2 bc
       0.000988908 -0.002668931 0.00900626 -0.021788223
000270 9e fd c7 bc 3e 00 42 3b df 25 b7 3c 87 5e dc ba
       -0.024412926 0.0029602195 0.022356926 -0.0016812839
000280 30 1a 5d bc d7 df b2 3c 5b 29 10 bc 32 c4 83 3c
       -0.013495013 0.02183525 -0.008798922 0.016084764
000290 33 bd dc bc 0d a7 3d 3b 33 91 a7 bc 46 5d 9b b9
       -0.026945686 0.0028938681 -0.020454979 -0.00029633398
0002a0 de dc 1f bd 5f ec a5 bc a1 d9 0d 3c 8b c9 e6 ba
       -0.039028995 -0.020254312 0.008657844 -0.0017607672
0002b0 27 9f 0a bc 9f d4 0f 3d 9f 76 0f bc 85 f6 3b bc
       -0.008460796 0.03511488 -0.008756309 -0.011472349
0002c0 ae 07 05 3c 4a c5 88 3a 46 10 02 bc e6 30 1e bc
       0.008119507 0.0010434773 -0.00793845 -0.009655213
0002d0 aa ed 2b bc 83 01 ac bb 92 f0 fe 3b df 5c a8 bb
       -0.010493675 -0.0052492036 0.007780143 -0.005138024
0002e0 f6 a7 8c bc 92 f4 e8 3b 92 81 9d 3b 15 e3 ab bc
       -0.017169934 0.007109233 0.0048067058 -0.020982305
0002f0 f4 86 85 3c 72 4b b1 bb 4b 67 a4 3c bc f6 03 bc
       0.016299702 -0.005410605 0.020068785 -0.0080544315
000300 11 3d ca 3c 5d 8b 92 3c 30 7d 0f bb e7 88 2c bc
       0.024687322 0.01788872 -0.0021894686 -0.010530687
000310 a3 38 bc 3c 36 c1 1c 39 3a 37 5b 3c 28 57 93 3b
       0.022976225 0.00014949296 0.013379866 0.004496474
000320 15 82 67 bc 38 ec 18 3c ef 0b 16 bb 89 d9 c3 3a
       -0.014130135 0.009333663 -0.0022895297 0.001494215
000330 0a ff 46 bc ca d0 70 bc d1 f7 1c bc 77 c9 30 3c
       -0.012145767 -0.014698217 -0.009580568 0.01079022
000340 7f 89 84 3a 52 b2 d4 bb 98 07 84 3c b0 43 6a bb
       0.0010111778 -0.006490984 0.016116902 -0.0035745911
000350 59 7f 27 bc cb ec 8a 3c ca 0f 8c 3c ca 27 57 3b
       -0.010223233 0.016958615 0.017097373 0.0032830113
000360 ca 5f 84 3c f8 62 78 bc 83 8f 8d 3c 29 81 22 3c
       0.016158957 -0.015160315 0.017280346 0.0099184895
000370 d6 23 b7 bc ce 0f ba 3c db 1b 66 bc 36 9c 02 3c
       -0.022355955 0.022712614 -0.014044727 0.007971814
000380 42 9c ea bb de 05 3d bc ec cd 45 3c b7 b6 8a 3c
       -0.0071597407 -0.011537043 0.012073021 0.016932828
000390 14 b2 18 3b b7 67 fa ba 57 8f 74 3b 38 dd dd 3b
       0.0023299502 -0.0019104396 0.0037316883 0.006770756
0003a0 50 7d eb bc c5 8d de bc 18 df fe 3c 66 e2 97 ba
       -0.028746277 -0.02716721 0.031112239 -0.0011587858
0003b0 91 f5 03 bb ab 81 cc bb 65 40 91 bb c7 2f 25 3b
       -0.0020135383 -0.0062410436 -0.0044327253 0.002520548
0003c0 5b 28 95 bc 6d d6 52 bc b2 e3 57 bc f4 26 2d bc
       -0.01820772 -0.012868506 -0.013176845 -0.010568369
0003d0 6d 17 67 3c 70 d8 94 3a e9 0b 2b 3c bf d8 e6 bb
       0.014104706 0.0011356007 0.010439851 -0.007044881
0003e0 b5 27 ea 3c c4 b2 a9 bc 98 99 cf bc 63 dd 7d bc
       0.028583387 -0.020715125 -0.025341794 -0.015494677
0003f0 ad 78 dd bc bb 95 b3 3b f9 f8 44 3c d8 fc 7b 3c
       -0.027035082 0.0054804957 0.01202225 0.015380107

action_model._continuous_distribution.mu.bias f4 [2]
000000 00 00 00 00 00 00 00 00
       0.0 0.0

network_body.observation_encoder.processors.0.normalizer.running_mean f4 [35]
000000 00 00 00 00 35 f3 7f 3f 00 00 00 00 00 00 00 00
       0.0 0.9998048 0.0 0.0
000010 c7 ce bb 3e 00 00 00 00 35 f3 7f 3f 00 00 00 00
       0.36681196 0.0 0.9998048 0.0
000020 00 00 00 00 61 ae cd 3e 00 00 00 00 35 f3 7f 3f
       0.0 0.40172103 0.0 0.9998048
000030 00 00 00 00 00 00 00 00 94 67 cb 3e bb 42 49 3f
       0.0 0.0 0.3972746 0.7861745
000040 dc c1 5a 3e 00 00 00 00 00 00 00 00 f9 3f a1 3e
       0.21363014 0.0 0.0 0.3149412
000050 c6 8f 44 3f bd 8d 6d 3e 00 00 00 00 00 00 00 00
       0.7678188 0.231986 0.0 0.0
000060 27 6c a4 3e 35 f3 7f 3f 00 00 00 00 00 00 00 00
       0.32113764 0.9998048 0.0 0.0
000070 00 00 00 00 44 51 83 3e 35 f3 7f 3f 00 00 00 00
       0.0 0.25647938 0.9998048 0.0
000080 00 00 00 00 00 00 00 00 28 bc 84 3e
       0.0 0.0 0.25924802

network_body.observation_encoder.processors.0.normalizer.running_variance f4 [35]
000000 00 00 80 3f 9e f9 ff 3f 00 00 80 3f 00 00 80 3f
       1.0 1.9998052 1.0 1.0
000010 38 78 81 42 00 00 80 3f 9e f9 ff 3f 00 00 80 3f
       64.7348 1.0 1.9998052 1.0
000020 00 00 80 3f e2 21 9c 42 00 00 80 3f 9e f9 ff 3f
       1.0 78.06618 1.0 1.9998052
000030 00 00 80 3f 00 00 80 3f c2 50 96 42 1f 77 57 44
       1.0 1.0 75.15773 861.86127
000040 7c 52 57 44 00 00 80 3f 00 00 80 3f ad b5 b9 40
       861.2888 1.0 1.0 5.803427
000050 ee 7b 64 44 a6 59 64 44 00 00 80 3f 00 00 80 3f
       913.9364 913.40076 1.0 1.0
000060 5b a9 d9 40 9e f9 ff 3f 00 00 80 3f 00 00 80 3f
       6.8019233 1.9998052 1.0 1.0
000070 00 00 80 3f 9e 24 89 3f 9e f9 ff 3f 00 00 80 3f
       1.0 1.07143 1.9998052 1.0
000080 00 00 80 3f 00 00 80 3f d4 58 89 3f
       1.0 1.0 1.0730233

network_body.processors.0.normalizer.running_mean f4 [35]
000000 00 00 00 00 35 f3 7f 3f 00 00 00 00 00 00 00 00
       0.0 0.9998048 0.0 0.0
000010 c7 ce bb 3e 00 00 00 00 35 f3 7f 3f 00 00 00 00
       0.36681196 0.0 0.9998048 0.0
000020 00 00 00 00 61 ae cd 3e 00 00 00 00 35 f3 7f 3f
       0.0 0.40172103 0.0 0.9998048
000030 00 00 00 00 00 00 00 00 94 67 cb 3e bb 42 49 3f
       0.0 0.0 0.3972746 0.7861745
000040 dc c1 5a 3e 00 00 00 00 00 00 00 00 f9 3f a1 3e
       0.21363014 0.0 0.0 0.3149412
000050 c6 8f 44 3f bd 8d 6d 3e 00 00 00 00 00 00 00 00
       0.7678188 0.231986 0.0 0.0
000060 27 6c a4 3e 35 f3 7f 3f 00 00 00 00 00 00 00 00
       0.32113764 0.9998048 0.0 0.0
000070 00 00 00 00 44 51 83 3e 35 f3 7f 3f 00 00 00 00
       0.0 0.25647938 0.9998048 0.0
000080 00 00 00 00 00 00 00 00 28 bc 84 3e
       0.0 0.0 0.25924802

network_body.processors.0.normalizer.running_variance f4 [35]
000000 00 00 80 3f 9e f9 ff 3f 00 00 80 3f 00 00 80 3f
       1.0 1.9998052 1.0 1.0
000010 38 78 81 42 00 00 80 3f 9e f9 ff 3f 00 00 80 3f
       64.7348 1.0 1.9998052 1.0
000020 00 00 80 3f e2 21 9c 42 00 00 80 3f 9e f9 ff 3f
       1.0 78.06618 1.0 1.9998052
000030 00 00 80 3f 00 00 80 3f c2 50 96 42 1f 77 57 44
       1.0 1.0 75.15773 861.86127
000040 7c 52 57 44 00 00 80 3f 00 00 80 3f ad b5 b9 40
       861.2888 1.0 1.0 5.803427
000050 ee 7b 64 44 a6 59 64 44 00 00 80 3f 00 00 80 3f
       913.9364 913.40076 1.0 1.0
000060 5b a9 d9 40 9e f9 ff 3f 00 00 80 3f 00 00 80 3f
       6.8019233 1.9998052 1.0 1.0
000070 00 00 80 3f 9e 24 89 3f 9e f9 ff 3f 00 00 80 3f
       1.0 1.07143 1.9998052 1.0
000080 00 00 80 3f 00 00 80 3f d4 58 89 3f
       1.0 1.0 1.0730233

network_body._body_endoder.seq_layers.0.weight f4 [128, 36]
000000 d0 0d c9 bd 07 92 42 3d b4 b3 15 3e 5f 6f 37 3a
       -0.09817088 0.047502544 0.14619333 0.00069974916
000010 fa fd 2c be b6 85 33 3e 7b 4b 10 3e 90 88 96 3e
       -0.1689376 0.17531475 0.14091294 0.29401064
000020 78 1a cf bb 92 1b c1 bd fa a6 8b 3d e0 e1 a5 3e
       -0.006320294 -0.09429087 0.068189576 0.3239889
000030 a0 dc 10 3e 3e 72 d8 bc 71 53 a8 bd 9f 2c c0 bc
       0.14146662 -0.026421662 -0.0821904 -0.023458777
000040 e3 72 d0 bd 7a e8 3e 3d 1c b4 b6 3d 6d 87 17 3e
       -0.10178163 0.046608426 0.08921072 0.14797755
000050 d0 61 a0 be 3e f5 c6 bd e1 20 aa bb b4 10 69 3d
       -0.31324625 -0.09714745 -0.0051919078 0.056900695
000060 2c 24 83 3d 5e 34 d2 bc 30 22 58 3b d2 58 12 be
       0.064033836 -0.025659736 0.0032979362 -0.14291695
000070 ab 4a e4 3d 0c 73 c7 bc 4c d0 11 3d ef 19 85 3d
       0.11147054 -0.02434685 0.035599038 0.06499087
000080 2e 63 25 be 39 85 03 be 38 4b 51 be ce dc 05 3e
       -0.16151115 -0.12843789 -0.2043885 0.13072512
000090 7a 8c db bd 30 fe 81 bd 20 c3 b3 bd 80 fa b0 3d
       -0.10720153 -0.063473105 -0.087774515 0.08641529
0000a0 8a df a7 bd 82 61 f9 bd c0 c7 75 be 1b 8e 70 be
       -0.081969336 -0.12176801 -0.2400198 -0.23491709
0000b0 c0 a7 7a 3e 1a cf 30 3d 31 6f 0b bd 27 22 30 3d
       0.24478054 0.043166257 -0.034041587 0.04300132
0000c0 aa e7 11 3e 14 51 f2 3d d2 da 2a be 9f 5f 35 be
       0.14248529 0.11831871 -0.16685036 -0.17712258
0000d0 14 40 35 3e 1a 2d 61 3e 60 da 1e 3e 3e 0b 64 3e
       0.17700225 0.21989861 0.15512991 0.22269914
0000e0 4e b5 e0 3d d5 4b 18 be ec de 65 be c4 f9 38 3e
       0.10972081 -0.14872678 -0.22448319 0.18064028
0000f0 fe 79 0f 3e 09 e8 a8 bd d7 e8 64 3d f6 ff d3 bc
       0.1401138 -0.08247382 0.055886116 -0.025878888
000100 18 d4 bc 3d c6 ac d6 bd 96 cf 11 3e 1c 9e e2 3d
       0.09220141 -0.10482173 0.14239344 0.11065313
000110 e5 09 25 be cc 3a b0 3d 2b 3c 89 bd 4f 30 c2 be
       -0.16117056 0.086049646 -0.06700929 -0.37927482
000120 eb ae bc bd f0 9d 1a bd ca 01 06 3d ce e7 e6 bc
       -0.092130505 -0.037748277 0.03271655 -0.028186705
000130 22 76 f0 3d 1d bd 02 3d 3a 60 c2 bd 5d f5 8e bb
       0.11741282 0.031918634 -0.0949101 -0.0043627457
000140 19 23 a2 bd 14 50 93 be ec 1a f0 bd 98 b1 bf bc
       -0.079168506 -0.28772032 -0.11723885 -0.023400113
000150 cc f0 d5 3c 90 b4 57 3e 06 a5 75 3e c6 f2 e2 3d
       0.026115797 0.21064973 0.23988733 0.110814616
000160 9a 00 6c 3c 1c 10 0c be 12 f5 3b 3e 2c 4f b0 3d
       0.01440444 -0.1367802 0.18355206 0.08608851
000170 7b 0f e3 be e3 c1 50 be 48 ea 76 3d e2 3c 16 be
       -0.44347748 -0.20386462 0.06028202 -0.14671662
000180 33 7a 0a 3d b7 ea d0 3c d4 29 5c 3e c2 50 35 3e
       0.033807945 0.025502546 0.21500331 0.17706588
000190 86 79 b7 be cd ff a2 3c 4a de 8c 3d c4 a4 a9 3e
       -0.35834903 0.019897366 0.06878336 0.3313352
0001a0 37 61 21 3e 80 02 24 3e 28 4c 25 3e b0 68 4a bc
       0.15759741 0.16016579 0.16142333 -0.012354061
0001b0 73 8a d4 bd 1c 31 88 be f4 6c e9 bd 23 28 9a 3e
       -0.103779696 -0.26599967 -0.11397734 0.30108747
0001c0 87 ab 45 be 0e 06 89 be bc e4 43 be 0e 37 9a 3d
       -0.19303714 -0.26762432 -0.19130224 0.07530032
0001d0 ec b1 a9 3e 12 e9 bf bd 2d fa 14 be 47 74 b0 3d
       0.33143556 -0.093706265 -0.1454856 0.08615928
0001e0 5a b7 9a be cb 3e 98 3d 6a dd 50 3e e4 3c 26 3e
       -0.3021801 0.07433852 0.20396963 0.16234165
0001f0 51 2e a2 3e b6 ac a0 3d 46 8e a6 bd 0a 9c 27 3e
       0.31675962 0.07845442 -0.08132605 0.16368118
000200 84 08 8b 3e 05 26 02 be 13 83 0f be 47 8b 25 be
       0.27154934 -0.12709816 -0.14014845 -0.16166411
000210 6e 3a 55 be b3 c1 6c 3d c7 cb e0 bd e8 d9 ff 3d
       -0.2082307 0.057801913 -0.109763674 0.12492734
000220 b8 46 48 be b8 19 6a 3c d0 dc 4a 3e 19 48 03 3e
       -0.19558227 0.014288358 0.19810796 0.12820472
000230 95 2e 8c be 92 c9 9d 3d 07 d9 3b 3e 48 54 6f be
       -0.2737929 0.07704462 0.18344508 -0.23371994
000240 d1 17 22 be 9e 97 19 3e c7 f6 39 3e fb ec 6a 3d
       -0.15829398 0.14999244 0.18160544 0.05735491
000250 41 48 02 3e 36 68 8e 3e 94 42 2a bd dc 75 22 3e
       0.12722875 0.27813882 -0.0415674 0.15865272
000260 96 8c 0c be 4e 58 b8 bd 10 f3 15 be ee 23 79 bd
       -0.13725504 -0.09001218 -0.14643502 -0.06082528
000270 ce 66 bd bd 0b cd e0 3d 9b cb 0a 3e 2b ea 88 3d
       -0.09248124 0.10976609 0.13554232 0.06685289
000280 26 fd 53 bc ab e0 ed bd 27 b9 a2 be ec aa d7 3d
       -0.012938773 -0.11615118 -0.31781885 0.10530648
000290 f2 63 34 3e bb 4a be 3d 92 14 44 be 53 05 c8 3c
       0.17616251 0.092915975 -0.19148472 0.024416601
0002a0 74 47 3d be 4c 67 33 3e 9a c1 93 be 37 b8 0e be
       -0.18484288 0.17519873 -0.28858644 -0.1393746
0002b0 02 98 12 be e6 d6 58 3e da 1d b2 be 13 6b 47 3e
       -0.14315799 0.21175727 -0.347884 0.1947444
0002c0 f0 3f 4c 3e 73 c0 99 bb c9 1d 28 be 20 cf 0c 3e
       0.19946265 -0.004692131 -0.16417612 0.13750887
0002d0 22 0b 3d bd 06 07 15 be 8f 5e 1f 3e 1e bc 0b be
       -0.046153195 -0.1455346 0.15563415 -0.1364598
0002e0 aa 8e da 3d 6f 71 79 3e fc 22 15 3e c7 70 47 3e
       0.10671742 0.24359678 0.14564127 0.19476615
0002f0 4b d5 63 bd 4a 4d fb 3d 7e f2 37 3e 5c 22 4d 3e
       -0.055623334 0.12270601 0.17963597 0.20032638
000300 aa aa 9b 3d cb 18 31 bd c2 91 8a bd 82 ac 25 bd
       0.07600911 -0.043236535 -0.06766082 -0.04044772
000310 9b 41 da bd 77 1c 8e 3d 9b 29 6c bc d8 eb 31 3d
       -0.106570445 0.06939023 -0.014414216 0.04343781
000320 18 f6 33 bd fb e4 2c be 2c 42 cd bc 17 06 58 3d
       -0.043935865 -0.16884224 -0.025055967 0.052740183
000330 ba d6 de bd 48 d4 80 3b 47 b4 12 3e eb 1f ba bd
       -0.108807996 0.003931556 0.14326583 -0.09088119
000340 ef c2 30 3e cc f8 9b be d2 b7 3b 3e af 6e fb bd
       0.17261861 -0.30463254 0.1833184 -0.122769706
000350 ef 77 8e 3d c4 55 1a 3d 54 04 a3 be 66 61 87 3e
       0.06956469 0.03767945 -0.3183924 0.26441497
000360 c4 ba 62 bd ff 33 aa bd 4b 1a 33 be f0 25 f3 bc
       -0.055353895 -0.08310699 -0.17490499 -0.029681176
000370 16 d7 92 bd 6c 23 84 be 7a 27 26 bc d4 30 78 3e
       -0.07169931 -0.25808275 -0.010141248 0.24237376
000380 57 3d 91 be fd 23 2a be fe f3 33 bb 2e 94 5c bd
       -0.2836711 -0.16615291 -0.0027458663 -0.053852253
000390 2f 75 23 be 9f ee 5c 3d 20 3d 90 3d a6 5e 85 be
       -0.1596267 0.053938504 0.07042909 -0.26048774
0003a0 43 1a 5e 3d 40 50 ae be ce 78 5e 3d 3e db f9 bd
       0.054224264 -0.340456 0.054314427 -0.1220002
0003b0 54 da 34 3e cb 96 6b bd 31 14 97 bd 0c 2d d2 be
       0.1766141 -0.057516854 -0.07376898 -0.41049993
0003c0 9e 43 82 be 1e c3 e0 bd 12 11 17 3e ae 11 45 3e
       -0.25442213 -0.10974716 0.14752606 0.19245026
0003d0 01 82 0e 3e 18 19 47 be 90 73 77 bd 8b c5 35 bc
       0.1391678 -0.19443166 -0.060412943 -0.011094461
0003e0 06 f8 20 3e f0 9b c8 3d 3c 18 1b be b3 ad f4 bd
       0.15719613 0.09795368 -0.15145963 -0.11947193
0003f0 b6 a0 a7 bc 2a 5e 15 3e 8e f1 ff bd 6b 8f d3 bd
       -0.020462375 0.14586702 -0.12497245 -0.10330089

network_body._body_endoder.seq_layers.0.bias f4 [128]
000000 00 00 00 00 00 00 00 00 00 00 00 00 00 00 00 00
       0.0 0.0 0.0 0.0
000010 00 00 00 00 00 00 00 00 00 00 00 00 00 00 00 00
       0.0 0.0 0.0 0.0
000020 00 00 00 00 00 00 00 00 00 00 00 00 00 00 00 00
       0.0 0.0 0.0 0.0
000030 00 00 00 00 00 00 00 00 00 00 00 00 00 00 00 00
       0.0 0.0 0.0 0.0
000040 00 00 00 00 00 00 00 00 00 00 00 00 00 00 00 00
       0.0 0.0 0.0 0.0
000050 00 00 00 00 00 00 00 00 00 00 00 00 00 00 00 00
       0.0 0.0 0.0 0.0
000060 00 00 00 00 00 00 00 00 00 00 00 00 00 00 00 00
       0.0 0.0 0.0 0.0
000070 00 00 00 00 00 00 00 00 00 00 00 00 00 00 00 00
       0.0 0.0 0.0 0.0
000080 00 00 00 00 00 00 00 00 00 00 00 00 00 00 00 00
       0.0 0.0 0.0 0.0
000090 00 00 00 00 00 00 00 00 00 00 00 00 00 00 00 00
       0.0 0.0 0.0 0.0
0000a0 00 00 00 00 00 00 00 00 00 00 00 00 00 00 00 00
       0.0 0.0 0.0 0.0
0000b0 00 00 00 00 00 00 00 00 00 00 00 00 00 00 00 00
       0.0 0.0 0.0 0.0
0000c0 00 00 00 00 00 00 00 00 00 00 00 00 00 00 00 00
       0.0 0.0 0.0 0.0
0000d0 00 00 00 00 00 00 00 00 00 00 00 00 00 00 00 00
       0.0 0.0 0.0 0.0
0000e0 00 00 00 00 00 00 00 00 00 00 00 00 00 00 00 00
       0.0 0.0 0.0 0.0
0000f0 00 00 00 00 00 00 00 00 00 00 00 00 00 00 00 00
       0.0 0.0 0.0 0.0
000100 00 00 00 00 00 00 00 00 00 00 00 00 00 00 00 00
       0.0 0.0 0.0 0.0
000110 00 00 00 00 00 00 00 00 00 00 00 00 00 00 00 00
       0.0 0.0 0.0 0.0
000120 00 00 00 00 00 00 00 00 00 00 00 00 00 00 00 00
       0.0 0.0 0.0 0.0
000130 00 00 00 00 00 00 00 00 00 00 00 00 00 00 00 00
       0.0 0.0 0.0 0.0
000140 00 00 00 00 00 00 00 00 00 00 00 00 00 00 00 00
       0.0 0.0 0.0 0.0
000150 00 00 00 00 00 00 00 00 00 00 00 00 00 00 00 00
       0.0 0.0 0.0 0.0
000160 00 00 00 00 00 00 00 00 00 00 00 00 00 00 00 00
       0.0 0.0 0.0 0.0
000170 00 00 00 00 00 00 00 00 00 00 00 00 00 00 00 00
       0.0 0.0 0.0 0.0
000180 00 00 00 00 00 00 00 00 00 00 00 00 00 00 00 00
       0.0 0.0 0.0 0.0
000190 00 00 00 00 00 00 00 00 00 00 00 00 00 00 00 00
       0.0 0.0 0.0 0.0
0001a0 00 00 00 00 00 00 00 00 00 00 00 00 00 00 00 00
       0.0 0.0 0.0 0.0
0001b0 00 00 00 00 00 00 00 00 00 00 00 00 00 00 00 00
       0.0 0.0 0.0 0.0
0001c0 00 00 00 00 00 00 00 00 00 00 00 00 00 00 00 00
       0.0 0.0 0.0 0.0
0001d0 00 00 00 00 00 00 00 00 00 00 00 00 00 00 00 00
       0.0 0.0 0.0 0.0
0001e0 00 00 00 00 00 00 00 00 00 00 00 00 00 00 00 00
       0.0 0.0 0.0 0.0
0001f0 00 00 00 00 00 00 00 00 00 00 00 00 00 00 00 00
       0.0 0.0 0.0 0.0

network_body._body_endoder.seq_layers.2.weight f4 [128, 128]
000000 52 4e e6 bc 0d 04 43 3d 4f 1f a8 bd 81 14 36 be
       -0.028113518 0.047611285 -0.08209097 -0.17781259
000010 c6 01 2a 3d c9 61 45 3e ac 8e c5 bd a1 87 32 bd
       0.041505598 0.19275583 -0.09646353 -0.043586377
000020 ac 86 b8 3d 99 86 4a 3d 9a da 8c bd 28 65 4e be
       0.090100616 0.04944477 -0.068776324 -0.20155776
000030 4b 04 2f be b9 36 57 bc 5f 6f 84 3d e8 d0 82 3d
       -0.17091481 -0.0131356055 0.06466555 0.06387502
000040 8e 31 39 bc 70 39 05 3e b9 4f 25 3e 9c a5 52 3a
       -0.011303319 0.13010192 0.16143693 0.0008035542
000050 de 9c e5 bb df c1 61 3e 41 9a 6d bd 23 1f 44 bd
       -0.0070072254 0.22046612 -0.058008436 -0.047881257
000060 0a 2f df bd 89 22 91 3d 26 65 87 bd 04 f1 e8 3d
       -0.10897644 0.07086665 -0.066110894 0.11374095
000070 b6 c1 fb 3c 52 f0 98 3d a2 cb 56 3d 5c c3 6f bc
       0.030732017 0.074677125 0.052440293 -0.01463398
000080 ee ef 93 3d 19 46 11 3e 9c 10 53 3d 4b 5c f5 bc
       0.07223497 0.14186896 0.05152951 -0.029951235
000090 ef 99 71 bc eb 6b 16 bd 99 02 81 3d 91 f1 83 bc
       -0.014746173 -0.036724012 0.062993236 -0.016106399
0000a0 f6 a0 23 3d e9 e8 e3 bc c1 c0 86 bd 19 2a 9c 3c
       0.039948426 -0.027821021 -0.06579734 0.019063042
0000b0 20 af 51 be 76 a3 08 3c 9a c6 f4 3c af 3c 31 be
       -0.20476961 0.008339753 0.029879857 -0.17308305
0000c0 c3 41 de 3b 2b 0b 7d bb b3 ff c0 3b c7 58 51 bd
       0.0067827418 -0.0038611393 0.0058898567 -0.051110055
0000d0 53 08 61 3e b9 05 29 3e 28 0d e8 bb 84 22 1c 3e
       0.21975832 0.1650609 -0.0070816465 0.15247542
0000e0 fe ca 7e 3d a6 5d e7 bb 94 07 eb bb 18 26 57 bd
       0.062205307 -0.0070607243 -0.0071725342 -0.052526563
0000f0 07 0c 95 3c f0 c5 8c bd 6e 7a b3 bc 66 0a b8 bd
       0.018194212 -0.06873691 -0.021908965 -0.08986358
000100 7f 9a cd bd 23 c1 59 3d 76 48 b0 bd c4 1e 3c 3e
       -0.100392334 0.053162705 -0.08607571 0.18371111
000110 84 ba a5 3c ba da 1c 3e 68 ee 40 3d f3 2c 05 bd
       0.02023054 0.15317813 0.047102362 -0.03251357
000120 ca 46 c0 3d 4b 09 93 3d c1 3d 6a bd 74 01 98 3d
       0.09388502 0.07179507 -0.0571878 0.07422152
000130 aa d5 15 3d d2 0e 11 be 5d b6 63 bd 9c 96 26 3d
       0.03658072 -0.1416581 -0.055593837 0.040670976
000140 4f 56 8f 3c ca 3f 5e be bc f0 2c bd 8c 8e ae bc
       0.01749721 -0.21704021 -0.04222177 -0.021308206
000150 2c 31 bf 3c a3 0b 5b bd 8e 00 2f bd a8 6f df 3c
       0.023338877 -0.053477895 -0.04272514 0.027274922
000160 70 2f ab 3d c8 e7 c9 3d 62 10 65 bc 43 97 bb 3c
       0.08358657 0.09858662 -0.013980957 0.022899276
000170 a1 1e 7b bd 89 a3 5d 3e 48 c1 0b 3e a1 20 27 bd
       -0.061308507 0.21644415 0.1364795 -0.0408026
000180 9d fb 0e be 19 09 bb 3d 9d 13 88 3d 8f 3e 64 3c
       -0.1396317 0.091325946 0.06644366 0.013930931
000190 47 74 d0 bb d8 11 73 bd 3a 3d de bd 4f eb c6 3d
       -0.0063615176 -0.05934319 -0.10851522 0.0971285
0001a0 f5 c6 35 3e 34 f3 96 3b b5 e4 56 3e 10 1d 03 bd
       0.17751677 0.004606629 0.20985682 -0.032010138
0001b0 c3 39 0c bd 78 d6 2a 3d 12 ad 79 3d c3 d3 f7 3c
       -0.034234773 0.04170844 0.06095607 0.030252343
0001c0 81 1f 47 3d 49 2c 15 be 69 aa ef 3c 5a b4 60 3d
       0.04861403 -0.14567675 0.029256063 0.054859497
0001d0 27 38 6b bd 53 12 d1 3c 7a 3c 3e bc a8 9f 10 bd
       -0.057426598 0.025521433 -0.011611098 -0.03530851
0001e0 43 cd 4e bd b4 44 de 3d 46 76 42 bd 32 8d e5 bd
       -0.05048872 0.10852948 -0.047476076 -0.112085715
0001f0 fa 88 8d 3c f3 d0 73 bd 93 31 45 bc 55 aa 87 bd
       0.01727723 -0.05952544 -0.012035745 -0.06624285
000200 dd 42 ec 3d b1 04 08 3d da 2c ba bd 36 a7 64 3d
       0.11536191 0.0332076 -0.09090586 0.055823527
000210 98 7c 31 be 9d 4d 40 bd d1 57 8e bd 18 c9 58 be
       -0.17332685 -0.046949018 -0.069503434 -0.21170461
000220 1c 69 92 3d bb 7c 6b bd d0 77 03 bd 82 67 60 bd
       0.07148954 -0.057492 -0.032096684 -0.054786213
000230 53 ea 2b be e4 25 37 ba 10 d8 c6 3d 23 bb c2 3c
       -0.16788606 -0.0006986542 0.097091794 0.023770874
000240 a3 ea 5b 3b 08 76 20 3e 12 db c9 bc 08 dd 72 bd
       0.0033556602 0.15670025 -0.024640594 -0.059292823
000250 d3 95 99 3d 49 ab 0c 3e cd 00 20 3d a7 c0 99 bd
       0.0749928 0.13737215 0.039063264 -0.07507449
000260 c6 6f 9b bd 41 a8 04 3e fe 89 2d 3c 7e b0 c0 3c
       -0.075896785 0.12954809 0.010591982 0.023521658
000270 f1 56 96 bd c1 11 73 bc 3d 23 ca bd c2 00 a1 3d
       -0.073408015 -0.014835776 -0.098700024 0.07861473
000280 c3 39 ef 3b e5 9d 0e 3e b0 4b 91 3c 2a 39 60 3d
       0.007300587 0.1392742 0.017736286 0.054742016
000290 5f b5 5d bd 0f 47 c5 3d fc bd 13 3c 3c 67 c4 3c
       -0.054128047 0.09632694 0.009017464 0.023975007
0002a0 7f 53 19 bd af bb 55 3e a4 64 a5 bd 2a d2 73 bd
       -0.037433144 0.20872377 -0.08075836 -0.0595266
0002b0 78 75 33 3c ad a6 9d 3d 27 60 96 3d fa c6 51 3d
       0.0109533 0.076978065 0.07342558 0.05121515
0002c0 86 5c ec 3d dd d0 ac 3b aa 12 da 3d 5e e3 5a 3d
       0.11541085 0.005273922 0.10648091 0.05343949
0002d0 a6 35 81 bc c2 a8 a5 bd c9 b3 ed 3d f6 cf 0a be
       -0.015772652 -0.080888286 0.11606557 -0.13555893
0002e0 50 5c 6c 3e d7 fb cc 3d 96 fc 50 3d cf 2a bb 3d
       0.2308209 0.10008972 0.051022135 0.091390245
0002f0 8a af 1b bd b1 f1 2d 3c 06 c2 1f 3d 87 41 73 3c
       -0.038009204 0.010616706 0.039003395 0.014847166
000300 27 f5 14 3e da 85 44 bd 33 97 72 bd 64 96 dc ba
       0.14546643 -0.047979213 -0.059226226 -0.0016829488
000310 1d 94 85 bd 40 54 3a 3b 88 48 1f 3e 45 12 66 bd
       -0.06522391 0.0028431565 0.15555012 -0.056169767
000320 2a 92 0f bd 23 51 ac bd 02 60 b6 3b 03 8a 1c 3d
       -0.035051502 -0.08413913 0.0055656442 0.038217556
000330 f1 41 ca 3d 23 42 b9 bc 54 f5 a9 ba d0 a1 83 3e
       0.098758586 -0.022614544 -0.001296679 0.2570939
000340 40 78 14 bd 26 c9 9c 3d 00 3d e1 bb e8 7a d4 3d
       -0.03624749 0.076555535 -0.006873727 0.10375005
000350 7b 1b 7a 3d ca c7 72 bc f2 91 a6 bc 4f b3 df 3d
       0.061061364 -0.014818141 -0.020333264 0.10922872
000360 1a 00 05 3e 6a db 37 3d 7d aa 2f 3e 8f e9 97 bd
       0.1298832 0.044886984 0.1715488 -0.07417595
000370 0d 61 52 3d 8c 80 e6 3d 57 70 82 bd 3e 9c 6a bd
       0.051362086 0.11254987 -0.063690834 -0.05727791
000380 f9 b7 bd 3c 02 83 5b 3d 4d 55 ab 3d 19 18 69 bd
       0.023159014 0.053591736 0.08365879 -0.056907747
000390 ed 4c a1 3d f2 c0 1d 3d 1b f3 2f bd 74 08 4c 3e
       0.078760006 0.038514085 -0.042956453 0.199251
0003a0 26 85 0a bd 79 f1 e6 bd 8b c6 3b 3e 81 d8 04 bd
       -0.033818386 -0.11276526 0.18337457 -0.032433037
0003b0 4f aa 00 3e b4 99 bd 3d 7b 8d 9c bc c1 5b 7e bd
       0.12564968 0.09257832 -0.019110432 -0.062099222
0003c0 b7 23 17 ba dd 14 b5 bd 1e 77 82 3d a6 34 19 3b
       -0.0005765515 -0.0884187 0.06370376 0.0023377328
0003d0 e7 65 0e 3b c3 a9 5c bd 6e 67 84 bd 26 96 15 3e
       0.002172822 -0.053872835 -0.0646504 0.14608058
0003e0 9b 73 4e 3c fd 0e d5 3b b9 be cf 3d 3b 6a 9f 3d
       0.012600805 0.006502031 0.10143799 0.07783934
0003f0 6f 9d e6 bc ab 4e a7 bd 0a b5 06 be a8 2a ca bd
       -0.028151242 -0.081693016 -0.13154998 -0.09871417
