Assets/results/testOnSimpleTracknew/MyAgent/MyAgent-0.onnx (onnx, 92063 bytes, 8 tensors)

network_body.observation_encoder.processors.0.normalizer.running_mean f4 [35]
00000000: 0000 0000 0000 0000 0000 0000 0000 0000
00000010: 0000 0000 0000 0000 0000 0000 0000 0000
00000020: 0000 0000 0000 0000 0000 0000 0000 0000
00000030: 0000 0000 0000 0000 0000 0000 0000 0000
00000040: 0000 0000 0000 0000 0000 0000 0000 0000
00000050: 0000 0000 0000 0000 0000 0000 0000 0000
00000060: 0000 0000 0000 0000 0000 0000 0000 0000
00000070: 0000 0000 0000 0000 0000 0000 0000 0000
00000080: 0000 0000 0000 0000 0000 0000
0.0 0.0 0.0 0.0 0.0 0.0 0.0 0.0
0.0 0.0 0.0 0.0 0.0 0.0 0.0 0.0
0.0 0.0 0.0 0.0 0.0 0.0 0.0 0.0
0.0 0.0 0.0 0.0 0.0 0.0 0.0 0.0
0.0 0.0 0.0

network_body._body_endoder.seq_layers.0.weight f4 [128, 36]
00000000: 0e8c 11bb 1200 29be 0337 00be 0883 953e
00000010: 9a2a 3cbe f6bf ba3d b2d5 a9be 13b0 afbb
00000020: 9bff 57bc 0768 15be 1804 3a3e 83e2 713e
00000030: c2fa 113e d75c e83d 1130 2a3d 0a0e 9bbc
00000040: d7da cfbc 5a96 80be fe9c 35bd d780 e4bd
00000050: 5624 eb3c d492 85bc f465 4b3d a09a 6c3d
00000060: dcfa 9dbc 97c0 b13d fe8c c4be 6973 91be
00000070: 2687 36be 387b e3bb e69c 24be f655 9cbe
00000080: 8b33 c4bd 7eb1 9fbe 7c01 373d 4436 eebc
00000090: 844c ecbb f4fd 6abd bce8 9b3e a01a ac3d
000000a0: e6dc 2dbe 4e46 c4bc cb34 edbd 0ac6 8dbd
000000b0: df00 dd3d e172 8a3d acdd 13be 0180 a33b
000000c0: f6a1 6dbe f82a 8d3d 0e36 3dbe cf00 cb3c
000000d0: 2255 03be 3aae d4bc 5b6a 0ebe e598 13bd
000000e0: 0e5b f4bd 34df 743e 7ff5 dc3e 7365 dd3d
000000f0: 1a5e 67bc f870 9dbc 0a68 d03c 88bb b03d
00000100: 059c 843d a7e0 80be 08d0 863e a398 f23b
00000110: 6338 3f3e c57d 983c 82c0 45be 5043 6f3d
00000120: f3f3 6fbe 66cc 1e3d 94cb 0b3e d654 333e
00000130: 2ca2 01bd 8170 a1bc 9ea1 283e 0826 06bb
00000140: 3b52 033d 8696 d7bc 667a 4d3e c404 b5bd
00000150: a866 a63d fead 053d eead 44bd e771 1b3e
00000160: 735d 533d 6451 133d d539 88bd e4d9 80bd
00000170: 963b 823e a27d 04be 4952 a5bd c390 f9bd
00000180: ee03 313e 4b91 e13c f677 f8bd 1812 04bd
00000190: 7811 abbd 56e1 f23d 1ca3 9a3d 52e2 43be
000001a0: bad4 f53c 4eef c93e 44cb 8b3e abc3 babe
000001b0: e3aa 35be cf91 b43e 6a8c 30be 1b8e 70bd
000001c0: 012d 22bc a6ad dfbd 2696 963e b0ce a5bd
000001d0: fc12 5abb f4ff b93e fc6a 443e 0cd4 89bc
000001e0: 51e5 0c3e 32dd 303e d417 99bb bf27 80be
000001f0: 4079 693b c9e1 993e 4548 9c3d cfab c33c
00000200: 9574 01be 63c2 503e c6f3 00be d8e7 c7bc
00000210: b758 d5bd ee64 95bd 5542 1ebe af2b adbd
00000220: dbe9 72be 4f9a fcbd 6621 5f3c 763f 34be
00000230: 6487 193e d106 0a3e 38c7 a2bb 54f2 a63d
00000240: d499 a0bd 4a41 50bd 1e02 91bd 383d f3be
00000250: 866b 3ebe f166 14bd 53b1 5a3e 2fb9 1abe
00000260: 8bfb eebc ac26 033e 783a 313d c5bd 813d
00000270: f7ac efbd 6555 8fbd 5778 093e 501d 2b3e
00000280: 5621 91be 51a2 91be 5e6f 2cbe 322b 763e
00000290: cadf 5cbd b6ed 7b3e 7e5d 113c f023 94be
000002a0: bf18 043d e8be 8abc 7c04 7dbe b706 3dbd
000002b0: 7af8 ecbd 026d 063e ef35 683d f66c c93d
000002c0: 0f0a 063e c25a c83d c7b5 893d 2665 55be
000002d0: 7e1c 39bd d21d 21be 23ab d9be f73b 37bd
000002e0: 5863 7abc c0f1 f8bd 3794 d9bd 4d4a 933e
000002f0: 70c4 2ebe 7cf8 863e 1251 92bd 9e31 f2bd
00000300: 2335 5ebd c26b 053e dae5 2b3d 2b45 fabd
00000310: 9aaa 6ebc 5e4e 12be 9a7a 72be 33c0 123d
00000320: ac92 d13d 7996 0a3d eab3 433c 5b4f c93d
00000330: ba21 673c dad1 10be 74f9 443d 72b7 de3d
00000340: 20b5 863c 5058 97bb 47b7 eabe afb0 053f
00000350: d3e5 ab3e 8757 3fbd 2b5a bfbe e356 c6bd
00000360: e00f 12be beaa 193e a674 713e 7ac2 d93c
00000370: ca80 0abe e712 bdbd d6de 3a3d 30f2 f33d
00000380: 07bc c93d eb12 f5bd 9078 9abd b049 8c3d
00000390: 3168 84be 881a ba3e 7e45 48be 763a 233e
000003a0: 3aa5 333e 2462 f0bd 062b 393d 8efc 34bf
000003b0: 3c9f 0a3e 1ecc 403e 3cd9 79be ef39 46be
000003c0: 8f0c b0be 247e 0dbe b557 0a3e 4c8e 7c3e
000003d0: 32e3 adbe 44ff 79bd 7aea 8cbe e6a4 aa3d
000003e0: 5c01 ebbb 1842 0abe 5f5f ab3c 3ee2 8b3e
000003f0: 17e1 96bc 0e0a 9bbd c0bc 1b3d 84ce db3d
-0.0022208723 -0.16503933 -0.12520985 0.2920153 -0.18375626 0.09118645 -0.3317085 -0.005361566
-0.0131835 -0.14590465 0.18165624 0.23621564 0.14255813 0.11345833 0.041549746 -0.018927593
-0.025372906 -0.2511471 -0.044339173 -0.11157387 0.02870385 -0.016305365 0.049657777 0.05776465
-0.019284658 0.08679312 -0.38388819 -0.28408363 -0.17824993 -0.006942179 -0.16075477 -0.30534333
-0.095801435 -0.31190103 0.04467915 -0.02907861 -0.00721127 -0.057371095 0.30451 0.08403516
-0.16978797 -0.023959305 -0.11582335 -0.069225386 0.10791182 0.06760193 -0.1444003 0.0049896245
-0.23206314 0.06892961 -0.18477651 0.024780659 -0.12825444 -0.025961984 -0.13907759 -0.036034483
-0.1193143 0.2391327 0.4315605 0.108103655 -0.014121557 -0.019218907 0.025440235 0.08629519
0.06475071 -0.25171396 0.2633059 0.0074034496 0.18673854 0.01861466 -0.19311717 0.058413804
-0.23432903 0.03876915 0.13651878 0.17512831 -0.0316488 -0.019706966 0.16467902 -0.0020469446
0.032060843 -0.026316892 0.20066223 -0.088387996 0.08125049 0.032636635 -0.048017435 0.15180169
0.051602792 0.035966292 -0.066516556 -0.06291559 0.25436085 -0.1293855 -0.08072335 -0.12185814
0.17286655 0.027535101 -0.12132256 -0.032243818 -0.08352941 0.11859386 0.07550642 -0.19129303
0.030008662 0.39440387 0.27303517 -0.36477408 -0.1774097 0.35267493 -0.17241064 -0.058729272
-0.009898425 -0.10921793 0.2941143 -0.08096063 -0.0033275476 0.3632809 0.19181436 -0.016824745
0.13759352 0.1727188 -0.00467203 -0.25030324 0.003562525 0.30055073 0.07630972 0.023885636
-0.12642129 0.20386653 -0.12592992 -0.024402544 -0.10417312 -0.072946414 -0.15454991 -0.084555976
-0.23722021 -0.123341195 0.013618803 -0.17602333 0.14993054 0.13479163 -0.0049675964 0.08151689
-0.078418404 -0.050843515 -0.07080482 -0.47507644 -0.18595704 -0.036230985 0.21356706 -0.15109704
-0.02917268 0.12807721 0.04326865 0.06335024 -0.11702912 -0.069987096 0.13424812 0.167104
-0.28345746 -0.2844415 -0.16839358 0.24039915 -0.05392436 0.24602398 0.008872388 -0.28933668
0.032250162 -0.016936734 -0.24708742 -0.046148982 -0.11570831 0.1312752 0.05669206 0.09835236
0.13089775 0.09782936 0.067241244 -0.20839366 -0.045193188 -0.15734032 -0.4251338 -0.04473492
-0.015282474 -0.12155485 -0.10623973 0.28767624 -0.17067122 0.26361454 -0.07144369 -0.1182587
-0.054249894 0.13029388 0.04196725 -0.12220224 -0.014567042 -0.14287707 -0.23679581 0.035827827
0.102330536 0.03383491 0.01194475 0.09829589 0.014107162 -0.14142552 0.04808946 0.10874833
0.016443789 -0.004618682 -0.45842955 0.5222272 0.3357378 -0.046714332 -0.3737348 -0.09684541
-0.14263868 0.15006539 0.23579654 0.026581991 -0.13525692 -0.09232121 0.04562267 0.11911428
0.098503165 -0.11966499 -0.07542527 0.06849992 -0.25860742 0.36348367 -0.19557759 0.1594027
0.17543498 -0.11737469 0.045207046 -0.7069787 0.13537306 0.18827865 -0.24399275 -0.19358037
-0.3438458 -0.1381765 0.1351002 0.24663657 -0.339624 -0.061034456 -0.2752264 0.08332233
-0.007171793 -0.13501775 0.0209195 0.27321047 -0.018417878 -0.07570277 0.038021803 0.10732749

network_body._body_endoder.seq_layers.0.bias f4 [128]
00000000: 0000 0000 0000 0000 0000 0000 0000 0000
00000010: 0000 0000 0000 0000 0000 0000 0000 0000
00000020: 0000 0000 0000 0000 0000 0000 0000 0000
00000030: 0000 0000 0000 0000 0000 0000 0000 0000
00000040: 0000 0000 0000 0000 0000 0000 0000 0000
00000050: 0000 0000 0000 0000 0000 0000 0000 0000
00000060: 0000 0000 0000 0000 0000 0000 0000 0000
00000070: 0000 0000 0000 0000 0000 0000 0000 0000
00000080: 0000 0000 0000 0000 0000 0000 0000 0000
00000090: 0000 0000 0000 0000 0000 0000 0000 0000
000000a0: 0000 0000 0000 0000 0000 0000 0000 0000
000000b0: 0000 0000 0000 0000 0000 0000 0000 0000
000000c0: 0000 0000 0000 0000 0000 0000 0000 0000
000000d0: 0000 0000 0000 0000 0000 0000 0000 0000
000000e0: 0000 0000 0000 0000 0000 0000 0000 0000
000000f0: 0000 0000 0000 0000 0000 0000 0000 0000
00000100: 0000 0000 0000 0000 0000 0000 0000 0000
00000110: 0000 0000 0000 0000 0000 0000 0000 0000
00000120: 0000 0000 0000 0000 0000 0000 0000 0000
00000130: 0000 0000 0000 0000 0000 0000 0000 0000
00000140: 0000 0000 0000 0000 0000 0000 0000 0000
00000150: 0000 0000 0000 0000 0000 0000 0000 0000
00000160: 0000 0000 0000 0000 0000 0000 0000 0000
00000170: 0000 0000 0000 0000 0000 0000 0000 0000
00000180: 0000 0000 0000 0000 0000 0000 0000 0000
00000190: 0000 0000 0000 0000 0000 0000 0000 0000
000001a0: 0000 0000 0000 0000 0000 0000 0000 0000
000001b0: 0000 0000 0000 0000 0000 0000 0000 0000
000001c0: 0000 0000 0000 0000 0000 0000 0000 0000
000001d0: 0000 0000 0000 0000 0000 0000 0000 0000
000001e0: 0000 0000 0000 0000 0000 0000 0000 0000
000001f0: 0000 0000 0000 0000 0000 0000 0000 0000
0.0 0.0 0.0 0.0 0.0 0.0 0.0 0.0
0.0 0.0 0.0 0.0 0.0 0.0 0.0 0.0
0.0 0.0 0.0 0.0 0.0 0.0 0.0 0.0
0.0 0.0 0.0 0.0 0.0 0.0 0.0 0.0
0.0 0.0 0.0 0.0 0.0 0.0 0.0 0.0
0.0 0.0 0.0 0.0 0.0 0.0 0.0 0.0
0.0 0.0 0.0 0.0 0.0 0.0 0.0 0.0
0.0 0.0 0.0 0.0 0.0 0.0 0.0 0.0
0.0 0.0 0.0 0.0 0.0 0.0 0.0 0.0
0.0 0.0 0.0 0.0 0.0 0.0 0.0 0.0
0.0 0.0 0.0 0.0 0.0 0.0 0.0 0.0
0.0 0.0 0.0 0.0 0.0 0.0 0.0 0.0
0.0 0.0 0.0 0.0 0.0 0.0 0.0 0.0
0.0 0.0 0.0 0.0 0.0 0.0 0.0 0.0
0.0 0.0 0.0 0.0 0.0 0.0 0.0 0.0
0.0 0.0 0.0 0.0 0.0 0.0 0.0 0.0

network_body._body_endoder.seq_layers.2.weight f4 [128, 128]
00000000: 96e3 8e3d 539d 683d db51 2e3d 3a73 04be
00000010: acf1 f6bc c6e9 9fbd c0d4 36bd 2a45 533d
00000020: e2c3 153d 452e 27bd 4caa 3d3d ca3f 5f3b
00000030: 3d75 e1bd 5296 dfbd 0a67 c6bd f4d1 963d
00000040: 5760 01be 7010 013d 0e6d ccbc 85b6 7b3d
00000050: f9a2 b63d d511 c9bd 7824 ff3d c628 44bd
00000060: e07a 39be 78bb 3e3d b834 d33c 6ad1 b83c
00000070: 7cf0 4e3b 446f a23d 1ede 15bd 29e0 4e3e
00000080: fb9b 55be 4cc1 993d 4119 5b3c e73c 12be
00000090: a449 ce3c db96 e8bd ace4 5ebd 167e b03d
000000a0: c195 8bba 78e0 febd 16f5 103e 42ba fbbc
000000b0: b826 b23d 1870 36be 2d64 703c 5c36 39bd
000000c0: 531a dfbd 2545 34bd 2e13 24bd 9e16 65be
000000d0: e5d4 46bd 9abe a03d 62f7 b5bb e07a ffbd
000000e0: baef a0bd 3f8e 073d 3952 6d3d 0d72 58bd
000000f0: ddea 19bd 807d 263d f0bc 393d fa1b d33d
00000100: 4f9f 9e3c 2f2e 193b 39f9 bb3b e197 e6bd
00000110: 1495 72bd 1bac 273e f7de b13d 0eb5 20bd
00000120: 6e9f dabd 6899 da3c 7a5c a83d bb73 c6bd
00000130: cdef c33c 3499 84bd 37b5 bfbc 32e3 d8bb
00000140: fc50 203d a465 e53c 93bd 03bd 293a 973d
00000150: 937c 073e d801 49be b3ba a33a c8d4 59bd
00000160: 61fb 50bb 9549 123d 52f5 9dbb b53d 3abe
00000170: 3639 85bd 8fa0 e1bd a1a5 cc3d 4dbb e23d
00000180: be60 09be 6968 06bc 7223 ae3c 5506 f23d
00000190: ec5a 9fbd abcc 063e c2b3 acbd 9010 3dbd
000001a0: ffa5 c1bd f7df 123e 9367 b73d 757c 00bd
000001b0: bfdc 8fbd 965d 373e fcb9 36bd 3f26 7abc
000001c0: 27f3 9b3d 5d49 61bd 85b5 243e aa72 3c3d
000001d0: a35d d0bc 6eea ad3c ecc5 19bc e98d 28be
000001e0: d436 22be 5b2a aabb 95f6 88be f82d 17bd
000001f0: 5f7e db3d f947 ba3c 78e1 d03a 49f7 fc3c
00000200: 7faf 313c c374 fabc 2a15 39bc b8df 243c
00000210: 5959 dd3d 9c16 443e c51d 713d 4443 653e
00000220: fbca 91bd 45ca b3bd 3472 273d 1eff 8e3d
00000230: b76e 10ba cd42 12be cfdd 0fbd 50f1 a3bd
00000240: c65a 0abd 6f43 223d 2cd6 8ebd 1c48 0f3d
00000250: c753 3e3d 0cce 20bc 72af ccbc a643 a43d
00000260: f0b9 2cbe e8d4 d4bd 68e0 1bbd 4b86 093e
00000270: 43f2 31bc 00bf acbc c92a e03c a56f f53d
00000280: 3d7f 1dbd 9aef ee3d 00d9 c03d 4986 3b3d
00000290: d811 f3bd 4bed 98bd e9f6 dc3d 7a2a 0ebd
000002a0: 616e 4137 b844 f63d 43a0 d3bc 8c6b 783e
000002b0: 395e a73d a395 d4bc d6f2 d13d 0f90 96bc
000002c0: 8cf2 5e3b 0c9a 323e 0d13 a7bc f209 fd3d
000002d0: bea6 50be 5599 d3bd 541b 503e 732b a9bc
000002e0: d76d 73bd 0d31 8abd 3d00 14bd 8bdc bf3a
000002f0: b6bd e43c 45c7 183d a305 c53c 59ca 833d
00000300: 1819 9f3c 697b 96bd a9bb b4bc 8758 99bd
00000310: f0e2 2dbe fb38 3d3e bc92 d63d 6f3b 56bd
00000320: ecfb f23c 8740 7f3d b78d 5dbd d7a4 0e3e
00000330: 5a2f 8cbd 4eb3 c0bd 200b 733d e32d 0e3e
00000340: 5234 2c3e 94cc 2d3e b162 77be 0897 d73c
00000350: fd41 15be 459a b03c 1220 7e3d 174c df3d
00000360: 1ff0 20bc 2337 e13d c0a2 1a3e 605d dc3d
00000370: 76eb ad3d c2d1 4bbd 7ed1 533c f143 dc3d
00000380: 4b72 23bc cbf0 a13d 7c56 e33c 65d8 053d
00000390: a7b8 13bd c437 98bd 7209 06be 7b4b 303d
000003a0: 4d9c 523d 0339 393d 76e9 163e b8cd 4a3e
000003b0: 7a88 ccbd 8938 3dbd d621 e5bd 80b9 68bd
000003c0: 3c15 c53d 194a 7b3c cfa6 15be 14cf e1bd
000003d0: a398 04be 4876 ae3d 1762 b6bd 9a9f d1bc
000003e0: e0c1 1fbd ab65 cd3d ad65 283c f826 d23c
000003f0: 143a d33c ec14 103c 75b8 aebc a026 4f3d
0.06977002 0.05679066 0.042558532 -0.1293458 -0.030144535 -0.078082606 -0.044636488 0.051579632
0.03656376 -0.04081561 0.046304986 0.003406512 -0.110086896 -0.10917343 -0.09687622 0.07364264
-0.12634407 0.031509817 -0.024954345 0.06145336 0.08917803 -0.09817854 0.12458128 -0.047890447
-0.1811328 0.046565503 0.025781974 0.022560794 0.0031576445 0.079313785 -0.03658878 0.20202698
-0.20860283 0.075075716 0.01337272 -0.14281045 0.025181599 -0.113568984 -0.054417297 0.08617799
-0.0010649489 -0.12445158 0.14155993 -0.030728463 0.08698791 -0.17816198 0.014672321 -0.045217857
-0.10893693 -0.044011254 -0.040057354 -0.22371909 -0.048542876 0.07848854 -0.005553172 -0.124746084
-0.07858224 0.03309464 0.05793974 -0.052843142 -0.0375775 0.04064703 0.0453462 0.103080705
0.019363074 0.0023373475 0.0057364968 -0.11259437 -0.059224203 0.16374247 0.08685105 -0.039235167
-0.1067494 0.026684478 0.082207635 -0.096900426 0.023918057 -0.06474534 -0.02340184 -0.0066188807
0.039139733 0.028002568 -0.032163214 0.0738414 0.13231115 -0.1962961 0.0012491554 -0.05318144
-0.0031888115 0.035714705 -0.004820504 -0.18187602 -0.06505053 -0.11016952 0.09992529 0.11070881
-0.1341581 -0.008203604 0.021257136 0.11817614 -0.07781014 0.13164012 -0.084327236 -0.046158373
-0.09455489 0.14343248 0.08955302 -0.03136869 -0.07024526 0.17906794 -0.044610962 -0.015267908
0.07614737 -0.055001605 0.16084869 0.04600779 -0.025435274 0.021229949 -0.009385567 -0.16460384
-0.15841228 -0.0051930374 -0.26750627 -0.036909074 0.10717463 0.022739397 0.0015936336 0.030879634
0.010845064 -0.030573254 -0.01129655 0.010063104 0.10808057 0.1914925 0.05886628 0.22388941
-0.071187936 -0.08778814 0.040880397 0.069822535 -0.0005509662 -0.14283295 -0.035123643 -0.08005011
-0.033777975 0.03961509 -0.06974444 0.03498088 0.046466615 -0.00981475 -0.024986003 0.080207154
-0.16867805 -0.10392171 -0.038055807 0.13430135 -0.010860982 -0.02108717 0.027364152 0.11984185
-0.038451422 0.11666794 0.094163895 0.04578236 -0.11868638 -0.07467135 0.10789282 -0.034708478
1.1529396e-05 0.12024826 -0.025833255 0.24259776 0.081722684 -0.025950259 0.102513954 -0.01837924
0.003401908 0.17441577 -0.020394826 0.123554125 -0.20376107 -0.1033198 0.20322925 -0.020650601
-0.059430923 -0.06747637 -0.03613304 0.001463787 0.027922492 0.037299413 0.02405054 0.06435079
0.019421145 -0.07347757 -0.02206214 -0.074875884 -0.16981101 0.18478768 0.10477206 -0.052302774
0.029661141 0.062317397 -0.054090228 0.13930069 -0.06844969 -0.094092 0.05933678 0.13884692
0.16816834 0.16972572 -0.24158742 0.026317134 -0.14575954 0.021557936 0.062042303 0.10903185
-0.009822874 0.109968446 0.15101147 0.10759997 0.08492176 -0.049760588 0.012928365 0.10755146
-0.00997598 0.07907256 0.0277512 0.032677073 -0.03606477 -0.074325114 -0.1308954 0.043040734
0.05141859 0.045220386 0.14737496 0.19805038 -0.09986968 -0.046196494 -0.11188094 -0.05681753
0.09623191 0.0153374905 -0.14614414 -0.11025825 -0.12948851 0.08518654 -0.08905428 -0.0255888
-0.039003253 0.10029157 0.010278148 0.025653347 0.02578453 0.008794051 -0.02132819 0.050573945

action_model._continuous_distribution.log_sigma f4 [1, 2]
00000000: 0000 0000 0000 0000
0.0 0.0

action_model._continuous_distribution.mu.weight f4 [2, 128]
00000000: b73b c8b7 2d69 19bd 6746 b53c d247 03bd
00000010: 8bf6 abbc 40aa 37bc 3b49 183c f7df 343b
00000020: 17d6 27b9 5f4f c83c 8d5f 88bc 5c8b 8fbc
00000030: ac85 9dbc 0ba1 94ba 34bb c8bc b74d a73c
00000040: 8b99 24b9 b722 103c f2cc 96bc c38d 8ebc
00000050: 4b1b 5dbc 103b 2cbd 42b6 dd3b ff64 293c
00000060: c45c a9ba a7e7 4dbc 3f50 253c 5b88 efbb
00000070: baaf 1e3c b8db 27bc 5fa6 953c c194 99bc
00000080: 8acd 3cbc 72c5 d53c abdb 923b 1f0d 5a3b
00000090: 9d50 633b cbb4 5ebc dcb2 18bb b886 e93b
000000a0: 6144 93bc 1b56 6dbc f1e6 8c3c 04f5 963c
000000b0: 275a 79bc c313 34bc 42b7 dabc 44d4 433c
000000c0: c240 2cbc 9729 813c 6224 efbc 225b 603c
000000d0: 5e6d b63c 0649 9b3b 6d9d d53c 5c44 44bc
000000e0: 28a3 62bb 3b22 2bbc da0d d83c 1359 fa3b
000000f0: f1c9 ab3c 6893 e53c 83a9 0bbd 5df3 ce3c
00000100: 20a6 f73c 4bcc e7bb 93ef b03c db29 aabb
00000110: 5be2 10ba 2fd5 203c 571b a5bb 7ba4 48bb
00000120: 1317 fa3b f789 863c 3ebe 273c 3d1b 763a
00000130: ab61 84bb ab4a 003c ea76 3fbc 3b84 11bc
00000140: 171a 21bc 27a4 45bb 8b21 6b3c ddc8 aa3c
00000150: 05e7 b6bb 09ca 88bc 0b27 91b9 3b78 19bc
00000160: daeb e2bc 7b94 833b fb16 b4bc 0390 273d
00000170: 050c 5b3c 1bc6 05bb 3ff0 b33c 07a4 78bc
00000180: 2957 15bd 8de3 15bc 435c a4bc 271e bf3c
00000190: 0863 553c 4fe1 82bc 2953 a03c c310 19bd
000001a0: 9989 0fbd 2e00 073c 75d3 f2bb fa90 1b3c
000001b0: b23d 023d 3c74 863d b3ad 343c 4089 f63b
000001c0: d317 01bd ad69 413c 633a c63a bbc9 743c
000001d0: 634f 91bc 23d4 a1bb 44d5 2c3d 8da6 4a3c
000001e0: 672f 0b3c 9dca b13c bd21 4abc f41e 31bc
000001f0: 70ea 903c cdac 1f3c ff0d a83b 6009 e93c
00000200: dd00 13bb 2865 26bc dfc8 e13c fb40 89bc
00000210: 6cdc c5ba efdd dfbb 39f0 a63c b3bb aa3c
00000220: a72c a93c a072 e1bb d217 963c c56b 97bb
00000230: 138b fb3b dbf2 aebc f382 bcbb c3b9 b33c
00000240: 5fda 8b3c 43ab 02bd 15aa aebc 3052 303d
00000250: 5bd9 813c cba7 b33a 3345 ce39 cfef ed3c
00000260: 609c 693c df00 98bc f352 413c 2fa3 5ebc
00000270: 7793 7d3c ece5 14bc 13a2 bbbb 4bd8 bcbc
00000280: f7d3 453c 5727 c53b 6190 aa3c 3a68 013d
00000290: 8bcb c83c 8965 00bd c362 f4bc d074 643c
000002a0: da6e 593c 87a7 b7bc 4e5b 223c 24e3 10bc
000002b0: a5c5 f93c adf0 96bc 725a 3dbc 4aa0 de38
000002c0: 10fa c73c abaa 34bc c38a e1bb 3b4a 10bc
000002d0: 2f36 63bb 6d8d f13a a25c ff3c da6b 723b
000002e0: 6fc3 b9bb 18a1 03bd 7a72 b1bc ca09 95bc
000002f0: 3b7d 4f3b e76e bd3c df54 40bc dd2b 6c3c
00000300: 23b4 c03b a329 033c d2f8 d53c 6628 c9bc
00000310: 758c 743b ca6e 573c 55aa 7f3c c889 68bc
00000320: 62d1 f23c bd0d 69bd 4099 09bc 3583 3b3c
00000330: d21f 08bd 95ab 39bb 1035 d9bb b8a5 3c3c
00000340: bd05 533c 6ad1 f7bb 3fcc 25bd 35fb 7b3c
00000350: 3e6c b3bc e21b b63c 2103 ab3c b554 41bc
00000360: 429c 263c 7332 173c 21fd 3cbb 5844 7b3a
00000370: cab5 e2bc a28d 7ebc 5753 e1bc 9a05 efbc
00000380: b995 433c 86f9 89bb dbdc 9fbc 737f c0bb
00000390: 8a3d 83bb 3385 d2bc 4b08 383a 2f81 523c
000003a0: f424 0ebc 5546 c73c 8bd0 0e3c baf0 f1bc
000003b0: bf5a fc3b c717 543c 60c9 77bc abf3 10bc
000003c0: c315 7abc 0711 313c 380c c13b faf3 133c
000003d0: 4bed b23c ad8b 11bc 17c4 92bc 60d9 97bb
000003e0: 9d9d d6bb 7fcc fdbb b3fe 593c 8398 4cba
000003f0: 8055 3d3c 939b d7b9 a3db 043b c50e d93c
-2.3869665e-05 -0.03745382 0.022128297 -0.032050915 -0.020991584 -0.011210024 0.009294803 0.0027599314
-0.00016006116 0.02445191 -0.016647125 -0.017522506 -0.019228779 -0.0011339498 -0.024503328 0.0204228
-0.00015697458 0.008797339 -0.018408272 -0.017401582 -0.013495277 -0.042048514 0.0067661116 0.010339021
-0.0012921323 -0.012567437 0.010089933 -0.007309956 0.009685451 -0.010245256 0.018267808 -0.01874769
-0.011523614 0.026095126 0.004481753 0.003327198 0.00346855 -0.013592909 -0.0023299968 0.0071266554
-0.017976942 -0.014485861 0.017199965 0.01842738 -0.015219248 -0.01099104 -0.026698712 0.011952464
-0.010513486 0.015766902 -0.029192153 0.013693603 0.022268947 0.0047389297 0.026076043 -0.011979189
-0.0034582112 -0.010445173 0.026373792 0.007640013 0.020970317 0.02802439 -0.034097206 0.025262529
0.030230582 -0.007073914 0.021598613 -0.005192978 -0.00055268937 0.009816452 -0.0050386596 -0.0030615616
0.007632145 0.016423209 0.010238228 0.0009388214 -0.0040399632 0.007830302 -0.011686066 -0.008881624
-0.00983288 -0.0030157657 0.014351259 0.020847732 -0.005581739 -0.0166979 -0.00027685644 -0.009367044
-0.027700353 0.004015503 -0.021983614 0.040908825 0.013369565 -0.002041227 0.021965144 -0.015175826
-0.036460076 -0.009148491 -0.020063525 0.023329807 0.013024099 -0.015976576 0.019570904 -0.0373695
-0.035043333 0.008239789 -0.0074104615 0.009495014 0.03179712 0.06565139 0.011027741 0.0075236857
-0.03151686 0.01180498 0.0015123602 0.014940674 -0.01773805 -0.0049386187 0.042195573 0.01236881
0.008495188 0.021703059 -0.012337145 -0.010810602 0.017689914 0.009745789 0.0051286216 0.028446853
-0.0022430934 -0.0101559535 0.027561603 -0.016754618 -0.0015095598 -0.0068318765 0.020378219 0.020841455
0.020651175 -0.0068801194 0.018321905 -0.0046210014 0.007676491 -0.021356037 -0.005752915 0.021939164
0.0170719 -0.03190161 -0.021321336 0.04304713 0.015850713 0.0013706622 0.0003934294 0.029045014
0.014258474 -0.018555103 0.011799562 -0.013588711 0.015477053 -0.009088021 -0.005726108 -0.023052355
0.012074462 0.0060166526 0.020820798 0.03159354 0.02451112 -0.03134683 -0.02983225 0.013943866
0.013271058 -0.02241875 0.009909464 -0.008843217 0.030489752 -0.01842531 -0.011557208 0.00010615641
0.024411231 -0.011027019 -0.0068829968 -0.00880676 -0.0034669747 0.0018428989 0.0311721 0.0036990554
-0.0056690495 -0.032136053 -0.021661032 -0.018193144 0.0031660337 0.023124171 -0.011738985 0.014414755
0.005880849 0.008005532 0.026119623 -0.024555396 0.0037315164 0.013148973 0.015604575 -0.014193006
0.029640857 -0.056897867 -0.008398354 0.011444856 -0.03323347 -0.002833103 -0.00662864 0.01151412
0.012879786 -0.007562806 -0.040477987 0.015379717 -0.0219022 0.022230092 0.020875515 -0.011799981
0.010169091 0.009228337 -0.00288374 0.0009585074 -0.027674574 -0.015536698 -0.02750556 -0.029177476
0.011937552 -0.0042106537 -0.019514492 -0.005874568 -0.0040051388 -0.02569828 0.0007020279 0.012848183
-0.0086758025 0.02432553 0.008716713 -0.029533733 0.0077012475 0.012945122 -0.015123695 -0.0088471575
-0.015263977 0.010807282 0.005891349 0.0090303365 0.021841666 -0.008883399 -0.017915769 -0.0046340674
-0.0065495507 -0.007745325 0.013305354 -0.00078047084 0.011556029 -0.00041123907 0.0020272515 0.0264963

action_model._continuous_distribution.mu.bias f4 [2]
00000000: 0000 0000 0000 0000
0.0 0.0

onnx::Div_61 f4 [35]
00000000: 0000 803f 0000 803f 0000 803f 0000 803f
00000010: 0000 803f 0000 803f 0000 803f 0000 803f
00000020: 0000 803f 0000 803f 0000 803f 0000 803f
00000030: 0000 803f 0000 803f 0000 803f 0000 803f
00000040: 0000 803f 0000 803f 0000 803f 0000 803f
00000050: 0000 803f 0000 803f 0000 803f 0000 803f
00000060: 0000 803f 0000 803f 0000 803f 0000 803f
00000070: 0000 803f 0000 803f 0000 803f 0000 803f
00000080: 0000 803f 0000 803f 0000 803f
1.0 1.0 1.0 1.0 1.0 1.0 1.0 1.0
1.0 1.0 1.0 1.0 1.0 1.0 1.0 1.0
1.0 1.0 1.0 1.0 1.0 1.0 1.0 1.0
1.0 1.0 1.0 1.0 1.0 1.0 1.0 1.0
1.0 1.0 1.0
