results/yamltest/MyAgent/MyAgent-12500.pt (torch, 549343 bytes, 36 tensors)

network_body._body_endoder.seq_layers.0.weight f4 [128, 41]
0.057489194 0.04406525 0.13307144 -0.08946818 -0.13439704 0.019684786 0.10347467 -0.063818626
-0.04212074 -0.1652761 0.25634816 0.16602346 -0.17063835 -0.018386645 -0.13265404 0.072504416
0.14366865 -0.06815665 -0.19972003 -0.064114705 -0.17514262 0.06798525 0.23833926 -0.057767022
0.12469156 -0.017193424 0.11462537 -0.086715184 0.16741182 0.027885256 0.010032913 -0.3242604
0.06604033 -0.031304345 0.05584124 -0.0942286 0.021853061 0.09786638 -0.14682363 -0.029987412
0.035501502 -0.09770764 0.16409916 0.08910247 -0.2258477 0.3312555 -0.10807826 -0.040212214
-0.046794496 -0.20187916 0.031628 -0.0662082 -0.30859208 0.044916432 0.03635166 0.18215857
-0.048942696 -0.009490246 -0.06522129 -0.09414961 0.048339892 0.00868697 0.065025076 0.09637443
-0.0017842035 -0.06238671 0.074797526 0.08077179 -0.15054154 0.046196647 0.14035611 -0.25853354
-0.19559726 -0.015764542 -0.012891864 0.19076324 -0.124020144 -0.07634641 -0.018569682 -0.08312078
0.22198443 0.09394976 0.093625635 0.17645314 -0.3027199 -0.0087349415 -0.29831845 0.013945939
-0.01529384 -0.0128479935 0.091107674 -0.12720741 0.32599592 0.018765526 0.017817104 0.13633543
-0.18057159 0.0747675 0.28109977 0.20310815 -0.13978194 -0.08901301 -0.16290426 0.019345963
-0.012233991 0.006463919 0.19509368 0.011751815 0.39466584 -0.3620117 -0.16528726 -0.1738812
0.03431574 -0.082893826 0.057434633 -0.05722905 0.09671439 -0.3753451 -0.16819228 -0.010594741
0.067576274 -0.002379113 -0.14611976 -0.11899198 0.12900446 0.0008027451 -0.12461673 0.013031044
0.3274858 0.13652702 -0.15701267 0.094602324 -0.11344689 0.046660922 0.16903429 0.09559018
-0.059804484 0.29504073 0.332263 0.33619034 0.046922673 0.06522535 0.1873623 0.0205226
0.094859056 -0.30355957 0.04034604 0.0074378047 0.19436644 -0.17011178 -0.094035335 -0.40425044
0.09311437 0.019585613 -0.08030096 0.23603846 -0.18537708 -0.04425791 -0.039654996 0.18876803
-0.06630807 0.063799046 -0.0027965799 0.14028567 0.12295468 0.105514646 0.051860746 0.13748632
0.29894012 0.09695412 0.056317993 -0.18444109 -0.11426003 -0.17203991 0.11685894 0.12110873
-0.005398246 0.023772959 -0.1952954 -0.37417278 0.042001575 -0.16660686 -0.23003487 0.12425198
0.10650488 0.14834516 0.25154012 -0.01173539 -0.17545564 -0.23491882 0.20822571 -0.1465661
0.09116303 -0.10657777 -0.07021733 -0.011317549 -0.007931378 -0.1703801 0.07178475 -0.0057627065
-0.04924241 0.019316033 0.12753923 0.1295419 -0.17134273 -0.1084968 0.19130568 0.009093602
-0.13112892 0.19323014 0.18137512 0.03363885 0.008510091 0.032947943 -0.20084468 0.14810118
0.14139606 -0.4835445 0.061317988 0.17365801 0.16662306 -0.10494353 0.09937863 0.023355594
-0.003831648 -0.072279245 0.016561346 -0.21468934 0.14788842 0.19811593 0.04729101 0.18238847
0.18344331 0.17702684 -0.24969022 0.007826827 -0.10900796 -0.154416 0.043832473 0.08912111
0.22075155 -0.1845837 0.0632591 0.056839548 0.023368277 -0.04217317 -0.26738614 -0.24121308
0.13289714 -0.23896283 0.083838575 0.011969589 -0.008318934 -0.45290288 -0.13970855 0.12545773
00000000: ca79 6b3d c37d 343d e143 083e 183b b7bd
00000010: 619f 09be fd41 a13c 87ea d33d 57b3 82bd
00000020: cc86 2cbd 233e 29be 1140 833e 0e02 2a3e
00000030: d2bb 2ebe 979f 96bc 76d6 07be 327d 943d
00000040: e01d 133e b795 8bbd 6883 4cbe 924e 83bd
00000050: 9658 33be da3b 8b3d 350f 743e 1d9d 6cbd
00000060: 4a5e ff3d 39d9 8cbc b5c0 ea3d bb97 b1bd
00000070: 016e 2b3e 9f6f e43c 1661 243c 7605 a6be
00000080: 2740 873d fc38 00bd c9b9 643d edfa c0bd
00000090: 3105 b33c 2b6e c83d ef58 16be 29a8 f5bc
000000a0: 066a 113d f11a c8bd 9c09 283e 5b7b b63d
000000b0: 9f44 67be 529a a93e 2358 ddbd 90b5 24bd
000000c0: 96ab 3fbd 69b9 4ebe 5d8c 013d 2a98 87bd
000000d0: c8ff 9dbe 4bfa 373d 7ae5 143d c787 3a3e
000000e0: 2378 48bd fa7c 1bbc bd92 85bd 83d1 c0bd
000000f0: 0d00 463d cb53 0e3c de2b 853d f55f c53d
00000100: efdb e9ba 3589 7fbd 722f 993d ae6b a53d
00000110: 9027 1abe b238 3d3d 83b9 0f3e 825e 84be
00000120: a64a 48be a424 81bc 6638 53bc 7057 433e
00000130: 46fe fdbd 825b 9cbd 721f 98bc 3a3b aabd
00000140: e34f 633e bb68 c03d ccbe bf3d 22b0 343e
00000150: 1afe 9abe 001d 0fbc 32bd 98be 827d 643c
00000160: 0493 7abc 6480 52bc a996 ba3d a942 02be
00000170: f0e8 a63e 29ba 993c 2df5 913c 849b 0b3e
00000180: c2e7 38be b41f 993d 4fec 8f3e 95fb 4f3e
00000190: ff22 0fbe 744c b6bd 60d0 26be 6d7b 9e3c
000001a0: 1471 48bc 48cf d33b a3c6 473e af8a 403c
000001b0: a411 ca3e 9959 b9be 1041 29be ea0d 32be
000001c0: a98e 0c3d 3dc4 a9bd 9440 6b3d 0269 6abd
000001d0: 3212 c63d 3c2d c0be 993a 2cbe 9195 2dbc
000001e0: 6e65 8a3d e5ea 1bbb 6ba0 15be 11b2 f3bd
000001f0: bf19 043e 506f 523a 0e37 ffbd 2980 553c
00000200: 38ac a73e bdcd 0b3e eec7 20be ddbe c13d
00000210: d856 e8bd 861f 3f3d 5317 2d3e c9c4 c33d
00000220: 8cf5 74bd 940f 973e 601e aa3e 2421 ac3e
00000230: fd31 403d de94 853d e7db 3f3e 031f a83c
00000240: 7745 c23d 296c 9bbe e441 253d d4b8 f33b
00000250: ff07 473e c831 2ebe 9995 c0bd eaf9 cebe
00000260: bfb2 be3d 0272 a03c d474 a4bd 11b4 713e
00000270: 7dd3 3dbe c847 35bd 476d 22bd 684c 413e
00000280: 87cc 87bd 13a9 823d d346 37bb 0ca7 0f3e
00000290: aacf fb3d 1018 d83d ef6b 543d 37c9 0c3e
000002a0: ae0e 993e e28f c63d b2ad 663d 20de 3cbe
000002b0: 2a01 eabd 3b2b 30be bd53 ef3d db07 f83d
000002c0: c5e3 b0bb 82bf c23c 84fb 47be 9393 bfbe
000002d0: d809 2c3d fd9a 2abe 438e 6bbe d277 fe3d
000002e0: 3b1f da3d cbe7 173e dec9 803e cb45 40bc
000002f0: a5aa 33be 8f8e 70be 1f39 553e 6c15 16be
00000300: afb3 ba3d 7245 dabd 1ace 8fbd 3e6d 39bc
00000310: 9cf2 01bc 1f78 2ebe e203 933d 16d5 bcbb
00000320: 69b2 49bd a83c 9e3c a599 023e a2a6 043e
00000330: 7874 2fbe 9233 debd a3e5 433e 55fd 143c
00000340: a946 06be 1fde 453e 66ba 393e e4c8 093d
00000350: e96d 0b3c 6cf4 063d 3aaa 4dbe d6a7 173e
00000360: 21ca 103e 2593 f7be 9228 7b3d 68d3 313e
00000370: 3c9f 2a3e a2ec d6bd 0687 cb3d 3b54 bf3c
00000380: 631c 7bbb 2407 94bd a9ab 873c 86d7 5bbe
00000390: 1070 173e e7de 4a3e 38b4 413d 0bc4 3a3e
000003a0: 90d8 3b3e 8646 353e cbae 7fbe 173c 003c
000003b0: 913f dfbd 3a1f 1ebe ae89 333d 2185 b63d
000003c0: b20c 623e 8203 3dbe fd8d 813d 96d0 683d
000003d0: d46e bf3c c6bd 2cbd d6e6 88be 9000 77be
000003e0: 3016 083e acb2 74be 8fb3 ab3d 181c 443c
000003f0: 234c 08bc e3e2 e7be c20f 0fbe fe77 003e

network_body._body_endoder.seq_layers.0.bias f4 [128]
-0.0033708028 -0.00026562813 0.0016387507 -0.0023423368 0.001401315 -0.00036838988 -0.0014404829 0.00041204266
-0.00079350505 0.001824405 0.0014444231 -0.0014161683 -0.00158305 0.0031863092 0.0010711052 -0.0018380149
-0.0018796818 -0.0018652244 0.001603263 0.002070795 0.00035411646 -0.002288555 -0.0013444404 0.0018976607
-0.0028930358 0.0012282754 0.0026658166 -0.00018405075 0.00062820694 0.001223078 -0.0030097254 0.0022531957
0.00083133025 -0.00040901054 -0.0029645266 0.00043799705 -0.001933914 0.002751186 -0.0011917474 0.003295796
-0.0007906433 -0.0014518402 -0.0025864942 -0.00013132038 -0.0018300691 -0.0028652903 0.0019540023 0.000730287
-0.0021896337 0.00083425926 0.00010112905 -0.00034116904 -0.0019142755 0.0023976557 -0.00030638688 0.0010873415
-0.0015204061 0.001396138 -0.0017716135 0.001340987 -0.0024685415 0.0001142334 -0.0033916433 -0.0021716692
-0.0011885766 -0.0019057754 0.0004606282 0.001622275 0.0014773452 0.0016689502 0.002749796 0.00075834396
-0.00058975234 0.0023056632 0.002822984 0.001638376 0.0027079543 -0.0022438045 0.0006512199 0.0011913023
0.0034380637 0.00082339515 0.0004585056 -0.0006783858 0.00032176572 0.0032948058 0.0025798574 -0.0014122493
0.0017144766 -0.0024888315 0.0010158574 0.002130874 0.0008142977 0.00074518024 0.0017282888 0.0013070997
0.0017727022 0.0011114822 0.0006656941 -7.02895e-05 0.0027153667 0.0030823657 0.0010422876 -0.00046859134
0.0027216792 -0.0012319298 -0.0021444592 0.0020626618 0.0023291323 0.00011177322 0.00242743 -0.001904801
0.0007749604 0.0017288171 0.0018402957 -0.003130112 -0.0014023758 0.0015902898 0.0022224651 0.001169843
-0.0016047972 0.001205003 -0.0012597959 -0.001707851 0.0011421541 -0.0013186552 -0.0018476764 -0.00069363415
00000000: b0e8 5cbb 0144 8bb9 59cb d63a e481 19bb
00000010: 54ac b73a 7424 c1b9 96ce bcba 6e07 d839
00000020: 3903 50ba e020 ef3a cc52 bd3a b99e b9ba
00000030: 587e cfba 66d1 503b 5464 8c3a 8ce9 f0ba
00000040: a85f f6ba 8c7a f4ba 9424 d23a 2db6 073b
00000050: b5a8 b939 95fb 15bb ef37 b0ba edba f83a
00000060: 1699 3dbb 15fe a03a fbb4 2e3b bffd 40b9
00000070: 41ae 243a b04f a03a d03e 45bb 5aaa 133b
00000080: a1ed 593a 7770 d6b9 8148 42bb f8a2 e539
00000090: 637b fdba 3e4d 343b 6834 9cba 48fe 573b
000000a0: 2c43 4fba ac4b beba 2c82 29bb 0cb3 09b9
000000b0: eede efba 98c7 3bbb b80e 003b bb70 3f3a
000000c0: f57f 0fbb 31b2 5a3a 3f15 d438 efde b2b9
000000d0: 6de8 faba fd21 1d3b 8da2 a0b9 2085 8e3a
000000e0: 5d48 c7ba 9efe b63a 7c35 e8ba 0fc4 af3a
000000f0: 41c7 21bb 9790 ef38 5546 5ebb 9052 0ebb
00000100: 03ca 9bba 36cb f9ba 7880 f139 84a2 d43a
00000110: 7ba3 c13a adc0 da3a ec35 343b 9acb 463a
00000120: 9c99 1aba 9c1a 173b d001 393b c7be d63a
00000130: ef77 313b cb0c 13bb a1b6 2a3a 7925 9c3a
00000140: 2351 613b 1dd9 573a 9463 f039 b3d5 31ba
00000150: aab2 a839 abed 573b d312 293b 391b b9ba
00000160: 4ab8 e03a aa1b 23bb 8526 853a 22a6 0b3b
00000170: 9876 553a 3358 433a c087 e23a fd52 ab3a
00000180: 045a e83a 27af 913a fa81 2e3a 6368 93b8
00000190: 4bf4 313b 8401 4a3b 5e9d 883a 44ad f5b9
000001a0: 335e 323b b478 a1ba 0e8a 0cbb b92d 073b
000001b0: 5ba4 183b ca67 ea38 8415 1f3b 84aa f9ba
000001c0: b626 4b3a 7a99 e23a 1436 f13a 9122 4dbb
000001d0: eccf b7ba 4571 d03a c7a6 113b 6b55 993a
000001e0: 0f58 d2ba 31f1 9d3a bc1f a5ba f8d9 dfba
000001f0: 55b4 953a bad6 acba bb2d f2ba 00d5 35ba

network_body._body_endoder.seq_layers.2.weight f4 [128, 128]
-0.027819548 -0.10539597 0.0039728624 -0.16413338 0.06481725 0.046926923 0.017082695 0.21321687
0.043320987 -0.042091135 -0.09675287 0.0054886164 0.028834898 -0.021607138 -0.0027949684 0.037366264
0.06808854 0.21040952 -0.07134787 -0.007702759 -0.013926312 0.19389915 0.021101978 0.053793196
0.07180254 0.14815246 0.010898826 -0.008192148 0.005879865 -0.091624744 0.04592142 0.031754855
0.017191235 -0.16056883 -0.053218864 -0.002574308 0.058242623 0.016229251 0.05284536 -0.014820362
0.03881706 0.0055517093 0.050717935 0.062679246 0.06138853 -0.10573181 -0.043789238 -0.10798942
0.110230274 -0.024134299 0.07926328 -0.0054980954 -0.16250888 0.062456746 -0.067903504 -0.14314559
0.009640585 0.022868788 0.06402042 0.053403232 -0.010659158 0.047666445 0.13868901 0.09581445
-0.1346093 0.13053972 0.029369099 0.0523762 0.065962285 -0.0030423258 -0.016774604 -0.04100917
-0.01769752 -0.16525559 -0.0977721 -0.08467469 -0.07505528 -0.09951977 0.10162211 -0.059830952
0.01590659 0.024810923 -0.0074021467 0.025314659 -0.08091689 0.040326968 0.013720913 -0.05967281
-0.0035710302 0.0018633204 -0.0509218 -0.12428721 0.12958078 -0.0471262 -0.08802031 0.004651446
0.022746362 -0.087785564 0.12877613 -0.02349204 -0.06215332 0.05723442 -0.09210696 0.013039844
-0.02702012 0.0051285764 -0.017598147 -0.11494725 0.067495406 -0.119043946 -0.01034708 -0.069139786
-0.06477651 -0.054469045 0.038421486 -0.0070746676 -0.012715476 -0.041761626 -0.030906186 -0.09997316
-0.092595994 0.10306582 -0.022695336 0.08074964 0.12237912 0.07978545 -0.06379369 -0.1211355
0.07450401 -0.0011194586 0.028856207 -0.026035262 0.15515146 -0.0465622 0.032737873 0.057342965
0.027271932 -0.109620154 -0.28479075 -0.12759309 -0.042385634 0.06409934 -0.007207221 -0.048432294
0.014960647 0.13416697 -0.033848442 -0.06761076 0.009763359 0.071144134 -0.117265806 -0.04103758
0.03993199 0.12537298 -0.06024072 0.097642615 0.050927073 -0.14056845 0.083558224 -0.0033920933
0.051288176 0.022801084 0.042023666 -0.0069122985 -0.05582748 -0.08651712 -0.03749555 -0.0551454
-0.0022365174 -0.0973528 -0.033783827 0.07143226 0.012252268 -0.013987699 0.079500526 0.05543058
0.05556903 -0.01757935 -0.12000788 -0.04764424 0.08383892 -0.038059972 -0.060514804 0.12523387
0.038147815 -0.08993327 0.077831954 -0.14589053 -0.07225909 -0.0070195803 0.08620725 -0.10927232
0.030741675 -0.012725359 0.0017354756 0.07150441 0.0931956 -0.03334338 0.071414456 0.04518816
-0.08097721 -0.04017185 -0.054341912 -0.08973064 0.108674616 -0.07193074 -0.046468083 -0.11693741
0.16709454 0.031175034 -0.098765075 0.08388414 0.089275986 0.035469107 0.04338884 0.23710918
0.009230966 0.04493079 -0.12255105 0.05593475 -0.14955682 0.08888795 -0.0053361356 -0.031027982
-0.0013203414 0.011248242 -0.017639367 0.07404503 0.037231203 0.02155167 0.021668851 -0.028956875
-0.0057521756 0.02045811 -0.04184488 -0.13387868 0.22672972 -0.19269878 0.09450552 0.0064070644
0.028099328 -0.09744896 -0.06629956 0.004795521 -0.06160738 0.0453892 0.022880271 0.075693876
-0.116932236 0.043401327 0.034219153 -0.13444829 0.11794839 -0.034985203 0.1388419 0.022656836
00000000: d2e5 e3bc d8d9 d7bd c92e 823b 9512 28be
00000010: e8be 843d 7236 403d 02f1 8b3c 8655 5a3e
00000020: 5971 313d c167 2cbd 5e26 c6bd dad9 b33b
00000030: 2a37 ec3c 7401 b1bc ca2b 37bb 5e0d 193d
00000040: 0172 8b3d 9875 573e d51e 92bd 6d67 fcbb
00000050: 302b 64bc 808d 463e 0ede ac3c 4156 5c3d
00000060: 360d 933d 47b5 173e fd90 323c 5c38 06bc
00000070: e2ab c03b c1a5 bbbd 1918 3c3d 6111 023d
00000080: a2d4 8c3c 286c 24be 06fc 59bd b9b5 28bb
00000090: d18f 6e3d 35f3 843c 6074 583d 1bd1 72bc
000000a0: a3fe 1e3d 1deb b53b 9cbd 4f3d fa5d 803d
000000b0: 8a72 7b3d eb89 d8bd 585c 33bd 8f29 ddbd
000000c0: 69c0 e13d 4bb5 c5bc c954 a23d 5e29 b4bb
000000d0: ba68 26be a5d2 7f3d fe10 8bbd c294 12be
000000e0: 8bf3 1d3c 5357 bb3c 231d 833d 59bd 5a3d
000000f0: c0a3 2ebc e43d 433d 7e04 0e3e 5e3a c43d
00000100: 05d7 09be 34ac 053e 7797 f03c 6d88 563d
00000110: 3c17 873d c261 47bb e56a 89bc 3bf9 27bd
00000120: 64fa 90bc c338 29be bd3c c8bd ed69 adbd
00000130: 95b6 99bd 05d1 cbbd 411f d03d 4d11 75bd
00000140: 894e 823c 4740 cb3c b58d f2bb b060 cf3c
00000150: c1b7 a5bd e42d 253d aecd 603c 7a6b 74bd
00000160: f207 6abb a83a f43a 6193 50bd 4b8a febd
00000170: d3b0 043e 6707 41bd fe43 b4bd 286b 983b
00000180: 9456 ba3c ebc8 b3bd e4dd 033e 6172 c0bc
00000190: 7b94 7ebd a46e 6a3d 93a2 bcbd 12a5 553c
000001a0: 4c59 ddbc 9e0d a83b fd29 90bc 7769 ebbd
000001b0: 083b 8a3d 50cd f3bd cd86 29bc 2999 8dbd
000001c0: 8ca9 84bd ef1a 5fbd d95f 1d3d 9dd2 e7bb
000001d0: 9254 50bc 3d0e 2bbd f82e fdbc babe ccbd
000001e0: f8a2 bdbd 2c14 d33d 92eb b9bc 1160 a53d
000001f0: e7a1 fa3d 8e66 a33d 44a6 82bd e415 f8bd
00000200: 8f95 983d ccba 92ba da63 ec3c e747 d5bc
00000210: 06e0 1e3e 01b8 3ebd 2618 063d 75e0 6a3d
00000220: 6369 df3c 8880 e0bd 18d0 91be c3a7 02be
00000230: 8f9c 2dbd 8446 833d 8d2a ecbb f160 46bd
00000240: 801d 753c 1163 093e aaa4 0abd 8377 8abd
00000250: 7ff6 1f3c 04b4 913d 0e29 f0bd 0617 28bd
00000260: ba8f 233d c661 003e f9be 76bd daf8 c73d
00000270: e898 503d 2df1 0fbe 9320 ab3d e24d 5ebb
00000280: 8d13 523d 57c9 ba3c 0221 2c3d 9080 e2bb
00000290: 5bab 64bd e32f b1bd ef94 19bd 25e0 61bd
000002a0: 8992 12bb e860 c7bd e960 0abd 144b 923d
000002b0: bdbd 483c a92c 65bc 2cd1 a23d 2d0b 633d
000002c0: 5a9c 633d 9202 90bc b1c6 f5bd 9b26 43bd
000002d0: bdb3 ab3d c6e4 1bbd 5fde 77bd 4f3d 003e
000002e0: e240 1c3d ef2e b8bd 5c66 9f3d 5464 15be
000002f0: 93fc 93bd 8204 e6bb 6d8d b03d 2bca dfbd
00000300: f7d5 fb3c 067e 50bc e678 e33a e770 923d
00000310: 56dd be3d 1193 08bd be41 923d 3817 393d
00000320: 61d7 a5bd 3d8b 24bd a095 5ebd b3c4 b7bd
00000330: cc90 de3d 6c50 93bd 5155 3ebd e17c efbd
00000340: d51a 2b3e c962 ff3c 5845 cabd 73cb ab3d
00000350: 54d6 b63d 0e48 113d 7fb8 313d c0cc 723e
00000360: 7a3d 173c 5909 383d 0bfc fabd d61b 653d
00000370: 6c25 19be e30a b63d c0da aebb 652e febc
00000380: 4e0f adba 8c4a 383c 6f80 90bc eca4 973d
00000390: bf7f 183d 218d b03c e082 b13c f836 edbc
000003a0: bf7c bcbb c497 a73c 8965 2bbd 7e17 09be
000003b0: d62b 683e d452 45be 1c8c c13d 5af2 d13b
000003c0: 9030 e63c 5293 c7bd 10c8 87bd bf23 9d3b
000003d0: 0558 7cbd 07ea 393d 686f bb3c 6405 9b3d
000003e0: 2b7a efbd 97c5 313d 6229 0c3d d0ac 09be
000003f0: ed8e f13d a54c 0fbd 922c 0e3e d49a b93c

network_body._body_endoder.seq_layers.2.bias f4 [128]
0.0013844342 -0.0015371701 0.0024025461 0.0010766855 -0.0010117877 -0.0009266342 0.0028338565 -0.0001950553
-0.0018188119 6.000025e-05 -0.0022911099 0.002098094 0.0015229791 -0.00051118707 -0.0010337309 -0.0015337762
-0.0021732291 0.002265408 0.0010325242 0.0017780705 -0.0015081323 0.001822852 -0.0016223892 -0.0016083763
-4.4756714e-05 0.00149101 0.0025337965 0.0018078453 -0.0006071983 0.0015340059 -0.0017041443 0.0008806739
0.0020057866 -0.002507859 0.0018880923 0.0022410522 0.0016366637 0.0023294657 -0.0011402324 0.0012239274
0.0021906095 -0.0021383306 0.0016422349 0.0026688164 0.0009598834 -0.0017162729 0.0017335992 -0.00117622
-0.002106478 -0.0012859413 -0.00093497615 0.00032879272 -0.0004984566 0.001522293 -0.0023002801 0.0019287169
-0.00016890286 -0.0024736233 -0.0020463355 0.0017647479 0.0013767132 -0.0023347267 0.0019772218 -0.0006596513
0.0020037335 0.0007098223 0.0008197104 0.00072633894 0.0008917489 0.0009747322 0.002010933 0.0013435127
-0.00088235555 -0.001521616 0.0013614441 0.0014251933 -0.0012542745 -0.0016131997 -0.0011513904 0.0013991868
0.0007625374 0.002725695 -0.0010225552 0.00021850837 -0.0010042333 -0.0016787642 0.0006481577 -0.00026252112
0.0014896201 -0.0017441278 0.002592509 0.0019851825 -0.00084593554 -0.0020155078 0.00078324985 -0.00065490085
-0.0011263299 -0.0010366454 0.0016351995 0.0013001091 -0.0019032642 -0.0006548382 -0.0010752716 -0.0020028725
0.0018291147 -0.0014410296 -0.001974528 0.0013382812 0.00014979043 -0.0002186262 0.0016345961 0.0024689385
0.001908572 0.002054534 -0.002420129 -0.0009992374 0.002040089 0.0010010056 -0.0018658189 0.0009452707
-0.0024462042 0.0021086163 0.00036652954 9.359678e-05 0.00076289376 -0.0014882674 0.0012020722 -0.0018731478
00000000: e775 b53a df7a c9ba 0974 1d3b 921f 8d3a
00000010: f69d 84ba 5ee9 72ba 39b8 393b c287 4cb9
00000020: 3365 eeba c7a8 7b38 7226 16bb 2d80 093b
00000030: b39e c73a 2f01 06ba 417e 87ba fd08 c9ba
00000040: bc6c 0ebb 3d77 143b c355 873a 250e e93a
00000050: 86ac c5ba c3ec ee3a 59a6 d4ba 27d0 d2ba
00000060: 28b9 3bb8 fe6d c33a 0d0e 263b 39f5 ec3a
00000070: 632c 1fba b210 c93a 985d dfba 06dd 663a
00000080: 8473 033b e45a 24bb dd79 f73a 9ede 123b
00000090: 5285 d63a f3a9 183b da73 95ba 306c a03a
000000a0: 5490 0f3b 3c23 0cbb 4240 d73a 4fe7 2e3b
000000b0: afa0 7b3a 90f4 e0ba f039 e33a 652b 9aba
000000c0: d60c 0abb 088d a8ba 3019 75ba d061 ac39
000000d0: dbaa 02ba ad87 c73a 4cc0 16bb 00cd fc3a
000000e0: 841b 31b9 831c 22bb d01b 06bb 1d4f e73a
000000f0: d472 b43a 3702 19bb 4794 013b 73ec 2cba
00000100: 1251 033b 5e13 3a3a d5e1 563a c867 3e3a
00000110: 41c4 693a 2c85 7f3a dbc9 033b ce18 b03a
00000120: e14d 67ba f670 c7ba 7c72 b23a 8dcd ba3a
00000130: 7866 a4ba 0072 d3ba 40ea 96ba eb64 b73a
00000140: 05e5 473a 93a1 323b 4207 86ba 651f 6539
00000150: 7aa0 83ba fb09 dcba 20e9 293a fda2 89b9
00000160: 5b3f c33a 389b e4ba 15e7 293b d619 023b
00000170: c6c1 5dba 9c16 04bb 0253 4d3a a7ad 2bba
00000180: 5ca1 93ba 0ce0 87ba 3154 d63a 6c68 aa3a
00000190: f376 f9ba 73a9 2bba 21f0 8cba a042 03bb
000001a0: e8be ef3a eee0 bcba 1567 01bb 4469 af3a
000001b0: 1011 1d39 063f 65b9 f23f d63a eacd 213b
000001c0: 0d29 fa3a 5ca5 063b 079b 1ebb d8f8 82ba
000001d0: 04b3 053b 2d34 833a 7e8e f4ba 0bcc 773a
000001e0: 7f50 20bb b630 0a3b c32a c039 6349 c438
000001f0: effc 473a f811 c3ba da8e 9d3a 6984 f5ba

action_model._continuous_distribution.log_sigma f4 [1, 2]
0.0020013414 -0.0049709147
00000000: f028 033b 0ee3 a2bb

action_model._continuous_distribution.mu.weight f4 [2, 128]
-0.010285608 -0.022354528 0.012844774 -0.016544593 0.008612501 0.019780364 0.0047389134 0.01290471
-0.012444676 -0.018539539 0.0010755031 0.032090854 0.020726874 0.019278 0.017576177 0.014462879
-0.0023770502 -0.0049480144 -0.006768104 0.0033676801 0.009050074 0.008029387 0.0049671056 0.0033081064
0.023142345 0.017942758 0.0065456587 0.018564358 0.026939617 -0.020953627 -0.028413968 -0.008962799
-0.005234847 -0.021228468 0.009103558 0.015552038 -0.004825496 0.009085823 -0.037048217 0.01655969
0.0016086374 0.0018915659 0.012126363 0.0022702778 0.033675097 -0.01210222 -0.0057021854 0.009675531
-0.0030933747 0.009867537 0.019665655 -0.0043690577 0.032642342 0.025999935 -0.0019206778 -0.0010572793
-0.0055255946 -0.011077953 -0.008874979 0.01331078 -0.009377651 -0.018681057 -0.0031378134 -0.0052226894
0.0031616485 0.021814318 0.015611935 0.012178555 0.013027838 0.019037522 0.0055926354 -0.00036136844
0.009860427 -0.021412259 0.033352755 0.010553659 0.008252253 0.016387505 -0.022349391 -0.0119367195
0.0030961412 0.02454204 0.002343436 -0.024959533 -0.01527117 0.0038329032 0.020681007 0.0077122254
0.0070344307 0.008399706 0.024049954 0.013439277 0.02292737 -0.0064935554 0.018196616 0.021506388
-0.027654136 0.03436332 -0.009186035 0.023756498 0.00836333 -0.030245267 0.010758338 -0.032466535
0.013633294 -0.006890575 -0.0011709537 -0.0050160633 -0.020292506 0.023702417 -0.023381231 0.0026276405
0.00023222556 0.013061108 -0.002086778 -0.009587748 0.003219237 0.018899629 -0.028793985 0.012384404
-0.01674102 -0.0058739698 -0.011925268 0.03689363 -0.019648818 -0.012545916 0.013056579 0.003456314
-0.010754275 0.0063925926 -0.026862536 -0.018159283 0.019358266 0.017102527 -0.012489837 0.0008596302
0.013291989 -0.002093471 0.017552072 -0.048237327 -0.008438473 0.0034077717 0.02387181 0.01033012
0.011706092 -0.026631514 -0.0038107396 -0.016632073 0.0101578105 -0.0052477573 0.0017766634 0.01126014
0.002528117 -0.005028344 -0.009524255 -0.00871908 0.01362169 -0.043074917 0.017110871 -0.008672273
-0.026373966 0.017415296 -0.00631908 -0.022383034 -0.0041532344 -0.0154560665 0.0052404283 -0.0035997662
-0.008395093 0.004461452 -0.0065085315 -0.013308951 0.004250377 0.024235519 -0.020189563 0.015501583
0.02490952 0.020214502 0.015059593 -0.004102322 0.0139939925 -0.0051449584 0.00884772 -0.008234666
0.001912703 0.024343839 0.0116346255 -0.00850546 -0.018050874 0.031541236 -0.009944083 -0.0012192851
-0.011851576 0.0020526217 0.0017148405 0.0016427613 0.0020671673 0.0029797335 -0.012646594 -0.0032439537
0.0070693996 0.0069560492 -0.0016095468 -0.0031605489 0.018131396 0.026021944 0.00026068618 -0.020253628
0.003995391 -0.051272143 0.0060175196 -0.006466625 0.0018095392 0.016843049 0.0014868504 0.008281249
-7.814474e-05 0.035729066 -0.06327059 -0.012472323 0.01667458 0.025868041 0.00091820135 0.043379936
-6.3753134e-05 0.022224538 -0.0334235 -0.00024568217 0.018711308 -0.00347196 0.0075737406 0.018221484
-0.004168758 0.0007299629 0.01780863 -0.010330244 -0.003742085 0.0055923867 -0.041251484 -0.01150459
-0.008954471 -0.014620422 0.00510171 0.0025477041 -0.01706862 -0.0008736367 0.010245151 0.001875376
0.011779049 -0.019447632 -0.0064018406 0.013512402 -0.012598131 0.0060944213 0.002530855 0.005127179
00000000: f784 28bc d820 b7bc e372 523c 8788 87bc
00000010: 731b 0d3c 6e0a a23c e348 9b3b 476e 533c
00000020: c1e4 4bbc 3be0 97bc e5f7 8c3a b371 033d
00000030: 68cb a93c e5ec 9d3c eafb 8f3c b6f5 6c3c
00000040: 49c8 1bbb f422 a2bb f9c6 ddbb 4cb4 5c3b
00000050: c346 143c b18d 033c 1ac3 a23b d1cc 583b
00000060: 0495 bd3c b1fc 923c f77c d63b 4814 983c
00000070: 79b0 dc3c f1a6 abbc 69c4 e8bc b4d8 12bc
00000080: 1489 abbb 53e7 adbc 1727 153c facd 7e3c
00000090: 321f 9ebb b4dc 143c dfbf 17bd 30a8 873c
000000a0: ead8 d23a 6bee f73a a7ad 463c f1c8 143b
000000b0: e6ee 093d 6448 46bc 66d9 babb 1e86 1e3c
000000c0: 37ba 4abb 73ab 213c de19 a13c 502a 8fbb
000000d0: fab3 053d d1fd d43c 41bf fbba 6894 8aba
000000e0: 0c10 b5bb 4d80 35bc 5c68 11bc 7515 5a3c
000000f0: b8a4 19bc 0409 99bc c6a3 4dbb 1823 abbb
00000100: a933 4f3b f1b3 b23c 34c9 7f3c 9088 473c
00000110: b772 553c 94f4 9b3c 6d42 b73b 0d76 bdb9
00000120: a18d 213c c368 afbc e69c 083d 41e9 2c3c
00000130: 7534 073c 173f 863c 1216 b7bc 3b92 43bc
00000140: a1e8 4a3b 630c c93c 5594 193b ef77 ccbc
00000150: ee33 7abc 7231 7b3b 376b a93c d6b6 fc3b
00000160: 1581 e63b ec9e 093c 6904 c53c 6a30 5c3c
00000170: 2ed2 bb3c e4c7 d4bb 1211 953c 2a2e b03c
00000180: ed8a e2bc 8dc0 0c3d 0681 16bc fd9c c23c
00000190: 5906 093c ecc4 f7bc bd43 303c a1fb 04bd
000001a0: 2e5e 5f3c 55ca e1bb b07a 99ba ca5d a4bb
000001b0: 783c a6bc 922b c23c ff89 bfbc 7e34 2c3b
000001c0: 9381 7339 42fe 553c 53c2 08bb ee15 1dbc
000001d0: d6f9 523b 65d3 9a3c 5de1 ebbc f5e7 4a3c
000001e0: 7724 89bc 6e7a c0bb 3362 43bc c61d 173d
000001f0: 8ff6 a0bc 638d 4dbc 43eb 553c 5483 623b
00000200: b332 30bc f478 d13b d20e dcbc c7c2 94bc
00000210: 3a95 9e3c 991a 8c3c 2ca2 4cbc ce58 613a
00000220: a5c6 593c 9d32 09bb 5dc9 8f3c 8194 45bd
00000230: 8541 0abc ec54 5f3b d08e c33c aa3f 293c
00000240: e9ca 3f3c 552a dabc 9abd 79bb fc3f 88bc
00000250: f26c 263c 61f5 abbb eede e83a 737c 383c
00000260: c4ae 253b cfc4 a4bb 9f0b 1cbc 79da 0ebc
00000270: 822d 5f3c 536f 30bd 192c 8c3c 2616 0ebc
00000280: 370e d8bc 86aa 8e3c 4910 cfbb a05c b7bc
00000290: db17 88bb 713b 7dbc e6b7 ab3b 0eea 6bbb
000002a0: 928b 09bc 5f31 923b 8545 d5bb c90d 5abc
000002b0: bf46 8b3b 9189 c63c 9564 a5bc 5afa 7d3c
000002c0: 0d0f cc3c e298 a53c 83bc 763c c56c 86bb
000002d0: 0f47 653c 0a97 a8bb 07f6 103c b1ea 06bc
000002e0: aab3 fa3a bb6c c73c 289f 3e3c 7c5a 0bbc
000002f0: 6ddf 93bc 6231 013d 82ec 22bc 6bd0 9fba
00000300: 1d2d 42bc 4785 063b 80c4 e03a ec51 d73a
00000310: 5079 073b a247 433b a933 4fbc 8398 54bb
00000320: 6ca6 e73b 92ef e33b 6ef7 d2ba 3621 4fbb
00000330: 4b88 943c f92b d53c b5ac 8839 f0ea a5bc
00000340: c5eb 823b bd02 52bd 9d2e c53b fbe5 d3bb
00000350: 0f2e ed3a 6ffa 893c 6ce2 c23a 13ae 073c
00000360: a3e1 a3b8 a458 123d 0394 81bd b758 4cbc
00000370: 2199 883c 37e9 d33c 73b3 703a 29af 313d
00000380: 34b3 85b8 3c10 b63c 14e7 08bd e7ce 80b9
00000390: 7548 993c d389 63bb 242d f83b 3945 953c
000003a0: 149a 88bb fb5a 3f3a 67e3 913c 2f40 29bc
000003b0: c53d 75bb 5740 b73b 51f7 28bd bf7d 3cbc
000003c0: c6b5 12bc 7f8a 6fbc 3f2c a73b 62f7 263b
000003d0: 7ed3 8bbc c404 65ba 47db 273c 2dcf f53a
000003e0: eafc 403c a450 9fbc 88c6 d1bb 1f63 5d3c
000003f0: 6468 4ebc b6b3 c73b b3dc 253b e501 a83b

action_model._continuous_distribution.mu.bias f4 [2]
0.0010336867 -0.0019926191
00000000: c57c 873a 9a96 02bb

exp_avg f4 [128, 41]
0.0 2.649201e-06 0.0 0.0 5.3639644e-07 -9.591531e-09 2.6587925e-06 0.0
0.0 5.856448e-07 0.0 2.649201e-06 0.0 0.0 5.8161555e-07 2.1901685e-06
4.590328e-07 0.0 0.0 5.4376824e-07 6.4685617e-07 2.0023447e-06 0.0 0.0
7.398524e-07 2.6914283e-06 -4.2227235e-08 0.0 0.0 4.806215e-07 2.0096095e-06 6.395913e-07
0.0 0.0 7.5231947e-07 -2.648702e-06 0.0 0.0 0.0 0.0
0.0 0.0 2.4146482e-07 0.0 0.0 -2.1813742e-07 -5.8134944e-08 2.9960052e-07
0.0 0.0 -2.2102262e-07 0.0 2.4146482e-07 0.0 0.0 -2.4204115e-07
7.752924e-07 -5.338287e-07 0.0 0.0 -3.755227e-08 -1.9103281e-06 2.1517947e-06 0.0
0.0 -2.957226e-07 -8.7910166e-08 3.293752e-07 0.0 0.0 3.114245e-08 -7.00241e-07
9.4170497e-07 0.0 0.0 -4.6927056e-08 -2.4044078e-07 0.0 0.0 0.0
0.0 0.0 0.0 2.3726858e-05 0.0 0.0 3.3299245e-06 2.916443e-07
2.3435214e-05 0.0 0.0 3.588315e-06 0.0 2.3726858e-05 0.0 0.0
3.6285662e-06 -2.7599217e-06 2.6486792e-05 0.0 0.0 2.4027577e-06 7.7100685e-06 1.6016791e-05
0.0 0.0 4.123661e-06 2.1570708e-05 2.1561486e-06 0.0 0.0 4.0203145e-06
-1.7671805e-06 2.5494042e-05 0.0 0.0 3.8590715e-06 -2.3718596e-05 0.0 0.0
0.0 0.0 0.0 0.0 -8.054755e-06 0.0 0.0 -7.6491784e-07
-1.16518905e-07 -7.938237e-06 0.0 0.0 -8.411695e-07 0.0 -8.054755e-06 0.0
0.0 -8.266416e-07 2.81354e-07 -8.336115e-06 0.0 0.0 -5.841626e-07 -8.911553e-08
-7.965646e-06 0.0 0.0 -7.6020615e-07 -6.0563857e-06 -1.9983709e-06 0.0 0.0
-1.3260199e-06 3.191968e-06 -1.1246727e-05 0.0 0.0 -9.993098e-07 8.049845e-06 0.0
0.0 0.0 0.0 0.0 0.0 2.2630627e-05 0.0 0.0
2.6380685e-06 1.7072522e-07 2.2459904e-05 0.0 0.0 2.866225e-06 0.0 2.2630627e-05
0.0 0.0 2.863282e-06 1.4696161e-07 2.2483677e-05 0.0 0.0 2.301582e-06
4.123278e-06 1.8507355e-05 0.0 0.0 3.306305e-06 1.9159208e-05 3.4714167e-06 0.0
0.0 3.7897057e-06 -1.8611067e-06 2.4491743e-05 0.0 0.0 3.6519887e-06 -2.2620872e-05
0.0 0.0 0.0 0.0 0.0 0.0 3.207663e-06 0.0
0.0 6.409057e-07 5.034802e-08 3.1573152e-06 0.0 0.0 6.8751075e-07 0.0
3.207663e-06 0.0 0.0 6.979093e-07 3.2999236e-07 2.8776708e-06 0.0 0.0
5.119938e-07 1.0479043e-06 2.159758e-06 0.0 0.0 7.918081e-07 3.2990697e-06 -9.1406854e-08
0.0 0.0 5.729327e-07 1.3952722e-06 1.8123911e-06 0.0 0.0 7.7447856e-07
-3.2070789e-06 0.0 0.0 0.0 0.0 0.0 0.0 -8.89807e-06
0.0 0.0 -8.190921e-07 4.147598e-09 -8.902216e-06 0.0 0.0 -9.034018e-07
00000000: 0000 0000 edc8 3136 0000 0000 0000 0000
00000010: e2fc 0f35 00c8 24b2 b56d 3236 0000 0000
00000020: 0000 0000 3435 1d35 0000 0000 edc8 3136
00000030: 0000 0000 0000 0000 5120 1c35 cffa 1236
00000040: fd70 f634 0000 0000 0000 0000 78f7 1135
00000050: 9ea3 2d35 0560 0636 0000 0000 0000 0000
00000060: 459a 4635 639e 3436 565d 35b3 0000 0000
00000070: 0000 0000 0f04 0135 d4dc 0636 61b0 2b35
00000080: 0000 0000 0000 0000 00f3 4935 5bc0 31b6
00000090: 0000 0000 0000 0000 0000 0000 0000 0000
000000a0: 0000 0000 0000 0000 aca2 8134 0000 0000
000000b0: 0000 0000 2839 6ab4 0cb0 79b3 c8d8 a034
000000c0: 0000 0000 0000 0000 3c52 6db4 0000 0000
000000d0: aca2 8134 0000 0000 0000 0000 e2f1 81b4
000000e0: b01d 5035 6e4c 0fb5 0000 0000 0000 0000
000000f0: 2849 21b3 3033 00b6 8d67 1036 0000 0000
00000100: 0000 0000 cec3 9eb4 20c9 bcb3 fcd4 b034
00000110: 0000 0000 0000 0000 7cc1 0533 32f8 3bb5
00000120: 79c9 7c35 0000 0000 0000 0000 d88c 49b3
00000130: ee15 81b4 0000 0000 0000 0000 0000 0000
00000140: 0000 0000 0000 0000 0000 0000 0a09 c737
00000150: 0000 0000 0000 0000 ab77 5f36 4a93 9c34
00000160: bd96 c437 0000 0000 0000 0000 c8ce 7036
00000170: 0000 0000 0a09 c737 0000 0000 0000 0000
00000180: 4b82 7336 1837 39b6 f42f de37 0000 0000
00000190: 0000 0000 103f 2136 7e5a 0137 cc5b 8637
000001a0: 0000 0000 0000 0000 fa5d 8a36 bef2 b437
000001b0: 5ab2 1036 0000 0000 0000 0000 3de6 8636
000001c0: dc2f edb5 0adc d537 0000 0000 0000 0000
000001d0: 2c7d 8136 4cf7 c6b7 0000 0000 0000 0000
000001e0: 0000 0000 0000 0000 0000 0000 0000 0000
000001f0: e922 07b7 0000 0000 0000 0000 c154 4db5
00000200: f238 fab3 782e 05b7 0000 0000 0000 0000
00000210: bacc 61b5 0000 0000 e922 07b7 0000 0000
00000220: 0000 0000 61e6 5db5 000d 9734 57db 0bb7
00000230: 0000 0000 0000 0000 59cf 1cb5 c85f bfb3
00000240: 30a4 05b7 0000 0000 0000 0000 f810 4cb5
00000250: f537 cbb6 c01b 06b6 0000 0000 0000 0000
00000260: b2f9 b1b5 9835 5636 53b0 3cb7 0000 0000
00000270: 0000 0000 0620 86b5 d20d 0737 0000 0000
00000280: 0000 0000 0000 0000 0000 0000 0000 0000
00000290: 0000 0000 e7d6 bd37 0000 0000 0000 0000
000002a0: ac09 3136 9750 3734 4768 bc37 0000 0000
000002b0: 0000 0000 5f59 4036 0000 0000 e7d6 bd37
000002c0: 0000 0000 0000 0000 cf26 4036 80cc 1d34
000002d0: 549b bc37 0000 0000 0000 0000 e174 1a36
000002e0: b05a 8a36 3e40 9b37 0000 0000 0000 0000
000002f0: e3e1 5d36 16b8 a037 7cf6 6836 0000 0000
00000300: 0000 0000 a652 7e36 24cb f9b5 9e73 cd37
00000310: 0000 0000 0000 0000 b014 7536 f4c1 bdb7
00000320: 0000 0000 0000 0000 0000 0000 0000 0000
00000330: 0000 0000 0000 0000 3b43 5736 0000 0000
00000340: 0000 0000 b40a 2c35 3c3e 5833 43e2 5336
00000350: 0000 0000 0000 0000 618d 3835 0000 0000
00000360: 3b43 5736 0000 0000 0000 0000 f657 3b35
00000370: ce29 b134 021e 4136 0000 0000 0000 0000
00000380: f26f 0935 b8a5 8c35 5cf0 1036 0000 0000
00000390: 0000 0000 a38c 5435 9665 5d36 734b c4b3
000003a0: 0000 0000 0000 0000 a3cb 1935 3045 bb35
000003b0: 4941 f335 0000 0000 0000 0000 c3e5 4f35
000003c0: 3239 57b6 0000 0000 0000 0000 0000 0000
000003d0: 0000 0000 0000 0000 0000 0000 eb48 15b7
000003e0: 0000 0000 0000 0000 95df 5bb5 a882 8e31
000003f0: ba5a 15b7 0000 0000 0000 0000 4d81 72b5

exp_avg_sq f4 [128, 41]
0.0 3.2080337e-12 0.0 0.0 8.9619474e-14 1.2108838e-15 3.209725e-12 0.0
0.0 1.0714327e-13 0.0 3.2080337e-12 0.0 0.0 1.05767933e-13 1.8693948e-12
3.1932137e-12 0.0 0.0 9.621038e-14 3.0184817e-13 2.7087707e-12 0.0 0.0
1.8761867e-13 3.4112737e-12 1.2209885e-14 0.0 0.0 1.03827754e-13 2.2440999e-12 3.1630232e-12
0.0 0.0 1.9608122e-13 3.2060405e-12 0.0 0.0 0.0 0.0
0.0 0.0 1.5727652e-11 0.0 0.0 3.2378408e-13 2.6719664e-14 1.5620772e-11
0.0 0.0 3.8547925e-13 0.0 1.5727652e-11 0.0 0.0 3.8121538e-13
4.1018417e-12 1.0311683e-11 0.0 0.0 3.608479e-13 7.7159947e-13 1.5485682e-11 0.0
0.0 6.2175194e-13 1.5935007e-11 2.0585787e-14 0.0 0.0 4.9492214e-13 5.7254605e-12
1.16298325e-11 0.0 0.0 7.9780903e-13 1.5717148e-11 0.0 0.0 0.0
0.0 0.0 0.0 5.219659e-10 0.0 0.0 7.3526185e-12 1.6098398e-13
5.2546556e-10 0.0 0.0 8.820058e-12 0.0 5.219659e-10 0.0 0.0
8.6429e-12 1.15803866e-10 4.6553233e-10 0.0 0.0 9.7324735e-12 1.5975679e-11 5.1689003e-10
0.0 0.0 1.42899095e-11 5.4966864e-10 2.353095e-12 0.0 0.0 1.6548256e-11
1.3999626e-10 4.2585166e-10 0.0 0.0 2.3225224e-11 5.215679e-10 0.0 0.0
0.0 0.0 0.0 0.0 2.041976e-10 0.0 0.0 3.677362e-12
1.7360821e-13 2.0358265e-10 0.0 0.0 4.3859235e-12 0.0 2.041976e-10 0.0
0.0 4.3343064e-12 4.8828105e-11 1.567727e-10 0.0 0.0 4.020637e-12 1.13586e-11
1.7565846e-10 0.0 0.0 7.0385043e-12 2.1709787e-10 1.0025176e-12 0.0 0.0
6.494544e-12 5.726462e-11 1.6097443e-10 0.0 0.0 9.134354e-12 2.0404926e-10 0.0
0.0 0.0 0.0 0.0 0.0 3.2645622e-10 0.0 0.0
3.5409212e-12 7.493305e-14 3.275799e-10 0.0 0.0 4.2525697e-12 0.0 3.2645622e-10
0.0 0.0 4.154417e-12 4.263272e-11 2.9307637e-10 0.0 0.0 5.1237604e-12
6.9624293e-12 3.109726e-10 0.0 0.0 6.8042095e-12 3.537379e-10 3.2562208e-12 0.0
0.0 1.0377821e-11 6.1057194e-11 2.716666e-10 0.0 0.0 1.3078943e-11 3.261933e-10
0.0 0.0 0.0 0.0 0.0 0.0 1.051369e-11 0.0
0.0 1.589391e-13 1.14364525e-14 1.05676275e-11 0.0 0.0 1.9002939e-13 0.0
1.051369e-11 0.0 0.0 1.8703101e-13 2.215377e-12 8.654736e-12 0.0 0.0
1.9386193e-13 1.5368718e-13 1.1111827e-11 0.0 0.0 3.1550503e-13 1.05386914e-11 1.2833519e-14
0.0 0.0 3.2690387e-13 2.8840608e-12 9.200848e-12 0.0 0.0 4.5333157e-13
1.05056614e-11 0.0 0.0 0.0 0.0 0.0 0.0 5.073568e-11
0.0 0.0 4.1485766e-13 8.63653e-15 5.064969e-11 0.0 0.0 4.9829276e-13
00000000: 0000 0000 ccbe 612c 0000 0000 0000 0000
00000010: 1cce c929 ba81 ae26 44dd 612c 0000 0000
00000020: 0000 0000 e443 f129 0000 0000 ccbe 612c
00000030: 0000 0000 0000 0000 102b ee29 068c 032c
00000040: d3b3 602c 0000 0000 0000 0000 82a5 d829
00000050: e8ec a92a e09c 3e2c 0000 0000 0000 0000
00000060: 663d 532a 0b0c 702c 28f4 5b28 0000 0000
00000070: 0000 0000 a0cc e929 1cea 1d2c f693 5e2c
00000080: 0000 0000 0000 0000 90c4 5c2a e49a 612c
00000090: 0000 0000 0000 0000 0000 0000 0000 0000
000000a0: 0000 0000 0000 0000 8657 8a2d 0000 0000
000000b0: 0000 0000 3446 b62a 5aab f028 da66 892d
000000c0: 0000 0000 0000 0000 6a01 d92a 0000 0000
000000d0: 8657 8a2d 0000 0000 0000 0000 ed9a d62a
000000e0: 1b52 902c b167 352d 0000 0000 0000 0000
000000f0: aa23 cb2a 9a2f 592b a836 882d 0000 0000
00000100: 0000 0000 f301 2f2b 722a 8c2d 986b b928
00000110: 0000 0000 0000 0000 e64e 0b2b 5d72 c92c
00000120: 1c98 4c2d 0000 0000 0000 0000 3390 602b
00000130: df3f 8a2d 0000 0000 0000 0000 0000 0000
00000140: 0000 0000 0000 0000 0000 0000 167a 0f30
00000150: 0000 0000 0000 0000 4059 012d 7940 352a
00000160: 5a70 1030 0000 0000 0000 0000 032a 1b2d
00000170: 0000 0000 167a 0f30 0000 0000 0000 0000
00000180: 290c 182d c8a7 fe2e daed ff2f 0000 0000
00000190: 0000 0000 2a37 2b2d 0886 8c2d e714 0e30
000001a0: 0000 0000 0000 0000 0864 7b2d 7e17 1730
000001b0: 9795 252c 0000 0000 0000 0000 5c8f 912d
000001c0: 72ed 192f 4b1d ea2f 0000 0000 0000 0000
000001d0: 8e4a cc2d 145e 0f30 0000 0000 0000 0000
000001e0: 0000 0000 0000 0000 0000 0000 0000 0000
000001f0: 8484 602f 0000 0000 0000 0000 bb62 812c
00000200: 2977 432a 6cd7 5f2f 0000 0000 0000 0000
00000210: e350 9a2c 0000 0000 8484 602f 0000 0000
00000220: 0000 0000 f67f 982c 8fbf 562e 985f 2c2f
00000230: 0000 0000 0000 0000 ae76 8d2c 96d2 472d
00000240: 7623 412f 0000 0000 0000 0000 36a5 f72c
00000250: 9eb3 6e2f 8117 8d2b 0000 0000 0000 0000
00000260: a781 e42c 3bda 7b2e 46fe 302f 0000 0000
00000270: 0000 0000 79b1 202d c35a 602f 0000 0000
00000280: 0000 0000 0000 0000 0000 0000 0000 0000
00000290: 0000 0000 a178 b32f 0000 0000 0000 0000
000002a0: 912b 792c f6bb a829 c616 b42f 0000 0000
000002b0: 0000 0000 be9f 952c 0000 0000 a178 b32f
000002c0: 0000 0000 0000 0000 a92b 922c 2d80 3b2e
000002d0: d51e a12f 0000 0000 0000 0000 bb46 b42c
000002e0: fdf7 f42c 81f5 aa2f 0000 0000 0000 0000
000002f0: df66 ef2c 2f78 c22f dc22 652c 0000 0000
00000300: 0000 0000 8d91 362d 2544 862e ad59 952f
00000310: 0000 0000 0000 0000 5316 662d a053 b32f
00000320: 0000 0000 0000 0000 0000 0000 0000 0000
00000330: 0000 0000 0000 0000 73f5 382d 0000 0000
00000340: 0000 0000 14f3 322a 5405 4e28 5de8 392d
00000350: 0000 0000 0000 0000 3ef4 552a 0000 0000
00000360: 73f5 382d 0000 0000 0000 0000 0594 522a
00000370: afe4 1b2c 7741 182d 0000 0000 0000 0000
00000380: e644 5a2a 5009 2d2a 387b 432d 0000 0000
00000390: 0000 0000 119d b12a 0c66 392d 2930 6728
000003a0: 0000 0000 0000 0000 d007 b82a 9ff2 4a2c
000003b0: f0dc 212d 0000 0000 0000 0000 f733 ff2a
000003c0: 4bd1 382d 0000 0000 0000 0000 0000 0000
000003d0: 0000 0000 0000 0000 0000 0000 4c23 5f2e
000003e0: 0000 0000 0000 0000 4a8b e92a f794 1b28
000003f0: 7bc2 5e2e 0000 0000 0000 0000 c741 0c2b

exp_avg f4 [128]
2.6492007e-06 2.414642e-07 2.3726861e-05 -8.054756e-06 2.2630633e-05 3.2076634e-06 -8.89807e-06 -1.036135e-05
-3.966078e-06 3.579989e-06 2.4800467e-05 -2.7225137e-06 -1.9062609e-05 7.274829e-07 5.802907e-06 -2.099741e-05
-1.4261157e-05 3.5073316e-07 1.673144e-05 1.1021734e-05 -7.115382e-07 -9.899356e-06 -4.608538e-06 1.4370572e-06
4.1078893e-06 2.5154748e-06 1.7001707e-05 -7.807279e-07 5.9351332e-06 1.1185428e-05 -4.824169e-06 3.1144205e-05
-2.680986e-06 3.2444718e-06 -3.928756e-06 -2.7894787e-06 -8.826264e-06 1.7288829e-05 -6.5336944e-06 7.425857e-07
-1.4528167e-05 -2.4438863e-05 -1.6746008e-05 -1.6537315e-06 -1.3740039e-05 -8.519208e-06 4.4629655e-07 -6.8828426e-06
-2.7899829e-05 3.7183386e-06 1.2060365e-05 1.2079865e-06 -1.0775739e-05 8.909877e-06 1.7013056e-06 -5.1592096e-06
-2.1470787e-05 9.9548215e-06 -2.8299153e-06 -2.1162651e-07 -7.4231934e-06 7.843048e-06 -6.819676e-07 -1.1202439e-05
-8.670319e-06 -4.980533e-06 -1.6334029e-06 3.450373e-05 -1.6425241e-06 3.7625e-05 2.560219e-06 1.399357e-06
-5.0820113e-06 1.41303935e-05 5.438365e-06 2.3625198e-05 9.603575e-07 -1.5748567e-06 5.923213e-06 1.0031812e-05
2.0367585e-05 5.6163144e-06 1.0714231e-07 3.6835831e-06 1.711486e-05 6.0884317e-06 1.7093087e-05 -7.858478e-06
1.6496988e-05 -7.5680655e-06 4.6013965e-06 1.6693577e-05 1.6303367e-06 1.893253e-05 1.7483928e-05 1.3739365e-05
1.5103452e-05 1.062201e-05 -9.1984875e-06 1.724933e-07 5.7480065e-06 1.0797132e-05 9.58087e-06 -8.0446904e-07
1.2733885e-05 -1.9981185e-06 5.577338e-06 1.5184953e-05 2.663698e-06 1.2145701e-05 1.5358844e-05 -5.5369287e-06
-2.3585385e-06 3.5856003e-06 1.6179712e-05 -1.2714709e-06 5.262613e-06 -3.010585e-07 5.9908366e-06 1.4717381e-05
-2.5629131e-05 7.3841684e-06 -1.1359749e-06 -7.3650863e-06 4.674292e-06 1.0396529e-05 -1.517035e-05 8.643691e-06
00000000: ecc8 3136 96a2 8134 0c09 c737 ea22 07b7
00000010: ead6 bd37 3d43 5736 eb48 15b7 a9d5 2db7
00000020: 5a14 85b6 be3f 7036 990a d037 6eb4 36b6
00000030: a4e8 9fb7 3f48 4335 97b6 c236 9823 b0b7
00000040: 3443 6fb7 664c bc34 7e5a 8c37 fde9 3837
00000050: 8800 3fb5 6915 26b7 0aa3 9ab6 e9e0 c035
00000060: 80d6 8936 87cf 2836 e39e 8e37 3693 51b5
00000070: 6826 c736 0ca9 3b37 4cdf a1b6 d6a0 0238
00000080: fdea 33b6 9abb 5936 c2d3 83b6 e132 3bb6
00000090: 8414 14b7 7a07 9137 023c dbb6 1a56 4735
000000a0: 01be 73b7 0f02 cdb7 c779 8cb7 c8f5 ddb5
000000b0: 0585 66b7 b8ed 0eb7 889a ef34 2bf3 e6b6
000000c0: 6d0a eab7 9288 7936 e056 4a37 1a22 a235
000000d0: 72c9 34b7 a17b 1537 6a58 e435 461d adb6
000000e0: 2a1c b4b7 a203 2737 93e9 3db6 743b 63b4
000000f0: bf14 f9b6 a295 0337 7510 37b5 1cf2 3bb7
00000100: bd76 11b7 741e a7b6 4c3b dbb5 19b8 1038
00000110: b374 dcb5 89cf 1d38 3ad0 2b36 8ad1 bb35
00000120: 2586 aab6 9411 6d37 337b b636 ba2e c637
00000130: a2e5 8035 aa5f d3b5 03c0 c636 4e4e 2837
00000140: 0edb aa37 c673 bc36 1c16 e633 7a33 7736
00000150: e291 8f37 3b4b cc36 2063 8f37 e8d7 03b7
00000160: 0363 8a37 30f1 fdb6 b265 9a36 2f09 8c37
00000170: f1d1 da35 4cd1 9e37 73aa 9237 2082 6637
00000180: d564 7d37 3035 3237 3453 1ab7 9936 3934
00000190: 00df c036 5425 3537 86bd 2037 b1f2 57b5
000001a0: 9fa3 5537 6a17 06b6 f824 bb36 e0c2 7e37
000001b0: fcc1 3236 63c5 4b37 ded6 8037 dbc9 b9b6
000001c0: 6247 1eb6 25a0 7036 abb9 8737 68a7 aab5
000001d0: 8095 b036 2aa1 a1b4 e504 c936 acea 7637
000001e0: 24fe d6b7 86c5 f736 cd77 98b5 9c21 f7b6
000001f0: ddd7 9c36 c16c 2e37 2884 7eb7 5f04 1137

exp_avg_sq f4 [128]
3.2080334e-12 1.5727654e-11 5.219659e-10 2.0419766e-10 3.2645633e-10 1.05136915e-11 5.0735683e-11 5.595328e-10
1.8141688e-11 5.0492197e-12 8.068585e-10 4.2888804e-11 4.8426835e-10 3.94728e-12 1.3824143e-10 4.1103987e-10
1.385933e-10 9.450345e-12 2.4718333e-10 1.4688555e-10 1.0364917e-10 1.356534e-10 2.5924226e-11 9.2539925e-12
6.326304e-11 3.871646e-11 1.4544037e-10 5.231294e-11 2.8471464e-10 6.767858e-11 4.975246e-11 8.382195e-10
2.5331504e-10 6.44403e-11 1.8621537e-11 2.4371188e-10 9.0869967e-10 2.2102262e-10 3.2958115e-11 3.3864744e-11
1.10740105e-10 8.8207736e-10 3.721522e-10 1.058103e-12 1.1794385e-10 4.0291354e-11 8.047548e-14 2.7916652e-10
6.5379074e-10 7.264437e-11 2.1355297e-10 2.083728e-11 1.524627e-10 1.6165087e-10 8.8103136e-11 1.3142869e-10
2.4907112e-10 1.2973375e-10 4.2413396e-11 3.5198754e-11 4.2047914e-11 1.9807041e-11 4.480184e-11 6.0295796e-11
2.5150176e-10 3.0646784e-11 1.1366126e-10 7.002754e-10 6.961102e-12 9.540321e-10 7.500637e-11 2.7192195e-11
7.334728e-12 1.1064067e-10 2.7778927e-11 7.595617e-10 1.4091553e-11 7.49196e-12 9.36268e-11 2.4234142e-10
2.8674357e-10 5.386651e-11 4.9451446e-11 1.5166889e-10 3.5380915e-10 3.5548745e-11 1.9016747e-10 7.1723884e-11
1.5513342e-10 5.132449e-11 1.3914616e-11 1.5485306e-10 2.27855e-11 2.410515e-10 1.04513787e-10 2.7822683e-10
1.3982038e-10 2.6549246e-10 1.4096097e-10 4.576874e-14 1.0696487e-11 1.8066527e-10 5.2177934e-10 8.700541e-11
1.5989211e-10 3.2707143e-10 1.1875738e-11 1.6659668e-10 1.8955212e-11 1.6433024e-10 1.0769605e-10 1.4987293e-10
5.1165907e-12 1.7110181e-11 7.6752174e-11 2.87035e-11 4.6139303e-12 8.084973e-13 3.9906634e-11 1.2083796e-10
6.728945e-10 1.4696896e-10 6.931801e-12 3.109071e-11 2.8531207e-11 4.4959227e-11 3.4225725e-10 2.707738e-10
00000000: cbbe 612c 8757 8a2d 167a 0f30 8884 602f
00000010: a578 b32f 75f5 382d 4d23 5f2e 9fcd 1930
00000020: 7393 9f2d 54a7 b12c 9fc9 5d30 80a0 3c2e
00000030: 5b1d 0530 f0e1 8a2c 81ff 172f b8f8 e12f
00000040: 8c62 182f 9240 262d f6e3 872f 9b80 212f
00000050: 4ced e32e 0a27 152f 2b08 e42d 47cc 222d
00000060: ed1d 8b2e dc46 2a2e d3e9 1f2f 2213 662e
00000070: 0686 9c2f a7d3 942e 4ad0 5a2e 7468 6630
00000080: ec42 8b2f aab4 8d2e f9cb a32d 66fb 852f
00000090: 0ec8 7930 5604 732f 8af3 102e 50f0 142e
000000a0: 2385 f32e ad76 7230 c497 cc2f 2eea 942b
000000b0: 3eae 012f 0834 312e f536 b529 3279 992f
000000c0: 6fb6 3330 25bf 9f2e d1cd 6a2f 6249 b72d
000000d0: 6fa2 272f adbc 312f a8bd c12e e381 102f
000000e0: a5ed 882f cea4 0e2f 3d89 3a2e 46ce 1a2e
000000f0: beed 382e 7e39 ae2d 630a 452e 8497 842e
00000100: ba43 8a2f 36c9 062e 9af1 f92e 807d 4030
00000110: 08ec f42c 051f 8330 d5f0 a42e 612f ef2d
00000120: ae08 012d 294d f32e 9558 f42d 67c9 5030
00000130: b6e6 772d cacc 032d 34e3 cd2e 863a 852f
00000140: 92a3 9d2f 4ce8 6c2e 617d 592e ffc2 262f
00000150: 3682 c22f 5458 1c2e 6217 512f f5b8 9d2e
00000160: 2d92 2a2f 3dba 612e dcc9 742d 4343 2a2f
00000170: 626c c82d fc84 842f 08d4 e52e f2f4 982f
00000180: f0bb 192f bef4 912f fcfc 1a2f c41f 4e29
00000190: b22c 3c2d c1a4 462f f56c 0f30 b153 bf2e
000001a0: a1cd 2f2f 36cf b32f 92eb 502d cc2c 372f
000001b0: 58bb a62d daae 342f 7dd3 ec2e 7bc9 242f
000001c0: 2706 b42c b480 962d a2c7 a82e 897a fc2d
000001d0: 9756 a22c 5f92 632b e082 2f2e dddc 042f
000001e0: bef6 3830 1698 212f 1de4 f32c 07bd 082e
000001f0: 91f6 fa2d 97bb 452e 6d28 bc2f 06dc 942f
