results/yamltest/MyAgent/MyAgent-12500.onnx (onnx, 93022 bytes, 7 tensors)

network_body._body_endoder.seq_layers.0.weight f4 [128, 41]
000000 ca 79 6b 3d c3 7d 34 3d e1 43 08 3e 18 3b b7 bd
       0.057489194 0.04406525 0.13307144 -0.08946818
000010 61 9f 09 be fd 41 a1 3c 87 ea d3 3d 57 b3 82 bd
       -0.13439704 0.019684786 0.10347467 -0.063818626
000020 cc 86 2c bd 23 3e 29 be 11 40 83 3e 0e 02 2a 3e
       -0.04212074 -0.1652761 0.25634816 0.16602346
000030 d2 bb 2e be 97 9f 96 bc 76 d6 07 be 32 7d 94 3d
       -0.17063835 -0.018386645 -0.13265404 0.072504416
000040 e0 1d 13 3e b7 95 8b bd 68 83 4c be 92 4e 83 bd
       0.14366865 -0.06815665 -0.19972003 -0.064114705
000050 96 58 33 be da 3b 8b 3d 35 0f 74 3e 1d 9d 6c bd
       -0.17514262 0.06798525 0.23833926 -0.057767022
000060 4a 5e ff 3d 39 d9 8c bc b5 c0 ea 3d bb 97 b1 bd
       0.12469156 -0.017193424 0.11462537 -0.086715184
000070 01 6e 2b 3e 9f 6f e4 3c 16 61 24 3c 76 05 a6 be
       0.16741182 0.027885256 0.010032913 -0.3242604
000080 27 40 87 3d fc 38 00 bd c9 b9 64 3d ed fa c0 bd
       0.06604033 -0.031304345 0.05584124 -0.0942286
000090 31 05 b3 3c 2b 6e c8 3d ef 58 16 be 29 a8 f5 bc
       0.021853061 0.09786638 -0.14682363 -0.029987412
0000a0 06 6a 11 3d f1 1a c8 bd 9c 09 28 3e 5b 7b b6 3d
       0.035501502 -0.09770764 0.16409916 0.08910247
0000b0 9f 44 67 be 52 9a a9 3e 23 58 dd bd 90 b5 24 bd
       -0.2258477 0.3312555 -0.10807826 -0.040212214
0000c0 96 ab 3f bd 69 b9 4e be 5d 8c 01 3d 2a 98 87 bd
       -0.046794496 -0.20187916 0.031628 -0.0662082
0000d0 c8 ff 9d be 4b fa 37 3d 7a e5 14 3d c7 87 3a 3e
       -0.30859208 0.044916432 0.03635166 0.18215857
0000e0 23 78 48 bd fa 7c 1b bc bd 92 85 bd 83 d1 c0 bd
       -0.048942696 -0.009490246 -0.06522129 -0.09414961
0000f0 0d 00 46 3d cb 53 0e 3c de 2b 85 3d f5 5f c5 3d
       0.048339892 0.00868697 0.065025076 0.09637443
000100 ef db e9 ba 35 89 7f bd 72 2f 99 3d ae 6b a5 3d
       -0.0017842035 -0.06238671 0.074797526 0.08077179
000110 90 27 1a be b2 38 3d 3d 83 b9 0f 3e 82 5e 84 be
       -0.15054154 0.046196647 0.14035611 -0.25853354
000120 a6 4a 48 be a4 24 81 bc 66 38 53 bc 70 57 43 3e
       -0.19559726 -0.015764542 -0.012891864 0.19076324
000130 46 fe fd bd 82 5b 9c bd 72 1f 98 bc 3a 3b aa bd
       -0.124020144 -0.07634641 -0.018569682 -0.08312078
000140 e3 4f 63 3e bb 68 c0 3d cc be bf 3d 22 b0 34 3e
       0.22198443 0.09394976 0.093625635 0.17645314
000150 1a fe 9a be 00 1d 0f bc 32 bd 98 be 82 7d 64 3c
       -0.3027199 -0.0087349415 -0.29831845 0.013945939
000160 04 93 7a bc 64 80 52 bc a9 96 ba 3d a9 42 02 be
       -0.01529384 -0.0128479935 0.091107674 -0.12720741
000170 f0 e8 a6 3e 29 ba 99 3c 2d f5 91 3c 84 9b 0b 3e
       0.32599592 0.018765526 0.017817104 0.13633543
000180 c2 e7 38 be b4 1f 99 3d 4f ec 8f 3e 95 fb 4f 3e
       -0.18057159 0.0747675 0.28109977 0.20310815
000190 ff 22 0f be 74 4c b6 bd 60 d0 26 be 6d 7b 9e 3c
       -0.13978194 -0.08901301 -0.16290426 0.019345963
0001a0 14 71 48 bc 48 cf d3 3b a3 c6 47 3e af 8a 40 3c
       -0.012233991 0.006463919 0.19509368 0.011751815
0001b0 a4 11 ca 3e 99 59 b9 be 10 41 29 be ea 0d 32 be
       0.39466584 -0.3620117 -0.16528726 -0.1738812
0001c0 a9 8e 0c 3d 3d c4 a9 bd 94 40 6b 3d 02 69 6a bd
       0.03431574 -0.082893826 0.057434633 -0.05722905
0001d0 32 12 c6 3d 3c 2d c0 be 99 3a 2c be 91 95 2d bc
       0.09671439 -0.3753451 -0.16819228 -0.010594741
0001e0 6e 65 8a 3d e5 ea 1b bb 6b a0 15 be 11 b2 f3 bd
       0.067576274 -0.002379113 -0.14611976 -0.11899198
0001f0 bf 19 04 3e 50 6f 52 3a 0e 37 ff bd 29 80 55 3c
       0.12900446 0.0008027451 -0.12461673 0.013031044
000200 38 ac a7 3e bd cd 0b 3e ee c7 20 be dd be c1 3d
       0.3274858 0.13652702 -0.15701267 0.094602324
000210 d8 56 e8 bd 86 1f 3f 3d 53 17 2d 3e c9 c4 c3 3d
       -0.11344689 0.046660922 0.16903429 0.09559018
000220 8c f5 74 bd 94 0f 97 3e 60 1e aa 3e 24 21 ac 3e
       -0.059804484 0.29504073 0.332263 0.33619034
000230 fd 31 40 3d de 94 85 3d e7 db 3f 3e 03 1f a8 3c
       0.046922673 0.06522535 0.1873623 0.0205226
000240 77 45 c2 3d 29 6c 9b be e4 41 25 3d d4 b8 f3 3b
       0.094859056 -0.30355957 0.04034604 0.0074378047
000250 ff 07 47 3e c8 31 2e be 99 95 c0 bd ea f9 ce be
       0.19436644 -0.17011178 -0.094035335 -0.40425044
000260 bf b2 be 3d 02 72 a0 3c d4 74 a4 bd 11 b4 71 3e
       0.09311437 0.019585613 -0.08030096 0.23603846
000270 7d d3 3d be c8 47 35 bd 47 6d 22 bd 68 4c 41 3e
       -0.18537708 -0.04425791 -0.039654996 0.18876803
000280 87 cc 87 bd 13 a9 82 3d d3 46 37 bb 0c a7 0f 3e
       -0.06630807 0.063799046 -0.0027965799 0.14028567
000290 aa cf fb 3d 10 18 d8 3d ef 6b 54 3d 37 c9 0c 3e
       0.12295468 0.105514646 0.051860746 0.13748632
0002a0 ae 0e 99 3e e2 8f c6 3d b2 ad 66 3d 20 de 3c be
       0.29894012 0.09695412 0.056317993 -0.18444109
0002b0 2a 01 ea bd 3b 2b 30 be bd 53 ef 3d db 07 f8 3d
       -0.11426003 -0.17203991 0.11685894 0.12110873
0002c0 c5 e3 b0 bb 82 bf c2 3c 84 fb 47 be 93 93 bf be
       -0.005398246 0.023772959 -0.1952954 -0.37417278
0002d0 d8 09 2c 3d fd 9a 2a be 43 8e 6b be d2 77 fe 3d
       0.042001575 -0.16660686 -0.23003487 0.12425198
0002e0 3b 1f da 3d cb e7 17 3e de c9 80 3e cb 45 40 bc
       0.10650488 0.14834516 0.25154012 -0.01173539
0002f0 a5 aa 33 be 8f 8e 70 be 1f 39 55 3e 6c 15 16 be
       -0.17545564 -0.23491882 0.20822571 -0.1465661
000300 af b3 ba 3d 72 45 da bd 1a ce 8f bd 3e 6d 39 bc
       0.09116303 -0.10657777 -0.07021733 -0.011317549
000310 9c f2 01 bc 1f 78 2e be e2 03 93 3d 16 d5 bc bb
       -0.007931378 -0.1703801 0.07178475 -0.0057627065
000320 69 b2 49 bd a8 3c 9e 3c a5 99 02 3e a2 a6 04 3e
       -0.04924241 0.019316033 0.12753923 0.1295419
000330 78 74 2f be 92 33 de bd a3 e5 43 3e 55 fd 14 3c
       -0.17134273 -0.1084968 0.19130568 0.009093602
000340 a9 46 06 be 1f de 45 3e 66 ba 39 3e e4 c8 09 3d
       -0.13112892 0.19323014 0.18137512 0.03363885
000350 e9 6d 0b 3c 6c f4 06 3d 3a aa 4d be d6 a7 17 3e
       0.008510091 0.032947943 -0.20084468 0.14810118
000360 21 ca 10 3e 25 93 f7 be 92 28 7b 3d 68 d3 31 3e
       0.14139606 -0.4835445 0.061317988 0.17365801
000370 3c 9f 2a 3e a2 ec d6 bd 06 87 cb 3d 3b 54 bf 3c
       0.16662306 -0.10494353 0.09937863 0.023355594
000380 63 1c 7b bb 24 07 94 bd a9 ab 87 3c 86 d7 5b be
       -0.003831648 -0.072279245 0.016561346 -0.21468934
000390 10 70 17 3e e7 de 4a 3e 38 b4 41 3d 0b c4 3a 3e
       0.14788842 0.19811593 0.04729101 0.18238847
0003a0 90 d8 3b 3e 86 46 35 3e cb ae 7f be 17 3c 00 3c
       0.18344331 0.17702684 -0.24969022 0.007826827
0003b0 91 3f df bd 3a 1f 1e be ae 89 33 3d 21 85 b6 3d
       -0.10900796 -0.154416 0.043832473 0.08912111
0003c0 b2 0c 62 3e 82 03 3d be fd 8d 81 3d 96 d0 68 3d
       0.22075155 -0.1845837 0.0632591 0.056839548
0003d0 d4 6e bf 3c c6 bd 2c bd d6 e6 88 be 90 00 77 be
       0.023368277 -0.04217317 -0.26738614 -0.24121308
0003e0 30 16 08 3e ac b2 74 be 8f b3 ab 3d 18 1c 44 3c
       0.13289714 -0.23896283 0.083838575 0.011969589
0003f0 23 4c 08 bc e3 e2 e7 be c2 0f 0f be fe 77 00 3e
       -0.008318934 -0.45290288 -0.13970855 0.12545773

network_body._body_endoder.seq_layers.0.bias f4 [128]
000000 b0 e8 5c bb 01 44 8b b9 59 cb d6 3a e4 81 19 bb
       -0.0033708028 -0.00026562813 0.0016387507 -0.0023423368
000010 54 ac b7 3a 74 24 c1 b9 96 ce bc ba 6e 07 d8 39
       0.001401315 -0.00036838988 -0.0014404829 0.00041204266
000020 39 03 50 ba e0 20 ef 3a cc 52 bd 3a b9 9e b9 ba
       -0.00079350505 0.001824405 0.0014444231 -0.0014161683
000030 58 7e cf ba 66 d1 50 3b 54 64 8c 3a 8c e9 f0 ba
       -0.00158305 0.0031863092 0.0010711052 -0.0018380149
000040 a8 5f f6 ba 8c 7a f4 ba 94 24 d2 3a 2d b6 07 3b
       -0.0018796818 -0.0018652244 0.001603263 0.002070795
000050 b5 a8 b9 39 95 fb 15 bb ef 37 b0 ba ed ba f8 3a
       0.00035411646 -0.002288555 -0.0013444404 0.0018976607
000060 16 99 3d bb 15 fe a0 3a fb b4 2e 3b bf fd 40 b9
       -0.0028930358 0.0012282754 0.0026658166 -0.00018405075
000070 41 ae 24 3a b0 4f a0 3a d0 3e 45 bb 5a aa 13 3b
       0.00062820694 0.001223078 -0.0030097254 0.0022531957
000080 a1 ed 59 3a 77 70 d6 b9 81 48 42 bb f8 a2 e5 39
       0.00083133025 -0.00040901054 -0.0029645266 0.00043799705
000090 63 7b fd ba 3e 4d 34 3b 68 34 9c ba 48 fe 57 3b
       -0.001933914 0.002751186 -0.0011917474 0.003295796
0000a0 2c 43 4f ba ac 4b be ba 2c 82 29 bb 0c b3 09 b9
       -0.0007906433 -0.0014518402 -0.0025864942 -0.00013132038
0000b0 ee de ef ba 98 c7 3b bb b8 0e 00 3b bb 70 3f 3a
       -0.0018300691 -0.0028652903 0.0019540023 0.000730287
0000c0 f5 7f 0f bb 31 b2 5a 3a 3f 15 d4 38 ef de b2 b9
       -0.0021896337 0.00083425926 0.00010112905 -0.00034116904
0000d0 6d e8 fa ba fd 21 1d 3b 8d a2 a0 b9 20 85 8e 3a
       -0.0019142755 0.0023976557 -0.00030638688 0.0010873415
0000e0 5d 48 c7 ba 9e fe b6 3a 7c 35 e8 ba 0f c4 af 3a
       -0.0015204061 0.001396138 -0.0017716135 0.001340987
0000f0 41 c7 21 bb 97 90 ef 38 55 46 5e bb 90 52 0e bb
       -0.0024685415 0.0001142334 -0.0033916433 -0.0021716692
000100 03 ca 9b ba 36 cb f9 ba 78 80 f1 39 84 a2 d4 3a
       -0.0011885766 -0.0019057754 0.0004606282 0.001622275
000110 7b a3 c1 3a ad c0 da 3a ec 35 34 3b 9a cb 46 3a
       0.0014773452 0.0016689502 0.002749796 0.00075834396
000120 9c 99 1a ba 9c 1a 17 3b d0 01 39 3b c7 be d6 3a
       -0.00058975234 0.0023056632 0.002822984 0.001638376
000130 ef 77 31 3b cb 0c 13 bb a1 b6 2a 3a 79 25 9c 3a
       0.0027079543 -0.0022438045 0.0006512199 0.0011913023
000140 23 51 61 3b 1d d9 57 3a 94 63 f0 39 b3 d5 31 ba
       0.0034380637 0.00082339515 0.0004585056 -0.0006783858
000150 aa b2 a8 39 ab ed 57 3b d3 12 29 3b 39 1b b9 ba
       0.00032176572 0.0032948058 0.0025798574 -0.0014122493
000160 4a b8 e0 3a aa 1b 23 bb 85 26 85 3a 22 a6 0b 3b
       0.0017144766 -0.0024888315 0.0010158574 0.002130874
000170 98 76 55 3a 33 58 43 3a c0 87 e2 3a fd 52 ab 3a
       0.0008142977 0.00074518024 0.0017282888 0.0013070997
000180 04 5a e8 3a 27 af 91 3a fa 81 2e 3a 63 68 93 b8
       0.0017727022 0.0011114822 0.0006656941 -7.02895e-05
000190 4b f4 31 3b 84 01 4a 3b 5e 9d 88 3a 44 ad f5 b9
       0.0027153667 0.0030823657 0.0010422876 -0.00046859134
0001a0 33 5e 32 3b b4 78 a1 ba 0e 8a 0c bb b9 2d 07 3b
       0.0027216792 -0.0012319298 -0.0021444592 0.0020626618
0001b0 5b a4 18 3b ca 67 ea 38 84 15 1f 3b 84 aa f9 ba
       0.0023291323 0.00011177322 0.00242743 -0.001904801
0001c0 b6 26 4b 3a 7a 99 e2 3a 14 36 f1 3a 91 22 4d bb
       0.0007749604 0.0017288171 0.0018402957 -0.003130112
0001d0 ec cf b7 ba 45 71 d0 3a c7 a6 11 3b 6b 55 99 3a
       -0.0014023758 0.0015902898 0.0022224651 0.001169843
0001e0 0f 58 d2 ba 31 f1 9d 3a bc 1f a5 ba f8 d9 df ba
       -0.0016047972 0.001205003 -0.0012597959 -0.001707851
0001f0 55 b4 95 3a ba d6 ac ba bb 2d f2 ba 00 d5 35 ba
       0.0011421541 -0.0013186552 -0.0018476764 -0.00069363415

network_body._body_endoder.seq_layers.2.weight f4 [128, 128]
000000 d2 e5 e3 bc d8 d9 d7 bd c9 2e 82 3b 95 12 28 be
       -0.027819548 -0.10539597 0.0039728624 -0.16413338
000010 e8 be 84 3d 72 36 40 3d 02 f1 8b 3c 86 55 5a 3e
       0.06481725 0.046926923 0.017082695 0.21321687
000020 59 71 31 3d c1 67 2c bd 5e 26 c6 bd da d9 b3 3b
       0.043320987 -0.042091135 -0.09675287 0.0054886164
000030 2a 37 ec 3c 74 01 b1 bc ca 2b 37 bb 5e 0d 19 3d
       0.028834898 -0.021607138 -0.0027949684 0.037366264
000040 01 72 8b 3d 98 75 57 3e d5 1e 92 bd 6d 67 fc bb
       0.06808854 0.21040952 -0.07134787 -0.007702759
000050 30 2b 64 bc 80 8d 46 3e 0e de ac 3c 41 56 5c 3d
       -0.013926312 0.19389915 0.021101978 0.053793196
000060 36 0d 93 3d 47 b5 17 3e fd 90 32 3c 5c 38 06 bc
       0.07180254 0.14815246 0.010898826 -0.008192148
000070 e2 ab c0 3b c1 a5 bb bd 19 18 3c 3d 61 11 02 3d
       0.005879865 -0.091624744 0.04592142 0.031754855
000080 a2 d4 8c 3c 28 6c 24 be 06 fc 59 bd b9 b5 28 bb
       0.017191235 -0.16056883 -0.053218864 -0.002574308
000090 d1 8f 6e 3d 35 f3 84 3c 60 74 58 3d 1b d1 72 bc
       0.058242623 0.016229251 0.05284536 -0.014820362
0000a0 a3 fe 1e 3d 1d eb b5 3b 9c bd 4f 3d fa 5d 80 3d
       0.03881706 0.0055517093 0.050717935 0.062679246
0000b0 8a 72 7b 3d eb 89 d8 bd 58 5c 33 bd 8f 29 dd bd
       0.06138853 -0.10573181 -0.043789238 -0.10798942
0000c0 69 c0 e1 3d 4b b5 c5 bc c9 54 a2 3d 5e 29 b4 bb
       0.110230274 -0.024134299 0.07926328 -0.0054980954
0000d0 ba 68 26 be a5 d2 7f 3d fe 10 8b bd c2 94 12 be
       -0.16250888 0.062456746 -0.067903504 -0.14314559
0000e0 8b f3 1d 3c 53 57 bb 3c 23 1d 83 3d 59 bd 5a 3d
       0.009640585 0.022868788 0.06402042 0.053403232
0000f0 c0 a3 2e bc e4 3d 43 3d 7e 04 0e 3e 5e 3a c4 3d
       -0.010659158 0.047666445 0.13868901 0.09581445
000100 05 d7 09 be 34 ac 05 3e 77 97 f0 3c 6d 88 56 3d
       -0.1346093 0.13053972 0.029369099 0.0523762
000110 3c 17 87 3d c2 61 47 bb e5 6a 89 bc 3b f9 27 bd
       0.065962285 -0.0030423258 -0.016774604 -0.04100917
000120 64 fa 90 bc c3 38 29 be bd 3c c8 bd ed 69 ad bd
       -0.01769752 -0.16525559 -0.0977721 -0.08467469
000130 95 b6 99 bd 05 d1 cb bd 41 1f d0 3d 4d 11 75 bd
       -0.07505528 -0.09951977 0.10162211 -0.059830952
000140 89 4e 82 3c 47 40 cb 3c b5 8d f2 bb b0 60 cf 3c
       0.01590659 0.024810923 -0.0074021467 0.025314659
000150 c1 b7 a5 bd e4 2d 25 3d ae cd 60 3c 7a 6b 74 bd
       -0.08091689 0.040326968 0.013720913 -0.05967281
000160 f2 07 6a bb a8 3a f4 3a 61 93 50 bd 4b 8a fe bd
       -0.0035710302 0.0018633204 -0.0509218 -0.12428721
000170 d3 b0 04 3e 67 07 41 bd fe 43 b4 bd 28 6b 98 3b
       0.12958078 -0.0471262 -0.08802031 0.004651446
000180 94 56 ba 3c eb c8 b3 bd e4 dd 03 3e 61 72 c0 bc
       0.022746362 -0.087785564 0.12877613 -0.02349204
000190 7b 94 7e bd a4 6e 6a 3d 93 a2 bc bd 12 a5 55 3c
       -0.06215332 0.05723442 -0.09210696 0.013039844
0001a0 4c 59 dd bc 9e 0d a8 3b fd 29 90 bc 77 69 eb bd
       -0.02702012 0.0051285764 -0.017598147 -0.11494725
0001b0 08 3b 8a 3d 50 cd f3 bd cd 86 29 bc 29 99 8d bd
       0.067495406 -0.119043946 -0.01034708 -0.069139786
0001c0 8c a9 84 bd ef 1a 5f bd d9 5f 1d 3d 9d d2 e7 bb
       -0.06477651 -0.054469045 0.038421486 -0.0070746676
0001d0 92 54 50 bc 3d 0e 2b bd f8 2e fd bc ba be cc bd
       -0.012715476 -0.041761626 -0.030906186 -0.09997316
0001e0 f8 a2 bd bd 2c 14 d3 3d 92 eb b9 bc 11 60 a5 3d
       -0.092595994 0.10306582 -0.022695336 0.08074964
0001f0 e7 a1 fa 3d 8e 66 a3 3d 44 a6 82 bd e4 15 f8 bd
       0.12237912 0.07978545 -0.06379369 -0.1211355
000200 8f 95 98 3d cc ba 92 ba da 63 ec 3c e7 47 d5 bc
       0.07450401 -0.0011194586 0.028856207 -0.026035262
000210 06 e0 1e 3e 01 b8 3e bd 26 18 06 3d 75 e0 6a 3d
       0.15515146 -0.0465622 0.032737873 0.057342965
000220 63 69 df 3c 88 80 e0 bd 18 d0 91 be c3 a7 02 be
       0.027271932 -0.109620154 -0.28479075 -0.12759309
000230 8f 9c 2d bd 84 46 83 3d 8d 2a ec bb f1 60 46 bd
       -0.042385634 0.06409934 -0.007207221 -0.048432294
000240 80 1d 75 3c 11 63 09 3e aa a4 0a bd 83 77 8a bd
       0.014960647 0.13416697 -0.033848442 -0.06761076
000250 7f f6 1f 3c 04 b4 91 3d 0e 29 f0 bd 06 17 28 bd
       0.009763359 0.071144134 -0.117265806 -0.04103758
000260 ba 8f 23 3d c6 61 00 3e f9 be 76 bd da f8 c7 3d
       0.03993199 0.12537298 -0.06024072 0.097642615
000270 e8 98 50 3d 2d f1 0f be 93 20 ab 3d e2 4d 5e bb
       0.050927073 -0.14056845 0.083558224 -0.0033920933
000280 8d 13 52 3d 57 c9 ba 3c 02 21 2c 3d 90 80 e2 bb
       0.051288176 0.022801084 0.042023666 -0.0069122985
000290 5b ab 64 bd e3 2f b1 bd ef 94 19 bd 25 e0 61 bd
       -0.05582748 -0.08651712 -0.03749555 -0.0551454
0002a0 89 92 12 bb e8 60 c7 bd e9 60 0a bd 14 4b 92 3d
       -0.0022365174 -0.0973528 -0.033783827 0.07143226
0002b0 bd bd 48 3c a9 2c 65 bc 2c d1 a2 3d 2d 0b 63 3d
       0.012252268 -0.013987699 0.079500526 0.05543058
0002c0 5a 9c 63 3d 92 02 90 bc b1 c6 f5 bd 9b 26 43 bd
       0.05556903 -0.01757935 -0.12000788 -0.04764424
0002d0 bd b3 ab 3d c6 e4 1b bd 5f de 77 bd 4f 3d 00 3e
       0.08383892 -0.038059972 -0.060514804 0.12523387
0002e0 e2 40 1c 3d ef 2e b8 bd 5c 66 9f 3d 54 64 15 be
       0.038147815 -0.08993327 0.077831954 -0.14589053
0002f0 93 fc 93 bd 82 04 e6 bb 6d 8d b0 3d 2b ca df bd
       -0.07225909 -0.0070195803 0.08620725 -0.10927232
000300 f7 d5 fb 3c 06 7e 50 bc e6 78 e3 3a e7 70 92 3d
       0.030741675 -0.012725359 0.0017354756 0.07150441
000310 56 dd be 3d 11 93 08 bd be 41 92 3d 38 17 39 3d
       0.0931956 -0.03334338 0.071414456 0.04518816
000320 61 d7 a5 bd 3d 8b 24 bd a0 95 5e bd b3 c4 b7 bd
       -0.08097721 -0.04017185 -0.054341912 -0.08973064
000330 cc 90 de 3d 6c 50 93 bd 51 55 3e bd e1 7c ef bd
       0.108674616 -0.07193074 -0.046468083 -0.11693741
000340 d5 1a 2b 3e c9 62 ff 3c 58 45 ca bd 73 cb ab 3d
       0.16709454 0.031175034 -0.098765075 0.08388414
000350 54 d6 b6 3d 0e 48 11 3d 7f b8 31 3d c0 cc 72 3e
       0.089275986 0.035469107 0.04338884 0.23710918
000360 7a 3d 17 3c 59 09 38 3d 0b fc fa bd d6 1b 65 3d
       0.009230966 0.04493079 -0.12255105 0.05593475
000370 6c 25 19 be e3 0a b6 3d c0 da ae bb 65 2e fe bc
       -0.14955682 0.08888795 -0.0053361356 -0.031027982
000380 4e 0f ad ba 8c 4a 38 3c 6f 80 90 bc ec a4 97 3d
       -0.0013203414 0.011248242 -0.017639367 0.07404503
000390 bf 7f 18 3d 21 8d b0 3c e0 82 b1 3c f8 36 ed bc
       0.037231203 0.02155167 0.021668851 -0.028956875
0003a0 bf 7c bc bb c4 97 a7 3c 89 65 2b bd 7e 17 09 be
       -0.0057521756 0.02045811 -0.04184488 -0.13387868
0003b0 d6 2b 68 3e d4 52 45 be 1c 8c c1 3d 5a f2 d1 3b
       0.22672972 -0.19269878 0.09450552 0.0064070644
0003c0 90 30 e6 3c 52 93 c7 bd 10 c8 87 bd bf 23 9d 3b
       0.028099328 -0.09744896 -0.06629956 0.004795521
0003d0 05 58 7c bd 07 ea 39 3d 68 6f bb 3c 64 05 9b 3d
       -0.06160738 0.0453892 0.022880271 0.075693876
0003e0 2b 7a ef bd 97 c5 31 3d 62 29 0c 3d d0 ac 09 be
       -0.116932236 0.043401327 0.034219153 -0.13444829
0003f0 ed 8e f1 3d a5 4c 0f bd 92 2c 0e 3e d4 9a b9 3c
       0.11794839 -0.034985203 0.1388419 0.022656836

network_body._body_endoder.seq_layers.2.bias f4 [128]
000000 e7 75 b5 3a df 7a c9 ba 09 74 1d 3b 92 1f 8d 3a
       0.0013844342 -0.0015371701 0.0024025461 0.0010766855
000010 f6 9d 84 ba 5e e9 72 ba 39 b8 39 3b c2 87 4c b9
       -0.0010117877 -0.0009266342 0.0028338565 -0.0001950553
000020 33 65 ee ba c7 a8 7b 38 72 26 16 bb 2d 80 09 3b
       -0.0018188119 6.000025e-05 -0.0022911099 0.002098094
000030 b3 9e c7 3a 2f 01 06 ba 41 7e 87 ba fd 08 c9 ba
       0.0015229791 -0.00051118707 -0.0010337309 -0.0015337762
000040 bc 6c 0e bb 3d 77 14 3b c3 55 87 3a 25 0e e9 3a
       -0.0021732291 0.002265408 0.0010325242 0.0017780705
000050 86 ac c5 ba c3 ec ee 3a 59 a6 d4 ba 27 d0 d2 ba
       -0.0015081323 0.001822852 -0.0016223892 -0.0016083763
000060 28 b9 3b b8 fe 6d c3 3a 0d 0e 26 3b 39 f5 ec 3a
       -4.4756714e-05 0.00149101 0.0025337965 0.0018078453
000070 63 2c 1f ba b2 10 c9 3a 98 5d df ba 06 dd 66 3a
       -0.0006071983 0.0015340059 -0.0017041443 0.0008806739
000080 84 73 03 3b e4 5a 24 bb dd 79 f7 3a 9e de 12 3b
       0.0020057866 -0.002507859 0.0018880923 0.0022410522
000090 52 85 d6 3a f3 a9 18 3b da 73 95 ba 30 6c a0 3a
       0.0016366637 0.0023294657 -0.0011402324 0.0012239274
0000a0 54 90 0f 3b 3c 23 0c bb 42 40 d7 3a 4f e7 2e 3b
       0.0021906095 -0.0021383306 0.0016422349 0.0026688164
0000b0 af a0 7b 3a 90 f4 e0 ba f0 39 e3 3a 65 2b 9a ba
       0.0009598834 -0.0017162729 0.0017335992 -0.00117622
0000c0 d6 0c 0a bb 08 8d a8 ba 30 19 75 ba d0 61 ac 39
       -0.002106478 -0.0012859413 -0.00093497615 0.00032879272
0000d0 db aa 02 ba ad 87 c7 3a 4c c0 16 bb 00 cd fc 3a
       -0.0004984566 0.001522293 -0.0023002801 0.0019287169
0000e0 84 1b 31 b9 83 1c 22 bb d0 1b 06 bb 1d 4f e7 3a
       -0.00016890286 -0.0024736233 -0.0020463355 0.0017647479
0000f0 d4 72 b4 3a 37 02 19 bb 47 94 01 3b 73 ec 2c ba
       0.0013767132 -0.0023347267 0.0019772218 -0.0006596513
000100 12 51 03 3b 5e 13 3a 3a d5 e1 56 3a c8 67 3e 3a
       0.0020037335 0.0007098223 0.0008197104 0.00072633894
000110 41 c4 69 3a 2c 85 7f 3a db c9 03 3b ce 18 b0 3a
       0.0008917489 0.0009747322 0.002010933 0.0013435127
000120 e1 4d 67 ba f6 70 c7 ba 7c 72 b2 3a 8d cd ba 3a
       -0.00088235555 -0.001521616 0.0013614441 0.0014251933
000130 78 66 a4 ba 00 72 d3 ba 40 ea 96 ba eb 64 b7 3a
       -0.0012542745 -0.0016131997 -0.0011513904 0.0013991868
000140 05 e5 47 3a 93 a1 32 3b 42 07 86 ba 65 1f 65 39
       0.0007625374 0.002725695 -0.0010225552 0.00021850837
000150 7a a0 83 ba fb 09 dc ba 20 e9 29 3a fd a2 89 b9
       -0.0010042333 -0.0016787642 0.0006481577 -0.00026252112
000160 5b 3f c3 3a 38 9b e4 ba 15 e7 29 3b d6 19 02 3b
       0.0014896201 -0.0017441278 0.002592509 0.0019851825
000170 c6 c1 5d ba 9c 16 04 bb 02 53 4d 3a a7 ad 2b ba
       -0.00084593554 -0.0020155078 0.00078324985 -0.00065490085
000180 5c a1 93 ba 0c e0 87 ba 31 54 d6 3a 6c 68 aa 3a
       -0.0011263299 -0.0010366454 0.0016351995 0.0013001091
000190 f3 76 f9 ba 73 a9 2b ba 21 f0 8c ba a0 42 03 bb
       -0.0019032642 -0.0006548382 -0.0010752716 -0.0020028725
0001a0 e8 be ef 3a ee e0 bc ba 15 67 01 bb 44 69 af 3a
       0.0018291147 -0.0014410296 -0.001974528 0.0013382812
0001b0 10 11 1d 39 06 3f 65 b9 f2 3f d6 3a ea cd 21 3b
       0.00014979043 -0.0002186262 0.0016345961 0.0024689385
0001c0 0d 29 fa 3a 5c a5 06 3b 07 9b 1e bb d8 f8 82 ba
       0.001908572 0.002054534 -0.002420129 -0.0009992374
0001d0 04 b3 05 3b 2d 34 83 3a 7e 8e f4 ba 0b cc 77 3a
       0.002040089 0.0010010056 -0.0018658189 0.0009452707
0001e0 7f 50 20 bb b6 30 0a 3b c3 2a c0 39 63 49 c4 38
       -0.0024462042 0.0021086163 0.00036652954 9.359678e-05
0001f0 ef fc 47 3a f8 11 c3 ba da 8e 9d 3a 69 84 f5 ba
       0.00076289376 -0.0014882674 0.0012020722 -0.0018731478

action_model._continuous_distribution.log_sigma f4 [1, 2]
000000 f0 28 03 3b 0e e3 a2 bb
       0.0020013414 -0.0049709147

action_model._continuous_distribution.mu.weight f4 [2, 128]
000000 f7 84 28 bc d8 20 b7 bc e3 72 52 3c 87 88 87 bc
       -0.010285608 -0.022354528 0.012844774 -0.016544593
000010 73 1b 0d 3c 6e 0a a2 3c e3 48 9b 3b 47 6e 53 3c
       0.008612501 0.019780364 0.0047389134 0.01290471
000020 c1 e4 4b bc 3b e0 97 bc e5 f7 8c 3a b3 71 03 3d
       -0.012444676 -0.018539539 0.0010755031 0.032090854
000030 68 cb a9 3c e5 ec 9d 3c ea fb 8f 3c b6 f5 6c 3c
       0.020726874 0.019278 0.017576177 0.014462879
000040 49 c8 1b bb f4 22 a2 bb f9 c6 dd bb 4c b4 5c 3b
       -0.0023770502 -0.0049480144 -0.006768104 0.0033676801
000050 c3 46 14 3c b1 8d 03 3c 1a c3 a2 3b d1 cc 58 3b
       0.009050074 0.008029387 0.0049671056 0.0033081064
000060 04 95 bd 3c b1 fc 92 3c f7 7c d6 3b 48 14 98 3c
       0.023142345 0.017942758 0.0065456587 0.018564358
000070 79 b0 dc 3c f1 a6 ab bc 69 c4 e8 bc b4 d8 12 bc
       0.026939617 -0.020953627 -0.028413968 -0.008962799
000080 14 89 ab bb 53 e7 ad bc 17 27 15 3c fa cd 7e 3c
       -0.005234847 -0.021228468 0.009103558 0.015552038
000090 32 1f 9e bb b4 dc 14 3c df bf 17 bd 30 a8 87 3c
       -0.004825496 0.009085823 -0.037048217 0.01655969
0000a0 ea d8 d2 3a 6b ee f7 3a a7 ad 46 3c f1 c8 14 3b
       0.0016086374 0.0018915659 0.012126363 0.0022702778
0000b0 e6 ee 09 3d 64 48 46 bc 66 d9 ba bb 1e 86 1e 3c
       0.033675097 -0.01210222 -0.0057021854 0.009675531
0000c0 37 ba 4a bb 73 ab 21 3c de 19 a1 3c 50 2a 8f bb
       -0.0030933747 0.009867537 0.019665655 -0.0043690577
0000d0 fa b3 05 3d d1 fd d4 3c 41 bf fb ba 68 94 8a ba
       0.032642342 0.025999935 -0.0019206778 -0.0010572793
0000e0 0c 10 b5 bb 4d 80 35 bc 5c 68 11 bc 75 15 5a 3c
       -0.0055255946 -0.011077953 -0.008874979 0.01331078
0000f0 b8 a4 19 bc 04 09 99 bc c6 a3 4d bb 18 23 ab bb
       -0.009377651 -0.018681057 -0.0031378134 -0.0052226894
000100 a9 33 4f 3b f1 b3 b2 3c 34 c9 7f 3c 90 88 47 3c
       0.0031616485 0.021814318 0.015611935 0.012178555
000110 b7 72 55 3c 94 f4 9b 3c 6d 42 b7 3b 0d 76 bd b9
       0.013027838 0.019037522 0.0055926354 -0.00036136844
000120 a1 8d 21 3c c3 68 af bc e6 9c 08 3d 41 e9 2c 3c
       0.009860427 -0.021412259 0.033352755 0.010553659
000130 75 34 07 3c 17 3f 86 3c 12 16 b7 bc 3b 92 43 bc
       0.008252253 0.016387505 -0.022349391 -0.0119367195
000140 a1 e8 4a 3b 63 0c c9 3c 55 94 19 3b ef 77 cc bc
       0.0030961412 0.02454204 0.002343436 -0.024959533
000150 ee 33 7a bc 72 31 7b 3b 37 6b a9 3c d6 b6 fc 3b
       -0.01527117 0.0038329032 0.020681007 0.0077122254
000160 15 81 e6 3b ec 9e 09 3c 69 04 c5 3c 6a 30 5c 3c
       0.0070344307 0.008399706 0.024049954 0.013439277
000170 2e d2 bb 3c e4 c7 d4 bb 12 11 95 3c 2a 2e b0 3c
       0.02292737 -0.0064935554 0.018196616 0.021506388
000180 ed 8a e2 bc 8d c0 0c 3d 06 81 16 bc fd 9c c2 3c
       -0.027654136 0.03436332 -0.009186035 0.023756498
000190 59 06 09 3c ec c4 f7 bc bd 43 30 3c a1 fb 04 bd
       0.00836333 -0.030245267 0.010758338 -0.032466535
0001a0 2e 5e 5f 3c 55 ca e1 bb b0 7a 99 ba ca 5d a4 bb
       0.013633294 -0.006890575 -0.0011709537 -0.0050160633
0001b0 78 3c a6 bc 92 2b c2 3c ff 89 bf bc 7e 34 2c 3b
       -0.020292506 0.023702417 -0.023381231 0.0026276405
0001c0 93 81 73 39 42 fe 55 3c 53 c2 08 bb ee 15 1d bc
       0.00023222556 0.013061108 -0.002086778 -0.009587748
0001d0 d6 f9 52 3b 65 d3 9a 3c 5d e1 eb bc f5 e7 4a 3c
       0.003219237 0.018899629 -0.028793985 0.012384404
0001e0 77 24 89 bc 6e 7a c0 bb 33 62 43 bc c6 1d 17 3d
       -0.01674102 -0.0058739698 -0.011925268 0.03689363
0001f0 8f f6 a0 bc 63 8d 4d bc 43 eb 55 3c 54 83 62 3b
       -0.019648818 -0.012545916 0.013056579 0.003456314
000200 b3 32 30 bc f4 78 d1 3b d2 0e dc bc c7 c2 94 bc
       -0.010754275 0.0063925926 -0.026862536 -0.018159283
000210 3a 95 9e 3c 99 1a 8c 3c 2c a2 4c bc ce 58 61 3a
       0.019358266 0.017102527 -0.012489837 0.0008596302
000220 a5 c6 59 3c 9d 32 09 bb 5d c9 8f 3c 81 94 45 bd
       0.013291989 -0.002093471 0.017552072 -0.048237327
000230 85 41 0a bc ec 54 5f 3b d0 8e c3 3c aa 3f 29 3c
       -0.008438473 0.0034077717 0.02387181 0.01033012
000240 e9 ca 3f 3c 55 2a da bc 9a bd 79 bb fc 3f 88 bc
       0.011706092 -0.026631514 -0.0038107396 -0.016632073
000250 f2 6c 26 3c 61 f5 ab bb ee de e8 3a 73 7c 38 3c
       0.0101578105 -0.0052477573 0.0017766634 0.01126014
000260 c4 ae 25 3b cf c4 a4 bb 9f 0b 1c bc 79 da 0e bc
       0.002528117 -0.005028344 -0.009524255 -0.00871908
000270 82 2d 5f 3c 53 6f 30 bd 19 2c 8c 3c 26 16 0e bc
       0.01362169 -0.043074917 0.017110871 -0.008672273
000280 37 0e d8 bc 86 aa 8e 3c 49 10 cf bb a0 5c b7 bc
       -0.026373966 0.017415296 -0.00631908 -0.022383034
000290 db 17 88 bb 71 3b 7d bc e6 b7 ab 3b 0e ea 6b bb
       -0.0041532344 -0.0154560665 0.0052404283 -0.0035997662
0002a0 92 8b 09 bc 5f 31 92 3b 85 45 d5 bb c9 0d 5a bc
       -0.008395093 0.004461452 -0.0065085315 -0.013308951
0002b0 bf 46 8b 3b 91 89 c6 3c 95 64 a5 bc 5a fa 7d 3c
       0.004250377 0.024235519 -0.020189563 0.015501583
0002c0 0d 0f cc 3c e2 98 a5 3c 83 bc 76 3c c5 6c 86 bb
       0.02490952 0.020214502 0.015059593 -0.004102322
0002d0 0f 47 65 3c 0a 97 a8 bb 07 f6 10 3c b1 ea 06 bc
       0.0139939925 -0.0051449584 0.00884772 -0.008234666
0002e0 aa b3 fa 3a bb 6c c7 3c 28 9f 3e 3c 7c 5a 0b bc
       0.001912703 0.024343839 0.0116346255 -0.00850546
0002f0 6d df 93 bc 62 31 01 3d 82 ec 22 bc 6b d0 9f ba
       -0.018050874 0.031541236 -0.009944083 -0.0012192851
000300 1d 2d 42 bc 47 85 06 3b 80 c4 e0 3a ec 51 d7 3a
       -0.011851576 0.0020526217 0.0017148405 0.0016427613
000310 50 79 07 3b a2 47 43 3b a9 33 4f bc 83 98 54 bb
       0.0020671673 0.0029797335 -0.012646594 -0.0032439537
000320 6c a6 e7 3b 92 ef e3 3b 6e f7 d2 ba 36 21 4f bb
       0.0070693996 0.0069560492 -0.0016095468 -0.0031605489
000330 4b 88 94 3c f9 2b d5 3c b5 ac 88 39 f0 ea a5 bc
       0.018131396 0.026021944 0.00026068618 -0.020253628
000340 c5 eb 82 3b bd 02 52 bd 9d 2e c5 3b fb e5 d3 bb
       0.003995391 -0.051272143 0.0060175196 -0.006466625
000350 0f 2e ed 3a 6f fa 89 3c 6c e2 c2 3a 13 ae 07 3c
       0.0018095392 0.016843049 0.0014868504 0.008281249
000360 a3 e1 a3 b8 a4 58 12 3d 03 94 81 bd b7 58 4c bc
       -7.814474e-05 0.035729066 -0.06327059 -0.012472323
000370 21 99 88 3c 37 e9 d3 3c 73 b3 70 3a 29 af 31 3d
       0.01667458 0.025868041 0.00091820135 0.043379936
000380 34 b3 85 b8 3c 10 b6 3c 14 e7 08 bd e7 ce 80 b9
       -6.3753134e-05 0.022224538 -0.0334235 -0.00024568217
000390 75 48 99 3c d3 89 63 bb 24 2d f8 3b 39 45 95 3c
       0.018711308 -0.00347196 0.0075737406 0.018221484
0003a0 14 9a 88 bb fb 5a 3f 3a 67 e3 91 3c 2f 40 29 bc
       -0.004168758 0.0007299629 0.01780863 -0.010330244
0003b0 c5 3d 75 bb 57 40 b7 3b 51 f7 28 bd bf 7d 3c bc
       -0.003742085 0.0055923867 -0.041251484 -0.01150459
0003c0 c6 b5 12 bc 7f 8a 6f bc 3f 2c a7 3b 62 f7 26 3b
       -0.008954471 -0.014620422 0.00510171 0.0025477041
0003d0 7e d3 8b bc c4 04 65 ba 47 db 27 3c 2d cf f5 3a
       -0.01706862 -0.0008736367 0.010245151 0.001875376
0003e0 ea fc 40 3c a4 50 9f bc 88 c6 d1 bb 1f 63 5d 3c
       0.011779049 -0.019447632 -0.0064018406 0.013512402
0003f0 64 68 4e bc b6 b3 c7 3b b3 dc 25 3b e5 01 a8 3b
       -0.012598131 0.0060944213 0.002530855 0.005127179

action_model._continuous_distribution.mu.bias f4 [2]
000000 c5 7c 87 3a 9a 96 02 bb
       0.0010336867 -0.0019926191
