Assets/results/2/MyAgent/checkpoint.pt (torch, 533794 bytes, 36 tensors)

network_body._body_endoder.seq_layers.0.weight f4 [128, 36]
0.16112065 -0.3957165 0.117241405 -0.34114474 -0.23870239 0.18502156 0.16621314 -0.24283424
0.04852001 -0.1167998 -0.1550846 -0.03579178 0.08306897 -0.116274044 0.1854072 -0.08461575
0.062420547 0.008749998 0.19321373 0.23010476 -0.31342825 -0.14223361 -0.016447209 -0.011300411
0.24398814 -0.00031648856 -0.25093296 0.07969606 -0.077190414 -0.08244017 -0.011658747 0.11497609
0.09010258 -0.10467102 -0.008491995 -0.05687827 0.2678669 0.18825458 0.12064689 0.13939956
-0.10686972 -0.45898414 -0.33958313 0.17029342 0.04066048 -0.2404019 -0.15591648 0.06520053
-0.18255252 0.09240802 -0.117102794 0.15000178 -0.091065764 0.0110310335 -0.16514796 -0.22512233
0.22004999 0.09004938 0.10072159 0.033012398 0.19276795 -0.09992586 0.05275994 -0.15984875
-0.2922665 0.1684921 0.013444489 -0.005269674 0.23077619 -0.0892286 0.10837026 0.0711128
0.44968182 0.02054806 0.13612397 0.23194817 -0.002781353 0.17425875 0.037797876 -0.13839531
-0.24254239 0.16736577 0.20191161 -0.23894806 0.040752847 0.160889 0.02312064 -0.102137476
0.04298778 0.2665384 0.048666175 -0.042869817 -0.19427747 0.30994737 -0.011019173 -0.058036577
0.20220968 0.09840613 0.28711894 0.24861425 -0.037962407 -0.035568237 -0.35852993 -0.3423874
0.026139434 -0.19204162 0.18359911 -0.09773837 -0.012249025 -0.0019476624 0.0049168444 0.36593875
-0.03601015 0.030837059 0.018651852 -0.21022694 0.28074497 -0.111553006 -0.020834459 -0.18746638
-0.051079974 -0.070590675 -0.0022777484 0.029351195 -0.07549434 -0.20754069 0.07987194 -0.15491763
0.17453456 -0.22193535 0.044133853 0.35866457 0.015466597 0.027724873 -0.086974904 -0.04091699
-0.22852254 -0.26147178 0.037868053 -0.038408495 -0.053910464 0.057060696 0.1966062 0.09220103
-0.058914404 -0.3619667 0.26408374 0.05689804 0.1251979 0.17303447 -0.06917919 0.010829544
-0.10906365 -0.0889337 -0.007950595 -0.14923202 -0.12191298 0.19826716 0.0033528202 -0.036198232
-0.17982695 -0.112927034 0.0065827416 0.24661545 0.16264223 0.094859585 -0.06268124 -0.18686621
0.17322375 -0.18829918 0.0713682 0.01904115 0.025958665 0.053601988 0.11662223 -0.12630452
0.11539765 -0.07305071 0.22566213 0.11319333 0.016216425 0.09051718 -0.16100432 -0.29909316
-0.019314142 0.08666451 -0.026381847 0.056943305 0.009918056 -0.26817113 -0.21521053 -0.07127313
0.005159617 -0.27129912 0.0047581913 0.03561432 -0.10474885 0.13693368 -0.088670045 -0.18220206
-0.070175596 -0.12234566 -0.08686292 0.2554447 -0.20662887 0.22761987 0.033237193 0.13068306
0.42579612 -0.26819637 0.037794385 0.1827767 -0.058953997 0.28916687 -0.03424351 -0.04936602
-0.018995512 0.21127135 -0.014079958 0.093904816 -0.18345764 0.12807581 0.032675304 0.025545752
-0.03201618 0.0035057557 -0.0011067078 -0.10544873 0.33126652 0.190635 0.12323278 -0.20251176
-0.09145487 -0.10611412 0.08343986 -0.16985881 0.3517855 -0.008546182 0.06210668 -0.15217227
-0.06485167 0.0034557353 0.29642498 0.21421826 0.058147393 0.1693425 0.10469849 0.07042494
0.05252198 0.11518346 -0.16191693 -0.25351936 -0.06028089 0.046744157 0.23250811 0.23932958
00000000: d0fc 243e 5a9b cabe 431c f03d 86aa aebe
00000010: 666e 74be 4b76 3d3e c733 2a3e 8aa9 78be
00000020: ebbc 463d bc34 efbd 7fce 1ebe 679a 12bd
00000030: 1020 aa3d 1621 eebd 63db 3d3e 064b adbd
00000040: b0ac 7f3d 275c 0f3c d2d9 453e 95a0 6b3e
00000050: ab79 a0be b0a5 11be 4cbc 86bc 5c25 39bc
00000060: 07d8 793e 60ee a5b9 497a 80be b037 a33d
00000070: 0216 9ebd 64d6 a8bd 5404 3fbc 9678 eb3d
00000080: b487 b83d c25d d6bd 0222 0bbc 30f9 68bd
00000090: da25 893e cfc5 403e b715 f73d c2be 0e3e
000000a0: 83de dabd f8ff eabe d7dd adbe 6661 2e3e
000000b0: 9a8b 263d ea2b 76be 92a8 1fbe db87 853d
000000c0: 0cef 3abe 6a40 bd3d 97d3 efbd 119a 193e
000000d0: b080 babd 82bb 343c 8c1c 29be 7886 66be
000000e0: c954 613e cf6b b83d 1f47 ce3d 0238 073d
000000f0: f664 453e eea5 ccbd cf1a 583d 64af 23be
00000100: f4a3 95be 3189 2c3e 4646 5c3c 3bad acbb
00000110: 9850 6c3e 7cbd b6bd 3af1 dd3d 96a3 913d
00000120: b23c e63e 6854 a83c 1564 0b3e d283 6d3e
00000130: 5c47 36bb e370 323e f2d1 1a3d 80b7 0dbe
00000140: 085d 78be ef61 2b3e ebc1 4e3e cdae 74be
00000150: 75ec 263d 16c0 243e 7f67 bd3c 742d d1bd
00000160: f413 303d b977 883e 2f56 473d 4398 2fbd
00000170: acf0 46be 6cb1 9e3e c389 34bc c3b7 6dbd
00000180: 0e10 4f3e 2789 c93d 4101 933e bc94 7e3e
00000190: 787e 1bbd 00b0 11bd 3c91 b7be 674d afbe
000001a0: 5e22 d63c 8fa6 44be 6801 3c3e 0e2b c8bd
000001b0: 22b0 48bc b548 ffba 7b1d a13b 535c bb3e
000001c0: 617f 13bd 009e fc3c c5cb 983c bb45 57be
000001d0: cebd 8f3e e775 e4bd 07ad aabc 30f7 3fbe
000001e0: 3c39 51bd d891 90bd 4746 15bb eb71 f03c
000001f0: c79c 9abd 8c85 54be e693 a33d baa2 1ebe
00000200: 30b9 323e 0543 63be b3c5 343d e2a2 b73e
00000210: 9c67 7d3c 461f e33c e61f b2bd 9398 27bd
00000220: d001 6abe a1df 85be 881b 1b3d 3a52 1dbd
00000230: 38d1 5cbd 7ab8 693d 2353 493e e5d3 bc3d
00000240: 3b50 71bd b353 b9be fc35 873e eb0d 693d
00000250: e133 003e f32f 313e d2ad 8dbd 666e 313c
00000260: c35c dfbd df22 b6bd 3643 02bc 47d0 18be
00000270: 83ad f9bd 8c06 4b3e fdba 5b3b 9944 14bd
00000280: 8e24 38be 4a46 e7bd 0ab4 d73b c388 7c3e
00000290: af8b 263e be45 c23d 065f 80bd db59 3fbe
000002a0: 9161 313e 80d1 40be 7e29 923d 30fc 9b3c
000002b0: 44a7 d43c c28d 5b3d a3d7 ee3d f955 01be
000002c0: 9a55 ec3d 9c9b 95bd f913 673e e8d1 e73d
000002d0: 4fd8 843c 1261 b93d 51de 24be bd22 99be
000002e0: b138 9ebc 2a7d b13d be1e d8bc 623d 693d
000002f0: 587f 223c ba4d 89be 2660 5cbe a6f7 91bd
00000300: 0112 a93b b8e7 8abe 9aea 9b3b 52e0 113d
00000310: 9186 d6bd 5838 0c3e a498 b5bd 2d93 3abe
00000320: 39b8 8fbd 5d90 fabd 30e5 b1bd a6c9 823e
00000330: 8596 53be 2f15 693e b923 083d c8d1 053e
00000340: f301 da3e 0951 89be 49ce 1a3d d129 3b3e
00000350: bf79 71bd ae0d 943e ec42 0cbd 0634 4abd
00000360: 7a9c 9bbc 8457 583e a0af 66bc 2b51 c03d
00000370: 52dc 3bbe 4e26 033e 8ad6 053d 5345 d13c
00000380: 6623 03bd d2c0 653b f40e 91ba 81f5 d7bd
00000390: c49b a93e d235 433e 7861 fc3d 3e5f 4fbe
000003a0: b14c bbbd 5c52 d9bd 84e2 aa3d 78ef 2dbe
000003b0: 3b1d b43e 4905 0cbc 9363 7e3d 0cd3 1bbe
000003c0: f4d0 84bd 9e79 623b 04c5 973e 085c 5b3e
000003d0: f62b 6e3d 1f68 2d3e 296c d63d f33a 903d
000003e0: 4a21 573d 4ee5 eb3d 8dcd 25be 4acd 81be
000003f0: 18e9 76bd cd76 3f3d 9b16 6e3e d012 753e

network_body._body_endoder.seq_layers.0.bias f4 [128]
0.0017285821 -0.0010848236 -0.001286235 -0.0019914513 0.0005480103 -0.00046668923 0.0006334996 -2.218338e-05
2.5333415e-05 -0.0007166569 -0.0005452328 -0.00052283145 -0.0020226531 -0.0010454995 0.001770696 0.001303675
0.0006172596 -0.0012510065 0.00041332628 0.0013724508 -0.0002792708 0.0005974507 0.0005818538 -0.00044807608
-0.00073279964 0.0009792423 -0.0008998037 -0.004195799 -0.0007414966 -0.0010867546 -0.0011743284 -0.0014674045
-0.0031251556 4.5189554e-05 -0.00023806251 -0.00089000334 0.001123091 0.0002649421 -0.0006005637 -0.0016853875
0.0006895097 0.0010518037 0.0008178259 0.0007777024 0.0012799561 -0.00012464 0.0022553534 -0.00011128192
0.00038919956 0.001075152 -0.0035904895 9.7573604e-05 -0.0008339747 0.0013332731 -0.0013011728 -0.0016464996
-0.0015492677 0.0009665993 -0.0020101902 0.00071474264 -0.000670059 0.00030199107 0.0018187623 0.0055785775
0.00045277624 0.0003454653 -7.247374e-05 -0.0014283606 -2.3076584e-05 0.00037223462 0.0010033028 0.0016898084
0.0006006909 -0.00090933597 -0.0010082822 0.00013047225 0.000604338 0.00012904468 -0.00028030993 -0.0008734458
0.00016006849 -0.0008212006 -0.002167666 0.0005267164 -0.0006511499 0.0012048191 -0.00030036923 -0.00065071805
-0.0007329552 -2.2768165e-05 -0.0017685357 -0.0014681572 -0.00024216788 6.7750036e-05 -0.00046234403 -0.00120946
0.00020257958 -6.63388e-05 0.00043077013 0.00088258553 -0.0009333244 -0.00020243235 0.002280948 -0.00035698534
0.0012101876 0.0012366534 0.0012697623 0.00053415354 -0.00033332585 -0.00090291584 -0.0022683756 -0.0011255959
-0.0010733785 0.0006580512 -0.00074512407 -0.0008105773 -0.00086449314 -0.0011676451 0.0010958364 -0.0008295556
-0.0023089 0.00040481373 -0.0016447646 0.0011874196 0.0005070437 -0.0021574565 0.0005782778 0.001956039
00000000: 9791 e23a a430 8eba e396 a8ba 0283 02bb
00000010: 59a8 0f3a f8ad f4b9 7011 263a 7216 bab7
00000020: 1883 d437 08de 3bba f4ed 0eba a00e 09ba
00000030: 7d8e 04bb 2409 89ba b316 e83a 13e0 aa3a
00000040: 97cf 213a d0f8 a3ba b7b3 d839 cfe3 b33a
00000050: 186b 92b9 3d9e 1c3a 8c87 183a c1eb eab9
00000060: 5a19 40ba eb59 803a cee0 6bba ea7c 89bb
00000070: ff60 42ba 6f71 8eba eceb 99ba ed55 c0ba
00000080: 69cf 4cbb ea89 3d38 6ba0 79b9 1d4f 69ba
00000090: ae34 933a ede7 8a39 266f 1dba 38e8 dcba
000000a0: 36c0 343a addc 893a 5e63 563a b9de 4b3a
000000b0: 33c4 a73a ccb1 02b9 8dce 133b 0760 e9b8
000000c0: 7b0d cc39 1dec 8c3a 6b4e 6bbb 6ea0 cc38
000000d0: 189f 5aba 39c1 ae3a 1d8c aaba 5ccf d7ba
000000e0: cc10 cbba 6263 7d3a 65bd 03bb 915d 3b3a
000000f0: e6a6 2fba 8e54 9e39 8963 ee3a 80cc b63b
00000100: 9962 ed39 911f b539 0bfd 97b8 d437 bbba
00000110: 9694 c1b7 7c28 c339 4181 833a 907c dd3a
00000120: af77 1d3a 8160 6eba 5628 84ba 61cf 0839
00000130: 706c 1e3a 2b50 0739 90f6 92b9 f5f7 64ba
00000140: 0fd8 2739 d745 57ba 670f 0ebb 5713 0a3a
00000150: eeb1 2aba 05eb 9d3a e07a 9db9 f394 2aba
00000160: ca23 40ba 43fe beb7 36ce e7ba 2e6f c0ba
00000170: 72ee 7db9 0615 8e38 c466 f2b9 be86 9eba
00000180: 8b6b 5439 5f1f 8bb8 fdd8 e139 505d 673a
00000190: 57aa 74ba 0544 54b9 f57b 153b c329 bbb9
000001a0: 289f 9e3a 3417 a23a 276e a63a 7006 0c3a
000001b0: 3dc2 aeb9 a8b1 6cba 07a9 14bb bb88 93ba
000001c0: 9bb0 8cba 1281 2c3a 6e54 43ba ec7c 54ba
000001d0: 279f 62ba ab0b 99ba 2ba2 8f3a 8976 59ba
000001e0: ea50 17bb 2e3d d439 2495 d7ba 31a3 9b3a
000001f0: 20eb 043a 1d64 0dbb 9197 173a e430 003b

network_body._body_endoder.seq_layers.2.weight f4 [128, 128]
0.12765619 0.011973009 0.056914203 0.057362452 -0.04160519 0.03573489 0.037273932 0.03419131
0.05390904 0.1115359 -0.076800585 -0.0032587263 -0.011537279 -0.057516538 -0.003824623 0.06707412
-0.0014547752 0.09345679 -0.10246416 0.20829393 -0.14433533 0.015795521 -0.06349882 -0.09730339
-0.038049083 -0.1491526 -0.013176088 0.12363969 0.119067244 -0.07833367 0.27477992 -0.024435462
0.0071802596 -0.08718743 -0.14208832 -0.05359715 -0.12898104 -0.14195257 -0.0066895806 0.14375381
-0.092245676 -0.047647454 -0.14848542 0.078989275 -0.094298914 -0.0024871083 0.02349483 0.03867103
0.059620377 -0.10471314 0.04728194 0.12253517 -0.11118726 -0.17056128 0.11800464 0.040057886
-0.032668985 0.09282748 -0.09528831 -0.027621944 -0.030676033 0.039994754 0.0620622 -0.016072275
-0.071331844 0.02442416 0.07082954 -0.09003845 -0.111028664 -0.043380834 0.020802116 0.11891333
0.0019003027 0.06767399 0.09359479 -0.08670791 0.0015729569 -0.0100674955 -0.06998942 -0.026347537
-8.232916e-05 -0.022330083 0.10555291 0.066333145 0.020204064 0.1381662 0.029712131 -0.033673536
-0.006470691 0.007555926 -0.10359662 0.12507723 -0.034232285 0.06486426 -0.059327807 0.096918106
-0.01013948 -0.06840165 0.042191993 0.044109408 0.18257688 -0.029790701 0.062072765 -0.020699797
0.022634398 0.124132015 0.027445404 0.10076497 0.007911051 0.009192777 0.058406048 0.10497773
0.06379341 -0.031082306 0.077214375 0.09648732 0.013245295 0.07494069 0.015529099 0.08277711
0.026539812 -0.10739086 -0.01629302 6.109502e-05 0.045669846 -0.23535569 0.16047743 0.0046824133
0.0056856307 -0.09247799 0.053695936 -0.08589637 -0.07840361 0.2097181 0.10534832 0.06569974
-0.004600498 0.08602028 -0.05892957 0.104501374 0.02441847 -0.19995666 0.1557556 -0.06730326
-0.10816139 -0.00822101 0.07196159 -0.046682037 -0.092583776 0.17412567 0.19351363 -0.029550685
-0.09900003 -0.03199119 0.12653284 -0.010323738 0.021477466 -0.014034433 -0.0362241 -0.11273149
0.031909596 -0.07206958 0.20847054 0.09442834 -0.046701368 0.010317578 -0.2329407 -0.076358564
-0.00042029083 -0.06260852 0.003316586 -0.044829044 -0.05907422 -0.11240871 0.07676334 0.038283676
0.18352339 0.10319913 -0.020975448 -0.069627196 -0.047541685 0.072416015 -0.061131105 0.04007656
0.06532953 0.005866412 -0.066716306 0.053729124 0.020745412 0.030867541 -0.115323536 -0.0047517307
0.114497446 -0.030117517 0.067585275 -0.01858022 -0.008589354 -0.034126904 -0.02946433 0.051742222
-0.03130643 0.11311356 -0.10564401 0.03907809 -0.11901627 -0.16312054 -0.0359035 -0.04383819
-0.037223585 -0.057955287 -0.22784442 0.040787425 -0.10559489 0.028132811 0.02081568 0.058467582
-0.09275476 0.09367086 -0.0064379703 -0.12449935 -0.10433763 0.005582539 0.0017353805 -0.04083215
0.0014506805 0.08928335 0.036300827 -0.060981713 0.03753096 0.087826364 0.02999375 -0.05491132
0.04133768 -0.0015994146 0.01945012 0.09547264 -0.0062701153 -0.13811849 -0.096954115 -0.09830067
0.10822352 0.19371592 0.042420182 0.024990257 -0.079772726 -0.01981302 -0.063342005 -0.04874697
-0.09660603 0.0104416525 -0.0070948494 -0.030554455 -0.1385843 -0.012192494 -0.1039267 0.14915214
00000000: 4eb8 023e 712a 443c de1e 693d e4f4 6a3d
00000010: 346a 2abd bf5e 123d 8dac 183d 300c 0c3d
00000020: bacf 5c3d ef6c e43d a049 9dbd 5b90 55bb
00000030: db06 3dbc 7696 6bbd 87a6 7abb 285e 893d
00000040: 28ae beba 4666 bf3d bbd8 d1bd 014b 553e
00000050: a4cc 13be 9c65 813c ab0b 82bd 0047 c7bd
00000060: 5bd9 1bbd 76bb 18be 85e0 57bc ce36 fd3d
00000070: 87d9 f33d 676d a0bd f4af 8c3e e12c c8bc
00000080: 6248 eb3b 538f b2bd 9a7f 11be af88 5bbd
00000090: 9b13 04be 045c 11be 4534 dbbb 3334 133e
000000a0: 4deb bcbd fa29 43bd 900c 18be 21c5 a13d
000000b0: ca1f c1bd c1fe 22bb 3b78 c03c 8465 1e3d
000000c0: 7f34 743d d873 d6bd b5aa 413d b8f3 fa3d
000000d0: 25b6 e3bd 9ea7 2ebe 6bac f13d bd13 243d
000000e0: eacf 05bd 551c be3d 8426 c3bd 6a47 e2bc
000000f0: 4e4c fbbc 8ad1 233d ef34 7e3d 01aa 83bc
00000100: 6e16 92bd 2d15 c83c 140f 913d 1466 b8bd
00000110: ff62 e3bd 1ab0 31bd 3369 aa3c d588 f33d
00000120: 9413 f93a a998 8a3d a0ae bf3d eb93 b1bd
00000130: ad2b ce3a 23f2 24bc 9d56 8fbd cad6 d7bc
00000140: 22a8 acb8 94ed b6bc 202c d83d acd9 873d
00000150: fe82 a53c 717b 0d3e db66 f33c 43ed 09bd
00000160: 1708 d4bb b497 f73b 772a d4bd 3f14 003e
00000170: 2737 0cbd 8ed7 843d b701 73bd 007d c63d
00000180: 1020 26bc 2a16 8cbd 83d1 2c3d 11ac 343d
00000190: 6ff5 3a3e a10b f4bc 0340 7e3d 9f92 a9bc
000001a0: c66b b93c ed38 fe3d 2fd5 e03c dd5d ce3d
000001b0: 5a9d 013c 4d9d 163c 2e3b 6f3d 90fe d63d
000001c0: 1fa6 823d 52a0 febc 9222 9e3d 259b c53d
000001d0: cb02 593c 817a 993d c36d 7e3c 0c87 a93d
000001e0: 056a d93c bdef dbbd f178 85bc 2420 8038
000001f0: 4e10 3b3d 1501 71be 3254 243e ee6e 993b
00000200: 874e ba3b 1a65 bdbd 45f0 5b3d 70ea afbd
00000210: 1292 a0bd 57c0 563e dcc0 d73d 968d 863d
00000220: c6bf 96bb 672b b03d 2260 71bd d104 d63d
00000230: 3e09 c83c 70c1 4cbe 657e 1f3e 4bd6 89bd
00000240: b883 ddbd 6ab1 06bc 9960 933d aa35 3fbd
00000250: 909c bdbd 004e 323e 7028 463e 4714 f2bc
00000260: 87c0 cabd 3209 03bd d391 013e e524 29bc
00000270: 83f1 af3c aef0 65bc b95f 14bd c4df e6bd
00000280: a3b3 023d 3799 93bd 4d79 553e a563 c13d
00000290: ef49 3fbd 0f0b 293c 0288 6ebe e161 9cbd
000002a0: 7b5a dcb9 e538 80bd 145b 593b a99e 37bd
000002b0: cff7 71bd 8a36 e6bd 1936 9d3d 58cf 1c3d
000002c0: 8eed 3b3e 115a d33d b4d4 abbc b498 8ebd
000002d0: 12bb 42bd d94e 943d 9c64 7abd 5227 243d
000002e0: 7dcb 853d 083b c03b 8fa2 88bd 1213 5c3d
000002f0: 48f2 a93c eddd fc3c bf2e ecbd 68b4 9bbb
00000300: a37d ea3d 03b9 f6bc 266a 8a3d 8c35 98bc
00000310: 5dba 0cbc a7c8 0bbd 2e5f f1bc a7ef 533d
00000320: 2c3b 00bd 15a8 e73d e35b d8bd 5910 203d
00000330: cdbe f3bd 1209 27be 8c0f 13bd ad8f 33bd
00000340: c277 18bd 8662 6dbd 0c50 69be b710 273d
00000350: 2242 d8bd c876 e63c a585 aa3c b47b 6f3d
00000360: 35f6 bdbd 82d6 bf3d 9cf5 d2bb 84f9 febd
00000370: f8ae d5bd bbed b63b b575 e33a 9d3f 27bd
00000380: c324 be3a 30da b63d 2db0 143d f6c7 79bd
00000390: 10ba 193d 4fde b33d 74b5 f53c b1ea 60bd
000003a0: b351 293d 73a3 d1ba dc55 9f3c 2987 c33d
000003b0: 8a75 cdbb ef6e 0dbe e18f c6bd dd51 c9bd
000003c0: 4ba4 dd3d 775d 463e c9c0 2d3d 5eb8 cc3c
000003d0: e25f a3bd ea4e a2bc 74b9 81bd e7aa 47bd
000003e0: 62d9 c5bd 7713 2b3c e97b e8bb 564d fabc
000003f0: 0be9 0dbe 07c3 47bc 86d7 d4bd 57bb 183e

network_body._body_endoder.seq_layers.2.bias f4 [128]
-0.00076416007 0.0007248465 0.0006785117 -0.00057966734 0.00012523256 0.00056402455 0.0008576191 -1.4314573e-06
-0.00017578846 0.00012408794 0.00096374645 0.0007677502 -0.0004425737 -0.00014596655 0.00057239557 0.00049639674
9.341949e-05 -0.0007791208 -0.0009783885 0.0009041686 -0.0002629773 0.0005102599 -0.0005120325 0.00059578667
-0.0004338596 0.00062230806 0.00022150374 -0.0006437261 -0.0009964843 0.00060659077 0.0011875377 0.00015499305
0.00031492457 -0.0011086179 0.00012572468 0.001138915 0.0006236393 0.00060131814 0.0004282487 -0.00030977282
0.00051009486 0.0005557882 -0.00060415536 0.00037926566 -0.0008657211 -0.0003754242 0.00081990554 -0.0005155114
0.0007160163 -0.00086694595 0.0004231075 -0.0008048964 -0.00090131996 0.00041439163 -0.0009729856 -0.0011111941
-0.00052915653 0.00074881595 -0.0008075705 0.001028741 -0.00045372057 -0.00067828636 0.0010780733 -0.00065839675
0.00067755487 -0.00089344324 0.00088593346 -0.0007134167 -0.00066438207 0.0004997605 0.0010587503 -0.00073423324
0.00054546376 0.00033524312 -0.0011361248 -0.0003420312 -0.002156712 -0.00012354813 -0.00021625908 0.00046968495
-0.00087569066 -0.00071252236 0.0007707717 -0.00058403786 -0.0009813583 -0.00027073282 -0.0004844514 -0.0008051179
-0.00053083996 -0.00048697196 0.0007793292 0.00090665306 -0.0005124444 -0.00091036805 0.0011201054 4.9024304e-05
0.0004484354 0.000834282 0.0006523547 0.00040443204 0.0006684449 0.00035122613 -0.0012197442 -0.00063501875
0.000866729 -0.001613732 0.0008283951 -0.0004669163 5.9605984e-05 -0.00063736324 -0.001517124 0.00040649524
-0.0004420132 0.00084572635 0.00056636916 -0.0006610581 -0.00047104122 -0.00024663875 0.00044119396 -0.00062669587
0.00014012228 -0.00059982506 -0.000562832 -0.00037209204 -0.000610964 -0.0007555726 -0.00046285128 0.00035579276
00000000: ea51 48ba a003 3e3a 26de 313a d1f4 17ba
00000010: dc50 0339 0cdb 133a d8d1 603a 8020 c0b5
00000020: db53 38b9 9a1d 0239 eea3 7c3a d842 493a
00000030: 3d09 e8b9 990e 19b9 d10c 163a 9f20 023a
00000040: 35ea c338 e93d 4cba 453d 80ba ba05 6d3a
00000050: 37e0 89b9 f6c2 053a eb39 06ba 912e 1c3a
00000060: a677 e3b9 6322 233a 7543 6839 babf 28ba
00000070: 779c 82ba 9e03 1f3a 27a7 9b3a a185 2239
00000080: 761c a539 0b4f 91ba f6d4 0339 a547 953a
00000090: ba7b 233a c7a1 1d3a 9186 e039 0169 a2b9
000000a0: e3b7 053a 51b2 113a 2e60 1eba 2dd8 c639
000000b0: 8ff1 62ba 95d4 c4b9 eeee 563a 6223 07ba
000000c0: 0ab3 3b3a c243 63ba 87d4 dd39 afff 52ba
000000d0: 8f46 6cba b442 d939 f50f 7fba 7da5 91ba
000000e0: 18b7 0aba 304c 443a 24b3 53ba d2d6 863a
000000f0: 58e1 edb9 07cf 31ba 234e 8d3a 4298 2cba
00000100: f09d 313a f635 6aba fd3d 683a 9604 3bba
00000110: ed29 2eba 5c02 033a c4c5 8a3a 8f79 40ba
00000120: 74fd 0e3a 92c3 af39 06ea 94ba a752 b3b9
00000130: a057 0dbb b38c 01b9 9bc3 62b9 0c40 f639
00000140: 9b8e 65ba 91c8 3aba 9d0d 4a3a 1e1a 19ba
00000150: eca0 80ba 25f1 8db9 f7fd fdb9 8c0e 53ba
00000160: 1128 0bba 4550 ffb9 e64b 4c3a 75ac 6d3a
00000170: 9055 06ba c4a5 6eba 80d0 923a 729f 4d38
00000180: fb1b eb39 b8b3 5a3a c802 2b3a f309 d439
00000190: 943a 2f3a c624 b839 d3df 9fba 6377 26ba
000001a0: 3335 633a dc83 d3ba a728 593a 72cc f4b9
000001b0: 7001 7a38 b914 27ba 3cda c6ba de1e d539
000001c0: 02be e7b9 bcb3 5d3a 6478 143a dc4a 2dba
000001d0: 15f6 f6b9 4b4f 81b9 0d50 e739 d948 24ba
000001e0: caed 1239 943d 1dba 048b 13ba 5915 c3b9
000001f0: 1a29 20ba 9e11 46ba d9aa f2b9 b289 ba39

action_model._continuous_distribution.log_sigma f4 [1, 2]
0.001785962 -0.0053446908
00000000: f116 ea3a 8422 afbb

action_model._continuous_distribution.mu.weight f4 [2, 128]
-0.0071329526 0.00039314106 0.0069887927 -0.027835766 0.0041452833 0.008838391 0.01459112 0.005627801
0.015878094 -0.016814217 0.015819928 0.01342716 -0.017760307 0.0016344029 -0.0088113025 0.0146260215
0.006196581 0.013499096 0.0050490038 0.015691152 0.0022680892 0.041915745 0.004981928 -0.0067848125
0.009247701 0.017374253 0.008593441 -0.021921106 0.0028413422 0.02164527 0.01732931 0.0012735914
0.008237809 -0.001083013 -0.0011430911 -0.019114882 0.0087111695 0.0020579954 0.011811746 -0.021239128
0.0025286076 0.0009977532 -0.013743874 0.0027245886 -0.0032512478 -0.0064437166 -0.022516351 -0.016428089
0.021092478 -0.012628809 0.01532789 -0.04357305 -0.005698687 0.013181256 0.014456715 -0.028733714
-0.009578302 -0.002269008 0.004203294 0.0160121 0.006236515 -0.015247203 -0.024774428 -0.0028943499
0.017419096 -0.009710243 0.02127767 -0.031460032 -0.007501309 0.011982492 0.026165852 -0.018011624
0.013496758 0.02082755 0.009608694 -0.026035389 -0.0051381914 0.011791199 0.0029998193 0.024961703
-0.006719892 -0.01472372 0.023992056 -0.026013386 -0.0002659388 -0.0024967117 -0.012045777 -0.011050867
-0.029962137 0.0056917127 0.011037862 -0.003234604 -0.017722243 -0.013681538 0.013537966 0.017976986
0.0032610442 0.0059344885 0.022288475 0.008772328 0.002657385 0.0028609373 -0.002700337 -0.012438424
0.0011190759 0.0002989748 0.011540214 -0.018495636 0.0118368855 -0.009984604 -0.044590767 -0.024947455
-0.00450769 0.0012474363 -0.011906203 -0.006733744 0.008960455 -0.030812917 -0.0048914966 0.0072933324
-6.774141e-05 0.00807965 -0.010566836 0.011792963 -0.033385348 -0.00026507035 -0.0015795176 -0.0092599215
-0.01907093 0.02407067 0.039438352 -0.028151736 0.0038380024 -0.0062239557 0.0004994493 0.018062975
-0.0057755867 0.014621196 -0.008591532 -0.0017602312 0.0021646444 -0.0070595094 0.012989986 0.022274466
-0.0022833017 -0.011879639 -0.0015579342 0.0057445536 -0.014299268 -0.0070349667 -0.0068344255 0.022639096
-0.0041996324 -0.006304676 0.008802291 -0.014738846 -0.006039407 0.008139551 -0.006758174 -0.013755999
0.003242741 -0.015331184 0.008609939 0.022392955 -0.0014001237 0.008016697 0.017971763 0.010344544
0.011203299 0.025523596 -0.009310642 0.023838364 -0.020450879 -0.0011343993 0.013278707 -0.025243198
0.0144008035 -0.046986867 0.01837504 -0.0034337298 -0.03016238 0.015404262 -0.01937983 -0.00039481604
-0.0047271117 0.016765457 -0.022963675 -0.0038854752 -0.00834084 -0.009663947 0.035648752 -0.0060073384
-0.019517628 -0.0016712898 0.0067717046 0.0016204335 -0.0026562817 0.0047135325 0.0059157135 0.0070410124
0.03697367 -0.013438918 -0.015876926 0.006371947 0.00945186 -0.0041759107 -0.015146471 -0.008069761
-0.005379459 -0.015420991 -0.008082206 -0.014115246 -0.028194882 -0.01994247 0.006080556 -0.0042133317
-0.038562104 -0.03704148 0.035572108 0.01934224 -0.03365976 -0.023609929 -0.0034802598 -0.025121754
0.0105993375 0.005538665 0.022779625 0.008937188 0.022402285 0.004271286 0.0013052227 -0.0017046673
0.035457075 -0.012393669 0.008667179 -0.014611421 -0.0075848056 -0.03729639 -0.0071677403 0.016515912
-0.007642121 0.010656043 0.025684187 -0.0008042321 -0.035233896 0.008940835 0.0047706924 -0.016276259
-0.010477321 -0.023900488 -0.010283803 -0.0070709153 -2.3868737e-05 -0.023524841 -0.0029008999 0.01131206
00000000: 8bbb e9bb 801e ce39 3e02 e53b d507 e4bc
00000010: 28d5 873b e6ce 103c 980f 6f3c 6b69 b83b
00000020: c712 823c f8bd 89bc cb98 813c 97fd 5b3c
00000030: 107e 91bc 7639 d63a 485d 10bc fba1 6f3c
00000040: b00c cb3b 502b 5d3c 1d72 a53b bb8a 803c
00000050: 39a4 143b d8af 2b3d 713f a33b 2253 debb
00000060: ab83 173c 7354 8e3c 81cb 0c3c e493 b3bc
00000070: d035 3a3b 6c51 b13c 32f6 8d3c a3ee a63a
00000080: e0f7 063c e3f3 8dba c6d3 95ba d096 9cbc
00000090: 4bb9 0e3c 6fdf 063b 0e86 413c aefd adbc
000000a0: ffb6 253b 0bc7 823a fc2d 61bc 038f 323b
000000b0: e312 55bb d025 d3bb 3674 b8bc 3394 86bc
000000c0: 22ca ac3c 10e9 4ebc d521 7b3c a879 32bd
000000d0: 0dbc babb 32f6 573c dcdb 6c3c f762 ebbc
000000e0: 4fee 1cbc a3b3 14bb c9bb 893b cf2b 833c
000000f0: ae5b cc3b 68cf 79bc bef3 cabc 22af 3dbb
00000100: 7eb2 8e3c b617 1fbc 824e ae3c 3cdc 00bd
00000110: 8acd f5bb 3752 443c c559 d63c 1d8d 93bc
00000120: 8221 5d3c 8a9e aa3c c96d 1d3c 2b48 d5bc
00000130: 465e a8bb e02f 413c 9e98 443b 7c7c cc3c
00000140: 8a32 dcbb c23b 71bc fd8a c43c 061a d5bc
00000150: b46d 8bb9 df9f 23bb a75b 45bc b20e 35bc
00000160: 2873 f5bc 8c81 ba3b 26d8 343c a6fb 53bb
00000170: 3d2e 91bc 8828 60bc 58ce 5d3c 7944 933c
00000180: 3eb7 553b 1976 c23b 5296 b63c cfb9 0f3c
00000190: 8627 2e3b 907e 3b3b 23f8 30bb 88ca 4bbc
000001a0: f5ad 923a b8bf 9c39 2a13 3d3c 2984 97bc
000001b0: 7fef 413c 7796 23bc cfa4 36bd 9b5e ccbc
000001c0: 3fb5 93bb 0481 a33a 3c12 43bc bda6 dcbb
000001d0: dfce 123c 5f6b fcbc d948 a0bb e8fc ee3b
000001e0: 6410 8eb8 8260 043c 8620 2dbc 4637 413c
000001f0: 13bf 08bd 24f9 8ab9 d107 cfba edb6 17bc
00000200: a43a 9cbc db2f c53c 1c8a 213d 789e e6bc
00000210: ff86 7b3b 53f2 cbbb 7aed 023a cef8 933c
00000220: 2241 bdbb be8d 6f3c 7fc3 0cbc 8fb7 e6ba
00000230: b5dc 0d3b 7553 e7bb f3d3 543c f178 b63c
00000240: 72a3 15bb d1a2 42bc 9933 ccba cf3c bc3b
00000250: 7a47 6abc 9485 e6bb 51f3 dfbb a075 b93c
00000260: 129d 89bb 7597 cebb 7c37 103c 337b 71bc
00000270: 38e6 c5bb c05b 053c ac73 ddbb d760 61bc
00000280: 2b84 543b a52f 7bbc b410 0d3c 6e71 b73c
00000290: 5b84 b7ba 7758 033c 8539 933c 2a7c 293c
000002a0: 0b8e 373c dc16 d13c aa8b 18bc ac48 c33c
000002b0: 9a88 a7bc 20b0 94ba ef8e 593c d3ca cebc
000002c0: 59f1 6b3c 4d75 40bd 4087 963c 6d08 61bb
000002d0: 1817 f7bc 2862 7c3c 73c2 9ebc 50ff ceb9
000002e0: e3e5 9abb b657 893c 511e bcbc 75a3 7ebb
000002f0: 05a8 08bc 8855 1ebc 6d04 123d 35d9 c4bb
00000300: 6fe3 9fbc 2e0f dbba 2de5 dd3b ba64 d43a
00000310: 0315 2ebb fa73 9a3b 9ad8 c13b 4bb8 e63b
00000320: b471 173d e82e 5cbc 5410 82bc c4cb d03b
00000330: f9db 1a3c 14d6 88bb e728 78bc 0837 04bc
00000340: 2c46 b0bb 53a8 7cbc 3b6b 04bc a243 67bc
00000350: f4f8 e6bc 645e a3bc 673f c73b fd0f 8abb
00000360: 4cf3 1dbd cfb8 17bd 0fb4 113d 9e73 9e3c
00000370: d1de 09bd 9c69 c1bc 1215 64bb 23cc cdbc
00000380: d8a8 2d3c b17d b53b 569c ba3c 496d 123c
00000390: ff84 b73c 25f6 8b3b 0214 ab3a 256f dfba
000003a0: 703b 113d d10e 4bbc c900 0e3c be64 6fbc
000003b0: f689 f8bb 19c4 18bd 5ddf eabb 614c 873c
000003c0: c26a fabb af96 2e3c a567 d23c 1ad3 52ba
000003d0: 6b51 10bd 947c 123c 7853 9c3b ca55 85bc
000003e0: 12a9 2bbc f5ca c3bc 657d 28bc 23b3 e7bb
000003f0: b939 c8b7 2bb7 c0bc 061d 3ebb 3856 393c

action_model._continuous_distribution.mu.bias f4 [2]
0.0005373886 0.0007243098
00000000: 8adf 0c3a 9cdf 3d3a

exp_avg f4 [128, 36]
0.0 -2.1028718e-06 0.0 0.0 -8.539945e-07 -1.0264253e-06 -1.0764471e-06 0.0
0.0 -8.613413e-07 -6.578795e-07 -1.4449921e-06 0.0 0.0 -9.122539e-07 -1.3658369e-06
-7.3703404e-07 0.0 0.0 -6.565227e-07 -1.5448946e-06 -5.579768e-07 0.0 0.0
-7.6939057e-07 -9.719978e-07 -1.130873e-06 0.0 0.0 -6.9765497e-07 -7.497305e-07 -1.3531406e-06
0.0 0.0 -9.443494e-07 2.1002202e-06 0.0 6.9155103e-06 0.0 0.0
1.408496e-06 1.4564639e-06 5.4590478e-06 0.0 0.0 1.512862e-06 1.0790523e-06 5.8364594e-06
0.0 0.0 1.4065399e-06 -6.538471e-08 6.9808993e-06 0.0 0.0 1.3287345e-06
2.780177e-06 4.1353346e-06 0.0 0.0 1.4979488e-06 -1.2782937e-07 7.0433407e-06 0.0
0.0 2.013473e-06 -2.4662864e-07 7.162141e-06 0.0 0.0 2.444358e-06 -6.902419e-06
0.0 8.597978e-06 0.0 0.0 3.904008e-06 5.4104157e-06 3.1875588e-06 0.0
0.0 4.0838554e-06 4.115646e-06 4.482328e-06 0.0 0.0 4.022338e-06 5.665103e-06
2.9328717e-06 0.0 0.0 2.7993517e-06 6.020502e-06 2.5774693e-06 0.0 0.0
3.1226143e-06 4.6775717e-06 3.9204056e-06 0.0 0.0 3.1446516e-06 3.5774624e-06 5.020515e-06
0.0 0.0 4.092818e-06 -8.586155e-06 0.0 4.7634586e-07 0.0 0.0
1.3151266e-07 2.6241057e-07 2.1393531e-07 0.0 0.0 1.3174134e-07 1.2814525e-07 3.4820064e-07
0.0 0.0 1.7045555e-07 6.0826983e-07 -1.3192405e-07 0.0 0.0 1.1950746e-07
-2.1286944e-08 4.976328e-07 0.0 0.0 1.1506783e-07 6.510642e-07 -1.7471862e-07 0.0
0.0 1.2345497e-07 5.921738e-07 -1.158281e-07 0.0 0.0 1.6702907e-07 -4.7780696e-07
0.0 2.7588703e-06 0.0 0.0 -2.3203193e-06 -5.7853113e-06 8.5441825e-06 0.0
0.0 -1.9162119e-06 -5.909808e-07 3.3498513e-06 0.0 0.0 -2.3735083e-06 -8.623956e-06
1.138283e-05 0.0 0.0 -5.8373814e-07 -2.5820873e-06 5.3409567e-06 0.0 0.0
-1.0331647e-06 -7.753335e-06 1.0512209e-05 0.0 0.0 7.3705746e-07 -8.298743e-06 1.1057617e-05
0.0 0.0 4.3991713e-07 -2.73975e-06 0.0 7.32502e-06 0.0 0.0
1.1001388e-06 -1.2710706e-07 7.4521286e-06 0.0 0.0 1.3086659e-06 1.259705e-06 6.065315e-06
0.0 0.0 1.1170201e-06 -1.8759619e-06 9.200984e-06 0.0 0.0 1.4730856e-06
2.23652e-06 5.0885e-06 0.0 0.0 1.5719987e-06 -2.6600164e-06 9.98504e-06 0.0
0.0 2.632476e-06 -2.5498312e-06 9.874853e-06 0.0 0.0 3.2753835e-06 -7.305405e-06
0.0 -1.5118955e-05 0.0 0.0 7.393056e-06 1.587819e-05 -3.099713e-05 0.0
0.0 6.997285e-06 6.7267947e-06 -2.1845746e-05 0.0 0.0 7.5262924e-06 2.2280481e-05
-3.7399426e-05 0.0 0.0 2.4744963e-06 1.3439036e-05 -2.8557974e-05 0.0 0.0
3.37144e-06 2.170472e-05 -3.6823658e-05 0.0 0.0 -1.3685934e-06 1.955703e-05 -3.4675966e-05
0.0 0.0 -9.975529e-07 1.5078262e-05 0.0 -7.6855795e-06 0.0 0.0
00000000: 0000 0000 101f 0db6 0000 0000 0000 0000
00000010: 0e3e 65b5 b4c3 89b5 717a 90b5 0000 0000
00000020: 0000 0000 ec36 67b5 2399 30b5 8df1 c1b5
00000030: 0000 0000 0000 0000 9ce1 74b5 cc51 b7b5
00000040: 98d8 45b5 0000 0000 0000 0000 e53b 30b5
00000050: 2d5a cfb5 e0c7 15b5 0000 0000 0000 0000
00000060: 1e88 4eb5 9775 82b5 80c8 97b5 0000 0000
00000070: 0000 0000 7c46 3bb5 1641 49b5 8f9d b5b5
00000080: 0000 0000 0000 0000 327f 7db5 82f1 0c36
00000090: 0000 0000 c80b e836 0000 0000 0000 0000
000000a0: 8e0b bd35 b87b c335 dd2c b736 0000 0000
000000b0: 0000 0000 8b0d cb35 f4d3 9035 ced6 c336
000000c0: 0000 0000 0000 0000 58c8 bc35 a069 8cb3
000000d0: 783d ea36 0000 0000 0000 0000 f856 b235
000000e0: 1493 3a36 41c2 8a36 0000 0000 0000 0000
000000f0: 210d c935 7841 09b4 d655 ec36 0000 0000
00000100: 0000 0000 341f 0736 6268 84b4 5352 f036
00000110: 0000 0000 0000 0000 c009 2436 549b e7b6
00000120: 0000 0000 0940 1037 0000 0000 0000 0000
00000130: 2cff 8236 1e8b b536 d8e9 5536 0000 0000
00000140: 0000 0000 0d08 8936 2119 8a36 e866 9636
00000150: 0000 0000 0000 0000 9ff7 8636 dd16 be36
00000160: 5ad2 4436 0000 0000 0000 0000 7fdc 3b36
00000170: b803 ca36 96f8 2c36 0000 0000 0000 0000
00000180: 1b8e 5136 09f4 9c36 078c 8336 0000 0000
00000190: 0000 0000 b408 5336 5614 7036 e575 a836
000001a0: 0000 0000 0000 0000 0a55 8936 410d 10b7
000001b0: 0000 0000 7abc ff34 0000 0000 0000 0000
000001c0: ed35 0d34 6fe1 8c34 17b6 6534 0000 0000
000001d0: 0000 0000 c974 0d34 4c98 0934 55f0 ba34
000001e0: 0000 0000 0000 0000 7706 3734 fc47 2335
000001f0: 02a7 0db4 0000 0000 0000 0000 f651 0034
00000200: 7cda b6b2 1195 0535 0000 0000 0000 0000
00000210: 351b f733 cbc4 2e35 4a9a 3bb4 0000 0000
00000220: 0000 0000 0b8f 0434 e0f5 1e35 2cbd f8b3
00000230: 0000 0000 0000 0000 9a58 3334 a542 00b5
00000240: 0000 0000 0825 3936 0000 0000 0000 0000
00000250: c8b6 1bb6 721f c2b6 fc58 0f37 0000 0000
00000260: 0000 0000 4598 00b6 e4a3 1eb5 02ce 6036
00000270: 0000 0000 0000 0000 9048 1fb6 9caf 10b7
00000280: e2f8 3e37 0000 0000 0000 0000 2eb2 1cb5
00000290: ec47 2db6 7836 b336 0000 0000 0000 0000
000002a0: 45ab 8ab5 5214 02b7 985d 3037 0000 0000
000002b0: 0000 0000 34da 4535 d43a 0bb7 1a84 3937
000002c0: 0000 0000 0000 0000 c02d ec34 8cdc 37b6
000002d0: 0000 0000 71c9 f536 0000 0000 0000 0000
000002e0: 7ba8 9335 ec7a 08b4 4c0d fa36 0000 0000
000002f0: 0000 0000 6ba5 af35 2213 a935 a984 cb36
00000300: 0000 0000 0000 0000 85ec 9535 8fc9 fbb5
00000310: ed5d 1a37 0000 0000 0000 0000 d6b6 c535
00000320: 1f17 1636 e2bd aa36 0000 0000 0000 0000
00000330: 77fd d235 bc82 32b6 6c85 2737 0000 0000
00000340: 0000 0000 98a9 3036 c41d 2bb6 2cac 2537
00000350: 0000 0000 0000 0000 a9ce 5b36 f320 f5b6
00000360: 0000 0000 6ba7 7db7 0000 0000 0000 0000
00000370: de11 f836 2732 8537 ea02 02b8 0000 0000
00000380: 0000 0000 38ca ea36 bab6 e136 6241 b7b7
00000390: 0000 0000 0000 0000 5c8a fc36 f8e6 ba37
000003a0: 54dd 1cb8 0000 0000 0000 0000 860f 2636
000003b0: 3878 6137 c88f efb7 0000 0000 0000 0000
000003c0: e640 6236 8812 b637 1a73 1ab8 0000 0000
000003d0: 0000 0000 83b0 b7b5 670e a437 0971 11b8
000003e0: 0000 0000 0000 0000 a8e3 85b5 a4f8 7c37
000003f0: 0000 0000 50f1 00b7 0000 0000 0000 0000

exp_avg_sq f4 [128, 36]
0.0 4.5739025e-12 0.0 0.0 5.137933e-14 1.1138817e-13 4.651649e-12 0.0
0.0 5.2654136e-14 6.4901135e-14 4.6764606e-12 0.0 0.0 5.71527e-14 1.72165e-13
4.5934194e-12 0.0 0.0 3.253931e-14 1.7284979e-13 4.8089675e-12 0.0 0.0
4.5085307e-14 2.3020434e-13 4.368678e-12 0.0 0.0 6.963373e-14 2.6195493e-13 4.42822e-12
0.0 0.0 1.148568e-13 4.566793e-12 0.0 5.042625e-11 0.0 0.0
1.9460458e-12 1.5268237e-12 5.396315e-11 0.0 0.0 2.1418997e-12 6.2318492e-12 5.232909e-11
0.0 0.0 2.109169e-12 6.6448422e-12 4.952656e-11 0.0 0.0 8.225675e-13
6.6297783e-12 5.156259e-11 0.0 0.0 8.9903887e-13 7.3912335e-12 4.8553304e-11 0.0
0.0 1.0177458e-12 6.682785e-12 4.9785162e-11 0.0 0.0 1.4477399e-12 5.0287715e-11
0.0 1.0286498e-10 0.0 0.0 2.7684638e-12 4.4268677e-12 1.1009137e-10 0.0
0.0 2.99863e-12 8.141431e-12 1.0374809e-10 0.0 0.0 2.887923e-12 8.0618194e-12
1.0049684e-10 0.0 0.0 1.2113776e-12 8.543532e-12 1.055069e-10 0.0 0.0
1.384232e-12 9.466414e-12 9.6887234e-11 0.0 0.0 1.7239222e-12 8.2468e-12 9.722823e-11
0.0 0.0 2.6748829e-12 1.02630855e-10 0.0 2.173328e-13 0.0 0.0
5.871029e-14 3.3891293e-14 1.8075937e-13 0.0 0.0 6.566272e-14 1.8391727e-13 7.008776e-14
0.0 0.0 6.486118e-14 2.548396e-13 5.6330842e-14 0.0 0.0 2.3002848e-14
2.042525e-13 7.563063e-14 0.0 0.0 2.4109656e-14 2.6964024e-13 5.099639e-14 0.0
0.0 1.28866136e-14 2.493289e-13 4.3102905e-14 0.0 0.0 1.6426263e-14 2.1692679e-13
0.0 6.638083e-11 0.0 0.0 1.3724939e-11 2.6819935e-11 5.9272615e-11 0.0
0.0 1.4510859e-11 3.8354143e-11 5.0049777e-11 0.0 0.0 1.4083319e-11 4.7060755e-11
4.6946915e-11 0.0 0.0 4.239419e-12 4.1056387e-11 4.816427e-11 0.0 0.0
4.859821e-12 4.854927e-11 4.582086e-11 0.0 0.0 2.6845342e-12 4.7220408e-11 4.7567502e-11
0.0 0.0 3.6404304e-12 6.6219565e-11 0.0 1.0041233e-10 0.0 0.0
2.7797716e-12 3.83512e-12 1.11086404e-10 0.0 0.0 2.9737896e-12 7.854241e-12 1.0590802e-10
0.0 0.0 2.9583295e-12 9.640624e-12 1.0607809e-10 0.0 0.0 1.1284976e-12
8.986796e-12 1.0577822e-10 0.0 0.0 1.2981437e-12 1.134123e-11 1.0320045e-10 0.0
0.0 1.5920709e-12 1.05695565e-11 1.0742989e-10 0.0 0.0 2.3886902e-12 1.0015502e-10
0.0 5.513812e-10 0.0 0.0 2.1195424e-11 3.852814e-11 5.424812e-10 0.0
0.0 2.3032454e-11 5.595213e-11 5.092661e-10 0.0 0.0 2.2576387e-11 8.201168e-11
5.4912624e-10 0.0 0.0 8.820954e-12 5.8234785e-11 5.470156e-10 0.0 0.0
1.0038717e-11 9.0956985e-11 5.1891536e-10 0.0 0.0 1.2625277e-11 7.9711876e-11 5.4240135e-10
0.0 0.0 1.6619527e-11 5.5067795e-10 0.0 7.652501e-11 0.0 0.0
00000000: 0000 0000 0dee a02c 0000 0000 0000 0000
00000010: 5664 6729 e9d2 fa29 54aa a32c 0000 0000
00000020: 0000 0000 1622 6d29 f524 9229 d089 a42c
00000030: 0000 0000 0000 0000 4ab2 8029 2fd7 412a
00000040: d89d a12c 0000 0000 0000 0000 458b 1229
00000050: 8f9c 422a 5433 a92c 0000 0000 0000 0000
00000060: d20b 4b29 f197 812a 8eb5 992c 0000 0000
00000070: 0000 0000 1dcd 9c29 af77 932a dccd 9b2c
00000080: 0000 0000 0000 0000 3851 012a 04ae a02c
00000090: 0000 0000 e9c6 5d2e 0000 0000 0000 0000
000000a0: d8f0 082c 9fe1 d62b 1b55 6d2e 0000 0000
000000b0: 0000 0000 09b9 162c 8243 db2c 5125 662e
000000c0: 0000 0000 0000 0000 696b 142c 6bcb e92c
000000d0: f3d1 592e 0000 0000 0000 0000 3c88 672b
000000e0: bc43 e92c 51c6 622e 0000 0000 0000 0000
000000f0: 940e 7d2b 2807 022d 298a 552e 0000 0000
00000100: 0000 0000 283c 8f2b 2d21 eb2c 1cf5 5a2e
00000110: 0000 0000 0000 0000 54c0 cb2b ef2a 5d2e
00000120: 0000 0000 d633 e22e 0000 0000 0000 0000
00000130: 36d0 422c aec1 9b2c ee17 f22e 0000 0000
00000140: 0000 0000 8402 532c bf39 0f2d fc24 e42e
00000150: 0000 0000 0000 0000 3238 4b2c 35d3 0d2d
00000160: b1fe dc2e 0000 0000 0000 0000 7a7c aa2b
00000170: a64c 162d 1b03 e82e 0000 0000 0000 0000
00000180: 37d0 c22b f088 262d aa0e d52e 0000 0000
00000190: 0000 0000 d89e f22b 4914 112d a1ce d52e
000001a0: 0000 0000 0000 0000 683a 3c2c 09b0 e12e
000001b0: 0000 0000 eab1 742a 0000 0000 0000 0000
000001c0: 2e34 8429 00a2 1829 5784 4b2a 0000 0000
000001d0: 0000 0000 fbdb 9329 8b12 4f2a d8d2 9d29
000001e0: 0000 0000 0000 0000 ed0d 9229 4276 8f2a
000001f0: 0ab1 7d29 0000 0000 0000 0000 f530 cf28
00000200: c6f7 652a 174e aa29 0000 0000 0000 0000
00000210: 1529 d928 41cb 972a d6aa 6529 0000 0000
00000220: 0000 0000 0425 6828 155c 8c2a 441e 4229
00000230: 0000 0000 0000 0000 62f4 9328 e43c 742a
00000240: 0000 0000 16f9 912e 0000 0000 0000 0000
00000250: a173 712d 20e9 eb2d 8457 822e 0000 0000
00000260: 0000 0000 1947 7f2d edae 282e 0a1f 5c2e
00000270: 0000 0000 0000 0000 a1c1 772d b3f9 4e2e
00000280: 8779 4e2e 0000 0000 0000 0000 4b29 952c
00000290: 6291 342e 26d4 532e 0000 0000 0000 0000
000002a0: 60fd aa2c 9e85 552e b485 492e 0000 0000
000002b0: 0000 0000 45e8 3c2c 74ad 4f2e 3f34 512e
000002c0: 0000 0000 0000 0000 1516 802c 4d9e 912e
000002d0: 0000 0000 1ecf dc2e 0000 0000 0000 0000
000002e0: ea9b 432c b1ef 862c 1648 f42e 0000 0000
000002f0: 0000 0000 0843 512c 5b2c 0a2d eae4 e82e
00000300: 0000 0000 0000 0000 872c 502c 8399 292d
00000310: a844 e92e 0000 0000 0000 0000 69d2 9e2b
00000320: ee18 1e2d d89b e82e 0000 0000 0000 0000
00000330: 8eb2 b62b 5c84 472d b0f0 e22e 0000 0000
00000340: 0000 0000 6610 e02b 0df1 392d a73d ec2e
00000350: 0000 0000 0000 0000 d116 282c 443e dc2e
00000360: 0000 0000 0190 1730 0000 0000 0000 0000
00000370: da6f ba2d d472 292e b91d 1530 0000 0000
00000380: 0000 0000 7a98 ca2d 7f14 762e 6afc 0b30
00000390: 0000 0000 0000 0000 8195 c62d 7958 b42e
000003a0: 53f1 1630 0000 0000 0000 0000 0c2e 1b2d
000003b0: 450f 802e cd5c 1630 0000 0000 0000 0000
000003c0: 5d9a 302d 3b04 c82e 6ca3 0e30 0000 0000
000003d0: 0000 0000 311b 5e2d cc49 af2e 1a18 1530
000003e0: 0000 0000 0000 0000 d92f 922d 845e 1730
000003f0: 0000 0000 c047 a82e 0000 0000 0000 0000

exp_avg f4 [128]
-2.1028704e-06 6.915518e-06 8.5979755e-06 4.763459e-07 2.7588699e-06 7.3250226e-06 -1.5118943e-05 -7.685576e-06
-5.1993375e-06 7.2926723e-06 1.6760196e-06 5.9064596e-06 6.332423e-06 1.305152e-05 -4.644038e-06 -7.5940793e-06
-5.7422985e-06 1.8075209e-05 -4.2807046e-06 -5.9086715e-06 3.204591e-07 -1.6996182e-06 -1.4539197e-06 8.705867e-06
3.2709595e-06 -6.2858185e-06 1.6191208e-05 1.2290658e-05 2.8687443e-06 7.905774e-06 1.5605046e-05 1.6360278e-05
9.910778e-06 -2.9780033e-06 2.1737087e-06 -1.9408567e-06 -4.9070095e-06 1.9467507e-08 1.2924168e-05 2.2240454e-06
-5.528659e-06 -7.831664e-06 -1.8895767e-05 -1.4116491e-05 -1.2153172e-05 2.2375757e-06 -5.184289e-06 2.1081862e-06
1.7869293e-06 -5.679467e-06 6.4297255e-06 -2.9396929e-06 8.670539e-06 -3.3887583e-05 2.9172606e-05 7.4350187e-06
-6.278151e-08 -1.6878495e-05 1.404781e-05 -1.5032041e-05 -5.484658e-07 -1.039591e-05 -5.383541e-06 -4.526398e-06
-6.9984044e-06 2.3069483e-06 3.742016e-07 1.5725029e-05 -8.884739e-06 9.3710395e-07 -2.7364269e-05 -1.1611331e-06
-1.0795516e-05 3.8040153e-06 1.1804267e-05 -4.6577816e-07 -1.5252659e-05 5.7011957e-06 7.3285264e-08 3.6915671e-06
-4.842127e-06 5.9208955e-06 5.7407497e-06 -9.376752e-06 8.497388e-06 -8.882102e-06 6.29997e-07 7.5791495e-06
-3.7286422e-06 1.4808829e-06 8.092516e-06 -4.1066392e-07 5.3413787e-06 -1.31731895e-05 7.361288e-06 3.4115371e-06
-3.4965315e-06 -7.9982146e-07 -6.2330873e-06 -9.819735e-06 6.8176546e-06 -3.5147032e-06 -1.2459706e-05 3.8908496e-07
-2.9050856e-05 -2.6966796e-05 -7.518373e-06 -4.6762125e-08 -6.6825305e-07 1.1886708e-05 2.5711108e-06 -2.2543013e-06
1.3714048e-05 -5.457031e-06 3.5587582e-06 7.3377805e-06 5.6954013e-06 7.973396e-06 -7.895454e-06 1.1462702e-05
6.590882e-07 -1.0984288e-05 1.7264867e-05 -1.3168858e-05 3.5544815e-07 1.0649155e-05 -2.7995475e-06 -1.1332555e-05
00000000: 0a1f 0db6 d90b e836 0640 1037 7bbc ff34
00000010: 0625 3936 77c9 f536 5ea7 7db7 4cf1 00b7
00000020: f875 aeb6 94b3 f436 98f3 e035 1a30 c636
00000030: 197b d436 daf7 5a37 fcd3 9bb6 a5d0 feb6
00000040: f8ad c0b6 37a0 9737 f9a2 8fb6 1a43 c6b6
00000050: 900b ac34 701e e4b5 4d24 c3b5 6a0f 1237
00000060: a882 5b36 c5ea d2b6 5bd2 8737 f933 4e37
00000070: a784 4036 0aa3 0437 95e7 8237 6e3d 8937
00000080: 7846 2637 b5d9 47b6 08e0 1136 aa3f 02b6
00000090: e4a6 a4b6 8039 a732 e1d4 5837 cf40 1536
000000a0: d282 b9b6 be64 03b7 5a82 9eb7 ded5 6cb7
000000b0: 7ae5 4bb7 4229 1636 b4f4 adb6 5d7a 0d36
000000c0: 6cd6 ef35 4092 beb6 ecbe d736 8a47 45b6
000000d0: ae77 1137 8422 0eb8 b2b7 f437 537a f936
000000e0: 80d2 86b3 4b96 8db7 e2ae 6b37 2032 7cb7
000000f0: 483a 13b5 186a 2eb7 44a4 b4b6 76e1 97b6
00000100: d6d3 eab6 12d1 1a36 e0e5 c834 3ee9 8337
00000110: aa0f 15b7 4b8d 7b35 528c e5b7 3bd8 9bb5
00000120: 631e 35b7 7c48 7f36 f10a 4637 1010 fab4
00000130: ace5 7fb7 e64c bf36 0061 9d33 a4bc 7736
00000140: 8e79 a2b6 1bac c636 aaa0 c036 d850 1db7
00000150: 0190 0e37 5604 15b7 101d 2935 6650 fe36
00000160: 9639 7ab6 c0c2 c635 17c5 0737 3879 dcb4
00000170: 183a b336 6b02 5db7 fc00 f736 c3f1 6436
00000180: f4a5 6ab6 50b3 56b5 d025 d1b6 71bf 24b7
00000190: 35c3 e436 24de 6bb6 080a 51b7 6ee3 d034
000001a0: 3db2 f3b7 c136 e2b7 5546 fcb6 80d7 48b3
000001b0: 0062 33b5 066d 4737 598b 2c36 9a48 17b6
000001c0: 6315 6637 8a1b b7b6 00d3 6e36 0e37 f636
000001d0: 201b bf36 7ac5 0537 b776 04b7 ee4f 4037
000001e0: 32ec 3035 2849 38b7 05d4 9037 d0ef 5cb7
000001f0: 6cd4 be34 c6a9 3237 dcdf 3bb6 f420 3eb7

exp_avg_sq f4 [128]
4.573901e-12 5.0426243e-11 1.0286496e-10 2.1733274e-13 6.6380845e-11 1.00412345e-10 5.513813e-10 7.6525e-11
4.5534185e-10 6.551346e-11 6.998601e-11 2.3179791e-10 6.9417166e-11 2.0410112e-10 8.6432014e-11 4.7765618e-11
1.3156992e-09 5.510279e-10 8.905928e-11 8.99085e-12 2.511075e-11 5.859348e-11 1.482177e-11 1.6710586e-10
1.1927855e-10 3.252307e-10 3.7341533e-10 4.3892518e-11 2.8265666e-11 1.2952937e-10 2.2111374e-10 1.1632952e-10
5.867238e-11 6.335069e-12 2.0289052e-11 1.4803856e-11 3.031102e-11 9.329656e-12 3.1870548e-10 6.607578e-12
8.362404e-11 6.4790985e-11 8.9970503e-10 1.7443146e-10 1.1260909e-10 9.341678e-11 1.8222188e-11 2.8429642e-10
3.0177147e-10 3.456087e-11 8.941327e-12 8.0031086e-11 1.0517502e-10 9.460691e-10 5.790671e-10 4.4355505e-11
4.97495e-11 4.3334653e-10 1.5914547e-10 2.5065494e-10 4.2628578e-11 3.0165728e-10 8.6662934e-11 1.9738065e-12
1.338336e-10 3.06689e-11 2.676773e-11 2.328922e-10 1.1977577e-10 3.1889366e-11 7.755748e-10 1.4625962e-12
2.7602523e-10 5.6484012e-11 1.7656726e-10 4.2450442e-11 3.868544e-10 2.3574995e-10 5.095573e-10 3.9071185e-10
1.3004105e-10 4.451138e-11 1.2511187e-11 1.6930193e-10 5.3771827e-11 7.074555e-11 1.139617e-10 1.8171747e-10
2.3993327e-10 5.8365585e-10 1.0217504e-10 4.2682776e-12 1.1407704e-10 6.961445e-10 3.3623926e-10 2.5747052e-11
7.1938615e-11 2.042374e-10 7.775893e-11 1.5007721e-10 1.4688874e-10 4.2008486e-10 1.4811483e-10 1.6694503e-11
6.620424e-10 4.2714618e-10 5.897138e-11 5.842817e-11 1.429321e-10 3.7507658e-10 1.644428e-12 7.786458e-11
2.496407e-10 3.8550368e-11 5.8068376e-11 1.1133016e-10 1.1057736e-10 1.39166e-10 1.7913743e-10 2.0723301e-10
1.5046707e-12 8.174887e-10 3.259045e-10 2.3707172e-10 6.3977657e-11 3.2024938e-11 1.1598776e-11 5.0148587e-11
00000000: 0aee a02c e7c6 5d2e d333 e22e e6b1 742a
00000010: 18f9 912e 20cf dc2e 0290 1730 bf47 a82e
00000020: ab53 fa2f cd10 902e 9fe6 992e 50dd 7e2f
00000030: 64a6 982e 5c69 602f e610 be2e 4e13 522e
00000040: 0dd4 b430 2477 1730 ebd7 c32e 302b 1e2d
00000050: 62e0 dc2d 32d9 802e a95f 822d 1ebc 372f
00000060: ed25 032f 27cc b22f 8949 cd2f 950a 412e
00000070: 9fa0 f82d 476b 0e2f fc1d 732f b3cf ff2e
00000080: 9d05 812e 3be5 de2c e276 b22d 5237 822d
00000090: 2d4f 052e 0921 242d cf35 af2f c67b e82c
000000a0: 26e4 b72e 157a 8e2e 1d4f 7730 17ca 3f2f
000000b0: 48a1 f72e f96c cd2e b848 a02d 2a4b 9c2f
000000c0: 8fe6 a52f 1500 182e 284c 1d2d 7ffd af2e
000000d0: 4648 e72e d906 8230 3a2c 1f30 dc13 432e
000000e0: f5cc 5a2e 1a3c ee2f 78fb 2e2f 8ccc 892f
000000f0: 837b 3b2e 7dd6 a52f e592 be2e f0e4 0a2c
00000100: cf26 132f 1de2 062e 9273 eb2d aa08 802f
00000110: e2b1 032f 3c40 0c2e 3a30 5530 95d7 cd2b
00000120: 19bf 972f 586b 782e 4423 422f f3b2 3a2e
00000130: ebac d42f db9a 812f e810 0c30 cecb d62f
00000140: 4dfb 0e2f 5cc3 432e 6119 5c2d 4226 3a2f
00000150: b27d 6c2e 3492 9b2e bc9a fa2e eccc 472f
00000160: 9be7 832f 216f 2030 6faf e02e 3a2d 962c
00000170: aadb fa2e d05a 3f30 78d9 b82f 3579 e22d
00000180: d731 9e2e b88f 602f 63fe aa2e fb02 252f
00000190: 8181 212f b0f1 e62f 9eda 222f aed8 922d
000001a0: 18fb 3530 7bd3 ea2f f0ad 812e 237c 802e
000001b0: cf27 1d2f 5633 ce2f c36e e72b dd39 ab2e
000001c0: ce3d 892f db8b 292e 2e63 7f2e 4fd1 f42e
000001d0: 8529 f32e bf03 192f b4f6 442f e8da 632f
000001e0: 7ac3 d32b a7b5 6030 fb2a b32f e154 822f
000001f0: 38b0 8c2e e0d8 0c2e 3e0c 4c2d 4a8e 5c2e
