Assets/results/testOnSimpleTrack/MyAgent/MyAgent-1999984.pt (torch, 625405 bytes, 59 tensors)

network_body.observation_encoder.processors.0.normalizer.running_mean f4 [35]
000000 1f 9e 92 3c 3d 4e 7b 3f 00 00 00 00 5a 40 dd 39
       0.017897664 0.9816626 0.0 0.0004220035
000010 3a 9f 9f 3e 00 2e 26 3e b2 58 56 3f 00 00 00 00
       0.31176168 0.16228485 0.8372909 0.0
000020 5a 40 dd 39 49 f2 a5 3e 09 ef 83 3e bd ec 3d 3f
       0.0004220035 0.3241141 0.25768307 0.7418936
000030 00 00 00 00 5a 40 dd 39 cc 04 9d 3e 28 60 f7 3e
       0.0 0.0004220035 0.30667722 0.4831555
000040 e9 4f 04 3f 00 00 00 00 00 00 00 00 dc 9e 8b 3e
       0.51684433 0.0 0.0 0.27269638
000050 cf 51 04 3f 08 25 f7 3e 00 00 00 00 70 83 dd 39
       0.5168733 0.4827044 0.0 0.00042250333
000060 e6 9e 85 3e 7c ea 5d 3f cb 55 08 3e 00 00 00 00
       0.26097792 0.8668592 0.13313977 0.0
000070 00 00 00 00 64 d9 7f 3e a8 d5 68 3f 37 76 b8 3d
       0.0 0.24985272 0.90951014 0.09006923
000080 00 00 00 00 70 83 dd 39 40 24 73 3e
       0.0 0.00042250333 0.23744297

network_body.observation_encoder.processors.0.normalizer.running_variance f4 [35]
000000 aa 52 09 47 2d 82 0c 47 00 00 80 3f 27 21 53 44
       35154.664 35970.176 1.0 844.518
000010 18 10 b2 47 02 c3 84 48 55 0a 85 48 00 00 80 3f
       91168.19 271896.06 272466.66 1.0
000020 27 21 53 44 bc 5d ac 47 95 cc ba 48 82 ff ba 48
       844.518 88251.47 382564.66 382972.06
000030 00 00 80 3f 27 21 53 44 f8 7b 87 47 c1 dc f3 48
       1.0 844.518 69367.94 499430.03
000040 c2 dc f3 48 00 00 80 3f 00 00 80 3f e7 ec a2 46
       499430.06 1.0 1.0 20854.451
000050 96 dc f3 48 e0 d8 f3 48 00 00 80 3f 17 61 53 44
       499428.7 499399.0 1.0 845.517
000060 49 57 80 46 70 6b 61 48 4c 6b 61 48 00 00 80 3f
       16427.643 230829.75 230829.19 1.0
000070 00 00 80 3f 00 a1 f4 45 6f bf 20 48 00 13 20 48
       1.0 7828.125 164605.73 163916.0
000080 00 00 80 3f 17 61 53 44 79 9e bc 45
       1.0 845.517 6035.809

network_body.processors.0.normalizer.running_mean f4 [35]
000000 1f 9e 92 3c 3d 4e 7b 3f 00 00 00 00 5a 40 dd 39
       0.017897664 0.9816626 0.0 0.0004220035
000010 3a 9f 9f 3e 00 2e 26 3e b2 58 56 3f 00 00 00 00
       0.31176168 0.16228485 0.8372909 0.0
000020 5a 40 dd 39 49 f2 a5 3e 09 ef 83 3e bd ec 3d 3f
       0.0004220035 0.3241141 0.25768307 0.7418936
000030 00 00 00 00 5a 40 dd 39 cc 04 9d 3e 28 60 f7 3e
       0.0 0.0004220035 0.30667722 0.4831555
000040 e9 4f 04 3f 00 00 00 00 00 00 00 00 dc 9e 8b 3e
       0.51684433 0.0 0.0 0.27269638
000050 cf 51 04 3f 08 25 f7 3e 00 00 00 00 70 83 dd 39
       0.5168733 0.4827044 0.0 0.00042250333
000060 e6 9e 85 3e 7c ea 5d 3f cb 55 08 3e 00 00 00 00
       0.26097792 0.8668592 0.13313977 0.0
000070 00 00 00 00 64 d9 7f 3e a8 d5 68 3f 37 76 b8 3d
       0.0 0.24985272 0.90951014 0.09006923
000080 00 00 00 00 70 83 dd 39 40 24 73 3e
       0.0 0.00042250333 0.23744297

network_body.processors.0.normalizer.running_variance f4 [35]
000000 aa 52 09 47 2d 82 0c 47 00 00 80 3f 27 21 53 44
       35154.664 35970.176 1.0 844.518
000010 18 10 b2 47 02 c3 84 48 55 0a 85 48 00 00 80 3f
       91168.19 271896.06 272466.66 1.0
000020 27 21 53 44 bc 5d ac 47 95 cc ba 48 82 ff ba 48
       844.518 88251.47 382564.66 382972.06
000030 00 00 80 3f 27 21 53 44 f8 7b 87 47 c1 dc f3 48
       1.0 844.518 69367.94 499430.03
000040 c2 dc f3 48 00 00 80 3f 00 00 80 3f e7 ec a2 46
       499430.06 1.0 1.0 20854.451
000050 96 dc f3 48 e0 d8 f3 48 00 00 80 3f 17 61 53 44
       499428.7 499399.0 1.0 845.517
000060 49 57 80 46 70 6b 61 48 4c 6b 61 48 00 00 80 3f
       16427.643 230829.75 230829.19 1.0
000070 00 00 80 3f 00 a1 f4 45 6f bf 20 48 00 13 20 48
       1.0 7828.125 164605.73 163916.0
000080 00 00 80 3f 17 61 53 44 79 9e bc 45
       1.0 845.517 6035.809

network_body._body_endoder.seq_layers.0.weight f4 [128, 36]
000000 ed 13 51 be 94 bd 04 3e 60 5f 9b 3d 3d 0d 0c bd
       -0.20417757 0.12962943 0.07586551 -0.034192313
000010 39 85 e9 3d 32 04 b3 bc 70 0f 58 3a be 00 fd 3d
       0.11402363 -0.021852586 0.00082420465 0.12353657
000020 86 98 21 3c bb 0a 6c bd d2 9d 8a be 2b 28 53 3e
       0.009863025 -0.05762742 -0.27073532 0.20620792
000030 f0 ae 0d bc cb 68 fb bd d0 ad b4 3d 94 af 42 be
       -0.008647665 -0.12275847 0.088222146 -0.1901229
000040 1b c2 63 bd b3 7d b0 3d 2a d1 fb bc 76 ef eb 3d
       -0.055605035 0.08617725 -0.030739386 0.11520283
000050 6c e0 4e 3e ab 8f 11 3d 8c 08 f1 bc 5d 87 58 3e
       0.20202798 0.035537403 -0.02942302 0.21145387
000060 83 3c 2c 3e ed 14 a4 3d af bc 4b 3e b4 26 29 3e
       0.16819958 0.08011804 0.19896196 0.1651867
000070 87 97 2c bb 3b c4 d9 3b d1 d8 0d be bb 14 17 bc
       -0.0026335435 0.006645707 -0.1385224 -0.009221251
000080 02 70 90 3c ee 3d e6 bd ac 0d 07 3e c3 c4 ca 3d
       0.017631534 -0.11242281 0.13188809 0.099008106
000090 cb 46 03 3d f8 1e ba 3d 56 7c e0 3d 54 47 cb 3b
       0.032049935 0.09087938 0.10961215 0.0062035713
0000a0 58 e7 c0 3d ab c6 16 3e 83 c8 88 3e 9a 8f 0e bd
       0.09419125 0.14724223 0.26715478 -0.034804918
0000b0 7c 8b 8d 3d e7 df 3a 3e 6e 38 10 bd 8f ea ba 3a
       0.0691137 0.18249474 -0.035210066 0.0014260578
0000c0 27 ae 17 bd 28 d1 d5 bd 82 3f 13 be 8b 23 2e 3e
       -0.03703132 -0.10440284 -0.14379695 0.17005746
0000d0 68 9f e5 3d 74 5d d9 bc 42 f8 33 3d f2 7e 97 bd
       0.11212045 -0.02653382 0.04393793 -0.0739726
0000e0 c9 55 25 be 9c 50 42 bc d1 a4 17 be 9b 40 79 be
       -0.16146006 -0.011860039 -0.14808966 -0.24341051
0000f0 e6 6d c1 3e 5c 7d 0a be fc ef 55 bc 4e e9 11 3c
       0.37779158 -0.13524383 -0.013057705 0.008905722
000100 d0 4e e2 bd ff 0c 66 bd 60 bb ce 3d f0 a5 15 3e
       -0.110501885 -0.056164738 0.10094333 0.14614081
000110 a7 9a 5d bd 87 20 5a be ef 2b c9 3d c9 15 a2 3e
       -0.054102566 -0.2130147 0.09822833 0.31657246
000120 2c 1a 12 3e dc 63 35 3e 00 81 c5 3d 9d 92 3f 3d
       0.14267796 0.17713875 0.096437454 0.04677068
000130 48 78 03 be 11 74 1a 3e 56 37 7d bd 1c b8 1c be
       -0.12838852 0.15083338 -0.06182035 -0.15304607
000140 a9 a9 e8 3c f1 82 80 3e 0f 29 51 be e0 d9 09 bd
       0.028401213 0.250999 -0.20425819 -0.033655047
000150 87 bc 3e 3e bf 69 88 bc cc 60 d5 bd 00 5d 41 be
       0.18626605 -0.016651986 -0.10418853 -0.18883133
000160 e3 bd 36 3e f4 73 37 3e f8 b0 f5 3d f8 28 82 3c
       0.17845874 0.17915326 0.11996645 0.015888676
000170 f7 f5 c8 3d 06 ed a0 bd 6c b0 04 3e 5f 9e b6 bd
       0.09812539 -0.07857709 0.12957925 -0.08916926
000180 72 b4 0b 3e 74 fb 05 be ca fb ad 3e f4 76 c2 3e
       0.13643053 -0.13084203 0.33981162 0.3798138
000190 1b 76 6f 3e 9a ac a2 bc 13 34 9a 3e 09 0e 77 be
       0.23384897 -0.019857693 0.30117854 -0.24126448
0001a0 0e 74 5c 3e 9e bc 4a ba 84 5a b1 3c 71 5a 49 be
       0.21528646 -0.00077337946 0.021649607 -0.19663407
0001b0 94 e1 45 ba e5 72 43 bc db e2 75 be 0f ea a4 3b
       -0.00075485674 -0.011929248 -0.2401232 0.005032785
0001c0 cd b9 ca 3d 9b be f8 bd 83 12 3f 3e a7 cb 59 3d
       0.0989872 -0.1214573 0.18659405 0.053172734
0001d0 af d0 83 3e 8f 4b 59 3e da f5 0c 3e 20 db 03 be
       0.2574515 0.2122023 0.1376566 -0.12876558
0001e0 3f da 2c 3e 79 bc a7 39 fe ad 12 3d 3d fc 05 3e
       0.1688013 0.00031993145 0.035810463 0.13084503
0001f0 a1 64 a2 3e c7 56 24 3e 24 38 44 3e 7d ad 54 bd
       0.317174 0.16048728 0.19162041 -0.051923264
000200 f5 95 13 3d ba 68 95 3e 9a c9 8e 3d 68 c2 2b 3e
       0.036031682 0.29181463 0.06972046 0.16773379
000210 d6 42 62 3d 56 00 a7 3c e6 a7 07 be b2 0b d9 bd
       0.05523952 0.020385902 -0.13247642 -0.10597934
000220 ce a0 6b be 84 dc 42 3e 80 35 93 3e ab c6 98 3d
       -0.23010561 0.19029433 0.28751755 0.07459768
000230 db 1d ad bd 8e 00 75 3e 3c 6f 8e 3c f0 57 9f 3c
       -0.0845296 0.23925993 0.017387025 0.019451112
000240 3e 36 e0 bd c6 0e 57 3e 34 e0 cd bd 03 bb 6f 3c
       -0.10947846 0.2100173 -0.10052529 0.014631989
000250 05 6e bc bc 9d e9 7e 3d e7 d8 37 bd 9a ad 77 bc
       -0.02300168 0.06223451 -0.04488459 -0.015117073
000260 c0 f5 03 3d ea 50 bf 3d d5 9b bb bd 0e 9d d3 3d
       0.032216787 0.09341605 -0.09160582 0.1033269
000270 34 2f 02 3e 7c a5 07 be 5f 85 2c 3d 93 8d 8d 3e
       0.12713319 -0.13246721 0.04211938 0.27647075
000280 35 11 3d 3e 76 82 4a 3e 3a dc 6e 3e 3f 6e 9c bd
       0.18463595 0.1977633 0.23326197 -0.07638215
000290 ce fe 8c 3e 23 13 c1 3d b7 a2 16 bc a4 5d c9 3d
       0.2753815 0.09427478 -0.009194068 0.09832314
0002a0 16 65 aa bd 88 6e 18 3e 4e 20 0c bd a6 0a c7 3e
       -0.08320062 0.14885914 -0.034210496 0.38875312
0002b0 ec 1f 2e 3e b8 a6 da bd f9 77 af bb ca f6 7e 3e
       0.17004365 -0.1067633 -0.005354878 0.2489883
0002c0 ce 6f 06 bd 75 10 a7 bd d5 46 1b bd 2c f9 4b 3e
       -0.03282147 -0.08157436 -0.037909348 0.1991927
0002d0 21 40 ab 3e 76 92 82 be 14 6c 61 be f8 2f 87 be
       0.33447364 -0.25502366 -0.22013885 -0.26403785
0002e0 10 95 cb 3d 74 33 2d bc 63 ac 90 be 31 21 15 3e
       0.09940541 -0.010571349 -0.2825652 0.14563443
0002f0 15 df 8e be b2 44 32 bc 0b f6 3f be 0a 30 ee 3d
       -0.27904573 -0.010880636 -0.18746202 0.116302565
000300 9f ea 6f be e0 41 05 be be b9 10 be 62 9e f4 3c
       -0.23429345 -0.1301341 -0.14133355 0.029860679
000310 49 3a d3 3d ae bf 4c bd 0f 5c 88 be 52 58 c8 bd
       0.103138514 -0.049987487 -0.26632735 -0.09782471
000320 12 4b 83 3d ca 7e 0e be 1a 30 69 3d a4 9d 0d 3e
       0.06410803 -0.13915554 0.05693064 0.13829666
000330 ab af 9a bd bd 73 50 3e 82 ca 65 3e 63 d1 be 3d
       -0.07553037 0.2035665 0.22440532 0.09317281
000340 d2 c0 bc 3e 96 7c 51 be 51 6c af bd b2 29 b5 bd
       0.3686586 -0.20457682 -0.085655816 -0.088458434
000350 8f 85 cf 3d 1f f7 23 be 5b 41 28 be 27 25 11 be
       0.10132896 -0.16012238 -0.16431181 -0.14174329
000360 47 e7 90 bc fb 9a cc bd ff 79 bf 3d fe b0 33 3e
       -0.017688407 -0.09990498 0.09349441 0.17547986
000370 4a a6 7f bc c4 12 99 bd d3 19 83 3c d8 a3 43 bd
       -0.015603611 -0.074742824 0.016003525 -0.047763675
000380 e0 f7 40 be 18 69 cc be b3 e7 41 3b 03 5e 01 3e
       -0.18844557 -0.3992393 0.0029587566 0.12633519
000390 db f7 47 be 06 b7 f9 3d d4 99 88 3e df 1b bb bd
       -0.19528143 0.12193112 0.26679862 -0.09136175
0003a0 a8 fd 79 bd f3 63 c8 bd eb 4b e0 3d 91 3e 9b bd
       -0.06103292 -0.09784689 0.1095198 -0.07580293
0003b0 a1 e7 5b 3e 88 33 ea bd b8 b0 8a bc 6d b7 55 3e
       0.21475078 -0.1143561 -0.01692997 0.20870753
0003c0 35 dd 3e bc 6d a2 75 3d 59 49 99 bc dc 8c ec 3d
       -0.01164942 0.059969354 -0.018711733 0.11550304
0003d0 ad 7d a2 3d d3 d6 2a be 73 17 38 3d 48 66 42 3e
       0.07934127 -0.16683511 0.044944238 0.1898433
0003e0 86 d8 5c 3d 7c a1 ed 3d d8 94 1c be d0 30 42 3d
       0.05391743 0.11603066 -0.15291154 0.047409832
0003f0 3e 01 57 be 2a 32 15 be ac 18 18 3e 6e 12 52 be
       -0.20996568 -0.14569917 0.14853162 -0.20514843

network_body._body_endoder.seq_layers.0.bias f4 [128]
000000 06 4f 2a bd 2a 6c cc bd f2 e1 81 bb 5c 1d 5d bd
       -0.04157927 -0.09981568 -0.0039637024 -0.053983077
000010 40 3a 9b bd 4b b1 46 bd 30 7f 17 be 16 ea 81 bd
       -0.0757947 -0.048508924 -0.14794612 -0.063434765
000020 3c 81 17 bd 08 1a aa bd 7e 26 6b bd bd 76 47 bd
       -0.036988482 -0.08305746 -0.057409756 -0.048697222
000030 45 23 01 be ed 39 c8 bd 0f e0 b6 bd 4a 72 c3 bd
       -0.1261111 -0.097766735 -0.089294545 -0.09543283
000040 cc 32 30 be db d8 e2 bd 68 32 93 bc e5 0d cf bb
       -0.17206877 -0.11076518 -0.017968372 -0.006318795
000050 77 a9 a2 bd 2c 65 f4 bd e0 c9 61 bd b1 20 af bd
       -0.07942479 -0.119333595 -0.055124164 -0.08551157
000060 5a 2e 5b bb 99 d2 e7 bd ed 11 f5 bd a3 d9 1e bb
       -0.0033444376 -0.11319465 -0.1196631 -0.0024238608
000070 16 bb b2 bd b5 ab 9f bd 6e ee 96 bd aa 39 40 bd
       -0.0872709 -0.077964224 -0.073696956 -0.046929993
000080 14 86 99 bd 06 46 9b bd 69 cb 7b bd 70 ed e4 bd
       -0.074962765 -0.07581715 -0.061473284 -0.111781
000090 3f 44 db bc d1 70 42 bd c1 85 96 bc fd 31 db bc
       -0.02676594 -0.04747087 -0.018374326 -0.026757235
0000a0 90 4c d1 bd 2b 23 bb bd 46 af 1d be 57 8f 00 be
       -0.10219681 -0.09137567 -0.15398893 -0.1255468
0000b0 8d fc bc bd 56 a0 0f be 1f 5c c0 bd b0 d4 3c bc
       -0.09227858 -0.14026007 -0.09392571 -0.011525318
0000c0 e0 85 37 bd 63 3f f5 bd c0 60 d3 bc 33 a6 86 bd
       -0.044805408 -0.11974981 -0.02580297 -0.06574669
0000d0 89 ab 82 bc f9 43 bb bd 46 df f9 bc aa 92 a2 bd
       -0.015950935 -0.09143824 -0.030501973 -0.0793813
0000e0 a1 bc cb bd 0c 10 66 3d b3 53 1f be cb 5e 6e bd
       -0.099480875 0.056167647 -0.15559272 -0.05819587
0000f0 d9 1e 64 bd f2 3a b6 bb e2 a9 4d bc d9 9f 88 bd
       -0.05569348 -0.005561226 -0.01255271 -0.066711135
000100 c6 3f 3c bd 99 7b bc bd ef 58 74 bb 43 8b 6f bc
       -0.045959257 -0.09203262 -0.0037284454 -0.014620605
000110 10 22 10 bd 49 a0 66 bd 88 02 a8 bd d3 1c 96 bd
       -0.035188735 -0.056305204 -0.08203608 -0.073297165
000120 03 53 ae bd ab e4 8b bd 69 18 33 be 1a 6d 58 3b
       -0.08511927 -0.06830724 -0.1748978 0.0033024014
000130 ab f4 3d be f5 72 52 bd 0e 83 37 bd 39 e4 a9 bd
       -0.18550365 -0.051379163 -0.044802718 -0.08295483
000140 6f 91 02 bd dd dd e2 bd 97 34 9f bd 54 f9 0b be
       -0.031876978 -0.11077473 -0.077737026 -0.1366933
000150 11 76 31 bd 39 cd ff bd 6a 47 18 bd af 4e b3 bd
       -0.043325488 -0.12490315 -0.03717748 -0.08755242
000160 ef b6 54 bd f7 7f 9c bd 81 72 06 be bc ed da bd
       -0.05193227 -0.07641595 -0.13129617 -0.106898755
000170 71 98 b8 bd ea 41 80 bd 53 a0 c8 bd 00 16 a9 bc
       -0.09013451 -0.06262572 -0.097962044 -0.020640373
000180 42 ce 9c bd a3 c1 12 bd 02 1b e8 3b 53 8f f6 bc
       -0.07656528 -0.035829198 0.0070832977 -0.03009764
000190 cf 02 59 bd 53 89 87 bd fc af 9e bd 0f 93 45 bc
       -0.052981194 -0.066179894 -0.0774841 -0.012058987
0001a0 e8 e4 39 be 7f fe e0 bd 13 a2 d7 bc 0c a0 d4 bc
       -0.18153727 -0.10986041 -0.0263224 -0.025955223
0001b0 6e 7c 1e be c7 cd 97 bd 5f 1f bf bd 22 6b b7 bc
       -0.15477154 -0.07412296 -0.093321554 -0.022389952
0001c0 e1 bf d6 bd ce 00 2a bd 9d 01 07 3d ef 42 b8 bd
       -0.10485817 -0.041504674 0.032960523 -0.089971416
0001d0 7e 90 d4 bd 8c 2e bf bd c4 ac c7 bd 8a 79 6a bd
       -0.10379122 -0.0933505 -0.09749749 -0.057244815
0001e0 c2 fd ad bd c7 c3 d2 bd 1b 4d 18 be 93 e1 e5 3b
       -0.08495666 -0.10291248 -0.14873163 0.007015416
0001f0 07 4f 0c be 7e b3 19 be 42 21 bb bd 22 f2 14 3c
       -0.13702022 -0.15009877 -0.09137203 0.009090932

network_body._body_endoder.seq_layers.2.weight f4 [128, 128]
000000 3e 82 4c be ca 59 ce 3c 48 20 e6 bd 25 c2 87 3d
       -0.19971558 0.0251893 -0.11236626 0.06628827
000010 15 45 02 3d e0 cf a3 bc 56 7e f9 bd b4 7e 29 3e
       0.031804163 -0.019996583 -0.121823 0.1655224
000020 06 0c 99 bd 65 fd 52 3d f1 97 34 be b9 16 35 3c
       -0.074729964 0.051511187 -0.17636086 0.011052781
000030 53 57 ca 3d 4b 04 18 3e 56 5d 05 3d e9 ca b0 bd
       0.09879937 0.14845388 0.032559715 -0.08632452
000040 8d 9a f4 bc 37 b7 39 bc 63 9b 2d 3e 2e 4d 50 be
       -0.029858852 -0.011335186 0.16953807 -0.20341942
000050 16 b0 19 bd 6f 5a 0f 3e 0c 1b 66 be 81 db 41 3d
       -0.037521444 0.13999341 -0.22471255 0.047328476
000060 63 ef cc bc df 5e 04 be 44 8d f7 bc b0 2c d4 bd
       -0.025016492 -0.12926815 -0.030218728 -0.10360086
000070 ba 62 ca 3c cb 60 69 bd 22 fd 15 3e a2 67 23 bc
       0.02470528 -0.056977075 0.14647344 -0.009973438
000080 92 5d f1 bd 3c 71 b2 bc fd d5 de 3d 94 c2 ef bd
       -0.11785425 -0.02178251 0.10880659 -0.11707035
000090 c8 57 8f 3d 55 91 47 3e 41 af 9d 3c 6a 6a ef bd
       0.06999165 0.19489034 0.019248607 -0.11690219
0000a0 81 91 cd bd b7 31 35 be 5b 77 12 be 5b 88 6b 3d
       -0.10037518 -0.17694746 -0.14303343 0.057503086
0000b0 d4 57 a4 3d 32 53 c2 3d 48 b3 b4 3d 56 9c 2e bd
       0.080245644 0.094885245 0.08823258 -0.042629562
0000c0 3a d7 9d be 7c 65 8e 3c d5 77 0e 3d 55 81 a7 bd
       -0.30828267 0.017382376 0.03478225 -0.08178965
0000d0 c4 41 a0 bc ef 34 f9 bd 83 2e 08 3e ff d2 43 bc
       -0.01956261 -0.121682994 0.13298993 -0.011952161
0000e0 81 ec 88 bd 78 9d 49 3d 49 9a 69 bd 3c 94 e8 ba
       -0.066857345 0.04922244 -0.057031903 -0.0017744373
0000f0 6a be d4 bc ad 8f 2d bd 72 c9 b0 3d e8 67 e8 bd
       -0.025969703 -0.042373348 0.08632173 -0.113479435
000100 2f 09 25 bc bb 59 d1 3d b3 24 ad bd 64 85 67 bd
       -0.01007299 0.10222193 -0.084542654 -0.056523696
000110 91 c3 8a bd 2a 54 1b 3e 50 4c 99 3c 97 5c d7 bd
       -0.067755826 0.15168825 0.018713146 -0.10515707
000120 9a ab cc bc c0 13 b6 3d f7 fa fc 3d 79 6c 16 3e
       -0.02498417 0.08890486 0.12352555 0.14689817
000130 24 c6 85 3d b2 e8 a5 bd 89 ff 55 3c 41 25 16 bd
       0.06531933 -0.08101024 0.013061413 -0.03665662
000140 bf f0 47 3d 66 2f ca bc 17 be 85 bd 48 43 13 3e
       0.048813578 -0.024680804 -0.065303974 0.14381135
000150 af 55 7b bc 25 88 09 bd b3 6e 62 bd 64 cb 2c 3e
       -0.015340253 -0.033577103 -0.055281352 0.16874462
000160 f4 33 c6 3d d7 0f d0 3d 99 0c 6c bd 5b 5c 78 3b
       0.09677878 0.10159271 -0.0576292 0.0037896845
000170 c3 08 c9 3c 9a 0f 83 bc 72 77 40 3d 6a a2 5c bd
       0.02454031 -0.01599865 0.046988912 -0.053865828
000180 15 ea ab bd 40 31 3c 3d 60 70 ba bc 9d 2b 2c 3e
       -0.08394257 0.045945406 -0.022758663 0.16813512
000190 4a 76 d0 bd 44 a0 fb bd 80 08 56 bd 09 3e 25 bd
       -0.10178812 -0.122864276 -0.0522542 -0.040342364
0001a0 c1 e6 bd bd 0f 12 40 3e 77 c3 33 3e e8 2c 8c 3b
       -0.092725284 0.18756889 0.17555033 0.004277814
0001b0 ca 1c 2f 3d d2 51 a8 3d c3 8d 5c bd 2c 69 4f bd
       0.042752065 0.08218731 -0.053846132 -0.05063741
0001c0 22 79 14 bd d3 4f 33 3c 71 51 85 3d af dd 2f 3e
       -0.036248334 0.010944325 0.06509674 0.1717441
0001d0 53 7d 52 bd 0e c9 d2 bc 97 6c 27 3e b1 36 f6 bc
       -0.05138905 -0.025730636 0.16350017 -0.030055376
0001e0 15 6b 0f be ea ca 47 bd 46 a9 93 bd 03 bb a0 ba
       -0.14005692 -0.0487775 -0.07210021 -0.0012262765
0001f0 95 d0 4d be c3 20 56 bc 81 51 a6 bc 98 46 30 be
       -0.20099099 -0.013069334 -0.020302536 -0.1721443
000200 4c 98 d3 3c 24 12 47 3d b3 fd 81 3d fe 32 b0 3c
       0.025829457 0.048601285 0.063472174 0.02150869
000210 0d 1f 95 3d 85 59 f2 bd 68 b4 dd 38 ff 64 15 be
       0.07281313 -0.11833481 0.000105717045 -0.14589308
000220 3a d0 45 3c aa 06 5a bc 8d 8e 82 bd 20 30 d0 bd
       0.012073571 -0.013307253 -0.06374846 -0.10165429
000230 16 81 00 be 7f 60 ef bd 20 1a 27 bb 75 5e 9b 3d
       -0.12549242 -0.11688327 -0.002549775 0.075863756
000240 53 ea 6f 3b b3 e6 3f bd 03 2d 48 3d fe 03 f8 bd
       0.0036608174 -0.04685087 0.04887105 -0.121101364
000250 9f ff 81 bd 01 9e 11 bd 7a d5 6f bd 80 f1 02 bd
       -0.06347584 -0.035551075 -0.058553196 -0.031968594
000260 f5 39 42 bd 0a cb d0 bc 56 71 27 bc d4 7b 58 3c
       -0.047418553 -0.025487442 -0.0102198925 0.013213117
000270 91 f6 9e 3c 1a 1c 5c bc d0 fd ac 3b a4 a6 ab 3c
       0.019404681 -0.013434434 0.0052792802 0.020953484
000280 eb 55 9f bd 1a f2 26 bd fc 84 95 bc 01 4f e9 3c
       -0.077800594 -0.04075823 -0.018251888 0.028480055
000290 69 ec 07 bd 3e 7a 08 3e b7 11 e2 3d 0f 9a d3 bd
       -0.033184443 0.13327882 0.11038535 -0.10332119
0002a0 f4 6e 29 bc 7d 4f 87 3d 1c fe 57 bd a6 d9 28 bd
       -0.010341395 0.06606958 -0.052732572 -0.04122319
0002b0 a6 0d e8 bd c0 2c ef bd d5 91 3e 3d a4 b8 3f be
       -0.11330728 -0.11678457 0.046525795 -0.18722779
0002c0 02 e9 59 be 74 40 2c bd 9a d8 7e bd 5b 92 8a bd
       -0.21280292 -0.042053655 -0.062218286 -0.06766196
0002d0 18 ca 82 bc de 7d 25 bc 10 5c f2 bd ac a2 8b 3d
       -0.015965506 -0.01010081 -0.11833966 0.068181366
0002e0 d1 16 ee bd 92 f3 07 3d 34 08 1d be 25 dc 00 be
       -0.11625446 0.03319127 -0.1533516 -0.12583978
0002f0 85 e6 56 3d 65 df dc bd fc 5d fd bd a3 7b d9 bd
       0.052465934 -0.107847966 -0.12371442 -0.10619285
000300 e7 cc 7a 3c 28 c3 34 be 20 72 ff 3d a5 84 90 3c
       0.015307642 -0.17652571 0.124729395 0.017641375
000310 53 31 15 be c9 b4 b3 bd 72 41 a5 bc 35 e1 8a bb
       -0.14569597 -0.087747164 -0.020172808 -0.0042382726
000320 ef 33 d0 3d 3d 3e 01 3e 26 f0 31 bd 53 cc d6 bd
       0.101661555 0.12621398 -0.043441914 -0.104881905
000330 f2 77 57 3c f2 38 89 3d 16 86 eb 3d bf d4 8a bd
       0.013151156 0.067003146 0.11500184 -0.06778859
000340 b5 6b 72 3d 18 b4 37 3b 20 44 c3 3c 3b e9 92 3d
       0.05918475 0.0028030928 0.023836195 0.071733914
000350 7f e8 f6 bd c5 d9 10 3d 24 14 dc bc 44 67 42 3d
       -0.12056064 0.03536393 -0.026865073 0.047461763
000360 04 5c 60 bd 42 78 87 bc e2 ab ef bb 7c 22 84 bd
       -0.054775253 -0.016536836 -0.007314191 -0.0645189
000370 15 82 aa bb f3 cb f0 bd b2 8d 9f 3d 28 58 66 3d
       -0.0052034953 -0.1175765 0.07790698 0.056236416
000380 e5 d9 21 be 72 3a ff 3d 84 87 6d bc 3a 4d cf bd
       -0.15805776 0.124623194 -0.0144976415 -0.10122152
000390 66 1f 53 3d 23 ce bd bc d5 5a e7 bd 1c 40 3b 3e
       0.051543616 -0.023169583 -0.11296622 0.18286175
0003a0 2c fd ab bd 3f fe a6 bd 52 14 07 bd 5e ea 93 3c
       -0.08397898 -0.08153962 -0.032978363 0.01805609
0003b0 f7 45 bf bd 94 2f 1e 3d 7a 6e bc 3d b3 1b f0 bd
       -0.093395166 0.038619593 0.09200759 -0.11724033
0003c0 88 65 f2 bc 7c ea a3 bc 1c 7f ab 3c b3 a2 f7 bd
       -0.02958943 -0.020009272 0.020934634 -0.12091579
0003d0 e6 a0 3b bd ec 89 c0 bd 83 06 f6 3d a7 ea 5a 3d
       -0.04580774 -0.094013065 0.12012961 0.05344644
0003e0 c9 f8 39 be ca 32 9b 3d be 94 05 be 4c e2 b3 3d
       -0.1816131 0.075780466 -0.13045022 0.08783397
0003f0 6d 5d 50 3d 04 c3 43 3d d5 53 6b 3b 20 35 da 3d
       0.050870348 0.047793403 0.0035908122 0.10654664

network_body._body_endoder.seq_layers.2.bias f4 [128]
000000 ad e3 6e bd f6 8a cb 3b af 96 d4 bd d3 f1 14 bd
       -0.058322597 0.006211634 -0.10380303 -0.036363434
000010 5b 17 cf bb 0f cd 2c bd 94 3b 3e bd 10 ea 89 3c
       -0.006319923 -0.042187747 -0.046443537 0.016835243
000020 80 b7 9d bd e3 d2 15 bd 0e cd cf bc 6c 5b 12 bd
       -0.077010155 -0.03657807 -0.025366332 -0.035731718
000030 e3 43 ab bd 29 f5 88 bc 50 db 68 bd d0 86 13 bd
       -0.08362558 -0.016718464 -0.056849778 -0.03601724
000040 54 51 3b bd 76 8b 2d bd ce f9 68 bd 8a 61 cf bc
       -0.045731857 -0.04236933 -0.056878857 -0.025315065
000050 f7 94 68 bd 6d 6d 29 bc 39 b0 8b bd 33 62 5a bd
       -0.05678269 -0.010341031 -0.06820721 -0.053316306
000060 87 df 73 bd 80 57 9c bd cb 12 5a bd f0 10 bb bc
       -0.059539344 -0.07633877 -0.05324058 -0.022835225
000070 d9 d7 93 bb 74 3c 5c bc f2 73 88 bd a8 47 df bd
       -0.004511815 -0.0134421475 -0.0666274 -0.10902339
000080 0e a4 9e bc 68 69 bc bd d0 ce 92 bc d9 1c 42 bd
       -0.019365337 -0.09199792 -0.017920882 -0.047390793
000090 4d a7 66 bd 71 e8 9e bd fd 64 41 bd 05 f7 b9 bd
       -0.056311894 -0.077591784 -0.04721545 -0.09080318
0000a0 5e 85 81 bc 04 f5 63 bc d2 3d 3e bd fe f4 05 bd
       -0.015810665 -0.013913397 -0.046445675 -0.032704346
0000b0 0e 1e 3f bd 43 1b 2b 3c 03 22 8f bd 9e 28 5a bc
       -0.04665952 0.010443511 -0.06988909 -0.013315348
0000c0 49 3f 03 bd fc 89 9d bc bd 86 e7 bd 57 1c 6f bd
       -0.032042775 -0.019230835 -0.11304996 -0.058376636
0000d0 bb 0d 1b 3d 6d e1 be bc ef 63 b8 3b b9 e9 d6 bd
       0.03785489 -0.02330085 0.0056271474 -0.10493798
0000e0 ba fe 21 bd fd fd 9d bd 4c ad bb bc c7 82 cb bc
       -0.039549567 -0.0771446 -0.022909783 -0.024842633
0000f0 a4 36 59 bd 7b 05 e6 bc 25 ac 7c bc bd 60 05 bd
       -0.053030625 -0.028078785 -0.015421902 -0.03256296
000100 af 29 f0 bc 89 5c 77 bd f0 f0 90 bd 44 48 45 bd
       -0.029316751 -0.060390983 -0.07077205 -0.04816462
000110 36 1c 9f bb 57 d6 a8 bc d1 32 f2 3c 72 d4 0e bd
       -0.004855658 -0.020610018 0.029565247 -0.034870572
000120 f2 26 f2 bc da b4 4e 3c 9d 31 6d bc a1 bf 26 bd
       -0.029559586 0.012616361 -0.014477161 -0.040710095
000130 ee b9 49 3c b6 95 27 bd ae 87 8a bd 94 c2 11 bd
       0.0123123955 -0.04091426 -0.0676416 -0.035585955
000140 13 a7 51 bd 7c 90 e1 ba a4 ff 34 bd 12 78 5e bd
       -0.051184725 -0.0017209197 -0.04418911 -0.054313727
000150 36 56 2c bd c8 72 3d bd af d8 c8 bc 38 5c 58 bd
       -0.042074405 -0.046252042 -0.024517385 -0.05282232
000160 81 ba 4d bd e2 f6 b3 bb d0 83 0b bd bf ae 8b bc
       -0.050226692 -0.005492077 -0.034061253 -0.017051099
000170 82 da 81 bd 28 a8 8b bd d9 7f 1e bd 8d cd 5c bc
       -0.06340505 -0.06819183 -0.038696144 -0.0134767415
000180 b1 5d f4 bc 4d 42 86 bc 9c 04 27 bd ef 0b 8b bd
       -0.029829832 -0.016389037 -0.04077588 -0.067893855
000190 12 61 62 bd 69 5f bc bc f4 51 19 bd 88 be b3 3c
       -0.055268355 -0.022994714 -0.037431672 0.021941438
0001a0 68 df 69 bd ec d1 69 bd e9 2c 0a bd 76 bf 99 bc
       -0.057097822 -0.057084963 -0.033734236 -0.018768054
0001b0 37 cb a2 bb ef 2d 00 3c c6 da 9b bc 11 50 7b bd
       -0.0049680728 0.007823451 -0.019025218 -0.061355654
0001c0 ae fb 4e bd bd b2 fa bc 9e 8e 27 bc be 43 62 bd
       -0.05053299 -0.030602807 -0.010226874 -0.055240385
0001d0 c1 14 0f bd da 79 08 bd 85 59 83 bc ef 9c df bc
       -0.0349319 -0.03331933 -0.016033897 -0.027296511
0001e0 46 71 0f 3d 75 de 87 bc 7a 5d 80 bd a9 31 ee bc
       0.035020135 -0.016585568 -0.06267829 -0.029076414
0001f0 88 e9 cf bc ea 72 0d bd 8b 14 15 bd 61 95 9a bc
       -0.025379911 -0.03453342 -0.036396544 -0.018870058

action_model._continuous_distribution.log_sigma f4 [1, 2]
000000 bb c3 16 3c a5 37 2e 3c
       0.009201939 0.010633384

action_model._continuous_distribution.mu.weight f4 [2, 128]
000000 17 78 80 3b d4 bd b0 3b 98 c7 a5 ba f0 90 aa 3a
       0.003920566 0.005393723 -0.0012647985 0.0013013165
000010 e4 05 31 3a ad 90 cb bb 57 15 19 3b 75 8b ec 3b
       0.0006752892 -0.006212315 0.0023358667 0.007218773
000020 5d 7c cb ba 21 f6 e0 b9 1c 4c dc ba d0 36 24 3b
       -0.0015524734 -0.0004290799 -0.001680735 0.0025057085
000030 e4 65 65 3b 08 61 52 3b ff 37 80 ba cb e8 0c bc
       0.0035003358 0.0032101292 -0.0009782313 -0.008600424
000040 18 b7 0b 3c b6 ab 4a 3a 58 2a 59 3b 25 4e b8 b9
       0.00852754 0.00077312754 0.003313681 -0.00035153437
000050 ae 1f 7b 3b f7 53 31 bb c4 e8 f4 bb 39 c6 ad bb
       0.0038318443 -0.0027058104 -0.007474037 -0.005303171
000060 10 6f 11 3a dd b9 56 b9 2f 82 8c 3b 02 37 66 3a
       0.00055478606 -0.0002047787 0.00428798 0.00087820005
000070 a8 f6 42 ba 53 65 00 3c 65 53 8f 39 38 16 b6 ba
       -0.00074372673 0.007836658 0.0002733722 -0.001389212
000080 a3 fa c0 bb 17 20 e1 3b 4d 35 66 3b bd bc 9a 3b
       -0.005889253 0.0068702805 0.0035126985 0.0047222064
000090 31 df e6 3a 34 6a 33 bb 36 3d 14 bb 2e 00 7c 3c
       0.0017614124 -0.0027376534 -0.0022619492 0.015380902
0000a0 ff 09 54 3d eb 18 be bb b5 35 1e 3b eb 28 e9 3c
       0.051767346 -0.0058013103 0.0024140899 0.028461894
0000b0 09 2e cc bb 7d 78 63 bb a5 06 b8 3b 45 46 24 3c
       -0.0062310738 -0.0034709268 0.0056160265 0.010026519
0000c0 93 c5 f4 3b 2f ad 11 bb e9 c1 80 ba ba 0f 21 3b
       0.0074698417 -0.002222847 -0.0009823415 0.0024576024
0000d0 51 4b 0f 3c 3f 23 9c bb ee dd 97 ba f3 c9 ea ba
       0.008745984 -0.004764944 -0.0011586526 -0.0017912969
0000e0 d9 ef db 3a c4 b9 78 3b 0f 65 a4 3a 5a fc ca 3a
       0.0016779854 0.0037952522 0.0012542325 0.0015486584
0000f0 fe d4 4f ba 22 d2 b7 bb 5e bd 0c bb ff 52 d4 3a
       -0.00079281616 -0.0056097666 -0.0021475176 0.0016199051
000100 54 b8 ca 3b 72 5e 06 ba 8a 0c c2 bb 36 ad a9 3b
       0.0061865244 -0.0005125768 -0.005921905 0.005178119
000110 33 62 9f 3b 97 87 29 3a 4b 7a 3c 3b 46 20 09 3d
       0.004864001 0.0006467043 0.0028759416 0.033478044
000120 d2 fb 7c 3c 32 72 c6 3a 14 cc 8d 3b ce 69 4e 3b
       0.015440898 0.0015140234 0.0043273065 0.003149617
000130 ec 25 b1 3b 62 c1 c2 3a eb 36 11 3a 9d 20 44 bb
       0.005406132 0.0014858658 0.00055394945 -0.0029926666
000140 d0 af 43 3a 91 bc 58 3d 40 1a d8 3b 7e b2 a2 3b
       0.0007464858 0.052914206 0.006594926 0.0049651256
000150 85 9a 7d 3b 8d 71 80 3b 56 e4 b5 bb 8d cc da bb
       0.0038696837 0.0039197863 -0.0055509014 -0.0066772164
000160 97 d4 1c bd 70 f7 1f 3b 9f e6 7a 3b 57 ff 91 3b
       -0.03828868 0.002440896 0.0038284434 0.0044554877
000170 5a df ab 3b ff fb 46 bb 9c 1e 75 3a 3b f5 4b bb
       0.0052451314 -0.0030362604 0.00093505695 -0.003112151
000180 48 79 cf bb d6 06 e2 ba 30 0b 30 3a 64 28 cb 39
       -0.0063315965 -0.0017244469 0.0006715534 0.0003874927
000190 ee 00 d1 3a d3 c1 af bc 97 d1 46 3b fa 69 83 3b
       0.0015945712 -0.021454727 0.0030337328 0.004010436
0001a0 09 60 c1 bb 71 61 4e bc 63 f1 c0 3b c3 51 a1 38
       -0.005901341 -0.012596474 0.0058881505 7.6923076e-05
0001b0 43 11 14 3c 66 25 16 3c 86 2b c5 bb 21 a0 37 3b
       0.009037319 0.00916419 -0.0060171513 0.0028019028
0001c0 d3 73 82 3a 4a d8 93 bb 32 9f 0f 3c 9b cb 1f 3a
       0.0009952731 -0.0045118676 0.008765982 0.0006095708
0001d0 e8 cd b6 bb 15 2c e2 3b ea 2e a0 3b 3f b7 b9 3c
       -0.005578745 0.0069022276 0.004888405 0.022670386
0001e0 6e 1d c8 3a 62 c0 ee 3a 8e 82 c2 3b a7 fb 1c bb
       0.001526756 0.0018215294 0.0059359735 -0.0023953707
0001f0 3e 3c 9d bb f2 2d 4e bb 77 7f 97 bb d8 a8 4c bb
       -0.004798441 -0.003146049 -0.0046233493 -0.0031228568
000200 46 3d a9 bc ae bc 0a 39 05 e1 2a 3c a0 59 4b bb
       -0.0206591 0.00013230994 0.010429625 -0.0031028762
000210 ea 26 2a bc 7c fc ba ba 17 f2 10 bb fc a2 0c ba
       -0.010385254 -0.001426592 -0.0022116953 -0.0005364863
000220 95 ba 93 bc c9 a2 60 39 c8 5e 06 3a c8 b9 95 bb
       -0.018033305 0.00021422947 0.0005125818 -0.004569266
000230 e1 41 2b 3b ae f9 12 bc 0f 8c 1d bb d8 dd 89 bc
       0.0026131796 -0.008970661 -0.002403978 -0.016829416
000240 89 d7 1b bd 17 bc 56 bb a2 97 07 3b e4 55 73 bb
       -0.038047347 -0.003276592 0.0020689745 -0.0037130052
000250 b7 99 f4 bb e2 c3 f3 39 d4 8d 22 bb 0c 97 7b ba
       -0.0074646133 0.00046494516 -0.0024803774 -0.0009597398
000260 ce fc dd b9 3f d3 bf 3b f5 fb b7 ba 87 19 26 3b
       -0.0004234076 0.00585404 -0.0014036881 0.0025344805
000270 5d 67 66 bb 5f a2 29 bb 8e 52 06 bc 49 bd 9d 3b
       -0.0035156824 -0.0025884134 -0.0081983935 0.0048138243
000280 67 a2 4c bb 88 ba 93 3c f8 f5 a1 3a bb b9 ff bb
       -0.003122473 0.018033281 0.001235663 -0.007804123
000290 07 1f 32 bb 4e 22 57 3c 87 d9 0d 3b e7 87 1e bb
       -0.0027179138 0.0131307375 0.002164455 -0.002418989
0002a0 71 fe 5b 3b 53 51 32 3b 71 92 5e 3a 7a 40 68 bc
       0.0033568407 0.0027209118 0.00084904494 -0.014175529
0002b0 1e 85 c4 3b ce c1 ab 3b eb 9c 93 3b e0 3d bd bb
       0.005997314 0.005241609 0.00450479 -0.0057751983
0002c0 bb 74 93 3c 2d 0e 70 bc 75 d9 d3 3b 23 54 6b bb
       0.017999997 -0.014651817 0.006465132 -0.0035908304
0002d0 a5 30 21 bb 2e 14 09 ba f8 1b 99 bb a3 9b b8 3b
       -0.0024595645 -0.0005229142 -0.0046725236 0.0056337877
0002e0 6e 8f 0a bb cd 7f e0 ba 1c c5 da 3a ca 99 ef b9
       -0.002114262 -0.0017127931 0.0016690823 -0.00045700214
0002f0 50 50 1b bb 1a df a4 bb 33 57 42 3b 18 d8 1f bd
       -0.0023698993 -0.0050314786 0.0029654026 -0.039024442
000300 af a9 82 3c 20 a7 96 3b 3d 96 d7 bc d6 e5 ca bb
       0.015950052 0.0045975596 -0.026316756 -0.0061919494
000310 56 ac 36 bb 5c c0 f7 3a 5f de b7 ba 83 08 d7 bc
       -0.0027873716 0.0018901932 -0.0014028064 -0.026249176
000320 0e 3e 06 bd 63 67 99 3b 3d d8 8a bb cb 89 b1 bb
       -0.032774024 0.004681514 -0.0042372034 -0.0054180375
000330 28 c8 a0 bb 62 5d 98 b9 48 37 ad 3c a2 b0 41 3a
       -0.004906673 -0.00029061275 0.021144524 0.0007388686
000340 fa 2e 9c 38 d8 2d 23 bb 99 d6 7c 3c 72 83 e1 b9
       7.44741e-05 -0.0024899151 0.015432023 -0.0004301328
000350 80 5e a7 ba 07 c0 19 bc 14 c9 60 3b 42 b4 bc bb
       -0.0012769252 -0.009384162 0.003429954 -0.005758793
000360 c3 5c 5d bd f9 58 5a ba 93 d0 84 bb e8 0c 8f 3b
       -0.054043543 -0.0008329298 -0.0040531843 0.004365552
000370 ca ed a1 3b b6 cb 70 ba 1c 49 b9 bb 22 c1 0b 3b
       0.0049416767 -0.0009185629 -0.0056544673 0.0021324833
000380 bd e5 80 3b 46 f4 35 bc f2 c6 fa ba 28 7f 97 ba
       0.003933637 -0.011105603 -0.0019132777 -0.0011558281
000390 44 dc 20 3b f5 8a 61 3d 0f 75 47 bb 5e 51 48 bc
       0.002454535 0.05506416 -0.0030434763 -0.012226431
0003a0 bc 44 ec ba 30 74 2b bd 88 db a1 b9 e2 ed 40 ba
       -0.0018025856 -0.041858852 -0.00030871877 -0.0007359666
0003b0 c6 11 ec bb 2a c5 00 bc 43 f1 b3 3c e2 54 cc 3a
       -0.007204267 -0.007859508 0.021965628 0.0015589262
0003c0 61 02 23 bb 12 98 60 ba 35 28 85 3a cd 64 09 3b
       -0.0024873244 -0.0008567582 0.0010159077 0.0020964623
0003d0 47 12 4c bd 30 42 11 3b 95 23 0b bc 8a 1f 96 bc
       -0.049822118 0.0022164695 -0.00849237 -0.018325586
0003e0 94 65 31 ba cc 8f 01 bc f6 c4 64 bc 75 a2 f8 3a
       -0.00067671505 -0.007907819 -0.013962975 0.0018969314
0003f0 4f 32 9c 3a 9b ce 41 bc 70 09 30 3b b5 62 b8 3a
       0.0011916849 -0.011829044 0.0026861094 0.0014067503

action_model._continuous_distribution.mu.bias f4 [2]
000000 7e d4 81 bc 33 9f 4f 3d
       -0.015848394 0.050688934

exp_avg f4 [128, 36]
000000 a0 d4 2a b6 e0 c1 63 34 00 00 00 00 be 43 a3 35
       -2.5455738e-06 2.1211554e-07 0.0 1.2164162e-06
000010 cc 54 7e b8 27 f5 93 b6 4e 01 62 36 00 00 00 00
       -6.0637292e-05 -4.409481e-06 3.3677384e-06 0.0
000020 be 43 a3 35 74 df 94 b8 6d a6 2d b8 e4 ba 29 38
       1.2164162e-06 -7.098811e-05 -4.140141e-05 4.0466795e-05
000030 00 00 00 00 be 43 a3 35 48 8e 91 b8 e4 db 8f b8
       0.0 1.2164162e-06 -6.940641e-05 -6.859729e-05
000040 f7 db 8f 38 00 00 00 00 00 00 00 00 78 e4 db b8
       6.859743e-05 0.0 0.0 -0.000104852894
000050 00 84 a2 b8 92 9f a0 38 00 00 00 00 58 2b a3 35
       -7.749349e-05 7.659117e-05 0.0 1.2157061e-06
000060 41 aa d7 b8 2e ee 02 b9 4b ee 02 39 00 00 00 00
       -0.00010283711 -0.00012486495 0.00012486537 0.0
000070 00 00 00 00 a8 d5 f7 b8 b0 01 1c b9 6a 0b 1b 39
       0.0 -0.000118176744 -0.00014877948 0.00014786204
000080 00 00 00 00 58 2b a3 35 36 64 e5 b8 80 c3 05 38
       0.0 1.2157061e-06 -0.00010938237 3.1891745e-05
000090 7d 38 64 37 c0 af 79 35 00 00 00 00 f1 00 87 b7
       1.3603011e-05 9.301548e-07 0.0 -1.6093692e-05
0000a0 18 ce 20 b9 dc 31 77 b7 22 d5 b2 37 00 00 00 00
       -0.00015335565 -1.4733956e-05 2.1318501e-05 0.0
0000b0 f1 00 87 b7 11 64 47 b9 14 d0 0e b9 a8 e2 14 39
       -1.6093692e-05 -0.00019015397 -0.0001361969 0.00014198816
0000c0 00 00 00 00 f1 00 87 b7 2b d1 34 b9 40 fe 25 b9
       0.0 -1.6093692e-05 -0.00017244059 -0.00015830342
0000d0 58 fe 25 39 00 00 00 00 00 00 00 00 7e fb 8d b9
       0.00015830377 0.0 0.0 -0.00027080992
0000e0 77 7c 4a b9 35 fd 50 39 00 00 00 00 b0 03 87 b7
       -0.00019310588 0.00019930753 0.0 -1.6094971e-05
0000f0 5e 10 69 b9 c2 58 6e b9 f1 58 6e 39 00 00 00 00
       -0.00022226709 -0.00022730514 0.00022730582 0.0
000100 00 00 00 00 26 23 b2 b9 36 2f a8 b9 6e 05 ad 39
       0.0 -0.00033976993 -0.00032078632 0.00033001177
000110 00 00 00 00 b0 03 87 b7 e3 d6 75 b9 18 08 c4 37
       0.0 -1.6094971e-05 -0.00023445072 2.336879e-05
000120 66 b5 ad b6 49 eb e8 36 00 00 00 00 c0 99 b8 b5
       -5.1769193e-06 6.9415296e-06 0.0 -1.3753815e-06
000130 40 56 2d 36 85 f3 10 b8 e3 18 14 38 00 00 00 00
       2.5829213e-06 -3.455907e-05 3.5309127e-05 0.0
000140 c0 99 b8 b5 08 27 63 37 76 3f 9b 37 e0 51 95 b7
       -1.3753815e-06 1.3539342e-05 1.8506991e-05 -1.780031e-05
000150 00 00 00 00 c0 99 b8 b5 80 e5 a5 34 c0 56 0e b5
       0.0 -1.3753815e-06 3.0900628e-07 -5.302536e-07
000160 60 54 0e 35 00 00 00 00 00 00 00 00 bb c2 79 37
       5.3021904e-07 0.0 0.0 1.4886896e-05
000170 72 06 c2 37 44 0f bc b7 00 00 00 00 dc 91 b8 b5
       2.3129604e-05 -2.2418455e-05 0.0 -1.3751519e-06
000180 7f 32 2e b7 bd 80 a5 b7 c5 80 a5 37 00 00 00 00
       -1.0382965e-05 -1.9729481e-05 1.9729496e-05 0.0
000190 00 00 00 00 84 82 a3 37 04 df 49 36 78 38 07 b6
       0.0 1.949189e-05 3.0081146e-06 -2.0149437e-06
0001a0 00 00 00 00 e0 91 b8 b5 1c b1 64 b7 24 3e 11 38
       0.0 -1.3751524e-06 -1.36310955e-05 3.4628567e-05
0001b0 c8 69 4c b6 64 29 0b b8 00 00 00 00 cc 3e 1a 38
       -3.0459942e-06 -3.317873e-05 0.0 3.6774945e-05
0001c0 aa c8 a3 37 38 92 ba 38 f8 b9 dc b8 00 00 00 00
       1.9524556e-05 8.8964065e-05 -0.00010525057 0.0
0001d0 cc 3e 1a 38 aa 67 d8 b7 80 ed 77 b8 ca f5 3a 38
       3.6774945e-05 -2.5797479e-05 -5.9110578e-05 4.4574765e-05
0001e0 00 00 00 00 cc 3e 1a 38 9b 85 0f 38 d8 e3 61 36
       0.0 3.6774945e-05 3.4218287e-05 3.3660235e-06
0001f0 28 e5 61 b6 00 00 00 00 00 00 00 00 8e 0b 9b b7
       -3.3661e-06 0.0 0.0 -1.848282e-05
000200 f8 30 ea b7 d8 ba 57 37 00 00 00 00 d4 3f 1a 38
       -2.7917777e-05 1.2858502e-05 0.0 3.6775906e-05
000210 1b de dc 38 fe 6e ef 37 75 6f ef b7 00 00 00 00
       0.00010531788 2.8542705e-05 -2.8542921e-05 0.0
000220 00 00 00 00 ca 6e f9 b7 1d 67 88 b6 4b 1b 8c b7
       0.0 -2.9734703e-05 -4.06512e-06 -1.670201e-05
000230 00 00 00 00 d3 3f 1a 38 2c d1 17 39 70 b8 51 37
       0.0 3.6775902e-05 0.00014478405 1.25003135e-05
000240 b8 b9 f7 b7 6e 0a 0f 38 00 00 00 00 f4 d0 0f b7
       -2.9531177e-05 3.410357e-05 0.0 -8.572115e-06
000250 13 5e 80 b9 40 55 e1 b8 08 89 e5 38 00 00 00 00
       -0.00024484153 -0.00010744715 0.00010945095 0.0
000260 f4 d0 0f b7 70 58 84 b9 28 1a 18 b9 24 04 1a 39
       -8.572115e-06 -0.00025242893 -0.00014505594 0.00014688127
000270 00 00 00 00 f4 d0 0f b7 fb f6 8f b9 b0 4f 63 b9
       0.0 -8.572115e-06 -0.000274591 -0.00021678093
000280 d2 4f 63 39 00 00 00 00 00 00 00 00 d0 8b c7 b9
       0.00021678142 0.0 0.0 -0.00038060406
000290 12 ff 8a b9 5a 1d 8c 39 00 00 00 00 d4 dc 0f b7
       -0.00026511453 0.0002672475 0.0 -8.57488e-06
0002a0 ed 6a d3 b9 41 ac c3 b9 6e ac c3 39 00 00 00 00
       -0.00040324722 -0.00037321638 0.00037321768 0.0
0002b0 00 00 00 00 98 27 fb b9 b3 81 f6 b9 fa 93 f8 39
       0.0 -0.0004790395 -0.0004701741 0.00047412497
0002c0 00 00 00 00 d4 dc 0f b7 d1 b9 02 ba c7 ef 90 38
       0.0 -8.57488e-06 -0.0004986795 6.911117e-05
0002d0 b9 b7 46 b9 9c 44 46 39 00 00 00 00 bb 11 c0 b5
       -0.00018951193 0.0001890831 0.0 -1.4310275e-06
0002e0 97 6e 7c b9 62 f6 1e b9 4f 8d 1e 39 00 00 00 00
       -0.0002407379 -0.00015159839 0.00015120696 0.0
0002f0 bb 11 c0 b5 7c 51 6a b9 32 b8 19 b9 bc 74 19 39
       -1.4310275e-06 -0.00022346334 -0.00014659835 0.00014634704
000300 00 00 00 00 bb 11 c0 b5 94 61 7f b9 88 84 37 b9
       0.0 -1.4310275e-06 -0.00024355046 -0.00017501612
000310 9c 84 37 39 00 00 00 00 00 00 00 00 98 bb 9c b9
       0.00017501641 0.0 0.0 -0.00029894407
000320 66 27 53 b9 86 15 53 39 00 00 00 00 2a 3f c0 b5
       -0.00020137205 0.00020130546 0.0 -1.4323498e-06
000330 e6 60 ae b9 1c 95 cf b9 44 95 cf 39 00 00 00 00
       -0.0003326006 -0.00039593212 0.00039593328 0.0
000340 00 00 00 00 ba c5 82 b9 51 5a cd b9 8c c1 cd 39
       0.0 -0.0002494285 -0.00039167938 0.0003924485
000350 00 00 00 00 28 3f c0 b5 9a b9 af b9 4a 6d 21 b9
       0.0 -1.4323496e-06 -0.00033516885 -0.0001539487
000360 d6 13 a0 b8 5f 07 ad 38 00 00 00 00 5c 5c 37 b7
       -7.633089e-05 8.250656e-05 0.0 -1.0929154e-05
000370 f3 d5 a2 b9 af a2 fd b8 6f a9 01 39 00 00 00 00
       -0.00031058452 -0.00012094282 0.00012365518 0.0
000380 5c 5c 37 b7 3e 7e a8 b9 84 69 40 b9 78 fb 42 39
       -1.0929154e-05 -0.00032137515 -0.00018349855 0.00018594961
000390 00 00 00 00 5c 5c 37 b7 5c b0 b0 b9 40 5d 87 b9
       0.0 -1.0929154e-05 -0.00033700734 -0.00025818683
0003a0 54 5d 87 39 00 00 00 00 00 00 00 00 97 e5 f0 b9
       0.0002581874 0.0 0.0 -0.00045947425
0003b0 82 b2 a6 b9 e5 2e a8 39 00 00 00 00 99 6a 37 b7
       -0.00031794986 0.00032078396 0.0 -1.0932469e-05
0003c0 ec 05 f8 b9 7a 1c f0 b9 b2 1c f0 39 00 00 00 00
       -0.00047306658 -0.00045797584 0.00045797747 0.0
0003d0 00 00 00 00 4d c4 0e ba 79 b6 13 ba ec 0d 15 3a
       0.0 -0.0005446121 -0.00056347955 0.00056859734
0003e0 00 00 00 00 99 6a 37 b7 c0 72 0f ba 2a c7 39 b8
       0.0 -1.0932469e-05 -0.0005472116 -4.4292923e-05
0003f0 cf f9 dc b6 ce 99 01 37 00 00 00 00 80 a6 d4 b5
       -6.5855925e-06 7.72481e-06 0.0 -1.5843689e-06

exp_avg_sq f4 [128, 36]
000000 3a fb 40 32 31 5d 54 35 00 00 00 00 35 d4 52 35
       1.1232993e-08 7.9111766e-07 0.0 7.85399e-07
000010 e2 58 99 34 80 2c 6f 33 26 e4 15 34 00 00 00 00
       2.8563142e-07 5.5686996e-08 1.3959706e-07 0.0
000020 35 d4 52 35 f5 6b 9a 34 bf de 8d 33 28 5f c4 33
       7.85399e-07 2.8763284e-07 6.6063414e-08 9.14427e-08
000030 00 00 00 00 35 d4 52 35 3f af ca 34 d0 f7 be 33
       0.0 7.85399e-07 3.775294e-07 8.892641e-08
000040 ed f7 be 33 00 00 00 00 00 00 00 00 96 05 81 34
       8.892662e-08 0.0 0.0 2.4032187e-07
000050 7a 6a 0e 34 d8 b8 a9 33 00 00 00 00 7d d7 52 35
       1.3263517e-07 7.9032986e-08 0.0 7.8544673e-07
000060 7f b9 6d 35 5d 9d a3 34 a9 9d a3 34 00 00 00 00
       8.855931e-07 3.0475613e-07 3.047583e-07 0.0
000070 00 00 00 00 53 d6 e3 34 bf 86 bf 34 e5 4e 1f 34
       0.0 4.2437986e-07 3.5674563e-07 1.483673e-07
000080 00 00 00 00 7c d7 52 35 4d 57 6c 35 92 0b 6d 35
       0.0 7.854467e-07 8.804389e-07 8.8306217e-07
000090 6c 9f a1 34 b4 99 e6 34 00 00 00 00 42 a8 0a 34
       3.0104582e-07 4.2952672e-07 0.0 1.2913463e-07
0000a0 b7 03 5a 34 f3 11 f9 33 79 ab 0c 34 00 00 00 00
       2.0304184e-07 1.1598231e-07 1.3100897e-07 0.0
0000b0 42 a8 0a 34 00 b2 65 34 ee 78 11 34 42 f5 18 34
       1.2913463e-07 2.1392043e-07 1.3548171e-07 1.4245327e-07
0000c0 00 00 00 00 42 a8 0a 34 9d eb 73 34 8f 76 19 34
       0.0 1.2913463e-07 2.2716854e-07 1.4292367e-07
0000d0 b5 76 19 34 00 00 00 00 00 00 00 00 d2 1b 8d 34
       1.4292421e-07 0.0 0.0 2.6283539e-07
0000e0 27 88 00 34 5a 57 f6 33 00 00 00 00 ee a8 0a 34
       1.1970461e-07 1.1471157e-07 0.0 1.2913708e-07
0000f0 81 67 cd 34 27 2c a7 34 69 2c a7 34 00 00 00 00
       3.8259535e-07 3.11383e-07 3.1138487e-07 0.0
000100 00 00 00 00 34 c4 cd 34 fc d5 4e 34 6b 2b 2d 34
       0.0 3.8326982e-07 1.9263092e-07 1.6127676e-07
000110 00 00 00 00 ed a8 0a 34 cf d3 f8 34 f6 3f 79 35
       0.0 1.2913706e-07 4.634771e-07 9.2852804e-07
000120 b6 20 3d 34 bd 6d bd 34 00 00 00 00 66 96 31 34
       1.7613897e-07 3.5283838e-07 0.0 1.6539124e-07
000130 42 6b 3d 34 6a b8 00 34 d0 e5 12 34 00 00 00 00
       1.7641017e-07 1.1988018e-07 1.3680915e-07 0.0
000140 66 96 31 34 da 8c 40 34 32 26 e0 33 a0 11 ed 33
       1.6539124e-07 1.7932635e-07 1.04377605e-07 1.10393785e-07
000150 00 00 00 00 66 96 31 34 d6 59 4c 34 66 58 0b 34
       0.0 1.6539124e-07 1.9031663e-07 1.2977543e-07
000160 87 58 0b 34 00 00 00 00 00 00 00 00 f2 e2 1e 34
       1.297759e-07 0.0 0.0 1.4797459e-07
000170 e5 f3 05 34 dc 3b f6 33 00 00 00 00 e8 a4 31 34
       1.2475319e-07 1.1466156e-07 0.0 1.6544402e-07
000180 31 e8 97 34 c8 2a 79 34 24 2b 79 34 00 00 00 00
       2.8294883e-07 2.3205496e-07 2.3205627e-07 0.0
000190 00 00 00 00 5c d1 02 34 8e b6 e0 33 77 30 72 33
       0.0 1.2183358e-07 1.0464019e-07 5.6389094e-08
0001a0 00 00 00 00 e8 a4 31 34 07 f6 80 34 76 50 e9 34
       0.0 1.6544402e-07 2.4020866e-07 4.3458175e-07
0001b0 83 f8 c0 34 39 fc e1 36 00 00 00 00 9c a7 d6 36
       3.5943603e-07 6.734885e-06 0.0 6.3972093e-06
0001c0 29 c0 ff 35 ae ec 85 34 3c 8e 81 35 00 00 00 00
       1.9054906e-06 2.4945388e-07 9.652645e-07 0.0
0001d0 9c a7 d6 36 9c 3d 00 36 e5 77 c1 34 9a f2 19 35
       6.3972093e-06 1.9109348e-06 3.6036286e-07 5.7349973e-07
0001e0 00 00 00 00 9c a7 d6 36 96 46 2d 36 7b e9 ae 34
       0.0 6.3972093e-06 2.5820095e-06 3.2579905e-07
0001f0 84 e9 ae 34 00 00 00 00 00 00 00 00 d4 2b 8f 35
       3.257993e-07 0.0 0.0 1.0667086e-06
000200 24 83 32 35 d0 08 84 34 00 00 00 00 53 a8 d6 36
       6.6501e-07 2.4593328e-07 0.0 6.3972925e-06
000210 6b be d8 36 de 6f c6 35 26 70 c6 35 00 00 00 00
       6.459469e-06 1.4784707e-06 1.4784789e-06 0.0
000220 00 00 00 00 7f 9c 8e 36 38 12 e3 35 f4 5a 8d 33
       0.0 4.2501483e-06 1.691812e-06 6.5823684e-08
000230 00 00 00 00 52 a8 d6 36 8e 45 d7 36 3f 0b e5 36
       0.0 6.397292e-06 6.4155965e-06 6.826041e-06
000240 66 ef 3c 32 38 3d a4 32 00 00 00 00 51 41 15 32
       1.0997473e-08 1.9119952e-08 0.0 8.687793e-09
000250 64 71 54 34 3f 15 af 33 bd 74 ae 33 00 00 00 00
       1.978529e-07 8.152937e-08 8.123741e-08 0.0
000260 51 41 15 32 9d ef 63 34 bb 61 d7 33 77 7e d7 33
       8.687793e-09 2.1228193e-07 1.0029495e-07 1.00347215e-07
000270 00 00 00 00 51 41 15 32 a1 08 71 34 5e f1 1a 34
       0.0 8.687793e-09 2.2448013e-07 1.4430177e-07
000280 7f f1 1a 34 00 00 00 00 00 00 00 00 6a 3f c2 34
       1.4430223e-07 0.0 0.0 3.6181456e-07
000290 ac 3a 1a 34 8d 1d 19 34 00 00 00 00 98 d4 16 32
       1.4363712e-07 1.4259986e-07 0.0 8.779487e-09
0002a0 6f 0d cb 34 88 66 bf 34 dc 66 bf 34 00 00 00 00
       3.782147e-07 3.5651124e-07 3.5651362e-07 0.0
0002b0 00 00 00 00 d2 40 0c 35 a3 ec cd 34 cb 62 cc 34
       0.0 5.224839e-07 3.8356401e-07 3.8069842e-07
0002c0 00 00 00 00 96 d4 16 32 f3 31 14 35 24 7d df 34
       0.0 8.779486e-09 5.520698e-07 4.162804e-07
0002d0 96 c5 c9 36 cb 47 ca 36 00 00 00 00 eb a8 1a 33
       6.013269e-06 6.028427e-06 0.0 3.600955e-08
0002e0 7e 1a 87 35 78 3d 40 35 8a 0f 40 35 00 00 00 00
       1.0065994e-06 7.161502e-07 7.1548186e-07 0.0
0002f0 eb a8 1a 33 af a4 89 35 74 b5 2a 35 48 c6 2a 35
       3.600955e-08 1.0255225e-06 6.3593984e-07 6.361847e-07
000300 00 00 00 00 eb a8 1a 33 c7 b5 99 35 b1 eb 57 35
       0.0 3.600955e-08 1.1452292e-06 8.043672e-07
000310 ec eb 57 35 00 00 00 00 00 00 00 00 4d e9 ce 35
       8.0437053e-07 0.0 0.0 1.5416095e-06
000320 9a 6a 14 35 57 ae 14 35 00 00 00 00 7e df 1a 33
       5.528942e-07 5.5387994e-07 0.0 3.6059184e-08
000330 4a c8 03 36 5e 2f 08 36 9e 2f 08 36 00 00 00 00
       1.9637105e-06 2.029315e-06 2.0293296e-06 0.0
000340 00 00 00 00 29 86 0b 36 62 6c 94 35 be 51 95 35
       0.0 2.0790706e-06 1.1058403e-06 1.1125155e-06
000350 00 00 00 00 7e df 1a 33 c5 98 46 36 dd 38 dd 36
       0.0 3.6059184e-08 2.9593223e-06 6.592933e-06
000360 f0 99 62 34 18 f8 0a 35 00 00 00 00 63 8a ab 34
       2.1103892e-07 5.177003e-07 0.0 3.1951922e-07
000370 37 d3 73 34 41 74 3c 33 dd 23 ad 33 00 00 00 00
       2.2707978e-07 4.3877893e-08 8.062464e-08 0.0
000380 63 8a ab 34 74 9d 7f 34 f6 c7 8e 33 75 b9 ab 33
       3.1951922e-07 2.3806007e-07 6.648763e-08 7.9965425e-08
000390 00 00 00 00 63 8a ab 34 e2 6b 9b 34 bc cf 00 34
       0.0 3.1951922e-07 2.8949495e-07 1.1996502e-07
0003a0 d9 cf 00 34 00 00 00 00 00 00 00 00 9b a4 9d 34
       1.1996543e-07 0.0 0.0 2.9363295e-07
0003b0 71 5e 06 34 8a 01 ed 33 00 00 00 00 40 8e ab 34
       1.251408e-07 1.10364525e-07 0.0 3.1954733e-07
0003c0 b2 8d 22 35 8c 81 b7 34 e7 81 b7 34 00 00 00 00
       6.0555897e-07 3.4180664e-07 3.4180923e-07 0.0
0003d0 00 00 00 00 b0 b7 ee 34 c4 da b3 34 df 06 91 34
       0.0 4.4464605e-07 3.350052e-07 2.7013354e-07
0003e0 00 00 00 00 40 8e ab 34 e0 31 3a 35 80 07 3f 35
       0.0 3.1954733e-07 6.936298e-07 7.116396e-07
0003f0 8b eb 98 34 70 e9 99 34 00 00 00 00 5c c6 8c 30
       2.8483586e-07 2.866832e-07 0.0 1.0242718e-09

exp_avg f4 [128]
000000 84 e5 2e 38 cb 58 95 38 ce 22 65 b7 d3 bf 4b b8
       4.1698586e-05 7.121413e-05 -1.3657567e-05 -4.857762e-05
000010 50 51 27 39 ee 05 a1 38 42 8b 48 39 e8 a9 99 37
       0.00015956652 7.678183e-05 0.00019125364 1.831814e-05
000020 97 8f 64 b7 d1 c8 e8 b7 55 d9 2e 38 68 e6 94 39
       -1.3623291e-05 -2.7750068e-05 4.168724e-05 0.00028400426
000030 ee 51 2e b7 eb 43 82 b8 12 a3 28 b8 b4 62 5e b8
       -1.0390284e-05 -6.211534e-05 -4.0206192e-05 -5.302085e-05
000040 f8 bc a3 37 6f 29 08 38 69 b4 08 b9 27 2d 47 39
       1.951911e-05 3.2463515e-05 -0.00013037179 0.0001899494
000050 85 d2 52 38 c0 48 8a 33 48 55 b1 39 dc f6 3f b8
       5.0263963e-05 6.439359e-08 0.0003382361 -4.5767854e-05
000060 b4 4c 88 38 fe 94 a4 b8 e8 e9 8e 37 56 41 31 b7
       6.4992724e-05 -7.847881e-05 1.703664e-05 -1.0565234e-05
000070 5d 1e 9f 38 24 1a b0 37 6e 5e 31 b8 b0 57 6f b8
       7.5873664e-05 2.0993008e-05 -4.2288033e-05 -5.7063706e-05
000080 43 e3 6f 38 46 da 6f b7 48 37 fd 36 80 a8 1c b6
       5.7193694e-05 -1.4296331e-05 7.546423e-06 -2.3343891e-06
000090 be 03 37 37 46 53 af 37 ee f1 2f b7 bd 07 1c 38
       1.0908521e-05 2.0900403e-05 -1.04871415e-05 3.7200505e-05
0000a0 24 6d ec b6 41 9f 71 b8 50 ac 87 38 63 0b fe b6
       -7.0460537e-06 -5.7607194e-05 6.469397e-05 -7.5711155e-06
0000b0 a5 5b 20 b9 85 c3 61 38 e0 93 a4 35 e0 b5 4b b9
       -0.0001529293 5.3826272e-05 1.226199e-06 -0.00019427342
0000c0 d1 fa 4d 38 4e 09 2c 37 d8 9c ca b7 bb bb bc b8
       4.91094e-05 1.0254165e-05 -2.4153313e-05 -8.999506e-05
0000d0 35 ba b2 b8 72 d9 ea 37 c0 c6 02 b9 d0 25 a8 39
       -8.522385e-05 2.799623e-05 -0.00012471806 0.0003207163
0000e0 92 55 47 38 45 f8 00 38 65 94 59 37 c8 9f f7 b7
       4.752499e-05 3.0748797e-05 1.2968759e-05 -2.9519098e-05
0000f0 f8 90 2c b7 75 81 86 b8 91 77 72 b9 37 17 19 39
       -1.0285752e-05 -6.413731e-05 -0.0002312346 0.00014599865
000100 e8 ef d9 b7 28 21 8a 39 50 76 f8 b8 92 f3 da 39
       -2.598013e-05 0.00026346114 -0.00011847599 0.00041761674
000110 ae bd 58 37 00 44 9f b7 bc d9 52 37 3b 37 9f 38
       1.29187665e-05 -1.8985942e-05 1.2567671e-05 7.591998e-05
000120 b6 84 cf 37 d5 4b e7 b7 b5 f5 7f 38 48 c1 e6 b6
       2.4738121e-05 -2.7572658e-05 6.102557e-05 -6.877035e-06
000130 88 76 c9 38 38 f6 9c b9 0d 66 88 38 1a 4b 0f 38
       9.606505e-05 -0.00029938086 6.503994e-05 3.41638e-05
000140 c0 54 f0 35 4d 01 a6 38 88 23 dd b8 66 41 12 38
       1.7906059e-06 7.915739e-05 -0.000105447194 3.487002e-05
000150 26 b3 cb 38 56 72 2a b7 3b 06 34 b8 dc e5 28 b7
       9.713163e-05 -1.01594105e-05 -4.2921147e-05 -1.0067099e-05
000160 59 b6 8c 37 8e 0c fc 37 11 20 61 38 cc 86 97 36
       1.6774213e-05 3.0046587e-05 5.3674044e-05 4.515843e-06
000170 6b 11 e8 b7 b7 e4 2f b7 4b 2f 08 b9 d7 cf 91 38
       -2.7664666e-05 -1.0484065e-05 -0.00012987589 6.952852e-05
000180 be 0e 48 b7 26 6a bd b7 99 cc a2 b8 28 36 15 b6
       -1.1924361e-05 -2.2579985e-05 -7.762871e-05 -2.2234253e-06
000190 1a bd f3 38 38 c8 64 b6 f0 d6 81 34 b7 b9 7c b9
       0.00011622366 -3.409119e-06 2.418451e-07 -0.00024101777
0001a0 b4 7b 55 b8 29 69 cd b8 04 c9 fc b8 ed e8 30 b8
       -5.0898365e-05 -9.794749e-05 -0.000120537385 -4.21786e-05
0001b0 1e ef e4 b6 14 57 36 b7 90 f0 68 37 37 84 98 b7
       -6.8227664e-06 -1.086832e-05 1.3884288e-05 -1.818138e-05
0001c0 26 ab 95 b7 99 b0 27 b7 a0 37 23 b9 9f b8 1f b8
       -1.7841881e-05 -9.995093e-06 -0.00015565613 -3.8080496e-05
0001d0 dc 48 78 b7 cf 0d 00 39 a0 2f b5 38 28 06 0c b8
       -1.4798916e-05 0.00012212175 8.6396234e-05 -3.3384335e-05
0001e0 94 92 a9 36 21 8e a8 38 f2 05 28 b8 e0 2a d6 b7
       5.0536564e-06 8.037338e-05 -4.005986e-05 -2.5530753e-05
0001f0 7c 48 11 b8 ab b6 96 b8 7f 3e 45 38 51 be 24 b9
       -3.46382e-05 -7.186582e-05 4.7026664e-05 -0.00015711157
