Assets/results/testOnSimpleTrack/MyAgent/MyAgent-2999984.onnx (onnx, 92484 bytes, 9 tensors)

network_body.observation_encoder.processors.0.normalizer.running_mean f4 [35]
00000000: c493 433c bade 7c3f 0000 0000 2880 9339
00000010: 0cb9 8f3e bf82 e03d 12dd 633f 0000 0000
00000020: 2880 9339 9e37 973e dccb 313e 757a 533f
00000030: 0000 0000 2880 9339 0930 913e 8f61 f63e
00000040: 1fcf 043f 0000 0000 0000 0000 515e 8f3e
00000050: 58d1 ef3e fb04 083f 0000 0000 e2ac 9339
00000060: d9f1 8b3e a4fb 683f ec21 b83d 0000 0000
00000070: 0000 0000 dbfe 803e e43a 703f 7928 7b3d
00000080: 0000 0000 e2ac 9339 728f 7a3e
0.011937086 0.98777354 0.0 0.0002813351 0.28070867 0.10962438 0.890092 0.0
0.0002813351 0.2953462 0.17362922 0.8260873 0.0 0.0002813351 0.2835696 0.48121306
0.5187854 0.0 0.0 0.28001645 0.46839404 0.531326 0.0 0.00028166833
0.27332953 0.91008973 0.08990845 0.0 0.0 0.2519444 0.9383986 0.061317895
0.0 0.00028166833 0.24468783

network_body._body_endoder.seq_layers.0.weight f4 [128, 36]
00000000: 66d6 6abe a8f3 193e 605f 9b3d e9c9 46bd
00000010: 5782 dd3d 43f4 ec3c 3a9b 57bd be00 fd3d
00000020: 72b5 92bb 5857 88bd ebbb 6abe 3d4f 283e
00000030: f0ae 0dbc 8f63 0cbe 26b6 a03d 6acb 80be
00000040: c7ee be3b b37d b03d 2ad1 fbbc db05 ca3d
00000050: 2fc5 333e 3557 7f3d 8c08 f1bc 5bd8 493e
00000060: c128 113e 6b89 8a3d 2282 583e b426 293e
00000070: 8797 2cbb 1017 6f3c 84e7 efbd fdf4 febc
00000080: 0270 903c 2dce 01be 1476 0e3e 1f6e 0f3e
00000090: 17bf aabb 68cf 013e 567c e03d be01 023c
000000a0: 3a3e b53d a07a 163e 6702 893e 9a8f 0ebd
000000b0: 2117 913d 5fb4 353e 195a 47bd 0b73 723c
000000c0: 27ae 17bd 7f45 d2bd 06aa 10be b862 113e
000000d0: 6590 0f3e 745d d9bc 42f8 333d 9b0e cabd
000000e0: e240 43be dd0e 8e3c d1a4 17be 3a7a 77be
000000f0: 46ff bf3e 59db d2bd 9fb9 39bd 4ee9 113c
00000100: d04e e2bd dfa0 71bd 0f8f 5e3d 2de9 443e
00000110: a79a 5dbd 295a 58be 5ab5 ea3d 0a06 823e
00000120: e81d 223e 6a3e 243e 0081 c53d 6aea b23d
00000130: 2dcc f0bd e5af 383e 35d7 b9bd 1cb8 1cbe
00000140: b84b 8d3d a46c 8c3e 6ade 55be 1c03 edbc
00000150: 87bc 3e3e 8f1b c43c 5f11 d4bd bf36 3abe
00000160: a097 2f3e f473 373e f8b0 f53d 829c 443d
00000170: c20f da3d 182e b2bd 6cb0 043e 12fc 46bd
00000180: 5f45 213e bbba b1bd d86c 973e f476 c23e
00000190: 1b76 6f3e 54e5 ddbc b7e3 883e d237 54be
000001a0: 0e74 5c3e be15 233d 87ef 803d 9510 2cbe
000001b0: c4be 68bc d380 ccba dbe2 75be 3606 ac3c
000001c0: 8206 a43d 8584 23be ae6e 643e a7cb 593d
000001d0: defc 8b3e 2455 383e 2365 f33d 57e1 dfbd
000001e0: 3fda 2c3e af6a 853c 1fef 983d 9ab9 503e
000001f0: 490c 7a3e c756 243e 2438 443e 89ab e3bd
00000200: b52f 3e3d bd60 8f3e 9ac9 8e3d 571c 3c3e
00000210: f208 ce3d fb1e 7e3d 514f 32be b20b d9bd
00000220: cea0 6bbe 170b 223e 6b2f b63e 784e c73b
00000230: db1d adbd 3bad 823e 1344 983d 6f17 bbba
00000240: 8ea9 e7bd a315 5b3e 34e0 cdbd 88ce 203d
00000250: 5ee4 7cbc 9388 863d 6465 46bd 9aad 77bc
00000260: 50d5 683d 7813 e63d 4493 e3bd 146e fb3d
00000270: 342f 023e 0adb dcbd eb88 183d a31a 893e
00000280: 23f7 453e 7682 4a3e 3adc 6e3e b176 5fbd
00000290: 6113 853e e9a8 e03d b7a2 16bc 8dbd fb3d
000002a0: 1487 61bd ad1e 2f3e bde1 66bd a60a c73e
000002b0: ec1f 2e3e ab2f 50bd ecb3 b4bb 1816 7f3e
000002c0: ce6f 06bd 7f61 69bd 29a4 b93b f1d3 f73d
000002d0: 27a0 a63e 09e6 7bbe 146c 61be a451 75be
000002e0: 80e1 df3d 60e0 fd3c fbf6 a5be 3121 153e
000002f0: cd57 82be 0ca0 8d3c 91bc 40be 06bf ef3d
00000300: 9fea 6fbe 9c66 d8bd 94b6 0bbe fb49 523d
00000310: bf3c a73d aebf 4cbd 0f5c 88be 5da9 bdbd
00000320: e106 533d 499e 01be 1a30 693d d1ab 263e
00000330: 3a0f 83bd 8d7e 6d3e babf 483e 63d1 be3d
00000340: d2c0 bc3e d1dd 7abe 4884 c7bd dc1e 9dbd
00000350: 8f85 cf3d ffe8 0abe 4ea6 2bbe 68ee 29be
00000360: f4d6 50bd 602f 82bd ff79 bf3d e560 473e
00000370: da4f f23c a323 46bd 8d93 15bc d8a3 43bd
00000380: f947 2dbe 3b92 babe e262 483c ba70 f03d
00000390: dbf7 47be 3d8b 103e 3604 a63e 57dc 40bd
000003a0: 64ac d7bd f363 c8bd eb4b e03d 76f3 6bbd
000003b0: 96b5 5c3e 3215 ecbd b8b0 8abc ce67 693e
000003c0: b7b4 403d 5305 ca3d b60c 6bbd dc8c ec3d
000003d0: ad7d a23d 602d 01be 3f50 363d bac4 423e
000003e0: 86d8 5c3d e080 0a3e d6f3 aebd 1520 063c
000003f0: 1a72 32be 1706 3abe ac18 183e c90f 1fbe
-0.22933349 0.15034354 0.07586551 -0.0485324 0.10815876 0.028925067 -0.05263827 0.12353657
-0.0044771964 -0.066572845 -0.22923248 0.16436477 -0.008647665 -0.13709854 0.07847242 -0.25155193
0.0058268043 0.08617725 -0.030739386 0.09864398 0.17555688 0.062339026 -0.02942302 0.1971144
0.14175703 0.06764492 0.21143392 0.1651867 -0.0026335435 0.014592901 -0.1171408 -0.031122679
0.017631534 -0.12676306 0.1391223 0.14006852 -0.005210768 0.12676775 0.10961215 0.007934986
0.088497594 0.14695215 0.26759645 -0.034804918 0.070844896 0.17744587 -0.04866991 0.014797936
-0.03703132 -0.102671616 -0.14127359 0.14197814 0.14019926 -0.02653382 0.04393793 -0.09866067
-0.1906772 0.017341072 -0.14808966 -0.2416772 0.37499446 -0.102957435 -0.045343038 0.008905722
-0.110501885 -0.05899131 0.05433565 0.19229575 -0.054102566 -0.21128143 0.11460371 0.25395232
0.15831721 0.16039434 0.096437454 0.08736117 -0.117576934 0.18035848 -0.090742506 -0.15304607
0.06899208 0.27426636 -0.20885625 -0.028932147 0.18626605 0.023938922 -0.10354876 -0.18184946
0.17147684 0.17915326 0.11996645 0.04800082 0.10647537 -0.08700198 0.12957925 -0.048580237
0.15749119 -0.08678194 0.2957523 0.3798138 0.23384897 -0.027086891 0.26736233 -0.20724419
0.21528646 0.039815657 0.06295686 -0.168032 -0.014205638 -0.0015602357 -0.2401232 0.020999055
0.08009054 -0.15968521 0.22307846 0.053172734 0.2734136 0.18001229 0.11884525 -0.10931652
0.1688013 0.016286222 0.07467484 0.20383301 0.24418749 0.16048728 0.19162041 -0.11116702
0.046432216 0.28003493 0.06972046 0.18370186 0.100603 0.062041264 -0.1741307 -0.10597934
-0.23010561 0.15824543 0.35583052 0.0060823523 -0.0845296 0.2552279 0.07434859 -0.0014273952
-0.11311637 0.21394973 -0.10052529 0.039259464 -0.015435306 0.06569018 -0.048436537 -0.015117073
0.056844056 0.11234182 -0.11112073 0.12276855 0.12713319 -0.10783966 0.03723995 0.26778135
0.19332556 0.1977633 0.23326197 -0.054556552 0.25991347 0.10969717 -0.009194068 0.12292013
-0.05506046 0.17101546 -0.056367625 0.38875312 0.17004365 -0.05082671 -0.0055146124 0.24910772
-0.03282147 -0.056977745 0.0056653214 0.121009715 0.32544062 -0.2459947 -0.22013885 -0.23956925
0.109316826 0.03099078 -0.32414994 0.14563443 -0.25457612 0.01728823 -0.18821932 0.11706357
-0.23429345 -0.10566446 -0.13643867 0.051340085 0.08165883 -0.049987487 -0.26632735 -0.09260819
0.051520232 -0.12658037 0.05693064 0.1627648 -0.063993886 0.23192807 0.19604388 0.09317281
0.3686586 -0.24498679 -0.097420275 -0.076719016 0.10132896 -0.13565443 -0.16762659 -0.16594851
-0.050986245 -0.06356692 0.09349441 0.19470556 0.029579092 -0.04837383 -0.009129417 -0.047763675
-0.16921987 -0.3643969 0.012230607 0.11740251 -0.19528143 0.14115615 0.32425088 -0.047085132
-0.10530928 -0.09784689 0.1095198 -0.05760523 0.21553645 -0.1152748 -0.01692997 0.22793505
0.047047343 0.09864297 -0.05738517 0.11550304 0.07934127 -0.12614965 0.044510122 0.19020358
0.05391743 0.13525724 -0.08542602 0.00818636 -0.17426339 -0.18166386 0.14853162 -0.15533365

network_body._body_endoder.seq_layers.0.bias f4 [128]
00000000: 72dc 0fbc ec78 e0bd 63b4 22bd 5763 bfbd
00000010: e9a4 e7bd 49a8 97bd 528f 31be e211 f9bd
00000020: f3ef 623b b019 23be 9e5b b0bd 2d5a d3bd
00000030: c4f0 44be bf17 15be 61e6 c7bd 3712 0bbe
00000040: dfd1 8bbe 7afe 4dbe 32c4 37bd f45b a5bb
00000050: 9a6b e6bd 19c8 63be 5cff c6bd 32ec a6bd
00000060: fdd6 69bc d499 0ebe 1750 f5bd 0380 353d
00000070: e017 ddbd 6f70 b9bd 8191 d0bd 4a97 48bc
00000080: dd75 cabd 25e0 e9bd 1ebe 92bd 4c9b b5bd
00000090: 8d41 5ebd 66de 9cbd 9f97 9fbd 7f6a 68bd
000000a0: 38ef 04be e186 60bd 10d6 37be 2c09 07be
000000b0: c683 e0bd 521d e9bd 6113 debd 0517 febc
000000c0: 1cf6 27bd 7bf0 10be d145 c1bd 24cc d2bd
000000d0: f295 febc d597 c5bd f183 bdbc 813f 05be
000000e0: d592 d7bd 98d2 973c 19cb 05be 2bf7 23bd
000000f0: e41b 22be 6e13 9bbc 3c32 433c efd3 d4bd
00000100: 50e8 88bc 07d4 f2bd e43f 093d a22d d7bc
00000110: 5382 25bc 523e 50bd 03e3 e9bd fca0 f4bd
00000120: f91e 1dbe 3dcb bdbd b7b5 97be 18d5 a93c
00000130: bccb 50be b57f a3bd b88b a0bd 2b41 adbd
00000140: f866 a3bd 5035 2dbe 2eba abbc acea 34be
00000150: 1e9f cfbd 45e2 debd 8bdd babc afc9 ecbd
00000160: b2be c9bd 0127 efbd f451 50be 8368 10be
00000170: 9721 a3bd 344f 6abd 8e3d 9cbd d404 9dbb
00000180: edb5 bbbd c27b 0cbd 51aa 8cbb 6258 4dbc
00000190: c046 4abd 6d36 31be 4d35 82bd 1e63 e7ba
000001a0: 98d4 59be 03a9 cdbd 3734 84bd 0033 f8bc
000001b0: a14c 62be f299 acbd 1b6e 07be 5fe2 c4bc
000001c0: e21a 11be e69a 26bd e4f3 ca3a 4a51 88bd
000001d0: 1a45 bdbd 9683 18be a067 1cbe 3a11 c2bd
000001e0: 6b34 edbd 63d0 1cbe 683a 54be d559 54bd
000001f0: ef83 23be 1017 81be 65ae c3bd 574d 0c3d
-0.008780586 -0.10960564 -0.03972281 -0.093451194 -0.11310751 -0.07405145 -0.17339829 -0.12161614
0.0034627884 -0.15927768 -0.086112246 -0.10319934 -0.1923247 -0.1455984 -0.09760738 -0.13581167
-0.27308556 -0.20116606 -0.04486484 -0.005046362 -0.11250992 -0.222443 -0.09716675 -0.081505194
-0.014272449 -0.13925868 -0.119781666 0.044311535 -0.107955694 -0.09054648 -0.10184003 -0.012243101
-0.09885762 -0.11419705 -0.07165168 -0.08867511 -0.054261733 -0.07659607 -0.07792591 -0.056742188
-0.1298188 -0.05481613 -0.17952752 -0.13187093 -0.10962634 -0.113825455 -0.1084354 -0.031016836
-0.041006193 -0.14154236 -0.094371445 -0.10292843 -0.031077359 -0.096481 -0.023134204 -0.13012506
-0.10526053 0.018533036 -0.13065757 -0.04003064 -0.15830952 -0.018930163 0.011913832 -0.103919856
-0.016712338 -0.11856847 0.033508196 -0.026266877 -0.0101018725 -0.050840683 -0.11420252 -0.11944768
-0.15343846 -0.0926728 -0.29630825 0.020731494 -0.20390218 -0.079833426 -0.07839149 -0.084596954
-0.07978624 -0.16914868 -0.0209628 -0.17667645 -0.10137771 -0.10883001 -0.022810718 -0.115619056
-0.09850825 -0.11677361 -0.20343763 -0.14102368 -0.07965391 -0.05720444 -0.07628928 -0.0047918353
-0.09165559 -0.034297712 -0.0042927642 -0.012533279 -0.04938388 -0.17305918 -0.063578226 -0.0017653441
-0.21272504 -0.10042002 -0.06455272 -0.030297756 -0.22099544 -0.084278 -0.13225596 -0.024033723
-0.14170411 -0.040675066 0.0015484062 -0.0665613 -0.09241696 -0.14893946 -0.15273905 -0.09475942
-0.115822636 -0.15313868 -0.20725405 -0.051843483 -0.15968297 -0.25212908 -0.095547475 0.034253445

network_body._body_endoder.seq_layers.2.weight f4 [128, 128]
00000000: 4fda 1fbe 7f37 823d a165 a4bd e7b4 c93d
00000010: f744 7c3d f0e6 83bc b84d 77bd dfd2 0a3e
00000020: edae 27bd a05c bd3d a167 03be e516 153d
00000030: 1af1 663c 6dc4 193e 98dd 093d f8dc 35bd
00000040: 0c97 92bc fb47 e9bb 345c 293e fe53 1ebe
00000050: 052e 20bd 6042 023e da36 15be 92eb 073e
00000060: 82a8 453d a881 f9bd e6bd 56bd 961a 07be
00000070: ba2b b63b ece7 fe3c f0ec b53d 7a7b 9abc
00000080: ed87 a7bd 7181 84bd 5c98 1d3e 505e d5bd
00000090: d03a 0d3d 643e 0f3e e41a 53bb f5ab 4dbd
000000a0: 9712 a4bd 4fa6 02be f6e6 d3bd aa82 d03c
000000b0: bb0e 4f3d ba0e cf3d 333b c33d 2aec eabd
000000c0: 6bcd 88be 4a4a 8f3c 23c6 493d 2b8b 9bbd
000000d0: ea8b 79bb 407e f2bd b382 903d 53d2 293c
000000e0: 0425 83bd 3b0c b43d 12db 2bbd 153b 1b3c
000000f0: 9c8d 09bd 7317 bfbd 55c8 ae3d 43aa 3ebd
00000100: aeb6 98bc e033 243e f6fd a3bd 6d72 c8bc
00000110: 64b3 dbbd 8626 e53d c09e 443c 8c66 03be
00000120: 1fb2 12bd a8fe 8a3d 6b5b bb3d 7d29 173e
00000130: 6c14 c23d 3b19 dcbd 619c 5cbb 3211 97bd
00000140: b707 e53d 808c 5cbc dcc0 cdbd 85b5 1f3e
00000150: ec31 dabc 0e18 993b 73b0 98bd 5be8 f93d
00000160: 0daa 043d 6a71 af3d 275e 3abd d88e 8dbb
00000170: b10f 68bc a7ee 75bd 030c da3c 74e1 cdbc
00000180: 7d43 f3bd d4e1 873c 9efe 03be 349d 383e
00000190: d1eb b6bc 1979 fcbd 5a97 78bd 557d 65bd
000001a0: 0534 1cbd 2828 103e baa9 473e d94a 6a3d
000001b0: 9d71 a93c 0c67 253e d290 5d3c 5aa7 8abc
000001c0: 9f66 2e3c 40c5 b9bd 3cef e0bc ec55 b93d
000001d0: 45e1 14bd b2bd 023d 2eb8 463e 5e44 3bbd
000001e0: c8fd edbd b48a a63c 9560 2ebc e1de 79bd
000001f0: 4a66 3bbe 2846 3f3b 83bf ebbc fa2a 2ebe
00000200: 87c8 21bb 9d4a 0a3d 2d5e df3d 0d0f d93b
00000210: c970 ca3d 10b8 b8bd e00f 09bb 09a3 0fbe
00000220: 9e5c 753c 1763 4fbb 1b8f b2bd 3ebc cdbd
00000230: 4575 9abd be96 c6bd d3b8 df3c 3700 bc3d
00000240: 58de ebbc 80d0 71bd 4678 303d 323b dfbd
00000250: bd1c 85bd 9698 4c3d 17e9 7dbd 2be7 4abd
00000260: 138b 86bd 20e7 c7bc 2e5c 043c db0c 64bc
00000270: 9c3e 153c b02f 753c e92d 86bc c509 10bc
00000280: b60d 4bbd 4866 1cbd 1a85 1abd f1eb 303d
00000290: 5f27 40bd ac8a 1a3e 90a9 073e 36de cebd
000002a0: a1b6 273c a327 973d bccf 13bd 10fe 43bd
000002b0: 3f64 c4bd ab50 ffbd 282b a03c 9f05 2ebe
000002c0: e97d 4fbe e07e 93bc e799 b8bd 15ac 2ebd
000002d0: 2cd8 e3bc 96a6 d7bc 80b9 99bd 21f8 713d
000002e0: a866 20be 0c70 513c 1c31 dcbd 3a51 94bd
000002f0: 62fe 193c 2dea 94bd a78a d1bd d605 9abd
00000300: 6d62 86bc c465 47be e22a 8e3d 1a37 ce3b
00000310: aee4 03be 196b 06bd a1b6 8abc 4944 97ba
00000320: 535a e53d 4acf d63d 8e18 88bc 2c8c 07be
00000330: 7ca2 4d3d e8b9 313d 1787 f53d 2360 1ebd
00000340: 673a 393d 9ac4 dfbc 3ac0 313d 7b12 003d
00000350: 9d09 d5bd da67 203c 23b3 c3bc 5327 343d
00000360: f8e5 1abd ee50 0a3b 48da 593b 8f30 ffbc
00000370: 15da bbbb b79c fabd b8c6 b13d 302c af3d
00000380: 649d 1dbe e619 c93d e8a6 b2bc 8fce c9bd
00000390: 272c b33c 1078 a8bc 1170 c5bd 9472 2f3e
000003a0: 4065 d2bd 6ef8 8dbd fb62 353c 408f 6cbc
000003b0: 556c 86bd dd9c 2c3d d318 b13d 8226 ccbd
000003c0: 3d6d bfbc f2d1 fe3c 09bd 813b 31a3 b1bd
000003d0: aba9 21bd 5ad4 e0bd 51a0 5b3d 715a bb3d
000003e0: 7c4e 0ebe 5af3 093d a4f4 aebd 0ad4 a13d
000003f0: 7a4b ae3c d643 d33b bb2e 843c 4231 c03d
-0.15610622 0.06358241 -0.08027197 0.098489575 0.061589208 -0.01610133 -0.060376853 0.13557003
-0.040938307 0.092461824 -0.128325 0.036398787 0.014095569 0.15016337 0.033658594 -0.044400185
-0.01789429 -0.0071191764 0.16539079 -0.15461728 -0.039106388 0.12720633 -0.14571705 0.13273457
0.048256405 -0.12182933 -0.052427195 -0.13193735 0.005559412 0.031116448 0.08883083 -0.018857706
-0.08180223 -0.064700015 0.15390152 -0.10418379 0.034479916 0.13988644 -0.0032212073 -0.05021282
-0.08011358 -0.12758754 -0.10346787 0.02545293 0.050551157 0.10110231 0.09532776 -0.11470826
-0.2671922 0.017491478 0.049261224 -0.075949036 -0.003807778 -0.118404865 0.07056179 0.010365087
-0.064035445 0.08791395 -0.04195697 0.0094745355 -0.033582315 -0.093306445 0.08534304 -0.046549093
-0.018641796 0.16035414 -0.080074236 -0.024468625 -0.107275754 0.111889884 0.01200074 -0.12832087
-0.0358144 0.06786853 0.09148296 0.1476192 0.094765514 -0.10747 -0.0033662545 -0.073763266
0.11183112 -0.013461232 -0.10046551 0.15596588 -0.026635133 0.004672057 -0.0745553 0.122025214
0.032388736 0.08566554 -0.045499947 -0.004320007 -0.014163897 -0.06004205 0.026617056 -0.025131918
-0.11878107 0.016587175 -0.12890097 0.18028718 -0.022329243 -0.12327785 -0.060691215 -0.05602773
-0.038135547 0.14077818 0.1949834 0.057200287 0.020684058 0.1615259 0.013523297 -0.016925503
0.010644584 -0.090708256 -0.027457826 0.090495914 -0.036347646 0.03191919 0.19406196 -0.045719497
-0.116206706 0.02032981 -0.010643144 -0.06100357 -0.18300739 0.0029186103 -0.028777843 -0.17008582
-0.0024686174 0.033762563 0.109066345 0.0066241086 0.09884793 -0.09019482 -0.0020914003 -0.14027037
0.014975695 -0.0031644756 -0.087187015 -0.1004567 -0.07541899 -0.096967205 0.02730981 0.091797285
-0.028792545 -0.05903673 0.04308345 -0.108999625 -0.06499622 0.049950205 -0.06198987 -0.049536865
-0.06569495 -0.024402201 0.008078618 -0.013919081 0.0091091655 0.014964983 -0.016379314 -0.008791392
-0.049573623 -0.03818348 -0.03772459 0.04319376 -0.046912547 0.15091962 0.13248277 -0.10100977
0.010236413 0.07380607 -0.036086783 -0.047849715 -0.09589433 -0.12466558 0.019551829 -0.16994332
-0.20262875 -0.018004835 -0.090137295 -0.04264458 -0.02781304 -0.026324552 -0.075060844 0.059074525
-0.1566416 0.012783062 -0.10751554 -0.07242055 0.0093990285 -0.07271228 -0.10231524 -0.07520644
-0.016404355 -0.19472414 0.06941773 0.0062931897 -0.12880203 -0.03281698 -0.016932787 -0.0011540736
0.111988686 0.10488756 -0.016613271 -0.13237065 0.050203785 0.043390185 0.11988657 -0.038665902
0.045221712 -0.027315427 0.043396212 0.031267624 -0.10402224 0.009790385 -0.02388913 0.043982815
-0.03781697 0.0021105367 0.0033241678 -0.031151084 -0.0057327845 -0.12236922 0.08680481 0.0855335
-0.15392071 0.09819393 -0.021808103 -0.09853851 0.02187164 -0.020565063 -0.096405156 0.17133552
-0.10273218 -0.0693215 0.011070962 -0.01443845 -0.065636314 0.042141784 0.08647313 -0.09968282
-0.023367519 0.03110597 0.0039593023 -0.086737044 -0.03946845 -0.10978003 0.053619687 0.0914811
-0.13897127 0.033679344 -0.08542755 0.07901771 0.021276224 0.0064472957 0.016135564 0.09384395

network_body._body_endoder.seq_layers.2.bias f4 [128]
00000000: f9b9 32bd a005 90bc e27f 35be d594 aebc
00000010: 07f8 2f3b d6ae 57bd cdee debc b306 d93a
00000020: f512 8fbd 8517 90bc 1840 59bc cdfa b3bc
00000030: 2b54 4ebd 6e01 e63a 528f 2ebd dd7c 08bd
00000040: 0cdc 67bd 7476 f0bc f239 bebd 853b dabc
00000050: 9954 11bd 6912 f1bb 9e1b 86bd 09da 39bd
00000060: 6f93 ba3b 12f3 83bd 46db 30bd cbe6 61bd
00000070: fb75 51bd f451 e6bc 40c3 1cbd 2203 05be
00000080: d31a 46bc f60d 15be 4c66 4abd 746e 913b
00000090: 0bdb 71bd 5573 18be f378 3ebd b6fb 3dbe
000000a0: 27a4 83bc 6234 0ebc b0dd 1ebd 46ee 54bd
000000b0: d1bb 64bd 5e1d 08bd fd0a 84bd 27c2 f5bc
000000c0: 1828 bcbd cebf 6bbb a0fe 31be 1509 37bd
000000d0: 3da4 7c3c f226 57bd 0c9a 4b3c 407a 0abe
000000e0: 8779 7ebd 10df 8fbd e6fe 65bc d7d3 c3bc
000000f0: 8aba 37bd 9f8d 38bd bf2b 2dbd 32be 36bd
00000100: 3bfc 33bd b1e0 4cbd 45e6 85bd 8e4b 95bd
00000110: 4327 043b be21 9ebc db27 5a3c ee9c 5cbd
00000120: 2cf1 23bd 929d 82bc 97a9 c8bc 3544 11bd
00000130: 0b0c 58bc d834 3ebd 0f45 20be 4542 3abd
00000140: aff6 3ebd 4818 1dbc 1616 53bd cb59 23bd
00000150: 566e 58bd 6667 0fbd eb7d 2a3c e9da 88bd
00000160: 2406 10bd e4ca 18bd dd4c 33bd 2429 0bbd
00000170: a985 06be 9ed9 65bd 056c 74bd 15d4 33bc
00000180: ab0c e0bc 20b6 cbbc cd40 5dbc 8d8d 2cbd
00000190: 87b8 8bbc b10c 48bd 1d43 58bd 6c3e ce3c
000001a0: 7458 dabc 9fd6 89bd 1276 68bd 00c4 bebb
000001b0: aca4 25bd aa2d cf3c 8da2 e6bc a448 44bd
000001c0: a008 e5bc c0cb cbbc d4d4 0fbd 7bbb 7dbd
000001d0: 21f8 47bd c498 31bd 4b92 8cbc 1402 753c
000001e0: cd74 053d 13e5 cfbc ed59 4bbd 51cb 8bbc
000001f0: 4725 53bd 0940 bebc 8670 6ebd 54ce f0bc
-0.04363439 -0.017580807 -0.17724565 -0.021311203 0.0026850717 -0.05265697 -0.027213478 0.0016557783
-0.06986038 -0.01758934 -0.01325991 -0.021970177 -0.050373238 0.0017548034 -0.04261715 -0.033322204
-0.056606337 -0.029353358 -0.09288396 -0.02663971 -0.03548107 -0.007356931 -0.06548236 -0.04537395
0.005693845 -0.06442846 -0.043177865 -0.055151742 -0.051137906 -0.02811525 -0.038272142 -0.12989476
-0.012091356 -0.14556107 -0.049413964 0.004438216 -0.059046786 -0.14887746 -0.046502065 -0.18553051
-0.016069485 -0.008679481 -0.038785636 -0.051985048 -0.05584318 -0.03323113 -0.06447408 -0.029999806
-0.09187335 -0.0035972479 -0.17382288 -0.044686396 0.015420017 -0.052527376 0.012426864 -0.13523197
-0.062127616 -0.07024968 -0.014037823 -0.023904724 -0.044855632 -0.045056935 -0.042278048 -0.044614978
-0.043941718 -0.05001897 -0.06538061 -0.072898015 0.0020165003 -0.019303199 0.013315166 -0.053860597
-0.04002492 -0.015944276 -0.02449493 -0.035465438 -0.013186465 -0.046437114 -0.15651344 -0.045473356
-0.046621975 -0.009588309 -0.051534735 -0.039880555 -0.0528396 -0.035010718 0.010405998 -0.06682379
-0.035162106 -0.037302867 -0.043774474 -0.03397478 -0.13136925 -0.05611574 -0.059673328 -0.010975857
-0.02734979 -0.024867117 -0.013504219 -0.04212718 -0.017055763 -0.04884023 -0.05279838 0.02517625
-0.026653506 -0.06730389 -0.056753226 -0.005821705 -0.040440246 0.025290329 -0.028153682 -0.047920838
-0.027958214 -0.024877429 -0.035115078 -0.061946373 -0.04882062 -0.04335858 -0.017159602 0.014954109
0.032582093 -0.025377786 -0.049646307 -0.017064722 -0.051549222 -0.023223894 -0.05821278 -0.02939526

action_model._continuous_distribution.log_sigma f4 [1, 2]
00000000: 454e 1a3c 1250 b23b
0.009418075 0.005441674

action_model._continuous_distribution.mu.weight f4 [2, 128]
00000000: 8e78 993b 4b3e 133c 22c2 aebb 3ff8 133c
00000010: d52e ad3b 6e26 e93a e63b b23b 3ec8 55bb
00000020: cadb ca3b a2f5 313b d627 f9b9 0c90 0e3c
00000030: 679b 59bb 15dc 843c 108d 803b 1aff 09bc
00000040: 8e44 8d3c 8b4a 43bc 0ec9 a9ba 3b26 043c
00000050: 4c58 b53a ffa6 abbb 7b20 ecbb 1bb0 173c
00000060: e5e5 49bc 052a 0f3c 3023 d7b9 e963 0e3c
00000070: c779 1ebc 51f7 86b9 6c77 24bc 6df3 bcbb
00000080: 0d1f f9bb 85d3 823c 4ecf 53bc 0d0d 8aba
00000090: 0fb4 a03b 041d cdba 35e6 33bc 2ddd 65bb
000000a0: 80b5 5d3d 426f ad3b fbc9 393c 1f66 0f3d
000000b0: f1e3 2aba d65d 0cbc 1370 b93a f0ae 803c
000000c0: 4b1e 8ebb 50f4 2abc 3fc7 4c3a 277f e13b
000000d0: 1e8c cb3a e618 3a3b 5486 d4ba 208d 95ba
000000e0: 4aa8 443c a8ce 6d3c 29b4 1a3c 536f 2d3b
000000f0: 48e6 553c 10b3 273c 1ef9 d6bb 8720 2a3c
00000100: 1cf6 8f3a 4443 4c3c e49e 583c 417d 64bc
00000110: a1d5 0cbb ddf0 953c 3735 723b f553 093d
00000120: 5e45 613c 6ef8 eebb 3010 07bc 7fee 35bc
00000130: d659 4b3c 61c1 da3b e748 bdbc 8b2f 4a39
00000140: 1ec0 823c 0212 5b3d a556 513c 994e 8b3b
00000150: 8381 203c d06d c43b 1987 9d3b 288b 123a
00000160: f74e 25bd dcbf 99bb 954e efba 8d9a 483c
00000170: bffa 06bc 7a66 6a3b f3ee 5d3b f4e7 1c3c
00000180: d3d8 113c 60ec 88bb 7681 493c ab93 8d3b
00000190: 5cf5 123c b19f f1bc f99a f4bb 73a4 5f3c
000001a0: 8fb8 84bb 5bf4 26bc 7b35 453a 3916 2f3b
000001b0: eada ac3b 6627 363b 8327 4bba 0fa9 2c3b
000001c0: d01f 0a3b ce42 0d3c e3c5 71bc 514e 28bb
000001d0: 0bde 97bb 414d 633c ad97 4fbc b8b7 b1b6
000001e0: 91fd 623b dc6a 2ebc 4e5d ec3b debf 11bb
000001f0: bcc1 43ba eefd e43b 4081 b5bb a52a 8b3b
00000200: c484 f6ba 4b3d d7ba e30d dbb9 78ae b838
00000210: c176 d6ba 9677 a6bb d292 05bb c7ba 8cbb
00000220: 871a ca3b 34a9 d0bb b4bf ab39 dd48 bd3b
00000230: 3cfa 0b3b 27a7 fbbb 95f5 753a 65d8 fb3a
00000240: 35c8 09bd 8f83 1bbb f0d5 71ba d0ee da3a
00000250: 975b 12bb 00c9 cf3b 351a 293b febe 6f3a
00000260: fea6 81bb 11e1 c63a 08e0 123a 1885 843a
00000270: ee15 223b 74e5 013b 539f 6cba 2376 f83b
00000280: dcc8 c13b efac f93c 1485 783b 9b5b a9bb
00000290: d653 89bb 0925 793b 9e24 06ba f8f3 f83b
000002a0: bbe0 45bb 2920 9ebb 686d 0dbb 0e06 1fbd
000002b0: 03fb 64ba fcbe 903b 2673 4dbb 774f 11bc
000002c0: 2e01 c03b 3bb0 c23b cf64 1f3c 9276 543b
000002d0: 5a93 0e3b 63a6 f43b ccc2 1c3a bbac fc3b
000002e0: d99c 813a f52a 5c3b 9e55 393b a7a7 60ba
000002f0: cee2 0f3b cb8a a9bb 4f34 e93b 569f e1bc
00000300: 484d c13b 46cc 4c3a 18f9 0cbd 8ee6 293c
00000310: f00f d8bb 8342 aa3a 1879 f0ba 0164 32bd
00000320: da5f d9bc 504c f63a b73e 1bb9 b1b0 0bbc
00000330: 3607 7cba 14f0 30b8 4ce4 e73b 13bd 093b
00000340: 88c5 64bb 8e77 343c ca01 91bb 40dc e7bb
00000350: 7f9d 953b 345c cd39 702b 56ba 8bb6 153c
00000360: 7de2 a6bd b01c 8e39 3857 7bbb 58e8 00b9
00000370: d3c8 af3a c420 40bb 07ed 5f3b c546 aa3b
00000380: b440 ec3a fe7f a6ba a812 d3ba 2c03 1abb
00000390: a617 31bb 1ed0 743d 2362 32bb b550 1ebc
000003a0: a94c 9339 2463 cdbc 9900 28bb 1d2e f83b
000003b0: 5a43 633b 62c3 093b 90c5 323b bb0d ffb9
000003c0: f815 043c 00b7 bcb9 1b3d 233b e0a8 3f3b
000003d0: dc4c 1cbd 169b 53b9 0051 593b e6dc 16bc
000003e0: 9718 1bbc a609 8e3b b9bc a43a 3f3f 523b
000003f0: e25c 213a d70b 6bbb 9e52 8f3b ac15 58bc
0.0046835607 0.00898702 -0.005333201 0.009031354 0.005285124 0.0017787942 0.0054392694 -0.0032620574
0.0061907517 0.0027154465 -0.0004752266 0.008701336 -0.00332042 0.016218225 0.003923066 -0.008422637
0.017244603 -0.011919628 -0.0012953596 0.0080657555 0.0013835519 -0.0052384133 -0.0072060204 0.009258295
-0.0123228775 0.008738046 -0.00041034212 0.008690813 -0.009672589 -0.00025742737 -0.010038238 -0.0057663233
-0.0076025785 0.015970001 -0.012927843 -0.0010532454 0.004904277 -0.0015648906 -0.010980179 -0.0035074458
0.05412817 0.005292804 0.01133966 0.0350095 -0.0006518951 -0.008567294 0.0014147781 0.015708417
-0.0043371073 -0.010434225 0.00078116724 0.006881613 0.0015529429 0.0028396188 -0.0016214349 -0.0011409856
0.012003014 0.014514603 0.009442368 0.002646406 0.013055392 0.010235563 -0.006560459 0.010383732
0.001098338 0.012467209 0.013221476 -0.0139458785 -0.0021489637 0.01830333 0.0036957988 0.033527333
0.013749449 -0.0072927987 -0.0082436055 -0.011104225 0.012411555 0.0066758846 -0.023106052 0.00019281932
0.01596075 0.05348397 0.012777005 0.004251313 0.009796503 0.005994536 0.0048073647 0.0005590194
-0.04035851 -0.004692061 -0.0018257672 0.012243879 -0.008238493 0.0035766647 0.0033864349 0.009576786
0.008901793 -0.0041785687 0.012298932 0.004320582 0.008969631 -0.029495092 -0.0074647632 0.013650048
-0.0040503214 -0.010190095 0.0007522923 0.0026716127 0.00527512 0.002779448 -0.0007749723 0.0026345884
0.002107609 0.0086218845 -0.0147566525 -0.0025681446 -0.004634624 0.013873399 -0.01267044 -5.2963987e-06
0.0034636 -0.010645594 0.007213271 -0.0022239606 -0.00074675283 0.0069882786 -0.0055390894 0.004247027
-0.0018807878 -0.0016421465 -0.00041781281 8.806301e-05 -0.0016362296 -0.0050801737 -0.0020381701 -0.0042947265
0.006167713 -0.006367827 0.00032758492 0.0057765082 0.0021358868 -0.007679838 0.0009382603 0.0019214271
-0.033638198 -0.0023729538 -0.00092252996 0.0016703252 -0.0022332424 0.0063410997 0.0025802974 0.00091455865
-0.0039566746 0.0015173276 0.0005602841 0.0010110466 0.002473231 0.0019820603 -0.00090264267 0.0075824424
0.005913837 0.030477969 0.0037921118 -0.005168391 -0.004190902 0.003801646 -0.0005117151 0.0075974427
-0.0030193764 -0.004825611 -0.0021580104 -0.038824134 -0.00087349134 0.0044172984 -0.0031349151 -0.008869044
0.0058595156 0.0059414185 0.0097286245 0.0032419306 0.002175531 0.007466124 0.0005979955 0.0077110208
0.0009888663 0.003359494 0.0028279792 -0.0008569904 0.0021955254 -0.005174016 0.0071168314 -0.027541798
0.005899105 0.00078124215 -0.03441724 0.01036991 -0.006593697 0.0012989793 -0.0018346636 -0.043552402
-0.026534963 0.0018791053 -0.00014805315 -0.008526013 -0.00096141116 -4.218526e-05 0.0070767757 0.0021017238
-0.0034907777 0.011014832 -0.004425262 -0.0070758164 0.004565894 0.00039169344 -0.0008169925 0.00913776
-0.08148668 0.00027105724 -0.0038351547 -0.00012293586 0.0013411291 -0.0029316405 0.003416838 0.0051964247
0.0018024654 -0.001270294 -0.0016103582 -0.0023500426 -0.0027022152 0.05976879 -0.0027219139 -0.009662797
0.0002809514 -0.025071688 -0.0025635122 0.0075738565 0.0034677596 0.0021020998 0.00272784 -0.0004864762
0.008061878 -0.000359945 0.0024908248 0.0029244944 -0.038159236 -0.00020180302 0.0033159852 -0.00920794
-0.009466312 0.0043346463 0.0012568451 0.0032081155 0.0006155503 -0.0035865211 0.0043738624 -0.013188761

action_model._continuous_distribution.mu.bias f4 [2]
00000000: 571a 90bc 7c75 723d
-0.017590685 0.059194073

onnx::Div_61 f4 [35]
00000000: d56b de3d 2301 e13d 6b59 173a 6672 893c
00000010: 8434 3b3e fbf5 9f3e ee23 a03e 6b59 173a
00000020: 6672 893c 53fb 373e fdf0 c13e 9810 c23e
00000030: 6b59 173a 6672 893c 3ef5 223e a6d1 ff3e
00000040: aad1 ff3e 6b59 173a 6b59 173a e3a6 b43d
00000050: 6c7d ff3e 4d7f ff3e 6b59 173a 3487 893c
00000060: 7d38 a53d 8975 923e 7f75 923e 6b59 173a
00000070: 6b59 173a d7d7 523d 1a33 763e 88ac 753e
00000080: 6b59 173a 3487 893c 06dd 3d3d
0.10860411 0.10986545 0.0005773517 0.016778182 0.18281752 0.31242356 0.31277412 0.0005773517
0.016778182 0.17966966 0.37879172 0.37903285 0.0005773517 0.016778182 0.15913865 0.49964637
0.49964648 0.0005773517 0.0005773517 0.088208936 0.49900377 0.4990181 0.0005773517 0.016788103
0.08067415 0.28605297 0.28605267 0.0005773517 0.0005773517 0.051475372 0.24042931 0.23991597
0.0005773517 0.016788103 0.046353363
