Assets/results/testOnSimpleTrack/MyAgent/MyAgent-3499984.pt (torch, 625405 bytes, 59 tensors)

network_body.observation_encoder.processors.0.normalizer.running_mean f4 [35]
00000000: 40a3 273c ae4f 7d3f 0000 0000 a9db 7c39
00000010: db35 8c3e 0670 c03d dde1 673f 0000 0000
00000020: a9db 7c39 7929 943e 9265 183e aad6 593f
00000030: 0000 0000 a9db 7c39 e2f9 8e3e cec9 013f
00000040: 136c fc3e 0000 0000 0000 0000 249b 913e
00000050: e6bd f23e 7391 063f 0000 0000 6e28 7d39
00000060: 9dd1 8e3e 6140 6c3f 81fc 9d3d 0000 0000
00000070: 0000 0000 d347 813e 8a7b 723f 3f47 573d
00000080: 0000 0000 6e28 7d39 83d4 7c3e
0.010231793 0.98949707 0.0 0.00024114423 0.27384838 0.09396367 0.90579015 0.0
0.00024114423 0.2893789 0.14882496 0.85093176 0.0 0.00024114423 0.2792502 0.50698555
0.49301204 0.0 0.0 0.28438675 0.47410506 0.5256569 0.0 0.00024143021
0.27894297 0.92285734 0.07714177 0.0 0.0 0.2525011 0.94719756 0.05255818
0.0 0.00024143021 0.24690442

network_body.observation_encoder.processors.0.normalizer.running_variance f4 [35]
00000000: 6a75 0a47 22b0 0d47 0000 803f 2721 5344
00000010: 557f c747 747e 9148 35d4 9148 0000 803f
00000020: 2721 5344 2fa9 c047 fd7c d848 02c7 d848
00000030: 0000 803f 2721 5344 283c 9747 7594 5549
00000040: 7594 5549 0000 803f 0000 803f 8b63 be46
00000050: 530d 5549 f30d 5549 0000 803f 1761 5344
00000060: e9aa a246 0255 7348 da54 7348 0000 803f
00000070: 0000 803f f4ea f845 14f1 2a48 3934 2a48
00000080: 0000 803f 1761 5344 7bf7 cc45
35445.414 36272.133 1.0 844.518 102142.664 297971.62 298657.66 1.0
844.518 98642.37 443367.9 443960.06 1.0 844.518 77432.31 874823.3
874823.3 1.0 1.0 24369.771 872661.2 872671.2 1.0 845.517
20821.455 249172.03 249171.4 1.0 1.0 7965.369 175044.31 174288.89
1.0 845.517 6558.935

network_body.processors.0.normalizer.running_mean f4 [35]
00000000: 40a3 273c ae4f 7d3f 0000 0000 a9db 7c39
00000010: db35 8c3e 0670 c03d dde1 673f 0000 0000
00000020: a9db 7c39 7929 943e 9265 183e aad6 593f
00000030: 0000 0000 a9db 7c39 e2f9 8e3e cec9 013f
00000040: 136c fc3e 0000 0000 0000 0000 249b 913e
00000050: e6bd f23e 7391 063f 0000 0000 6e28 7d39
00000060: 9dd1 8e3e 6140 6c3f 81fc 9d3d 0000 0000
00000070: 0000 0000 d347 813e 8a7b 723f 3f47 573d
00000080: 0000 0000 6e28 7d39 83d4 7c3e
0.010231793 0.98949707 0.0 0.00024114423 0.27384838 0.09396367 0.90579015 0.0
0.00024114423 0.2893789 0.14882496 0.85093176 0.0 0.00024114423 0.2792502 0.50698555
0.49301204 0.0 0.0 0.28438675 0.47410506 0.5256569 0.0 0.00024143021
0.27894297 0.92285734 0.07714177 0.0 0.0 0.2525011 0.94719756 0.05255818
0.0 0.00024143021 0.24690442

network_body.processors.0.normalizer.running_variance f4 [35]
00000000: 6a75 0a47 22b0 0d47 0000 803f 2721 5344
00000010: 557f c747 747e 9148 35d4 9148 0000 803f
00000020: 2721 5344 2fa9 c047 fd7c d848 02c7 d848
00000030: 0000 803f 2721 5344 283c 9747 7594 5549
00000040: 7594 5549 0000 803f 0000 803f 8b63 be46
00000050: 530d 5549 f30d 5549 0000 803f 1761 5344
00000060: e9aa a246 0255 7348 da54 7348 0000 803f
00000070: 0000 803f f4ea f845 14f1 2a48 3934 2a48
00000080: 0000 803f 1761 5344 7bf7 cc45
35445.414 36272.133 1.0 844.518 102142.664 297971.62 298657.66 1.0
844.518 98642.37 443367.9 443960.06 1.0 844.518 77432.31 874823.3
874823.3 1.0 1.0 24369.771 872661.2 872671.2 1.0 845.517
20821.455 249172.03 249171.4 1.0 1.0 7965.369 175044.31 174288.89
1.0 845.517 6558.935

network_body._body_endoder.seq_layers.0.weight f4 [128, 36]
00000000: 1bf2 4dbe a825 fa3d 605f 9b3d f8e2 b4bc
00000010: 7e23 143e f5c1 8f3c 0c35 29bd be00 fd3d
00000020: 6403 b43c 6d23 e0bc cf14 4cbe 4aab 093e
00000030: f0ae 0dbc fd9a e2bd 60c2 c13d 17d2 72be
00000040: c9d6 0cbc b37d b03d 2ad1 fbbc 84a6 1f3e
00000050: 5a84 e53d 27d3 003e 8c08 f1bc 85ee 643e
00000060: 110d 123e 471c 8e3d 00b9 563e b426 293e
00000070: 8797 2cbb 105d 1b3d 369f ffbd 564f c0bc
00000080: 0270 903c 2b70 cdbd a76b 2a3e 84ca 293e
00000090: a1cc 1fbc d968 063e 567c e03d c9db e93b
000000a0: 9c37 e23d 8bea 133e ec49 8a3e 9a8f 0ebd
000000b0: 3e75 8f3d 87ef 563e 1847 b9bc 253c 38bc
000000c0: 27ae 17bd 4ae7 d3bd 087a 1cbe bf90 e63d
000000d0: 9caa 2d3e 745d d9bc 42f8 333d e241 2bbe
000000e0: 079c 12be eefc f6bc d1a4 17be c84b 78be
000000f0: 3bca af3e 4ecd b2bd a8d5 79bd 4ee9 113c
00000100: d04e e2bd 24bc c2bd 2f73 a63d d252 293e
00000110: a79a 5dbd 9c2b 59be 810e 643d be2f 833e
00000120: 7857 333e b904 133e 0081 c53d b8aa d73d
00000130: dbc2 8ebd 8e41 0f3e ac09 4ebd 1cb8 1cbe
00000140: fe0b b23d 4c92 aa3e 2c3e 5dbe 990a b2bc
00000150: 87bc 3e3e 518e 2b3d e404 b0bd 2b11 55be
00000160: 0572 4a3e f473 373e f8b0 f53d 522d ab3d
00000170: eaf3 a03d 6f33 72bd 6cb0 043e 95f7 fabc
00000180: 62df 5d3e 5cca 53bd e677 853e f476 c23e
00000190: 1b76 6f3e da77 4abd fa3a 993e 1609 75be
000001a0: 0e74 5c3e 1896 6c3d ef59 153e 491e 18be
000001b0: c691 2a3d 174f 6bbd dbe2 75be 1f25 c63d
000001c0: 9214 3e3d 73f6 b5bd 29cf 1b3e a7cb 593d
000001d0: 17c6 b23e 9a12 123e 00e1 c13d ae7e aebd
000001e0: 3fda 2c3e 157e bc3d bd2a 883d 3cac 853e
000001f0: 546d 3f3e c756 243e 2438 443e eeed 21be
00000200: 4b25 da3d b334 613e 9ac9 8e3d ccd6 843e
00000210: 57e8 8f3d c9dd d33d 93b6 5cbe b20b d9bd
00000220: cea0 6bbe 6152 5f3e 0a3c d63e c091 68bd
00000230: db1d adbd 7076 a93e 6cfe f33d b3ff 6e3d
00000240: 45bc 0ebe 55f6 753e 34e0 cdbd 743c 923c
00000250: ad1e ffbb 0398 be3d e721 9bbd 9aad 77bc
00000260: 0325 113d 979a 0c3e 05f5 b0bd 2dec c83d
00000270: 342f 023e be59 04be 627e 0a3d 2c4a 973e
00000280: 4b96 293e 7682 4a3e 3adc 6e3e 427f 9fbd
00000290: 5a0d 5e3e 016f 1c3e b7a2 16bc 69e5 cf3d
000002a0: 7df4 0bbd 2a14 3a3e 585b 89bd a60a c73e
000002b0: ec1f 2e3e 0190 c9bd a697 893b 862a 753e
000002c0: ce6f 06bd fc88 a0bd 00e4 0abc 5494 cb3d
000002d0: 4e2d 9d3e f3fc 68be 146c 61be bf72 7ebe
000002e0: 5a47 f03d 5813 663c da49 9dbe 3121 153e
000002f0: 2ae8 86be 3e53 243d 7fd0 48be 66e5 ff3d
00000300: 9fea 6fbe 82a8 eabd 2542 0fbe f49f 1e3d
00000310: de11 c13d aebf 4cbd 0f5c 88be fa63 dcbd
00000320: 72ef 0b3d cbb1 dfbd 1a30 693d b28a 1d3e
00000330: d490 1ebd 6cc4 823e 40b5 303e 63d1 be3d
00000340: d2c0 bc3e 4d2f 80be e7b8 cfbd 42ee 94bd
00000350: 8f85 cf3d 2c0a 14be b35a 41be b61e 35be
00000360: 62c8 6abd 069f 6abd ff79 bf3d 584a 493e
00000370: f0e8 c23c 879f 223b 2f9d 75bd d8a3 43bd
00000380: 865e 2bbe d3de b4be 0bc1 363d 6e1f ae3d
00000390: dbf7 47be b074 123e 9d93 a23e ecd8 383b
000003a0: b0f0 1ebe f363 c8bd eb4b e03d 472c 96bd
000003b0: a889 4a3e e9be c7bd b8b0 8abc 2751 6b3e
000003c0: 8308 4c3d e7e2 b73d c3c7 46bd dc8c ec3d
000003d0: ad7d a23d 12c4 1bbe baef f03c 1a41 523e
000003e0: 86d8 5c3d 4a6a 0c3e 7624 d6bd c407 b63b
000003f0: 3cfa 05be a28a 66be ac18 183e e0a7 dabd
-0.20111887 0.122142136 0.07586551 -0.022080883 0.14466664 0.01754854 -0.041310355 0.12353657
0.021974273 -0.027360642 -0.19929813 0.13444248 -0.008647665 -0.11064718 0.09460902 -0.23712955
-0.008596131 0.08617725 -0.030739386 0.15590864 0.11206885 0.12580548 -0.02942302 0.22356613
0.14262797 0.06938987 0.2096901 0.1651867 -0.0026335435 0.03793055 -0.12481539 -0.02347533
0.017631534 -0.1003116 0.16642629 0.1658116 -0.009753377 0.13125934 0.10961215 0.007136796
0.11045763 0.1444494 0.27009523 -0.034804918 0.07004784 0.2098981 -0.022616908 -0.011244808
-0.03703132 -0.10346849 -0.15280926 0.11258077 0.16959614 -0.02653382 0.04393793 -0.16724351
-0.14317332 -0.030149903 -0.14808966 -0.24247658 0.34333977 -0.08730565 -0.060994774 0.008905722
-0.110501885 -0.09508541 0.08127438 0.165355 -0.054102566 -0.21208042 0.055677895 0.25622362
0.17513835 0.1435727 0.096437454 0.10530609 -0.069707595 0.13989851 -0.050302193 -0.15304607
0.086936936 0.3331474 -0.21605748 -0.021733569 0.18626605 0.04188377 -0.08594683 -0.2080733
0.19770057 0.17915326 0.11996645 0.083582535 0.07859023 -0.059131082 0.12957925 -0.030635634
0.21667245 -0.051706657 0.26068038 0.3798138 0.23384897 -0.049430706 0.29927808 -0.23929247
0.21528646 0.057760328 0.14585088 -0.14855303 0.041642927 -0.057448473 -0.2401232 0.09675049
0.046406336 -0.08884897 0.15215744 0.053172734 0.34916756 0.14264908 0.094667435 -0.08520256
0.1688013 0.09203736 0.06648777 0.26107967 0.18694049 0.16048728 0.19162041 -0.15813419
0.10651644 0.2199276 0.06972046 0.25945127 0.07026737 0.103450365 -0.21554022 -0.10597934
-0.23010561 0.21808769 0.4184268 -0.056779623 -0.0845296 0.33098173 0.119137615 0.058349323
-0.13939007 0.2401975 -0.10052529 0.017851092 -0.0077856393 0.09306338 -0.07574826 -0.015117073
0.035435688 0.13730846 -0.08640484 0.09810672 0.12713319 -0.12924859 0.033811934 0.29548776
0.16561238 0.1977633 0.23326197 -0.077879444 0.2168478 0.1527672 -0.009194068 0.101511784
-0.03416871 0.18171754 -0.067068756 0.38875312 0.17004365 -0.0984192 0.004198986 0.23942003
-0.03282147 -0.07838628 -0.008477211 0.09940401 0.30698627 -0.22752742 -0.22013885 -0.2484846
0.11732359 0.014042698 -0.30720407 0.14563443 -0.26349002 0.04011845 -0.19610785 0.12494926
-0.23429345 -0.114579216 -0.13990076 0.038726762 0.09427236 -0.049987487 -0.26632735 -0.107612565
0.0341639 -0.10922583 0.05693064 0.1538494 -0.038712338 0.25540483 0.17256641 0.09317281
0.3686586 -0.25036088 -0.10142689 -0.072720066 0.10132896 -0.14457005 -0.18882255 -0.17687497
-0.057320006 -0.057280563 0.09349441 0.19657266 0.023792714 0.0024814324 -0.059964355 -0.047763675
-0.16735277 -0.3532625 0.044617694 0.085020885 -0.19528143 0.14302325 0.31753245 0.0028205467
-0.15521502 -0.09784689 0.1095198 -0.07332664 0.19779074 -0.0975321 -0.01692997 0.22980176
0.049812805 0.08978825 -0.04853035 0.11550304 0.07934127 -0.15211514 0.029411186 0.20532647
0.05391743 0.13712421 -0.10456173 0.005555125 -0.13083738 -0.22513822 0.14853162 -0.10676551

network_body._body_endoder.seq_layers.0.bias f4 [128]
00000000: a80e 0ebd 02a6 debd b4e3 6abd eff7 2ebe
00000010: 89f7 bdbd a72e 87bd d2a0 34be 8337 30be
00000020: ede6 94bc a394 54be d07b 1cbe 631c 02be
00000030: d19c 40be 9692 11be e850 3abd 71d6 27be
00000040: 5851 95be d81d 38be ef55 24bd 1b8e 91ba
00000050: 998b adbd 4e04 67be 89b3 cabd cb84 e5bd
00000060: cbf3 d7bc f16a 20be de20 31be 5156 1a3c
00000070: 3378 0abe 5eb7 e8bd ec86 0ebe ee99 29bd
00000080: 49c9 a8bd a31c 24be 2adb b6bd 8f86 e5bd
00000090: 138d febd de22 7cbd 33bc cfbd b2ae cbbd
000000a0: 4849 14be 6ae6 a3bd 042e eabd 50d5 35be
000000b0: 6aad e4bd 9b8a fdbd 2e7d 10bd 9179 afbd
000000c0: 98e7 aabd f997 04be 0a96 0bbe 08c4 13be
000000d0: 3e6d 7ebd c447 ecbd 7bbb 0ebd f1df 24be
000000e0: 2461 a7bd fb07 54bd be35 babd d3f0 8fbd
000000f0: ee17 45be dbd1 0dbd 3841 0a3c 7ed4 f9bd
00000100: 0d38 a6bd 874c 18be f297 e63b f608 f2bc
00000110: c502 14bd b559 78bd 4a0d efbd b03d 9fbd
00000120: 3aa9 39be 9f81 ddbd 6e62 7dbe c9a2 34bc
00000130: f0a7 37be ab8c d5bd 8521 cebd d94b 9cbd
00000140: 8059 02be d839 42be ca3b 95bb 28ce 50be
00000150: e3f8 cdbd 3d76 07be 7a21 89bc 903e 36be
00000160: 25b1 2bbe 8eb4 16be 4564 36be ad4e 45be
00000170: bccf d5bd 1862 8dbd 9117 47bd f38d d13c
00000180: 361d 0dbe 5a3c 7fbd b497 55bd 486e 3dbd
00000190: 92d2 99bd f81b 58be 39f1 58bd f64f 65bd
000001a0: 4efe 3abe f611 febd e9f0 87bd 4bbc a5bd
000001b0: 9b9c 64be dd94 cfbd 6df3 0ebe 1319 b3bd
000001c0: 1861 50be 6bea 58bd 2990 78bd de89 78bd
000001d0: 0191 79bd c60d f8bd 859f 3abe 09ad c6bd
000001e0: dbd4 bbbd 5225 0abe a07d 88be 9582 b9bd
000001f0: 15f2 5ebe 28a5 b5be 57fc 05be 1832 283d
-0.034681946 -0.10871507 -0.05734606 -0.17086767 -0.09275729 -0.06600695 -0.17639473 -0.17208676
-0.01817652 -0.20759825 -0.15281606 -0.12706141 -0.1880982 -0.14216074 -0.045487314 -0.16390397
-0.29163623 -0.17980134 -0.040121015 -0.0011104973 -0.08473892 -0.22560236 -0.09897525 -0.11206969
-0.026361367 -0.15665795 -0.17297694 0.0094199935 -0.13522415 -0.113630995 -0.13918656 -0.041406564
-0.08241517 -0.16026549 -0.08928521 -0.11207306 -0.124292515 -0.06155669 -0.10143318 -0.0994543
-0.1448108 -0.08002932 -0.11434558 -0.17757154 -0.111658886 -0.123799525 -0.03527563 -0.08568109
-0.08344954 -0.12948598 -0.13631454 -0.14430249 -0.0621159 -0.11537126 -0.034846764 -0.16101052
-0.08172825 -0.051765423 -0.09092282 -0.070283554 -0.1924741 -0.034623962 0.008438401 -0.12198733
-0.081161596 -0.14872943 0.0070371563 -0.029545289 -0.036135454 -0.060632426 -0.116724566 -0.07775438
-0.18130961 -0.10815739 -0.24744579 -0.011025139 -0.17935157 -0.10427221 -0.10064987 -0.07631654
-0.12729454 -0.18967378 -0.0045542466 -0.20391142 -0.10057237 -0.13228698 -0.016739596 -0.17797303
-0.16766794 -0.14717314 -0.17811687 -0.19268294 -0.10440013 -0.069034755 -0.04860646 0.025580382
-0.13780674 -0.062313415 -0.05214663 -0.04624775 -0.07510866 -0.21104419 -0.052964423 -0.05598446
-0.18261072 -0.124057695 -0.06637747 -0.08092555 -0.22325365 -0.10135815 -0.13960047 -0.08745017
-0.20349538 -0.052957933 -0.060684357 -0.060678355 -0.060929302 -0.12112002 -0.18224914 -0.097009726
-0.09171458 -0.13490799 -0.26658344 -0.0905811 -0.21772034 -0.35477567 -0.13084541 0.041063398

network_body._body_endoder.seq_layers.2.weight f4 [128, 128]
00000000: d988 cabd ab24 933d e828 d3bc 3637 903d
00000010: d0c1 983d 4478 e2bc 12d8 07bd 0297 e83d
00000020: 4739 b33b 89f5 aa3d 11a0 fcbd 3663 ad3c
00000030: 177a ef3c 14a1 063e e110 893c 73a2 57bd
00000040: a6fc 32bd 083c 91bc 2220 683e e7d8 0cbe
00000050: d1c1 c93c a0b2 093e f170 abbd fc9a 0f3e
00000060: 866c 7d3d c773 c4bd 1292 fcbc a9d6 7ebd
00000070: 112c 423c 9a09 103d 3418 533d b91a eb3b
00000080: cc9c 88bd 5a9b 8cbd 308e 003e cfbf c7bd
00000090: cce9 3bbc 1729 dc3d 7704 343d cca5 61bc
000000a0: be01 70bd 8974 19be ca78 93bd ed52 f03b
000000b0: b502 9b3c f977 a93d 2689 9e3d 9ea0 9ebd
000000c0: a719 8bbe 8676 0a3c 3fc1 903d b3b6 b6bd
000000d0: ea6f 7d3d 1eba bfbd 06e3 863d 88c6 4cbc
000000e0: c49b 9abd e201 7c3d 0e32 1e3d c095 c53b
000000f0: b0cb f53b fb5b 19bd 5ea7 a73d 06db c7bc
00000100: d1aa 09bc 52da 0a3e 5852 50bc ae38 08bd
00000110: bef4 97bd f08d 0c3e ee5f 823d b235 97bd
00000120: 3b12 15bd 9026 a43d 674c ea3d 7990 0f3e
00000130: 2451 e23d 4d45 e7bd 1cd2 a1bb 9521 84bd
00000140: bc43 0b3e 53db f03a 915c 45bd 6c4c 093e
00000150: 5ab1 90bc b985 ef3b bbb2 86bd 163d 0a3e
00000160: 9647 ac3c 7f32 a43d 8c74 c3bc bc56 adbc
00000170: 6452 063d 254f 3d3c 2bd6 ae3c e6e6 473d
00000180: a7d0 e2bd b2d9 ffbc 1755 06be a1d9 203e
00000190: 0ec6 1a3b e74a 09be 6a91 e13c c216 60bd
000001a0: 8002 ccbc a054 4a3e cea4 183e a4c1 423d
000001b0: a961 9abb 9aaf 523e 5506 8f3c 7100 9e3c
000001c0: 26c9 f43c e018 91bd 05ce d5bc fa8e b93d
000001d0: 9bf6 0dbd d468 983d a6ec 403e e18f 38bd
000001e0: aafc c4bd a664 273c 1fb1 ecbb 3285 64bd
000001f0: a2c7 4bbe d6ec 8f3c a576 06bd 079a 0dbe
00000200: 9def babc 30fe 4e3d b480 ce3d 072d 1f3c
00000210: ba7a af3d fc9d 82bd e3c5 ca3c a453 10be
00000220: e68e b03c bcf4 02bc 7f1e abbd 8908 e1bd
00000230: 1873 31bd 2f93 e1bd 77f6 09bd acb9 b23d
00000240: e281 70bd 59fe 44bd 9760 6d3d 6a84 b9bd
00000250: c428 16bd 64cf 993d d435 d1bc b401 b1bd
00000260: 5df4 4cbc 3aba 15bc 412b 9bbc 7a59 d3b8
00000270: 2e32 3b3d 721c 953c 9b17 acba 7362 e2bb
00000280: cb91 babc e883 e2bb 8fe3 8bbd 6ec7 323d
00000290: bf4b 59bd 1425 1d3e adb7 013e df99 c3bd
000002a0: 88a4 9d3c 979b af3c a108 fbbc 01af 4ebd
000002b0: 0225 eebd 1d17 d9bd fc55 35bd db83 0cbe
000002c0: 4997 49be 18c3 cbbb 351b 9ebd a5c1 5abd
000002d0: b54a 5bbd c44f d93a 3480 73bd 34d8 563d
000002e0: 3707 eebd c0cd 8fbc a572 9bbd c209 91bd
000002f0: 8d82 9bbb f180 a6bd f021 d8bd ec01 41bd
00000300: cce6 cabc 9072 20be 5af0 903d 61ae dd3b
00000310: 2093 e1bd f9cf b0bd 628d 0cbc 0189 fa3c
00000320: 3cc9 c43d 76cf be3d 1bf5 dabc 0e1e 20be
00000330: 6f49 9d3d 7054 873c 085a f83d 5904 2bbd
00000340: fa9e 2b3d 252c efbc 6023 283d a265 063d
00000350: 11d5 bcbd efc5 52bc 0089 7238 05bb 633d
00000360: c8e4 b8bc e1c9 0b3b b20c ef3c 9cda 05bd
00000370: c0f5 9e3c cf4d 03be f7d6 d03d 2bae ef3d
00000380: 329a 11be 7d96 cc3d fbeb bebc 6924 95bd
00000390: ba0c d63c d068 3d3c a02d 4bbd 177d 1a3e
000003a0: 6f09 f3bd 3861 66bd d9f8 4c3c 1773 a6bc
000003b0: 7bfc 83bd a237 193d 5cf9 a13d 3778 ccbd
000003c0: e86d e8bb 4722 3dbb 6594 41bb fc8e 62bd
000003d0: 0c17 66bd 5235 00be 1824 7d3d 694d c33d
000003e0: 1fb4 01be 4fc4 4b3d 0eaf c4bd 6427 893d
000003f0: fcc9 dd3c 5bf9 dc3c 634b 343d 0601 d23d
-0.09889383 0.07184728 -0.025776342 0.07041781 0.07458842 -0.027645238 -0.033165045 0.113569275
0.0054694745 0.08347613 -0.12335218 0.021165472 0.029233022 0.13147384 0.016731681 -0.052645158
-0.043697976 -0.01772882 0.22668508 -0.13754617 0.024628552 0.13447046 -0.08371151 0.14023966
0.061871074 -0.09592395 -0.03083137 -0.062216435 0.011851327 0.035165407 0.051536754 0.0071748164
-0.06670532 -0.068655685 0.1255424 -0.097533815 -0.011469316 0.10750025 0.04394957 -0.013772439
-0.05859541 -0.14985861 -0.07200773 0.0073341043 0.01892219 0.08274836 0.07741003 -0.07745479
-0.2716801 0.00845111 0.07068109 -0.08921566 0.061874308 -0.09361671 0.0658627 -0.012498505
-0.07549241 0.061525233 0.038621955 0.0060298145 0.007501088 -0.037441235 0.0818622 -0.02439643
-0.008402542 0.13559845 -0.012714945 -0.03325718 -0.07419728 0.1372602 0.063659534 -0.073832884
-0.03639434 0.08015168 0.11440354 0.14019956 0.110506326 -0.11292515 -0.004938377 -0.06451718
0.13600057 0.0018375911 -0.04818398 0.13408059 -0.017662693 0.007309642 -0.06577059 0.13499865
0.021030229 0.08017444 -0.023859285 -0.021159522 0.032793418 0.011554514 0.021342358 0.048804186
-0.110749535 -0.031231735 -0.13118397 0.15708019 0.0023616585 -0.13407479 0.02753516 -0.054709204
-0.024903536 0.19758844 0.14906618 0.04754795 -0.004711349 0.20574799 0.017459074 0.01928732
0.029881071 -0.07084823 -0.026099214 0.09060474 -0.03465901 0.074418694 0.18840274 -0.04505909
-0.09618504 0.010216868 -0.007223263 -0.055791087 -0.19900373 0.017568987 -0.032827992 -0.13828288
-0.022819335 0.05053538 0.10083142 0.009715325 0.0856833 -0.063777894 0.024752563 -0.14094406
0.021552514 -0.00799292 -0.08355426 -0.10987956 -0.043322653 -0.11014401 -0.033682313 0.0872682
-0.058717616 -0.048094127 0.057953443 -0.09058459 -0.03665997 0.0751026 -0.025538363 -0.08642903
-0.012509433 -0.009138638 -0.018941524 -0.0001007793 0.045702152 0.01820204 -0.0013129594 -0.0069087087
-0.022774598 -0.006912697 -0.06830513 0.043647222 -0.053050753 0.15346175 0.12667723 -0.09550833
0.019243494 0.021436496 -0.030643763 -0.050459865 -0.116281524 -0.10600112 -0.044271454 -0.13722174
-0.19686617 -0.0062183253 -0.07720033 -0.05340733 -0.053538043 0.0016579558 -0.059448436 0.05245228
-0.1162247 -0.017554164 -0.07590226 -0.07081939 -0.0047457875 -0.08130062 -0.10553348 -0.047120973
-0.024768256 -0.15668702 0.070770934 0.0067651724 -0.1101439 -0.08633418 -0.00857863 0.030582907
0.09608695 0.09316914 -0.026728204 -0.15636465 0.07680022 0.016519755 0.12126547 -0.041752193
0.04189966 -0.029195854 0.04104936 0.03281177 -0.09220327 -0.012864574 5.7824887e-05 0.055598278
-0.022570029 0.0021330046 0.029180858 -0.032679185 0.019404292 -0.1282265 0.10197251 0.11703142
-0.14218977 0.09989641 -0.023305884 -0.07282335 0.026129115 0.011560634 -0.04960406 0.1508678
-0.11867034 -0.05624506 0.012510502 -0.020318551 -0.06444641 0.03740657 0.0790889 -0.09983867
-0.00709318 -0.0028859542 -0.0029537913 -0.05531214 -0.056174323 -0.1252034 0.061802 0.09536249
-0.12666367 0.04974776 -0.096037015 0.06696966 0.027073853 0.02697437 0.044017207 0.102541015

network_body._body_endoder.seq_layers.2.bias f4 [128]
00000000: 616f 94bd c4ee 8cbc 6698 27be e14e 36bd
00000010: f86d de3b 38c9 69bd 3dc5 9bbc cc39 0abd
00000020: 56ce 53bd 32b9 82bc 676e 69bd 7926 31bd
00000030: 3954 b5bd 17e8 993c 6a1f f7bc 2a44 74bd
00000040: cdc7 82bd ea5d 0ebd 51be c5bd 7276 04bd
00000050: 2617 4cbd 19d8 bdbb efda 52bd baa8 44bc
00000060: c369 5bbb be2b 3fbd 388c 43bd 4cfe 3dbd
00000070: 739d 3ebd 7f3e ddbc 4a59 a7bc 6326 41be
00000080: c758 143c 30de 48be f674 00bd 299d 8cbc
00000090: 8280 59bd 6899 26be b829 5ebd cc2b 34be
000000a0: 25eb 27bc c4d3 babb 6e4c f8bc f086 7fbd
000000b0: 5038 19bd fc08 fabc d705 b6bc 7506 78bd
000000c0: fa45 03be a52f 243b 67eb 42be 4f5c 23bd
000000d0: 792b 2a3c 6146 57bd 7eed 82bc ead9 30be
000000e0: f11f 01bd e5b6 80bd ebef 8abc ca14 00bc
000000f0: cb5a 26bd 1143 ebbc 052f 5ebd 438e 8ebd
00000100: 1bcd 5cbd e152 a7bc 191e a8bd 37e5 c5bd
00000110: 1d1e abbb 0c97 00bb 0f9c 51bc bdf0 81bd
00000120: 34c4 88bd a265 4cbc 0ff1 72bc 44ab 86bd
00000130: 0e68 17bc 1a16 37bc 92b8 31be 8eff 94bc
00000140: 3aae 95bd 7145 183a d88a cbbd a526 3fbd
00000150: 20e3 0abd 7abc 50bd 4838 a33c 0db4 65bd
00000160: 3224 0abd 73b7 eabb 7d8a 86bd 743f 9ebc
00000170: aca5 46be c78b 53bd c89f fbbc 452c d03b
00000180: aff3 36bd b221 0ebd 74fa dab9 c81c 95bd
00000190: 8d30 b4bc 5b8c a0bd 23fa 3bbd 74c4 933c
000001a0: d8f4 cbbc 68b4 a8bd 1ef4 30bd 2642 20bd
000001b0: 8c2b 80bd a680 6a3c 305a b6bc 6ec7 41bc
000001c0: 5c1c e2bc 1a46 acbc 22a0 4dbd 168b b6bd
000001d0: 0c06 84bd 6b18 f3bc 852d eabc eea1 c0bb
000001e0: c1bc e23c 76de bf3c e080 5dbd 6130 04bd
000001f0: 9d26 33bd b3f1 67bc b58f 84bd b44a c4bc
-0.07247806 -0.017203696 -0.16366729 -0.04450882 0.0067880116 -0.057076663 -0.019014949 -0.033746526
-0.05171045 -0.015957449 -0.056990054 -0.04324958 -0.08853955 0.018787427 -0.030166347 -0.05963532
-0.06385765 -0.034757532 -0.096554406 -0.03233952 -0.049826764 -0.005793583 -0.051478323 -0.012003118
-0.0033479787 -0.046672575 -0.047741145 -0.046385095 -0.046536874 -0.02700734 -0.020428319 -0.188623
0.009054369 -0.19616008 -0.031361543 -0.017164784 -0.05310107 -0.16269457 -0.054239005 -0.17594832
-0.010248934 -0.005701514 -0.030309882 -0.062384546 -0.03740722 -0.030521862 -0.022219582 -0.060553033
-0.12819663 0.0025052812 -0.19035111 -0.039882954 0.010386341 -0.052557353 -0.015982386 -0.17270628
-0.031524602 -0.06284884 -0.016960105 -0.0078174565 -0.04061393 -0.028718503 -0.05424406 -0.06960728
-0.05390654 -0.020425262 -0.08208866 -0.0966286 -0.0052220956 -0.001962128 -0.012793555 -0.06344745
-0.06678048 -0.012475403 -0.014827981 -0.06575635 -0.009241117 -0.011174703 -0.17355564 -0.018188264
-0.07308622 0.00058086874 -0.09938592 -0.046667714 -0.03390801 -0.050960995 0.019924298 -0.056079913
-0.033725925 -0.007162982 -0.06569383 -0.019317366 -0.19399136 -0.051646974 -0.030715838 0.0063529336
-0.04466599 -0.034700103 -0.00041766802 -0.0728088 -0.021995807 -0.07839271 -0.045892846 0.018038012
-0.024897024 -0.08237535 -0.04320156 -0.039125584 -0.06258306 0.014312899 -0.022259802 -0.011827333
-0.027601413 -0.02102952 -0.050201543 -0.08913247 -0.06446466 -0.02967473 -0.028586159 -0.0058786785
0.027677896 0.023421507 -0.054077983 -0.0322727 -0.043737996 -0.014156747 -0.064727224 -0.023961402

action_model._continuous_distribution.log_sigma f4 [1, 2]
00000000: f86e 2a3c 0cfc 153c
0.010402434 0.009154331

action_model._continuous_distribution.mu.weight f4 [2, 128]
00000000: 51cb 36bb 1890 be3b e885 25bb 2b19 6abb
00000010: a0e8 41bb b93e 81bb 2f58 1dbb f81b 0f3c
00000020: 5e55 263a 5f11 20bb 4fe8 54ba 4a5e e439
00000030: 6939 b1ba 964d 983a e570 2dba 4e24 8ebb
00000040: bfed 053d b049 ffb7 c8c1 a3bb 635c be3a
00000050: 02dc ad39 a757 d93b 1b20 433a acb5 e93b
00000060: 27b6 af3a bf36 ae3b e5ff b23a 00de 933b
00000070: a25f 8eba bee6 2d3b e884 23bb cfc4 06bc
00000080: a6a1 ba3b 59c3 7dbb 477e 3439 60ae 1bbb
00000090: 8614 a9bb 7a19 aebb 9cae edba 11eb 453b
000000a0: 8157 973d 6115 0abb f5c0 75bb c0e3 0f3d
000000b0: 27e8 d13b 2c51 b7bb 5540 643b 1900 5fbb
000000c0: 4eea 1cbb a257 32ba 9aee 933a d311 d7bb
000000d0: 0a4d cfbb 7617 9d3b 5bd6 023a 39a4 c7bb
000000e0: 8d5a 903a bef9 63ba db45 ab3b 13b0 863b
000000f0: 67a2 503b c917 92bb 9de4 6b39 1ce1 1b3c
00000100: 3ce3 fa3a b1e1 ba3b d667 7abb 9115 33bb
00000110: 2b8b f2b9 b292 043b 043a a938 2a39 073d
00000120: 5f5e 203c a224 983b 233c fabb c577 433b
00000130: 4d9d cdb8 8768 2c3a 1029 69bc 3ba5 993b
00000140: ad9d adbb fb99 8e3d 5b3f 25bc 3b84 2d3c
00000150: 06e2 373a 4f73 7dbb b066 0c3b 6bc8 50ba
00000160: 2319 38bd ee2f 053c 646a 58bb 03c2 fa39
00000170: 0718 f5bb 0328 913a b538 f4ba a912 863b
00000180: c49a 8638 aaac 9b3a 836d a13a 8c69 d8ba
00000190: 6f37 0fbc 361b 08bd c269 483a 05c6 21bb
000001a0: fbed 39bb 2400 193c 176f 993b a25e de3a
000001b0: 3403 b4bb 2ad0 13bb 82f4 263b 9693 6c3b
000001c0: 0850 843b a3b0 3c3b e410 72bb 6a75 29bc
000001d0: 962e dd3c 034a c03b 0e07 c2ba a290 89ba
000001e0: 2135 50bb d498 013c 62fa 1e3a bc2e 36bb
000001f0: 492c 40ba b35c 693b 76fd 543b 1321 a0ba
00000200: d1e2 11bc 1b7e 8ebb 385e 00b8 da77 68bb
00000210: a9d3 093b 51d5 e9bb 2733 023c efbb 4dbc
00000220: 97af 323b 26d8 aebb 06e7 a53b 0678 c63b
00000230: a15c 3fbb 0951 883b 9016 b53b 1959 6139
00000240: 02b4 1dbd 6374 bebb a3a7 7b3b ac23 a73b
00000250: 1282 12bc d944 efbb 6696 0e3c b043 853b
00000260: 2bff f7ba 1877 443b 98b2 cbbb 1c47 263b
00000270: 53ed 2cbc 7460 5c3b 3d9f 7a3b d44b 8d3b
00000280: 1de7 203c 2730 293c 0ba8 683b a2b0 7dbb
00000290: b65e 953b 7f86 e8ba 93dc 633b 3542 4fbb
000002a0: a1e5 5fbc 21d0 0cbc 0cd1 063c a0e4 45bd
000002b0: 8f05 f23a e557 d23b 9b2e 303c 41d8 943a
000002c0: c3ae 84bb 5356 d63a 385f 86ba 28b8 56b9
000002d0: 60f3 18bc ebec c7bb 873e 113b d33e 12bb
000002e0: c866 133b 2f9d c33b f376 983b 43ff a03b
000002f0: c1f0 543b 827f d3ba 9b90 f13b ae87 0cbd
00000300: b05c cb3b c3f1 143a 037d 8fbc e870 d73b
00000310: adf5 d8ba 570b b93b 0a1d 503c d3e3 81bd
00000320: b9f7 debc 049d 0b3c 0fa9 98bb e219 fb3b
00000330: b096 773b 9391 b73a 7a7c f8bb 8d16 093c
00000340: 4888 19bb 06a9 0c3c 172b 63bc 989e 08bc
00000350: c82d ebb9 e100 aebb fead b33b 2671 0c3b
00000360: ff32 dcbd a972 59bb 2f44 b6bb 2cbb e13b
00000370: 7735 363b 896a 413b d04e 073b 5e8b 693b
00000380: 9bbd 0a3c 5b0e f73a d45a e93b a679 963b
00000390: ad5d 8bbb 7ba8 db3c 8382 163c 7239 02bc
000003a0: 69b8 473b 8c92 94bc 6504 09bc 5441 48bc
000003b0: 9776 f93b 74f4 f3bb f916 1abc 2c55 00bc
000003c0: 2d7c 8abb d566 7abb 30ff 303b 4582 9e3b
000003d0: c505 83bd 5738 a7bb 9454 363b 0976 3cbc
000003e0: 36a3 5dbc 32a8 5a3a 7649 92bb 5128 bd3a
000003f0: 8b32 98ba d0ea 07bb e439 9e3b 3fc8 e7ba
-0.0027892182 0.005815517 -0.0025256816 -0.0035720568 -0.0029588118 -0.0039442447 -0.002400886 0.008734696
0.0006345118 -0.0024424416 -0.0008121775 0.000435578 -0.0013521138 0.0011619802 -0.0006616249 -0.004337824
0.032697435 -3.0432682e-05 -0.0049974658 0.0014523383 0.0003316105 0.0066327634 0.0007443444 0.0071322527
0.0013405726 0.005316585 0.0013656585 0.0045125484 -0.0010862241 0.0026535238 -0.0024951044 -0.008225634
0.0056955395 -0.0038721173 0.0001721318 -0.0023755059 -0.0051599173 -0.0053130956 -0.0018133703 0.0030199925
0.07389737 -0.0021069872 -0.0037499045 0.03512931 0.0064058485 -0.0055943932 0.0034828384 -0.0034027158
-0.0023943367 -0.00068032194 0.0011286319 -0.006563404 -0.0063263224 0.0047940565 0.0004991048 -0.006092575
0.0011013314 -0.0008696577 0.0052268333 0.004110345 0.003183508 -0.004458402 0.00022496512 0.0095141195
0.0019141207 0.005703174 -0.0038208864 -0.0027326087 -0.00046261525 0.0020229039 8.069354e-05 0.0330135
0.009788125 0.004643039 -0.0076365634 0.0029826027 -9.804461e-05 0.0006576855 -0.0142309815 0.0046888865
-0.0052983374 0.06962963 -0.010085906 0.010590608 0.0007014576 -0.0038673466 0.0021423511 -0.0007964435
-0.044945847 0.008129103 -0.0033022398 0.00047828266 -0.007479671 0.0011074546 -0.0018632623 0.00409158
6.418445e-05 0.001187702 0.0012315962 -0.0016510948 -0.008741244 -0.033229075 0.00076451537 -0.002468468
-0.0028370607 0.009338412 0.0046824324 0.0016965459 -0.005493546 -0.0022554495 0.0025475328 0.003609871
0.004037861 0.0028791807 -0.0036936337 -0.010342935 0.026999753 0.005868198 -0.0014803128 -0.0010495374
-0.0031769949 0.007909972 0.00060645316 -0.0027798852 -0.0007330818 0.0035608232 0.0032499707 -0.0012216888
-0.008904175 -0.004348529 -3.0605326e-05 -0.0035471828 0.00210307 -0.007136025 0.007946766 -0.012557014
0.0027265304 -0.0053358255 0.0050629405 0.0060567884 -0.0029199498 0.004160051 0.0055263713 0.00021490864
-0.038501747 -0.005812214 0.003839948 0.005100688 -0.008942144 -0.0073019085 0.00870285 0.004066907
-0.001892065 0.0029978212 -0.0062163584 0.0025371974 -0.010554629 0.0033626826 0.0038241886 0.004312018
0.009820727 0.010326422 0.0035500552 -0.0038710018 0.0045584096 -0.0017740278 0.0034768924 -0.0031625156
-0.013665588 -0.008594544 0.008228552 -0.048313737 0.0018464791 0.0064191693 0.010753299 0.0011355953
-0.0040491535 0.0016352631 -0.0010251766 -0.00020477234 -0.009335369 -0.006101241 0.0022162513 -0.0022315278
0.0022491682 0.0059696655 0.0046528517 0.004913242 0.0032492133 -0.0016136023 0.0073719746 -0.03430908
0.0062061176 0.0005681777 -0.017515665 0.006574739 -0.0016552709 0.005647104 0.012702236 -0.06342282
-0.027217733 0.008521322 -0.004658825 0.0076629976 0.0037779026 0.0014005176 -0.007583198 0.008367193
-0.0023427177 0.00858522 -0.013865254 -0.008338593 -0.00044856803 -0.0053101634 0.005483388 0.0021429746
-0.10751914 -0.0033179915 -0.0055623273 0.0068887677 0.0027802864 0.0029512963 0.002064634 0.0035636048
0.008468057 0.0018848883 0.0071214233 0.0045921383 -0.0042531104 0.026813736 0.00918639 -0.007948266
0.0030474907 -0.018136285 -0.008362864 -0.012222607 0.007613014 -0.0074449126 -0.009404891 -0.007832807
-0.0042262287 -0.0038208265 0.0027007572 0.0048373067 -0.06397585 -0.005103152 0.0027821409 -0.011502751
-0.013527682 0.0008341103 -0.0044643236 0.0014431571 -0.0011611743 -0.0020739324 0.0048286784 -0.0017683579

action_model._continuous_distribution.mu.bias f4 [2]
00000000: 8844 96bb c171 483d
-0.0045858063 0.04893661

exp_avg f4 [128, 36]
00000000: 87ec df36 6db8 e2b6 0000 0000 9ca4 8835
00000010: e448 e638 1e17 b338 4a01 b3b8 0000 0000
00000020: 9ca4 8835 f524 db38 9d4d ab38 184a abb8
00000030: 0000 0000 9ca4 8835 2a70 dd38 200f 7c36
00000040: 3812 7cb6 0000 0000 0000 0000 48c1 a538
00000050: 09df fa38 76ef fab8 0000 0000 5ab9 8835
00000060: d08d ad38 ee24 dd38 3225 ddb8 0000 0000
00000070: 0000 0000 f7c3 b237 6fea 1939 0352 1ab9
00000080: 0000 0000 5ab9 8835 2d4e a038 4a1d 4237
00000090: 3709 9636 e6e8 97b6 0000 0000 381c 3735
000000a0: d100 e237 ee63 2438 605c 24b8 0000 0000
000000b0: 381c 3735 a646 a737 394e 2038 c854 20b8
000000c0: 0000 0000 381c 3735 8883 a437 18a8 9ab8
000000d0: 08a8 9a38 0000 0000 0000 0000 3b28 3ab8
000000e0: 2abd d0b7 a88a d037 0000 0000 0738 3735
000000f0: de48 40b8 5129 3bb8 1529 3b38 0000 0000
00000100: 0000 0000 d2a4 88b7 cb40 09b8 5c58 0938
00000110: 0000 0000 0638 3735 2282 dcb6 eb6b 0737
00000120: 22fb 9037 a2ca 92b7 0000 0000 d8f0 3036
00000130: efdc ed38 0036 1239 5432 12b9 0000 0000
00000140: d8f0 3036 7b45 d138 9910 1a39 1117 1ab9
00000150: 0000 0000 d8f0 3036 c4b1 b538 31c1 1cb9
00000160: 10c1 1c39 0000 0000 0000 0000 40cb adb8
00000170: 7cde e837 449a e9b7 0000 0000 b40b 3136
00000180: e210 01b9 5e49 77b8 5c48 7738 0000 0000
00000190: 0000 0000 ba00 4cb7 6995 67b8 c74c 6738
000001a0: 0000 0000 b30b 3136 3000 87b8 2795 0238
000001b0: 016b feb6 33cc 0037 0000 0000 4e40 9bb5
000001c0: 9aa4 f037 5fa3 5d38 9c20 5db8 0000 0000
000001d0: 4e40 9bb5 03b5 dd37 bdca 2238 ce78 22b8
000001e0: 0000 0000 4e40 9bb5 600e 5637 5708 6bb7
000001f0: 4409 6b37 0000 0000 0000 0000 28a5 c4b5
00000200: a00b 83b7 b75d 8337 0000 0000 dc57 9bb5
00000210: 0536 1db7 d779 dbb7 da7a db37 0000 0000
00000220: 0000 0000 2f5e 1636 7866 2cb8 6f1c 2d38
00000230: 0000 0000 dd57 9bb5 2a18 5eb7 cc14 5fb7
00000240: 8a12 3a37 6e65 3cb7 0000 0000 2617 e335
00000250: c94b ee38 f2cf a838 a6d0 a8b8 0000 0000
00000260: 2617 e335 3524 fa38 3a2a b538 3a35 b5b8
00000270: 0000 0000 2617 e335 ebe1 dd38 1643 3ab8
00000280: c242 3a38 0000 0000 0000 0000 d655 c938
00000290: 74f4 bab8 b3d4 ba38 0000 0000 a039 e335
000002a0: 04e4 d638 74d3 4839 aed3 48b9 0000 0000
000002b0: 0000 0000 8ee2 6838 1f76 8039 7ecc 80b9
000002c0: 0000 0000 a039 e335 4266 9a38 83ed a137
000002d0: 7488 0c38 bf49 0eb8 0000 0000 2783 ab36
000002e0: 07d5 9639 dc9d 8d39 549a 8db9 0000 0000
000002f0: 2783 ab36 5478 8c39 483d 9039 6444 90b9
00000300: 0000 0000 2783 ab36 613d 8339 f49f 65b9
00000310: b09f 6539 0000 0000 0000 0000 5ce2 7e38
00000320: 284f 9bb9 0f37 9b39 0000 0000 329d ab36
00000330: 4527 3838 0e34 5c39 a734 5cb9 0000 0000
00000340: 0000 0000 9430 a538 a95c b839 fff1 b8b9
00000350: 0000 0000 319d ab36 50e8 c138 b603 7638
00000360: c3d4 0037 a470 02b7 0000 0000 1c3b 9d35
00000370: 1298 1839 6f60 e338 3241 e3b8 0000 0000
00000380: 1c3b 9d35 8e6a 1739 9a76 d538 e26f d5b8
00000390: 0000 0000 1c3b 9d35 8323 1039 bafb b238
000003a0: d5fb b2b8 0000 0000 0000 0000 b994 0e39
000003b0: 4623 2e37 48ca 2eb7 0000 0000 f952 9d35
000003c0: 7e69 1e39 6aa2 4139 99a2 41b9 0000 0000
000003d0: 0000 0000 cff9 6438 45f7 8f39 3651 90b9
000003e0: 0000 0000 f652 9d35 fe29 c438 73e5 5937
000003f0: 91bc 2cb7 d4e4 2e37 0000 0000 9fd0 d2b5
6.6734533e-06 -6.756795e-06 0.0 1.0180697e-06 0.000109808316 8.539691e-05 -8.535625e-05 0.0
1.0180697e-06 0.000104496175 8.168372e-05 -8.1677164e-05 0.0 1.0180697e-06 0.000105589934 3.755973e-06
-3.756153e-06 0.0 0.0 7.9038145e-05 0.000119624725 -0.00011965532 0.0 1.0186734e-06
8.2756975e-05 0.0001054498 -0.00010545029 0.0 0.0 2.1310507e-05 0.0001467855 -0.00014717136
0.0 1.0186734e-06 7.643956e-05 1.15701205e-05 4.471421e-06 -4.5272636e-06 0.0 6.8213876e-07
2.694168e-05 3.9193714e-05 -3.9186678e-05 0.0 6.8213876e-07 1.994085e-05 3.8219823e-05 -3.822593e-05
0.0 6.8213876e-07 1.9611572e-05 -7.374602e-05 7.3745905e-05 0.0 0.0 -4.4383323e-05
-2.4883619e-05 2.4860099e-05 0.0 6.8254343e-07 -4.584423e-05 -4.4622753e-05 4.4622535e-05 0.0
0.0 -1.6289214e-05 -3.272369e-05 3.2745636e-05 0.0 6.825434e-07 -6.5716604e-06 8.071754e-06
1.728308e-05 -1.7498915e-05 0.0 2.6366233e-06 0.00011342193 0.00013943762 -0.00013942394 0.0
2.6366233e-06 9.978838e-05 0.00014692768 -0.00014695177 0.0 2.6366233e-06 8.663864e-05 -0.00014949289
0.0001494924 0.0 0.0 -8.287141e-05 2.7760158e-05 -2.78476e-05 0.0 2.6381867e-06
-0.00012308688 -5.8957718e-05 5.895678e-05 0.0 0.0 -1.2159517e-05 -5.521384e-05 5.5146196e-05
0.0 2.6381865e-06 -6.4373366e-05 3.1133324e-05 -7.582247e-06 7.676938e-06 0.0 -1.1567115e-06
2.8686878e-05 5.2842657e-05 -5.2720876e-05 0.0 -1.1567115e-06 2.6429543e-05 3.8812625e-05 -3.8736318e-05
0.0 -1.1567115e-06 1.2758741e-05 -1.4009033e-05 1.4009249e-05 0.0 0.0 -1.4651205e-06
-1.562183e-05 1.5660056e-05 0.0 -1.157397e-06 -9.370507e-06 -2.616357e-05 2.6164042e-05 0.0
0.0 2.2406564e-06 -4.1103427e-05 4.1272895e-05 0.0 -1.1573972e-06 -1.3237857e-05 -1.3296678e-05
1.109078e-05 -1.1229289e-05 0.0 1.6919555e-06 0.000113628405 8.049597e-05 -8.049728e-05 0.0
1.6919555e-06 0.00011927673 8.638618e-05 -8.640667e-05 0.0 1.6919555e-06 0.00010580182 -4.4408334e-05
4.440803e-05 0.0 0.0 9.600415e-05 -8.914704e-05 8.9087895e-05 0.0 1.6929589e-06
0.000102467864 0.00019152259 -0.00019152343 0.0 0.0 5.5524106e-05 0.0002450207 -0.0002456642
0.0 1.6929589e-06 7.362339e-05 1.9303296e-05 3.3505683e-05 -3.392412e-05 0.0 5.1114653e-06
0.00028768947 0.0002701123 -0.000270086 0.0 5.1114653e-06 0.00026792532 0.00027511478 -0.00027516775
0.0 5.1114653e-06 0.00025031998 -0.00021898729 0.0002189863 0.0 0.0 6.0769133e-05
-0.0002962288 0.00029604926 0.0 5.114497e-06 4.390559e-05 0.00021000227 -0.0002100045 0.0
0.0 7.8768615e-05 0.00035164252 -0.00035275516 0.0 5.1144966e-06 9.246229e-05 5.8654427e-05
7.678932e-06 -7.77483e-06 0.0 1.1714615e-06 0.000145525 0.00010842166 -0.00010836347 0.0
1.1714615e-06 0.00014440177 0.00010178723 -0.00010177471 0.0 1.1714615e-06 0.0001374614 8.534589e-05
-8.534609e-05 0.0 0.0 0.00013597579 1.0379421e-05 -1.04183055e-05 0.0 1.172156e-06
0.00015107353 0.00018466418 -0.00018466487 0.0 0.0 5.459209e-05 0.00027459316 -0.00027526327
0.0 1.1721556e-06 9.35383e-05 1.2987631e-05 -1.0295903e-05 1.0424486e-05 0.0 -1.5706936e-06

exp_avg_sq f4 [128, 36]
00000000: 661f df30 01bb e430 0000 0000 062b 262e
00000010: 0f9e 5e33 9805 6b33 16be 6a33 0000 0000
00000020: 062b 262e 9dfc 6333 3134 5333 0a42 5333
00000030: 0000 0000 062b 262e dd93 6033 9368 0e34
00000040: a268 0e34 0000 0000 0000 0000 898c ba33
00000050: ad5d 0b34 c070 0b34 0000 0000 795d 262e
00000060: 778a d833 2a60 0034 3060 0034 0000 0000
00000070: 0000 0000 1872 c332 9b02 1c34 01b2 1c34
00000080: 0000 0000 795d 262e 318e 2c33 0ee7 b331
00000090: 6a5f 1030 4b00 1430 0000 0000 240a 572d
000000a0: 9b29 ee32 7080 1433 6533 1433 0000 0000
000000b0: 240a 572d f13f f232 3482 e932 ce58 e932
000000c0: 0000 0000 240a 572d 0e4b f932 028c 4933
000000d0: e18b 4933 0000 0000 0000 0000 2fdf 3233
000000e0: 29f8 3733 2008 3833 0000 0000 884b 572d
000000f0: 6b86 5733 ff1c 5233 1b1d 5233 0000 0000
00000100: 0000 0000 c316 a732 fb59 ab33 9021 ac33
00000110: 0000 0000 894b 572d 0c45 ed32 c894 e730
00000120: 3546 0f31 0ae0 1231 0000 0000 5c67 552e
00000130: cb4d 7e33 a5e4 aa33 7ca9 aa33 0000 0000
00000140: 5c67 552e 4806 8033 69f3 9e33 eef0 9e33
00000150: 0000 0000 5c67 552e 9577 7733 eac9 4434
00000160: d3c9 4434 0000 0000 0000 0000 9384 a833
00000170: 6871 3e34 be72 3e34 0000 0000 2ba8 552e
00000180: a256 ce33 3044 a833 0a44 a833 0000 0000
00000190: 0000 0000 4395 0e32 24bc ba32 d4ac ba32
000001a0: 0000 0000 2ba8 552e ede4 da32 2531 e731
000001b0: 6727 c52f ef1b ca2f 0000 0000 fed3 122d
000001c0: 5951 d732 243a 1433 58e2 1333 0000 0000
000001d0: fed3 122d 84c8 e832 e073 1233 0742 1233
000001e0: 0000 0000 fed3 122d 225b d132 bf69 0b33
000001f0: 9a69 0b33 0000 0000 0000 0000 64ab 5b32
00000200: 44f5 0733 12f6 0733 0000 0000 8b00 132d
00000210: 9335 7f32 8fb4 9131 9fb3 9131 0000 0000
00000220: 0000 0000 7ca9 9330 c166 8731 7866 8731
00000230: 0000 0000 8c00 132d b49e 9131 3765 9e30
00000240: efbe 0731 5428 0b31 0000 0000 bc30 4a2e
00000250: 2e5f 8f33 6bc4 8433 10a0 8433 0000 0000
00000260: bc30 4a2e b2e2 9333 4cd3 7633 b3e6 7633
00000270: 0000 0000 bc30 4a2e 242d 8c33 7ee2 3634
00000280: 73e2 3634 0000 0000 0000 0000 4f03 0734
00000290: b543 2534 8b5b 2534 0000 0000 176e 4a2e
000002a0: f38c 1f34 9619 e433 8619 e433 0000 0000
000002b0: 0000 0000 2211 b433 7e32 2234 b6e0 2234
000002c0: 0000 0000 166e 4a2e 303f f133 be27 da31
000002d0: 4509 fd31 a6b2 0132 0000 0000 3472 3c2f
000002e0: 58ac e934 4afd 8c34 e9d0 8c34 0000 0000
000002f0: 3472 3c2f d6fb fc34 6219 7e34 b222 7e34
00000300: 0000 0000 3472 3c2f da63 0735 a4c9 2135
00000310: a0c9 2135 0000 0000 0000 0000 b25a 9f35
00000320: 3051 1935 c65b 1935 0000 0000 56ab 3c2f
00000330: 67c2 b235 fc1e d035 391f d035 0000 0000
00000340: 0000 0000 c02e af35 9529 0536 d9c9 0536
00000350: 0000 0000 56ab 3c2f 8790 c635 4c0c cb32
00000360: 7718 0c31 ca9d 0f31 0000 0000 4aab 502e
00000370: 95ba df33 8e6c b833 1823 b833 0000 0000
00000380: 4aab 502e 6ce2 e933 c9a2 9e33 6e9c 9e33
00000390: 0000 0000 4aab 502e 5980 f533 ba63 3c34
000003a0: b063 3c34 0000 0000 0000 0000 d835 8134
000003b0: 85b9 3934 3fc2 3934 0000 0000 96ea 502e
000003c0: a145 9634 8f85 9334 c185 9334 0000 0000
000003d0: 0000 0000 f154 7a34 333b f834 db64 f934
000003e0: 0000 0000 95ea 502e cc30 9334 7776 e031
000003f0: 2c1a 0531 9172 0831 0000 0000 a840 462e
1.623431e-09 1.6642333e-09 0.0 3.7782243e-11 5.1832156e-08 5.472029e-08 5.4655253e-08 0.0
3.7782243e-11 5.3082307e-08 4.9174734e-08 4.9187328e-08 0.0 3.7782243e-11 5.2288545e-08 1.3262824e-07
1.3262846e-07 0.0 0.0 8.686863e-08 1.2979463e-07 1.2986402e-07 0.0 3.782705e-11
1.00834704e-07 1.1955913e-07 1.1955922e-07 0.0 0.0 2.2752872e-08 1.452958e-07 1.459339e-07
0.0 3.782705e-11 4.0176193e-08 5.2358535e-09 5.2522486e-10 5.38425e-10 0.0 1.2223587e-11
2.7725767e-08 3.457575e-08 3.450568e-08 0.0 1.2223587e-11 2.8201585e-08 2.718398e-08 2.7165154e-08
0.0 1.2223587e-11 2.9021546e-08 4.6926296e-08 4.692618e-08 0.0 0.0 4.164684e-08
4.2833708e-08 4.2848228e-08 0.0 1.2238106e-11 5.018084e-08 4.8920807e-08 4.8920906e-08 0.0
0.0 1.945171e-08 7.9791754e-08 8.015479e-08 0.0 1.2238107e-11 2.762183e-08 1.6849748e-09
2.0849147e-09 2.1373148e-09 0.0 4.8522394e-11 5.9209736e-08 7.957832e-08 7.947071e-08 0.0
4.8522394e-11 5.961607e-08 7.4017244e-08 7.401273e-08 0.0 4.8522394e-11 5.7617928e-08 1.8327378e-07
1.8327346e-07 0.0 0.0 7.847225e-08 1.7736386e-07 1.7736872e-07 0.0 4.8579956e-11
9.608381e-08 7.835513e-08 7.835486e-08 0.0 0.0 8.299426e-09 2.1738806e-08 2.1731843e-08
0.0 4.8579956e-11 2.5482644e-08 6.728572e-09 3.5862088e-10 3.6763434e-10 0.0 8.346211e-12
2.5066287e-08 3.4511814e-08 3.4431963e-08 0.0 8.346211e-12 2.7099539e-08 3.409866e-08 3.4053325e-08
0.0 8.346211e-12 2.4372245e-08 3.2459635e-08 3.2459504e-08 0.0 0.0 1.27864475e-08
3.1655205e-08 3.1655937e-08 0.0 8.356103e-12 1.4855135e-08 4.2405826e-09 4.240476e-09 0.0
0.0 1.0743828e-09 3.940699e-09 3.9406665e-09 0.0 8.356104e-12 4.238098e-09 1.152478e-09
1.9753619e-09 2.0250086e-09 0.0 4.5972767e-11 6.6762695e-08 6.182457e-08 6.175844e-08 0.0
4.5972767e-11 6.8864566e-08 5.746851e-08 5.7486158e-08 0.0 4.5972767e-11 6.527469e-08 1.7032468e-07
1.7032453e-07 0.0 0.0 1.2574058e-07 1.5391454e-07 1.5400126e-07 0.0 4.6027262e-11
1.4859306e-07 1.06217314e-07 1.062172e-07 0.0 0.0 8.3850196e-08 1.5105795e-07 1.5169175e-07
0.0 4.602726e-11 1.1233931e-07 6.349153e-09 7.364323e-09 7.549408e-09 0.0 1.7139073e-10
4.3525029e-07 2.6261324e-07 2.6229034e-07 0.0 1.7139073e-10 4.7121893e-07 2.3664828e-07 2.3668215e-07
0.0 1.7139073e-10 5.043672e-07 6.02706e-07 6.0270577e-07 0.0 0.0 1.1872819e-06
5.7115085e-07 5.713049e-07 0.0 1.7159371e-10 1.3318612e-06 1.5506225e-06 1.5506295e-06 0.0
0.0 1.3052122e-06 1.9842748e-06 1.9936035e-06 0.0 1.7159371e-10 1.4794213e-06 2.3637902e-08
2.0386588e-09 2.0898931e-09 0.0 4.744586e-11 1.0418186e-07 8.587914e-08 8.574551e-08 0.0
4.744586e-11 1.0891094e-07 7.387059e-08 7.385903e-08 0.0 4.744586e-11 1.1432048e-07 1.7545145e-07
1.754513e-07 0.0 0.0 2.40673e-07 1.7296959e-07 1.7300134e-07 0.0 4.750208e-11
2.799034e-07 2.747806e-07 2.7478202e-07 0.0 0.0 2.3313966e-07 4.6236673e-07 4.6453246e-07
0.0 4.7502075e-11 2.7416388e-07 6.532726e-09 1.9368924e-09 1.9855728e-09 0.0 4.5077414e-11

exp_avg f4 [128]
00000000: e6aa 7eb8 a0a2 2ab8 d9e2 24b9 96ac 9038
00000010: 869e d3b8 d4d3 9fb9 da84 92b8 d373 c438
00000020: 7178 22b8 28f0 0c39 6564 ac37 5b0f 37ba
00000030: bc2e e235 d06e 5338 f483 84b5 93a1 f339
00000040: 968f 1738 37d6 cc37 629a 4bb8 77f4 25b9
00000050: 22ed 5bb8 767e 64b8 420f 89b8 01f9 67b8
00000060: d471 f137 3ca8 d738 6b5b 79b8 b4fb b1b8
00000070: 5a25 0439 734e a9b8 4c40 c337 7289 80b7
00000080: ea56 7139 9a23 e038 375c 053a aa31 5fb8
00000090: 032a e738 2198 dfb7 e643 7838 7af8 0eb9
000000a0: 8b6f 1eb8 2023 9439 01dd 46b7 e077 5b35
000000b0: 5788 8738 7544 eb39 fe70 d938 5fd4 18b7
000000c0: beae 5f38 ee3e 1d38 5824 c2b7 51a7 81b8
000000d0: 9483 72b6 f03c b6b8 de2b afb6 ac13 dab9
000000e0: 185a c4b7 6d28 e338 6b1c 87b8 c0cc 3239
000000f0: 9a2d d7b7 3e6a 9338 44b3 0db9 d201 1938
00000100: 0115 9038 2650 9db8 9c3e 95b8 c482 90b9
00000110: 7057 ce35 2989 9637 f6a1 1637 5d07 a8b7
00000120: 469c f937 188f 4236 8803 b9b8 11cf 3439
00000130: 0a68 fcb7 ac9d e738 1dbd 6f39 1000 c438
00000140: e0e1 d2b8 6481 46b8 1ca9 87b8 28fa 6039
00000150: 0066 b738 406c 9835 d844 fab7 7813 ccb5
00000160: ee84 4438 67f5 5339 8d16 b2b8 bc59 5a39
00000170: ac5f 0db9 7406 1ab8 c712 03b8 140e 2cb9
00000180: 9cd2 a4b7 068c f939 0beb 3138 0593 e139
00000190: e0a5 42b7 e20d fa38 9974 acb8 f4ac 9739
000001a0: e3c7 9238 5724 0b37 7b53 0e39 ce64 be38
000001b0: 8351 bc38 1886 e538 c175 84b8 a835 3538
000001c0: 6714 9ab8 ebb7 0938 8987 1338 ea3a b138
000001d0: df16 0138 01ec 5338 3613 ad38 5a86 f4b8
000001e0: 9df0 e6b7 3cf1 1ab8 482f fd38 2219 2c39
000001f0: 42af a4b7 087f a0b7 554f 6a39 6379 ae37
-6.071748e-05 -4.0682615e-05 -0.00015724766 6.898602e-05 -0.00010090791 -0.00030484668 -6.986568e-05 9.367582e-05
-3.873598e-05 0.00013440906 2.0550748e-05 -0.0006983184 1.6851914e-06 5.0409522e-05 -9.87317e-07 0.00046468954
3.613493e-05 2.4418447e-05 -4.854275e-05 -0.00015826696 -5.2434516e-05 -5.4477212e-05 -6.535511e-05 -5.5306595e-05
2.8782444e-05 0.00010283335 -5.9451366e-05 -8.486901e-05 0.00012602416 -8.07316e-05 2.3275752e-05 -1.5322792e-05
0.00023015929 0.00010687784 0.00050872884 -5.3213596e-05 0.00011022764 -2.6654512e-05 5.9191043e-05 -0.0001363474
-3.7774018e-05 0.0002825493 -1.1853176e-05 8.17583e-07 6.462697e-05 0.00044873697 0.00010368413 -9.1093525e-06
5.3330084e-05 3.7490325e-05 -2.3143526e-05 -6.1823645e-05 -3.6137399e-06 -8.689787e-05 -5.2205132e-06 -0.00041594857
-2.3406974e-05 0.000108317334 -6.442595e-05 0.00017051678 -2.5651232e-05 7.0292954e-05 -0.0001351359 3.6479738e-05
6.870367e-05 -7.501272e-05 -7.1165356e-05 -0.00027563248 1.5373644e-06 1.7945264e-05 8.978406e-06 -2.003059e-05
2.9755884e-05 2.8991544e-06 -8.822145e-05 0.00017243276 -3.0089188e-05 0.00011044307 0.00022863266 9.34602e-05
-0.00010055653 -4.7327383e-05 -6.468801e-05 0.00021455495 8.745119e-05 1.1356387e-06 -2.983438e-05 -1.5204851e-06
4.6853842e-05 0.00020213948 -8.491902e-05 0.00020823529 -0.00013482448 -3.672247e-05 -3.125032e-05 -0.00016408443
-1.9648396e-05 0.00047597307 4.241899e-05 0.00043024882 -1.1601922e-05 0.00011923515 -8.223317e-05 0.00028929824
6.999054e-05 8.293507e-06 0.00013573274 9.078682e-05 8.979721e-05 0.00010944548 -6.316184e-05 4.3203734e-05
-7.3470925e-05 3.2834632e-05 3.5173758e-05 8.450991e-05 3.0777297e-05 5.0526116e-05 8.252861e-05 -0.000116598516
-2.753018e-05 -3.694113e-05 0.00012072787 0.00016412561 -1.9631934e-05 -1.913264e-05 0.00022345532 2.0798941e-05

exp_avg_sq f4 [128]
00000000: 3c4c 1034 b2bc 3a33 1051 3934 b801 ff32
00000010: 2e94 2f34 cba4 2335 7b34 3534 e228 2c34
00000020: bdd2 f033 33c5 e933 d814 0633 5704 8535
00000030: ee08 a233 f27e 0734 9b85 6932 9d6a 6835
00000040: 0ef6 9033 83c2 fe33 0438 3d34 6580 1c35
00000050: 53fd 5534 fa22 ab33 1cd8 8433 5239 bd33
00000060: 4731 b433 e1d6 e634 feb6 e233 b4f0 5334
00000070: 40a7 db35 9777 9f34 79c7 1735 6c57 fe33
00000080: 4d11 f134 f0a0 1b35 c9fb f735 946b 1834
00000090: 78ab ed34 eefd 2634 3047 6b34 a082 e233
000000a0: 1163 b033 00a7 f334 357b 9e32 19ce 9133
000000b0: 1d83 f232 f86e 8435 28ca 4433 0aa1 7933
000000c0: 4144 7233 96d2 3233 6dc6 9833 f1c7 e333
000000d0: bc8f 0733 c895 0834 2972 b433 ff2b 0b35
000000e0: 77f7 8332 d176 1e33 15f3 c432 3faf 1433
000000f0: 849a dd32 3288 d833 8254 e534 63ff f932
00000100: 2424 3d34 4e4b 5733 197f a234 0f5b 6935
00000110: e4af 3132 7252 9432 3699 8f33 70a0 9c32
00000120: 4dd0 e533 e780 6033 2ae0 1634 3044 8734
00000130: 9bf6 ae33 733a 1233 8c36 2035 40db d333
00000140: 0e28 1834 8870 c533 9cd5 2634 fd3d bf34
00000150: 457a c633 e5cc 4033 5858 7d33 e647 f433
00000160: d544 4733 2fd7 2a35 790c d033 a7a4 b034
00000170: f5d4 aa34 0021 0433 2d56 fc33 4d1b bc34
00000180: 28a9 0a34 313f ea35 b1a1 1633 8c1d d435
00000190: 48a7 8a34 015e 7e34 a6b6 3134 aa0c 8334
000001a0: c736 bb32 f555 3533 3c29 6d34 c30a 3c34
000001b0: 63bf 7a33 e0ef 7833 18b5 9133 15bf 0335
000001c0: 030f 2534 0177 de32 574a 6232 f1a1 1f34
000001d0: 77a9 3233 4bb2 f332 ce18 ac34 6292 d434
000001e0: 0fc6 9c33 7bea c832 9f38 ff33 65dc 9734
000001f0: 7f31 0e34 e47c 0633 2f50 1135 e856 2834
1.3438779e-07 4.3478117e-08 1.7258958e-07 2.9686689e-08 1.6352053e-07 6.096204e-07 1.6876031e-07 1.6033621e-07
1.1214204e-07 1.0885778e-07 3.1218264e-08 9.910535e-07 7.545337e-08 1.2619037e-07 1.3592763e-08 8.658188e-07
6.7502796e-08 1.1863178e-07 1.7622375e-07 5.830137e-07 1.992933e-07 7.96917e-08 6.186039e-08 8.811425e-08
8.390867e-08 4.2997183e-07 1.0557231e-07 1.9738474e-07 1.6365448e-06 2.970307e-07 5.6542154e-07 1.18436986e-07
4.4902336e-07 5.7976195e-07 1.8476213e-06 1.419524e-07 4.426945e-07 1.5552334e-07 2.1911978e-07 1.05477056e-07
8.213659e-08 4.5383786e-07 1.8449649e-08 6.7895776e-08 2.8232131e-08 9.867063e-07 4.5818666e-08 5.8121294e-08
5.6407092e-08 4.163538e-08 7.114145e-08 1.060688e-07 3.1562863e-08 1.2720477e-07 8.402669e-08 5.184556e-07
1.5362941e-08 3.6895305e-08 2.2927944e-08 3.461832e-08 2.5798052e-08 1.00830576e-07 4.2716061e-07 2.9103552e-08
1.7615145e-07 5.0127078e-08 3.0267327e-07 8.693177e-07 1.0342749e-08 1.726696e-08 6.686825e-08 1.8233749e-08
1.0701533e-07 5.22713e-08 1.4051389e-07 2.5195322e-07 8.147364e-08 3.4046433e-08 5.968402e-07 9.8653345e-08
1.4170675e-07 9.193997e-08 1.5537665e-07 3.5621625e-07 9.242334e-08 4.4889834e-08 5.89865e-08 1.1375214e-07
4.63959e-08 6.364307e-07 9.6880235e-08 3.2902355e-07 3.1819914e-07 3.076366e-08 1.175034e-07 3.5037593e-07
1.291379e-07 1.745275e-06 3.5071654e-08 1.580383e-06 2.5826216e-07 2.3689792e-07 1.6550857e-07 2.4409866e-07
2.1794575e-08 4.2220524e-08 2.2087346e-07 1.751278e-07 5.8381726e-08 5.7960165e-08 6.7850294e-08 4.9079364e-07
1.5372284e-07 2.5898318e-08 1.3171834e-08 1.4866943e-07 4.1597982e-08 2.8370001e-08 3.2055544e-07 3.9594585e-07
7.300343e-08 2.3389694e-08 1.1884662e-07 2.82863e-07 1.3242787e-07 3.1312894e-08 5.413339e-07 1.5677836e-07
