results/firstTests/My Behavior/My Behavior-53056.onnx (onnx, 93022 bytes, 7 tensors)

network_body._body_endoder.seq_layers.0.weight f4 [128, 41]
0	0xbdf5edd1	-0.120082505
1	0xbe522b59	-0.20524348
2	0xbdd4b3fc	-0.10385892
3	0xbe2eab82	-0.17057613
4	0xbe0a9442	-0.13533118
5	0x3eba554b	0.36393198
6	0xbd9ca9f8	-0.076496065
7	0xbe7182d2	-0.2358506
8	0x3e05f934	0.13083345
9	0x3d880cdc	0.06643078
10	0x3e195134	0.14972383
11	0xbcf0091b	-0.029301217
12	0x3e2ce13c	0.16882795
13	0x3d9fd266	0.07803802
14	0x3dbd7fb3	0.09252872
15	0xbd3d74bf	-0.046253916
16	0x3de18d4e	0.1101328
17	0x3e2838b2	0.16427878
18	0xbdd48a72	-0.10377969
19	0x3d232801	0.039833073
20	0x3d08f256	0.033434235
21	0x3d8e0fb4	0.06936589
22	0x3e46628b	0.19373529
23	0x3ea268ac	0.31720483
24	0xbd2b364c	-0.04179983
25	0xbe5d34a6	-0.21602115
26	0x3db1f8c5	0.08690027
27	0xbdce4c3a	-0.10073133
28	0x3b797595	0.003806447
29	0xbe298d47	-0.165578
30	0xbe355046	-0.17706403
31	0xbeb41429	-0.3517163
32	0x3e2c4b07	0.16825496
33	0x3e07de84	0.13268477
34	0x3e30ec77	0.17277704
35	0x3d30140e	0.042987876
36	0xbda9cca5	-0.08290986
37	0xbce06d3c	-0.027395837
38	0x3e15313e	0.14569566
39	0x3e27f3ca	0.16401592
40	0x3e13c289	0.14429678
41	0xbd6b2725	-0.057410378
42	0x3e13f0c5	0.14447315
43	0x3de149d8	0.11000413
44	0x3ca6f28e	0.020379331
45	0xbe18d4ac	-0.14924878
46	0x3e8a5760	0.27019787
47	0xbeb6b08b	-0.35681567
48	0x3e51edfd	0.20500942
49	0x3d9470d5	0.072480835
50	0x3d742ba6	0.05961194
51	0x3cbca705	0.02302886
52	0xbde62a75	-0.11238567
53	0xbeabe3ba	-0.3357218
54	0x3e190736	0.14944157
55	0x3bfb04e7	0.0076604965
56	0xbe88114b	-0.26575693
57	0x3bb356dd	0.0054730014
58	0xbedb646e	-0.4285006
59	0xbe554126	-0.20825633
60	0xbd131ab2	-0.03591413
61	0x3cda8ba3	0.026677912
62	0xbc2bac75	-0.010478129
63	0x3de3e42a	0.11127503
64	0xbd5ec75e	-0.05438935
65	0xbe618bdd	-0.2202601
66	0xbdb44b92	-0.088034764
67	0xbdfa026e	-0.12207495
68	0xbe9a6da6	-0.3016178
69	0xbe03d7a7	-0.12875234
70	0xbd20349a	-0.039112665
71	0xbde46c66	-0.11153488
72	0x3dc9eb81	0.09859372
73	0x3e02a72b	0.12759082
74	0x3de10193	0.109866284
75	0x3dbd5a63	0.092457555
76	0x3e93f20a	0.288956
77	0xbe59f7fc	-0.21286005
78	0xbce7a483	-0.028276687
79	0xbcf264cc	-0.02958908
80	0x3d987642	0.07444431
81	0x3dc85f79	0.09783835
82	0x3d31b35d	0.043383945
83	0x3d80472c	0.06263575
84	0xbe65b36e	-0.22431728
85	0x3c3450c0	0.01100558
86	0xbd3cc0d0	-0.046082318
87	0xbecceedb	-0.40025982
88	0x3c246118	0.010032915
89	0x3e34fdef	0.17674993
90	0xbe08d223	-0.13361411
91	0x3daba7bc	0.08381602
92	0x3e401667	0.18758546
93	0x3e0d3a1f	0.13791703
94	0xbdac8fab	-0.0842584
95	0x3e08ec55	0.13371404
96	0x3e02cd93	0.12773733
97	0xbe29c4e8	-0.1657902
98	0x3d9854ae	0.07438026
99	0x3d3a1fa3	0.045440327
100	0x3d019ced	0.031643797
101	0xbe2fec98	-0.17180097
102	0xbc8e3694	-0.01736001
103	0x3e6f1d9d	0.2335114
104	0xbe80668c	-0.25078237
105	0xbdafc20d	-0.08581934
106	0xbe148d27	-0.1450697
107	0xbe6150ce	-0.22003481
108	0x3ead4c57	0.33847305
109	0xbe3b52d2	-0.18293312
110	0xbcfb9977	-0.030712826
111	0x3dc8cc97	0.098046474
112	0x3cc7a206	0.024369251
113	0x3b9573f8	0.0045609437
114	0x3dc207c5	0.09474138
115	0xbdce937c	-0.10086724
116	0xbe8b4b9e	-0.2720613
117	0x3d928b56	0.071554825
118	0xbe86ed84	-0.26353085
119	0x3d417ff1	0.047241155
120	0x3dc5d102	0.09659006
121	0xbcf0145f	-0.029306589
122	0x3d51f626	0.051260136
123	0xbd48d2cf	-0.049029168
124	0x3e37ec25	0.17961176
125	0xbda2be2a	-0.07946427
126	0xbea3447b	-0.31888184
127	0xbd667196	-0.056260668
128	0x3da55f84	0.08074859
129	0x3dac7e81	0.08422566
130	0x3da91292	0.08255495
131	0xbd77c98e	-0.060494952
132	0xbce043ca	-0.027376074
133	0xbd105340	-0.035235643
134	0xbdfd7345	-0.123755015
135	0x3ec3ee3f	0.38267705
136	0xbe088e9c	-0.13335651
137	0x3dbcdd66	0.09221916
138	0xbd53e228	-0.05172935
139	0x3e68b340	0.22724628
140	0xbc53fb3f	-0.01293832
141	0xbe82c996	-0.25544423
142	0x3e10a3a1	0.1412492
143	0x3d53e5f9	0.05173299
144	0x3deba400	0.1150589
145	0xbc93ffa2	-0.018066231
146	0xbdeeb023	-0.11654689
147	0xbd9be8bb	-0.07612749
148	0xbeac4a73	-0.3365055
149	0x3930a7e9	0.0001684722
150	0xbc1f4fc2	-0.009723606
151	0x3d4a0841	0.049324278
152	0xbdceb73c	-0.10093543
153	0x3ea26f7e	0.31725687
154	0x3d11b907	0.035576846
155	0xbe832d41	-0.25620463
156	0x3dc6cc30	0.097069144
157	0xbe96ffb8	-0.29491973
158	0xbd402c10	-0.04691702
159	0xbd8585c6	-0.06519656
160	0x3e0adc38	0.1356057
161	0x3c4f46af	0.01265113
162	0x3d47116c	0.0486006
163	0x3e053b10	0.13010812
164	0x3de77f2c	0.11303553
165	0xbd1083d5	-0.035281975
166	0xbe1b1c51	-0.1514752
167	0xbd9beb10	-0.07613194
168	0xbe62a2e4	-0.2213245
169	0xbd19a794	-0.03751333
170	0xbd6fdf3b	-0.0585625
171	0xbe4a3b7e	-0.19749257
172	0xbe77a7cf	-0.24185108
173	0x3dd01e20	0.10161996
174	0xbea986ff	-0.33110806
175	0xbcde52c5	-0.027139077
176	0xbd9331d6	-0.0718724
177	0xbdc2ea70	-0.09517372
178	0x3dd8d1d0	0.105868936
179	0x3c5a2856	0.013315281
180	0x3df5903d	0.11990402
181	0x3baf34f9	0.005346891
182	0x3d7b8f21	0.061415795
183	0xbd36f45e	-0.04466664
184	0x3e9ed1a0	0.31019306
185	0xbe02d375	-0.12775977
186	0x3dc9f02c	0.09860262
187	0x3da7edcd	0.08199654
188	0xbd110b03	-0.035410892
189	0x3e2721cd	0.16321488
190	0xbe13eed4	-0.14446574
191	0x3e34244d	0.17591973
192	0x3c41a4e9	0.011819103
193	0x3d94cda7	0.072657876
194	0xbcdb007e	-0.026733633
195	0x3cfd925a	0.030953575
196	0x3da6d2e1	0.08145691
197	0x3d2f15c4	0.042745367
198	0x3e2463ce	0.16053697
199	0x3df1b557	0.11802166
200	0xbdb33c96	-0.0875179
201	0x3c79d96e	0.015249593
202	0xbde967b2	-0.113967314
203	0xbd528ade	-0.051401965
204	0x3e977eb2	0.29588848
205	0x3de695bd	0.11259029
206	0xbdea85d4	-0.11451307
207	0x3e00c7cb	0.12576215
208	0x3e084a7c	0.13309664
209	0x3d2f90aa	0.04286257
210	0xbe0d643c	-0.13807768
211	0x3dfd05b0	0.123546004
212	0x3d4398f6	0.047753297
213	0x3d8b0700	0.067884445
214	0x3e50053f	0.20314501
215	0x3eac664f	0.33671805
216	0x3c6cc285	0.014450674
217	0x3e3edefc	0.1863975
218	0x3e5ea8aa	0.21744028
219	0x3d842c83	0.064538024
220	0x3d83ca1f	0.06435036
221	0x3e5716e8	0.21004832
222	0x3d5e9eca	0.05435065
223	0x3d871876	0.065964624
224	0x3dc0145b	0.093788825
225	0xbe9a701c	-0.30163658
226	0x3e4221d7	0.18958221
227	0xbea5105e	-0.3223905
228	0xbe6ecea7	-0.23321019
229	0xbdaa122d	-0.08304248
230	0x3d43e10c	0.047822043
231	0x3cdf0b35	0.027227024
232	0x3e698aa3	0.22806792
233	0x3e130624	0.14357811
234	0xbe5bc345	-0.21461208
235	0xbdc8bb62	-0.098013654
236	0xbd2c56f0	-0.042075098
237	0xbeb01b3a	-0.34395772
238	0x3ebb07a0	0.36529255
239	0x3de9d6c0	0.114179134
240	0x3dec51ed	0.115390636
241	0xbe2420fb	-0.16028206
242	0x3ca363b4	0.019945003
243	0xbe2dfd4e	-0.1699116
244	0xbc1c5df9	-0.009543889
245	0xbe42005c	-0.1894545
246	0xbd04034a	-0.0322297
247	0x3df09057	0.11746281
248	0xbdddde7e	-0.10833453
249	0xbd7bd300	-0.061480522
250	0x3c25d302	0.010121109
251	0xbdc0dd04	-0.094171554
252	0x3d522fb3	0.05131502
253	0xbdff1864	-0.12455824
254	0x3c2f30ed	0.010692817
255	0x3d906f87	0.07052522

network_body._body_endoder.seq_layers.0.bias f4 [128]
0	0xba1791e1	-0.00057819305
1	0xbadc23dd	-0.0016795356
2	0x3c04bdf7	0.008101932
3	0xbb53df05	-0.0032328975
4	0x3abdf996	0.0014493938
5	0x3b704a44	0.003666536
6	0xbac4b62d	-0.0015007906
7	0xbb966076	-0.0045891358
8	0xbbb9d2eb	-0.0056708953
9	0x3b349f00	0.0027560592
10	0xbb5cc201	-0.0033684971
11	0xbb8dc86e	-0.0043268716
12	0xb9eb71f1	-0.00044907586
13	0x3a0ec1c3	0.0005445743
14	0xb9a49f93	-0.0003139941
15	0x3b7f89d5	0.0038992066
16	0xbba6a8d0	-0.005086042
17	0xbb9af456	-0.004728834
18	0x3b3602e6	0.0027772724
19	0xb98e623d	-0.00027157544
20	0xb885642a	-6.360591e-05
21	0x3af8b1c5	0.0018973878
22	0xba0f97c6	-0.0005477633
23	0x3acf4ce8	0.0015815767
24	0x3c2a3973	0.0103896735
25	0x3b3044b3	0.0026896417
26	0x3aea89b0	0.0017893817
27	0xba4dd35b	-0.0007851624
28	0x3b4bf981	0.0031124058
29	0x3a7cb5d6	0.0009640133
30	0xb9123254	-0.00013942394
31	0x3aee3e4d	0.0018176526
32	0xb93eb662	-0.00018187755
33	0x3b2a9c0a	0.0026032948
34	0x3ad266b3	0.0016052335
35	0x3ba636ee	0.005072466
36	0xbab1be82	-0.0013560804
37	0x3b38c1b6	0.0028191633
38	0x3a5774fa	0.000821903
39	0x3af6c824	0.0018827957
40	0x3bab9587	0.005236331
41	0xbb843cd0	-0.0040355697
42	0x3b1621b0	0.0022908263
43	0xbab4a772	-0.0013782813
44	0xbb8a31a4	-0.0042173434
45	0x3c2c05d9	0.010499441
46	0x3b9b88c8	0.00474653
47	0x3b3b91fc	0.002862095
48	0x3a9b3eb9	0.0011844254
49	0x3a8e9a05	0.0010879642
50	0x3b043f87	0.0020179467
51	0x3b5a0239	0.0033265485
52	0xbb7204ca	-0.0036929124
53	0x3a4a27c8	0.00077116163
54	0xb6caf198	-6.0481943e-06
55	0x3bbd7914	0.005782256
56	0xba7e5b71	-0.0009702957
57	0x3b36191f	0.002778597
58	0x3988dc05	0.0002610387
59	0x3c5baf10	0.013408437
60	0xbaa00fe1	-0.0012211764
61	0x3ab0c239	0.0013485617
62	0xbacf9008	-0.0015835771
63	0x3b37f7c3	0.0028071261
64	0xbb88ff74	-0.004180843
65	0x3a2277a3	0.0006197637
66	0xba5594b1	-0.0008147462
67	0x3b1d3722	0.002398916
68	0x3bcf330e	0.006323225
69	0xb90736ef	-0.00012895068
70	0x3b54f326	0.003249356
71	0x3b4e144f	0.003144521
72	0xba5a9422	-0.00083381135
73	0x3b23e38a	0.002500745
74	0x3b2d6caf	0.0026462486
75	0x3ad11b6f	0.001595361
76	0x3a378c52	0.00070018054
77	0xbbb6ab82	-0.0055746445
78	0x3b7222b4	0.0036946954
79	0x3b0ee378	0.0021803062
80	0x3b8389f5	0.0040142485
81	0x3b47476a	0.0030407556
82	0x3c0550de	0.008136956
83	0xbb94eee0	-0.0045450777
84	0xbb07fb23	-0.0020749054
85	0xbbdf0fb5	-0.0068072923
86	0x3b811217	0.003938924
87	0x39a991ea	0.00032342906
88	0x3b634fc0	0.0034684986
89	0x39135911	0.00014052192
90	0xb9dca450	-0.00042084092
91	0xbaeb9ffe	-0.0017976759
92	0xbb493679	-0.0030702634
93	0xbb902bf5	-0.0043997713
94	0x3ab34332	0.0013676642
95	0xbb01918c	-0.001977059
96	0xbb09ddb4	-0.0021036686
97	0xbbd0bb8b	-0.006370013
98	0x3bba7dc4	0.005691262
99	0x3c617256	0.01376017
100	0xbad4787b	-0.0016210222
101	0xbb7c41f1	-0.0038491453
102	0x3b0c208b	0.0021381702
103	0x3aa131aa	0.0012298126
104	0x3a82e53e	0.0009986532
105	0xbb801a15	-0.003909359
106	0xbb4775c5	-0.0030435186
107	0x3be2e0cb	0.00692377
108	0xba278eb9	-0.0006391812
109	0xbb883f48	-0.0041579343
110	0xbbdaefc9	-0.0066814166
111	0x3b2593dc	0.0025265133
112	0x3be6930d	0.007036573
113	0x3b2fdf14	0.0026835846
114	0x3b592df5	0.0033138965
115	0x3b60424e	0.0034219208
116	0xbba00a07	-0.004884008
117	0x3c301e98	0.010749482
118	0xbadd222c	-0.0016871146
119	0xbb972092	-0.004612037
120	0x3ae8d8d1	0.0017764812
121	0x3b5c9ed4	0.0033664005
122	0x3bd0bcbc	0.006370155
123	0xbb205cc5	-0.0024469357
124	0xbad3a996	-0.0016148563
125	0x3b065645	0.0020498198
126	0x3b00b80a	0.0019640946
127	0x3bbaab2f	0.005696676

network_body._body_endoder.seq_layers.2.weight f4 [128, 128]
0	0xbe015b9d	-0.12632604
1	0xbc525946	-0.012838667
2	0xbca95814	-0.020671882
3	0xbe050985	-0.12991913
4	0xbd9f4fe8	-0.07778913
5	0xbd82ea8d	-0.06392393
6	0xbd14e39a	-0.03634987
7	0xbdf04ab0	-0.117329955
8	0x3d2ccc42	0.042186983
9	0x3d9efd06	0.07763104
10	0x3ca3e79f	0.020007906
11	0x3daa5c27	0.08318358
12	0xbd2fa5ee	-0.042882852
13	0xbdbb1a44	-0.09135869
14	0x3da89954	0.0823237
15	0xbd39eb61	-0.04539049
16	0xbc817769	-0.01580401
17	0xbd5d8a90	-0.05408722
18	0x3e44a286	0.19202623
19	0xbdd3f68f	-0.10349762
20	0x3e110576	0.1416224
21	0xbdc248ab	-0.094865166
22	0x3e353cfa	0.17699042
23	0xbc2ac0b1	-0.010421918
24	0xbdee0563	-0.11622121
25	0x3c617ef8	0.013763182
26	0xbc6c7661	-0.014432521
27	0x3d83c809	0.06434638
28	0x3e4e1b47	0.20127593
29	0x3c5d8550	0.013520554
30	0xbe46c1c8	-0.19409859
31	0xbd464813	-0.04840858
32	0xbc0e67fd	-0.008691785
33	0x3e1d0d24	0.15337044
34	0xbe2e021a	-0.16992989
35	0xbd3993f1	-0.045307104
36	0x3e18ca25	0.14920862
37	0xbc32426b	-0.010880093
38	0x3d176a40	0.036966562
39	0xbd219c2e	-0.039455585
40	0xbd2a7fb7	-0.041625705
41	0x3e10cb56	0.14140067
42	0x3b837fba	0.004013029
43	0x3d8081d5	0.062747635
44	0xbd3086e2	-0.043097384
45	0x3ce6f1d1	0.028191479
46	0xbd481359	-0.048846576
47	0x3d72b160	0.05925119
48	0x3d008a23	0.031381737
49	0x3a9fa306	0.0012179322
50	0xbd26183c	-0.040550455
51	0x3d937119	0.07199306
52	0x3d5c696b	0.053811472
53	0xbdaf0475	-0.08545772
54	0xbd627e54	-0.055296257
55	0x3dbf4512	0.09339346
56	0x3cc97c0d	0.024595285
57	0x3e2c3214	0.16815978
58	0xbdc54c4e	-0.096336946
59	0x3e2d8e87	0.16948901
60	0x3c9624ce	0.018328097
61	0x3d0f0e69	0.034925852
62	0x3cab683f	0.020923732
63	0x3d42acbc	0.047528014
64	0x3da9322a	0.08261521
65	0xbc6b95c5	-0.01437897
66	0xbd1f9892	-0.03896386
67	0xbd8c5c24	-0.06853512
68	0xbc451b88	-0.01203049
69	0x3e0bbec0	0.13646984
70	0xbc984eea	-0.018592317
71	0xbe100d80	-0.1406765
72	0x3c406521	0.011742861
73	0xbe125b04	-0.14292532
74	0xbcd7eafe	-0.02635717
75	0x3c5f5b8f	0.013632669
76	0xbe16d944	-0.14731318
77	0x3d26f9c0	0.040765524
78	0xbe1588e6	-0.14603004
79	0x3e14f6c6	0.14547262
80	0x3c989aa6	0.01862843
81	0x3e2d80e9	0.16943707
82	0x3cc8bd5e	0.02450436
83	0xbe19be7e	-0.15014073
84	0xbb5e6c5c	-0.00339391
85	0xbe0d5b1a	-0.13804284
86	0xbda75e64	-0.081723005
87	0xbd377559	-0.044789646
88	0xbd812b30	-0.063070655
89	0x3df6d0e6	0.12051563
90	0x3ce46df9	0.02788447
91	0xbc6af6e7	-0.014341093
92	0xbdf4df09	-0.11956603
93	0x3e044cea	0.12919965
94	0x3df9bfa3	0.12194755
95	0xbd646709	-0.055762324
96	0x3d5a0b3d	0.053233374
97	0xbd853a6b	-0.06505283
98	0x3e0d9835	0.13827594
99	0xbda3894e	-0.07985173
100	0x3d87c88c	0.06630048
101	0xbd96f6fd	-0.07371328
102	0x3c39bec3	0.011336985
103	0xbd7976cc	-0.06090431
104	0x3ce4f7c7	0.02795018
105	0xbdcc3d71	-0.099726565
106	0xbbb70483	-0.0055852546
107	0xbd9a60cd	-0.075379945
108	0x3beccf97	0.007226895
109	0xbd944fdf	-0.07241797
110	0x3dd86dd3	0.10567822
111	0xbde12902	-0.1099415
112	0xbc2e01cd	-0.0106205465
113	0x3e09923f	0.13434695
114	0xbcf06330	-0.029344171
115	0x3d9a4aa4	0.07533768
116	0x3e015b46	0.12632474
117	0xbd0ea57d	-0.03482579
118	0xbc91458a	-0.017733354
119	0xbdcf6eec	-0.101285785
120	0xbdbd63c8	-0.092475474
121	0xbc849758	-0.016185448
122	0xbc2692da	-0.010166848
123	0xb9967950	-0.00028700614
124	0xbd5b83fa	-0.05359266
125	0xbdb69930	-0.08915937
126	0xbe72c04d	-0.2370617
127	0xba1b059a	-0.00059136155
128	0x3e07a6b3	0.13247184
129	0x3dc4e4e6	0.096139714
130	0x3d8ce863	0.06880262
131	0x3d87176b	0.065962635
132	0xbdda8622	-0.10670115
133	0xbc38dcd5	-0.011283119
134	0x3df19037	0.11795085
135	0x3dc1c1ef	0.09460818
136	0xbe012d1a	-0.12614861
137	0x3b8a55df	0.0042216624
138	0x3e2e5626	0.1702505
139	0x3e118ab1	0.14213063
140	0xbd9addcc	-0.07561836
141	0xbce63674	-0.028102137
142	0xbe16a051	-0.14709593
143	0xbd8821a9	-0.06647045
144	0x3cdbc226	0.026825976
145	0x3d8f68d6	0.07002418
146	0xbe0b8889	-0.13626303
147	0xbc93ceef	-0.01804301
148	0x3d7015bc	0.058614478
149	0x3d3efac9	0.046625886
150	0x3e2a3439	0.16621484
151	0x3d60e28d	0.054903556
152	0xbd1a3933	-0.037652206
153	0xbdba8ea5	-0.091092385
154	0xbd64249f	-0.055698987
155	0x3aaa18ef	0.0012977401
156	0xbd450201	-0.048097614
157	0xbd38c444	-0.04510905
158	0x3d7b95f5	0.061422307
159	0x3db7e01c	0.08978292
160	0x3e1b2482	0.15150645
161	0xba9c4a84	-0.0011924063
162	0xbc47590d	-0.012167227
163	0x3c299a70	0.010351762
164	0x3b13ca77	0.0022551098
165	0x3ddd30bb	0.1080031
166	0xbd4692b5	-0.048479754
167	0x3d80b627	0.06284743
168	0xbd9efb76	-0.07762806
169	0x3e2ed5db	0.17073767
170	0xbd814b0e	-0.06313144
171	0xbd03611c	-0.032075033
172	0xbd35e70e	-0.044409804
173	0x3e1e68d5	0.15469678
174	0x3d27d4f5	0.040974576
175	0xbd53702c	-0.051620647
176	0xbd56dbf0	-0.052455842
177	0xbd347bd3	-0.0440634
178	0xbc3d6ee3	-0.011562082
179	0xbe2a331c	-0.16621059
180	0x3d21181d	0.039329637
181	0x3d1c6da7	0.03819051
182	0x3dd960d0	0.10614169
183	0xbd2d8b14	-0.042368963
184	0xbdb9fe90	-0.09081757
185	0xbc1fa32d	-0.009743494
186	0x3e922e0f	0.28550765
187	0xbd8fb295	-0.07016484
188	0x3daf5b0e	0.08562289
189	0x3d11b843	0.035576116
190	0x3e270b84	0.16312987
191	0xbe0a6005	-0.13513191
192	0x3c817f75	0.015807847
193	0xbd1ebfc6	-0.03875711
194	0xbc6939d7	-0.0142349815
195	0x3cdf7627	0.02727802
196	0x3d8d44dd	0.068979
197	0x3d808e44	0.06277135
198	0x3da2adc2	0.07943298
199	0xbd44e629	-0.04807106
200	0x3c4daecf	0.012553885
201	0xbd87f1a5	-0.06637887
202	0xbc340ad0	-0.010988906
203	0x3d02bc6c	0.031917974
204	0x3d8b4551	0.068003304
205	0xbd8718e6	-0.06596546
206	0xbd630b97	-0.055430975
207	0x3afab11e	0.0019126271
208	0x3db890d6	0.09012
209	0xbe640b60	-0.22269964
210	0x3bda92f7	0.0066703516
211	0x3badaddc	0.0053002667
212	0x3e03d01f	0.1287236
213	0x3df35095	0.11880604
214	0x3db3c12c	0.08777079
215	0xbdda1199	-0.10647888
216	0xbd12ee33	-0.035871696
217	0x3e4c514b	0.19952886
218	0x3cec9105	0.028877744
219	0x3cee09eb	0.029057464
220	0xbcfe221a	-0.03102212
221	0x3d913ca6	0.07091646
222	0xbd971820	-0.07377648
223	0x3dc3b757	0.09556454
224	0xbd37f794	-0.044913843
225	0x3e12466c	0.14284676
226	0xbe20b97e	-0.1569576
227	0xbd82b949	-0.063829966
228	0xbc827a9c	-0.015927605
229	0x3cc2dd8a	0.023787279
230	0xbda6bdeb	-0.08141693
231	0x3d45fd5f	0.048337337
232	0xbdb0fe39	-0.08642239
233	0x3da56817	0.08076494
234	0xbcff9b9d	-0.031202132
235	0x3e046789	0.1293012
236	0xbdef24f6	-0.116769716
237	0x3d2e097e	0.04248952
238	0xbc11a79a	-0.008890057
239	0xbd22e9cf	-0.03977376
240	0x3da24a6f	0.07924353
241	0x3da12dea	0.078700855
242	0x3d869330	0.065710425
243	0x3d9bd2a5	0.07608537
244	0x3bebe632	0.0071990723
245	0xbde904f2	-0.11377896
246	0xbd444d54	-0.04792531
247	0xbd800b79	-0.06252188
248	0x3d9475e9	0.07249052
249	0xbcbe5428	-0.023233488
250	0x3de1389f	0.10997128
251	0xbc8990f1	-0.016792746
252	0x3dbbe27b	0.09174057
253	0x3cea4339	0.028596507
254	0xbd54f595	-0.051992018
255	0xbda01f65	-0.07818488

network_body._body_endoder.seq_layers.2.bias f4 [128]
0	0x3b2cee7e	0.002638727
1	0xbb233cd4	-0.0024908083
2	0xba3cb897	-0.0007199137
3	0x3bbdc2fc	0.005791066
4	0x3b931e18	0.0044896714
5	0xbadbd4f1	-0.0016771836
6	0xba39a0dd	-0.00070811604
7	0x3b34603e	0.0027523185
8	0x3a870a7d	0.0010302808
9	0xbb3510a4	-0.0027628327
10	0x3b340555	0.0027468998
11	0xbb44a3b2	-0.0030004797
12	0xba5b7fca	-0.0008373229
13	0xbad0899f	-0.0015910155
14	0x3b5e399b	0.0033908847
15	0xba96deb1	-0.0011510459
16	0x3a7b5f77	0.00095891155
17	0x3b653c82	0.0034978692
18	0x3a9c1979	0.0011909447
19	0xbb8aa194	-0.0042306874
20	0xba854478	-0.00101675
21	0xba9ef513	-0.0012127481
22	0x3b577110	0.0032873787
23	0x3b0c37dd	0.0021395602
24	0xb98bd9ec	-0.0002667451
25	0xbb045827	-0.0020194144
26	0xbac65ff0	-0.0015134793
27	0xbaeba42a	-0.0017978002
28	0x3bc0bf41	0.0058821742
29	0x3b5f7f46	0.003410296
30	0x3b8e5124	0.004343169
31	0xbb3501ad	-0.0027619407
32	0xbb94581f	-0.0045271064
33	0x3b204d5d	0.0024460175
34	0x3afc4cd7	0.0019248974
35	0x3b1fefaf	0.0024404337
36	0xb7e8069e	-2.7659637e-05
37	0x3b61fbac	0.0034482284
38	0xbb3c0d09	-0.0028694293
39	0x3a87c46b	0.001035822
40	0xbb40931d	-0.0029384561
41	0xbb750218	-0.0037385281
42	0xbb03f6aa	-0.0020136037
43	0xbab5fd56	-0.0013884704
44	0xbb180a4c	-0.0023199497
45	0x3b718c51	0.0036857317
46	0x3b276597	0.002554273
47	0xbb06563f	-0.0020498184
48	0xbb28e596	-0.002577161
49	0xbb750eed	-0.003739293
50	0xbb63cd88	-0.0034759957
51	0x3b407fcc	0.0029373048
52	0x3b41005e	0.0029449682
53	0x3b7b7f06	0.0038375272
54	0xbb2d54fc	-0.002644836
55	0x3bb246cd	0.005440569
56	0x39ea8b47	0.00044735728
57	0xbb284e11	-0.0025681297
58	0xbb00873f	-0.0019611863
59	0x3b1fc121	0.0024376588
60	0x3a9d9f99	0.0012025713
61	0x3b5ee7e8	0.0034012739
62	0x39d01829	0.00039690852
63	0xbb889fab	-0.0041694245
64	0x3b5c1ce9	0.0033586568
65	0xbb001c53	-0.0019548133
66	0xba65ca38	-0.00087657897
67	0x3b2fa420	0.0026800707
68	0x3982c26f	0.00024940397
69	0xb8c4ce6c	-9.3844574e-05
70	0xbb25e238	-0.0025311839
71	0x3bba056d	0.0056769163
72	0x3b24bdfc	0.0025137654
73	0xbb2264e9	-0.0024779385
74	0x3b95405f	0.004554793
75	0x3a8143c8	0.0009862119
76	0x3b49978e	0.00307605
77	0xba6961f5	-0.00089028414
78	0x3b880d2d	0.0041519613
79	0xbb379daa	-0.002801756
80	0x3a5a57cc	0.0008329123
81	0x3b5bfa70	0.003356602
82	0x3ae9c5bb	0.0017835418
83	0xb9684446	-0.00022150678
84	0xbb72e88d	-0.003706488
85	0x3a3a73a1	0.0007112567
86	0x3b2d6f52	0.0026464057
87	0xbb35a6ca	-0.0027717822
88	0x3b32df03	0.002729357
89	0x38a0d8ab	7.669752e-05
90	0x38492a98	4.7961803e-05
91	0x3b5dd8dc	0.0033851182
92	0x3a369f0d	0.00069664494
93	0xbb22aa35	-0.002482069
94	0x3ad2e47c	0.0016089822
95	0xba3d38d4	-0.0007218246
96	0x3ab9143e	0.0014120413
97	0x3b815384	0.0039467234
98	0xbaa109cb	-0.0012286244
99	0xb933e94a	-0.00017157677
100	0xbaccb4d4	-0.0015617856
101	0xba7d1ce6	-0.000965549
102	0x3b89ee85	0.004209342
103	0xbb09cfde	-0.002102844
104	0xbab1313f	-0.0013518705
105	0xbab11ad1	-0.001351202
106	0x3b3e8bfc	0.0029075136
107	0x3a7d175d	0.00096546655
108	0xbafb4ded	-0.0019173004
109	0x3b0e7504	0.0021737227
110	0xbb539747	-0.0032286213
111	0xbb66831f	-0.003517337
112	0x3ad308cd	0.0016100645
113	0xbab85c81	-0.0014065654
114	0xbb86ac7d	-0.0041099177
115	0xba2c2b84	-0.00065677636
116	0x3a2246e0	0.0006190371
117	0x395859fe	0.0002063289
118	0xbb528835	-0.0032124643
119	0xbb3763ea	-0.0027983137
120	0x3b7a2894	0.003817116
121	0x3b7bd1ef	0.003842469
122	0x3a9ec7da	0.0012114004
123	0x3b023859	0.0019870012
124	0x3a7eb459	0.0009716205
125	0xbb844ab9	-0.004037228
126	0x3aaf44cf	0.0013371947
127	0xba0c2130	-0.00053455215

action_model._continuous_distribution.log_sigma f4 [1, 2]
0	0x3b963e51	0.0045850654
1	0x3b115bba	0.0022179917

action_model._continuous_distribution.mu.weight f4 [2, 128]
0	0xbafc5c1c	-0.0019253525
1	0x3cc388cd	0.023868943
2	0xbd10426b	-0.03521959
3	0x3c062243	0.00818688
4	0x3c0344dd	0.008012024
5	0x3cf6b110	0.030113727
6	0xbcad3d93	-0.021147525
7	0xbc2a16ad	-0.010381383
8	0xbce39de1	-0.027785243
9	0x3b11a5b9	0.0022224023
10	0x3c9e3797	0.019313617
11	0xbc980292	-0.018555913
12	0xbc916abe	-0.017751094
13	0xbbdf608a	-0.0068169283
14	0x3b952c60	0.004552409
15	0xbc0f5e87	-0.008750564
16	0xbd0b6349	-0.034030233
17	0xbc5038ae	-0.012708826
18	0x3c3a5474	0.011372674
19	0xbb86768d	-0.004103488
20	0x3d57fdb0	0.05273217
21	0x3d189016	0.037246786
22	0xbd15d0bc	-0.036576018
23	0xbbdabd75	-0.006675417
24	0x3cb1970f	0.021678476
25	0x3cbc66bd	0.022998208
26	0x3bd1b516	0.006399761
27	0xbbf852fe	-0.007578253
28	0x3c17377a	0.009229535
29	0xbc2e560a	-0.0106406305
30	0xbd01ca07	-0.03168681
31	0x3bbebdd2	0.005820968
32	0x3c8fe870	0.01756689
33	0x3c8b1175	0.016976098
34	0x39904b2c	0.00027521828
35	0xbc376c62	-0.011195274
36	0x3d02d06e	0.031937055
37	0x3c8b905f	0.017036615
38	0xbbea2733	-0.007145786
39	0xbc36e183	-0.011162165
40	0xbba518c9	-0.005038355
41	0x3b1f83b5	0.0024339978
42	0x39f1f594	0.00046150072
43	0x3d013eb9	0.031553958
44	0x3b629967	0.0034576298
45	0xbc310819	-0.010805153
46	0x3cce332d	0.025170887
47	0x3c372db7	0.011180333
48	0x3d2231a6	0.03959813
49	0x3b10514f	0.002202112
50	0x3bae5d57	0.0053211856
51	0x3d02e548	0.03195694
52	0xbbb33428	-0.005468864
53	0x3cc061c6	0.023484122
54	0x3bbd596f	0.0057784836
55	0xbd46aefa	-0.048506714
56	0x3cd61180	0.026131392
57	0x3a679e25	0.0008835516
58	0xbc0070ec	-0.007839423
59	0xbb26872a	-0.0025410154
60	0xbd4890da	-0.048966266
61	0xbc812900	-0.01576662
62	0x3ce6f4a8	0.028192833
63	0x3bf18726	0.0073708473
64	0xbc9a09b1	-0.01880345
65	0xbc4fbf90	-0.012679949
66	0xbc8ae405	-0.016954431
67	0xbccbe8aa	-0.024891216
68	0x3ca47fb1	0.02008042
69	0x3c8059c9	0.015667813
70	0xbca16a09	-0.019703882
71	0x3c2c51ff	0.010517596
72	0xbc805c85	-0.015669117
73	0x3cd52373	0.02601788
74	0xbcada542	-0.021196965
75	0xbcc34abb	-0.023839345
76	0x3cd2df5d	0.025741274
77	0xbc0613af	-0.008183404
78	0x3c1a8ab0	0.00943248
79	0x3d0f2a80	0.03495264
80	0x3c54c0b9	0.012985402
81	0xbd0871a6	-0.03331151
82	0xbb0a1574	-0.0021069916
83	0x3cc48c84	0.023992784
84	0xbb02f02a	-0.0019979575
85	0xbbfc4ac3	-0.007699342
86	0xbc820227	-0.015870167
87	0xbc9cfe71	-0.019164296
88	0xbc07c206	-0.008286005
89	0xbd21509d	-0.03938352
90	0x3ceb2338	0.028703317
91	0xbce9ab1f	-0.02852398
92	0x3c8cba05	0.017178545
93	0xbc659ed6	-0.01401492
94	0x3cb6718a	0.022270937
95	0x3cab26ce	0.020892527
96	0x3cca3834	0.024685003
97	0xbc6b2e40	-0.014354289
98	0xbcc43860	-0.023952663
99	0x3c390bdb	0.0112943305
100	0xbbb41c59	-0.0054965434
101	0x3c45034f	0.012024715
102	0x3c666f73	0.0140646575
103	0xbcb731eb	-0.02236267
104	0xbceb7fcc	-0.028747462
105	0x3a7337e0	0.00092780404
106	0xb97d9acc	-0.00024185627
107	0x3c809fda	0.015701223
108	0x3c85cfd0	0.016334444
109	0x3c663eeb	0.014053087
110	0xbc6bdd5c	-0.014396038
111	0x3bbf28c5	0.0058337175
112	0x3b6da7a1	0.0036263245
113	0x3a0e8906	0.0005437288
114	0xbb80bb42	-0.003928573
115	0xbcbb8fe2	-0.022895757
116	0x3cd555aa	0.026041824
117	0x3cc8a304	0.024491794
118	0x3c30e834	0.010797549
119	0xbc10f798	-0.008848093
120	0xbba911fa	-0.0051596137
121	0x3c26e5b4	0.010186601
122	0xbad0c7fc	-0.0015928741
123	0xbc7078c2	-0.014677228
124	0xbbd6834c	-0.0065464135
125	0x3c8c8b35	0.017156223
126	0xbbf98665	-0.007614898
127	0x3c970ec8	0.018439665
128	0x3caa89ed	0.020817721
129	0xbb392965	-0.0028253433
130	0xbcda1de7	-0.026625587
131	0x3c5d0a30	0.013491198
132	0x3d029fe1	0.031890754
133	0xbc422529	-0.01184968
134	0xbcfbee85	-0.030753383
135	0xba0b4515	-0.0005312723
136	0xbbb9f7b0	-0.0056752786
137	0x3ba7e73f	0.005124002
138	0x3cdce392	0.026963983
139	0xbd1e0cc7	-0.038586404
140	0xbcacf56f	-0.021113126
141	0xbc393f03	-0.011306527
142	0x39eb9a0f	0.00044937475
143	0xbc483e14	-0.012221832
144	0xbbc1a19b	-0.0059091575
145	0x3c4b3dd2	0.012404876
146	0x3c5f8a58	0.013643824
147	0xbcb40b09	-0.021977918
148	0xbc692af6	-0.014231434
149	0xbc9ac136	-0.018890958
150	0x3c31d6d1	0.010854439
151	0x3c912158	0.017716095
152	0x3b83b48e	0.0040193265
153	0xbc322a65	-0.010874365
154	0xbc5f007f	-0.013610958
155	0xbc9c1f8a	-0.019058008
156	0x3b4893ad	0.00306056
157	0x3ca9e1fc	0.02073764
158	0x3c88774d	0.01665845
159	0xbd02e312	-0.031954832
160	0xbc498311	-0.012299315
161	0x3c327a13	0.010893363
162	0x3c885aab	0.016644796
163	0x3ca7e878	0.020496592
164	0x3c90c900	0.01767397
165	0x3bbd41ee	0.0057756817
166	0xbba8c615	-0.0051505663
167	0x3b279302	0.0025569801
168	0xbc7f903f	-0.015598356
169	0xbca4220e	-0.02003577
170	0xbc7b3564	-0.015332554
171	0xbb1e6484	-0.0024168799
172	0xbc77cd38	-0.015124612
173	0x3bd669c2	0.006543369
174	0x3caec3f4	0.021333672
175	0xbc1a16c6	-0.009404844
176	0xbc9db044	-0.019249089
177	0xbd25943e	-0.040424578
178	0xbc0f88af	-0.008760615
179	0xb918b0d7	-0.00014561728
180	0x3b79e8e1	0.0038133191
181	0x3c944a5f	0.01810187
182	0x3b17c1a6	0.0023156195
183	0x3ccc74a5	0.024957964
184	0x3c30e518	0.010796808
185	0xbcc6445c	-0.024202518
186	0x3b0f4cbd	0.0021865808
187	0x3ccd1483	0.025034195
188	0xbc1cd028	-0.009571113
189	0x3c8aab53	0.016927397
190	0x3cddf347	0.027093543
191	0xbc5715ed	-0.013127786
192	0x3d38d3b7	0.045123782
193	0xbcce68ce	-0.02519646
194	0xbccc06bf	-0.02490556
195	0x3cee0ce4	0.029058881
196	0xbb7818e8	-0.0037856642
197	0x3beaf1a4	0.007169919
198	0xbcd9a5e3	-0.026568359
199	0x3944a29c	0.00018752593
200	0x3bfffe3f	0.007812291
201	0xbb6730e8	-0.0035276953
202	0x3b93c0bd	0.00450906
203	0xbb11e758	-0.0022263136
204	0x3bb12932	0.005406522
205	0x3b9c8a7b	0.0047772503
206	0x3bfacab8	0.0076535605
207	0xbc5fe82f	-0.013666197
208	0x3a127359	0.0005586646
209	0x3c7770c1	0.015102566
210	0x3d040aed	0.032236982
211	0xbc064e90	-0.008197442
212	0x3b667e84	0.0035170624
213	0xbb6d224c	-0.0036183773
214	0x3ac99c76	0.0015381712
215	0xbcd22b35	-0.025655368
216	0x3c8c3dca	0.017119307
217	0xbd03147c	-0.032001957
218	0x3ca6cd12	0.020361457
219	0x3cb8ef31	0.022574993
220	0x3886c6f3	6.426675e-05
221	0xbc9b780f	-0.018978147
222	0x3a89c6c4	0.0010511507
223	0xbca25031	-0.019813629
224	0x3c73583d	0.014852581
225	0x3bb48557	0.0055090594
226	0xbd15f1e5	-0.03660764
227	0x3b80264e	0.0039108163
228	0xbb8156ba	-0.003947106
229	0xbbd59dd2	-0.006519058
230	0x3c0b7a5b	0.008513059
231	0xbce840ba	-0.028351177
232	0xbc9ddf3f	-0.019271491
233	0xbc7aaf57	-0.015300593
234	0x3d271b37	0.04079744
235	0xb9b1fbc6	-0.00033947657
236	0xbbb0fc92	-0.0054012025
237	0xb9eacaa1	-0.00044782928
238	0xbd5f0d6e	-0.054456167
239	0xbc8d8ba1	-0.017278494
240	0x3c407ce3	0.011748525
241	0xbc426dc8	-0.011866994
242	0xbb17e101	-0.0023174884
243	0xbbd5af3b	-0.0065211332
244	0x3c25ae82	0.010112407
245	0x38a013df	7.633096e-05
246	0xbc40a07b	-0.0117570115
247	0xbb0d8e7c	-0.002159982
248	0x3c41facd	0.011839581
249	0x3b8d65f3	0.004315132
250	0x3d24bc86	0.040218852
251	0x3c2dd978	0.010610931
252	0x3bcb8a76	0.006211574
253	0xbd075285	-0.03303768
254	0xb9fe0a1b	-0.00048454184
255	0x3a632db4	0.0008666173

action_model._continuous_distribution.mu.bias f4 [2]
0	0xbac7c40e	-0.0015240924
1	0x3b4302de	0.0029756348
