results/firstTests/My Behavior/My Behavior-53056.pt (torch, 549595 bytes, 36 tensors)

network_body._body_endoder.seq_layers.0.weight f4 [128, 41]
00000000: d1ed f5bd 592b 52be fcb3 d4bd 82ab 2ebe
00000010: 4294 0abe 4b55 ba3e f8a9 9cbd d282 71be
00000020: 34f9 053e dc0c 883d 3451 193e 1b09 f0bc
00000030: 3ce1 2c3e 66d2 9f3d b37f bd3d bf74 3dbd
00000040: 4e8d e13d b238 283e 728a d4bd 0128 233d
00000050: 56f2 083d b40f 8e3d 8b62 463e ac68 a23e
00000060: 4c36 2bbd a634 5dbe c5f8 b13d 3a4c cebd
00000070: 9575 793b 478d 29be 4650 35be 2914 b4be
00000080: 074b 2c3e 84de 073e 77ec 303e 0e14 303d
00000090: a5cc a9bd 3c6d e0bc 3e31 153e caf3 273e
000000a0: 89c2 133e 2527 6bbd c5f0 133e d849 e13d
000000b0: 8ef2 a63c acd4 18be 6057 8a3e 8bb0 b6be
000000c0: fded 513e d570 943d a62b 743d 05a7 bc3c
000000d0: 752a e6bd bae3 abbe 3607 193e e704 fb3b
000000e0: 4b11 88be dd56 b33b 6e64 dbbe 2641 55be
000000f0: b21a 13bd a38b da3c 75ac 2bbc 2ae4 e33d
00000100: 5ec7 5ebd dd8b 61be 924b b4bd 6e02 fabd
00000110: a66d 9abe a7d7 03be 9a34 20bd 666c e4bd
00000120: 81eb c93d 2ba7 023e 9301 e13d 635a bd3d
00000130: 0af2 933e fcf7 59be 83a4 e7bc cc64 f2bc
00000140: 4276 983d 795f c83d 5db3 313d 2c47 803d
00000150: 6eb3 65be c050 343c d0c0 3cbd dbee ccbe
00000160: 1861 243c effd 343e 23d2 08be bca7 ab3d
00000170: 6716 403e 1f3a 0d3e ab8f acbd 55ec 083e
00000180: 93cd 023e e8c4 29be ae54 983d a31f 3a3d
00000190: ed9c 013d 98ec 2fbe 9436 8ebc 9d1d 6f3e
000001a0: 8c66 80be 0dc2 afbd 278d 14be ce50 61be
000001b0: 574c ad3e d252 3bbe 7799 fbbc 97cc c83d
000001c0: 06a2 c73c f873 953b c507 c23d 7c93 cebd
000001d0: 9e4b 8bbe 568b 923d 84ed 86be f17f 413d
000001e0: 02d1 c53d 5f14 f0bc 26f6 513d cfd2 48bd
000001f0: 25ec 373e 2abe a2bd 7b44 a3be 9671 66bd
00000200: 845f a53d 817e ac3d 9212 a93d 8ec9 77bd
00000210: ca43 e0bc 4053 10bd 4573 fdbd 3fee c33e
00000220: 9c8e 08be 66dd bc3d 28e2 53bd 40b3 683e
00000230: 3ffb 53bc 96c9 82be a1a3 103e f9e5 533d
00000240: 00a4 eb3d a2ff 93bc 23b0 eebd bbe8 9bbd
00000250: 734a acbe e9a7 3039 c24f 1fbc 4108 4a3d
00000260: 3cb7 cebd 7e6f a23e 07b9 113d 412d 83be
00000270: 30cc c63d b8ff 96be 102c 40bd c685 85bd
00000280: 38dc 0a3e af46 4f3c 6c11 473d 103b 053e
00000290: 2c7f e73d d583 10bd 511c 1bbe 10eb 9bbd
000002a0: e4a2 62be 94a7 19bd 3bdf 6fbd 7e3b 4abe
000002b0: cfa7 77be 201e d03d ff86 a9be c552 debc
000002c0: d631 93bd 70ea c2bd d0d1 d83d 5628 5a3c
000002d0: 3d90 f53d f934 af3b 218f 7b3d 5ef4 36bd
000002e0: a0d1 9e3e 75d3 02be 2cf0 c93d cded a73d
000002f0: 030b 11bd cd21 273e d4ee 13be 4d24 343e
00000300: e9a4 413c a7cd 943d 7e00 dbbc 5a92 fd3c
00000310: e1d2 a63d c415 2f3d ce63 243e 57b5 f13d
00000320: 963c b3bd 6ed9 793c b267 e9bd de8a 52bd
00000330: b27e 973e bd95 e63d d485 eabd cbc7 003e
00000340: 7c4a 083e aa90 2f3d 3c64 0dbe b005 fd3d
00000350: f698 433d 0007 8b3d 3f05 503e 4f66 ac3e
00000360: 85c2 6c3c fcde 3e3e aaa8 5e3e 832c 843d
00000370: 1fca 833d e816 573e ca9e 5e3d 7618 873d
00000380: 5b14 c03d 1c70 9abe d721 423e 5e10 a5be
00000390: a7ce 6ebe 2d12 aabd 0ce1 433d 350b df3c
000003a0: a38a 693e 2406 133e 45c3 5bbe 62bb c8bd
000003b0: f056 2cbd 3a1b b0be a007 bb3e c0d6 e93d
000003c0: ed51 ec3d fb20 24be b463 a33c 4efd 2dbe
000003d0: f95d 1cbc 5c00 42be 4a03 04bd 5790 f03d
000003e0: 7ede ddbd 00d3 7bbd 02d3 253c 04dd c0bd
000003f0: b32f 523d 6418 ffbd ed30 2f3c 876f 903d
-0.120082505 -0.20524348 -0.10385892 -0.17057613 -0.13533118 0.36393198 -0.076496065 -0.2358506
0.13083345 0.06643078 0.14972383 -0.029301217 0.16882795 0.07803802 0.09252872 -0.046253916
0.1101328 0.16427878 -0.10377969 0.039833073 0.033434235 0.06936589 0.19373529 0.31720483
-0.04179983 -0.21602115 0.08690027 -0.10073133 0.003806447 -0.165578 -0.17706403 -0.3517163
0.16825496 0.13268477 0.17277704 0.042987876 -0.08290986 -0.027395837 0.14569566 0.16401592
0.14429678 -0.057410378 0.14447315 0.11000413 0.020379331 -0.14924878 0.27019787 -0.35681567
0.20500942 0.072480835 0.05961194 0.02302886 -0.11238567 -0.3357218 0.14944157 0.0076604965
-0.26575693 0.0054730014 -0.4285006 -0.20825633 -0.03591413 0.026677912 -0.010478129 0.11127503
-0.05438935 -0.2202601 -0.088034764 -0.12207495 -0.3016178 -0.12875234 -0.039112665 -0.11153488
0.09859372 0.12759082 0.109866284 0.092457555 0.288956 -0.21286005 -0.028276687 -0.02958908
0.07444431 0.09783835 0.043383945 0.06263575 -0.22431728 0.01100558 -0.046082318 -0.40025982
0.010032915 0.17674993 -0.13361411 0.08381602 0.18758546 0.13791703 -0.0842584 0.13371404
0.12773733 -0.1657902 0.07438026 0.045440327 0.031643797 -0.17180097 -0.01736001 0.2335114
-0.25078237 -0.08581934 -0.1450697 -0.22003481 0.33847305 -0.18293312 -0.030712826 0.098046474
0.024369251 0.0045609437 0.09474138 -0.10086724 -0.2720613 0.071554825 -0.26353085 0.047241155
0.09659006 -0.029306589 0.051260136 -0.049029168 0.17961176 -0.07946427 -0.31888184 -0.056260668
0.08074859 0.08422566 0.08255495 -0.060494952 -0.027376074 -0.035235643 -0.123755015 0.38267705
-0.13335651 0.09221916 -0.05172935 0.22724628 -0.01293832 -0.25544423 0.1412492 0.05173299
0.1150589 -0.018066231 -0.11654689 -0.07612749 -0.3365055 0.0001684722 -0.009723606 0.049324278
-0.10093543 0.31725687 0.035576846 -0.25620463 0.097069144 -0.29491973 -0.04691702 -0.06519656
0.1356057 0.01265113 0.0486006 0.13010812 0.11303553 -0.035281975 -0.1514752 -0.07613194
-0.2213245 -0.03751333 -0.0585625 -0.19749257 -0.24185108 0.10161996 -0.33110806 -0.027139077
-0.0718724 -0.09517372 0.105868936 0.013315281 0.11990402 0.005346891 0.061415795 -0.04466664
0.31019306 -0.12775977 0.09860262 0.08199654 -0.035410892 0.16321488 -0.14446574 0.17591973
0.011819103 0.072657876 -0.026733633 0.030953575 0.08145691 0.042745367 0.16053697 0.11802166
-0.0875179 0.015249593 -0.113967314 -0.051401965 0.29588848 0.11259029 -0.11451307 0.12576215
0.13309664 0.04286257 -0.13807768 0.123546004 0.047753297 0.067884445 0.20314501 0.33671805
0.014450674 0.1863975 0.21744028 0.064538024 0.06435036 0.21004832 0.05435065 0.065964624
0.093788825 -0.30163658 0.18958221 -0.3223905 -0.23321019 -0.08304248 0.047822043 0.027227024
0.22806792 0.14357811 -0.21461208 -0.098013654 -0.042075098 -0.34395772 0.36529255 0.114179134
0.115390636 -0.16028206 0.019945003 -0.1699116 -0.009543889 -0.1894545 -0.0322297 0.11746281
-0.10833453 -0.061480522 0.010121109 -0.094171554 0.05131502 -0.12455824 0.010692817 0.07052522

network_body._body_endoder.seq_layers.0.bias f4 [128]
00000000: e191 17ba dd23 dcba f7bd 043c 05df 53bb
00000010: 96f9 bd3a 444a 703b 2db6 c4ba 7660 96bb
00000020: ebd2 b9bb 009f 343b 01c2 5cbb 6ec8 8dbb
00000030: f171 ebb9 c3c1 0e3a 939f a4b9 d589 7f3b
00000040: d0a8 a6bb 56f4 9abb e602 363b 3d62 8eb9
00000050: 2a64 85b8 c5b1 f83a c697 0fba e84c cf3a
00000060: 7339 2a3c b344 303b b089 ea3a 5bd3 4dba
00000070: 81f9 4b3b d6b5 7c3a 5432 12b9 4d3e ee3a
00000080: 62b6 3eb9 0a9c 2a3b b366 d23a ee36 a63b
00000090: 82be b1ba b6c1 383b fa74 573a 24c8 f63a
000000a0: 8795 ab3b d03c 84bb b021 163b 72a7 b4ba
000000b0: a431 8abb d905 2c3c c888 9b3b fc91 3b3b
000000c0: b93e 9b3a 059a 8e3a 873f 043b 3902 5a3b
000000d0: ca04 72bb c827 4a3a 98f1 cab6 1479 bd3b
000000e0: 715b 7eba 1f19 363b 05dc 8839 10af 5b3c
000000f0: e10f a0ba 39c2 b03a 0890 cfba c3f7 373b
00000100: 74ff 88bb a377 223a b194 55ba 2237 1d3b
00000110: 0e33 cf3b ef36 07b9 26f3 543b 4f14 4e3b
00000120: 2294 5aba 8ae3 233b af6c 2d3b 6f1b d13a
00000130: 528c 373a 82ab b6bb b422 723b 78e3 0e3b
00000140: f589 833b 6a47 473b de50 053c e0ee 94bb
00000150: 23fb 07bb b50f dfbb 1712 813b ea91 a939
00000160: c04f 633b 1159 1339 50a4 dcb9 fe9f ebba
00000170: 7936 49bb f52b 90bb 3243 b33a 8c91 01bb
00000180: b4dd 09bb 8bbb d0bb c47d ba3b 5672 613c
00000190: 7b78 d4ba f141 7cbb 8b20 0c3b aa31 a13a
000001a0: 3ee5 823a 151a 80bb c575 47bb cbe0 e23b
000001b0: b98e 27ba 483f 88bb c9ef dabb dc93 253b
000001c0: 0d93 e63b 14df 2f3b f52d 593b 4e42 603b
000001d0: 070a a0bb 981e 303c 2c22 ddba 9220 97bb
000001e0: d1d8 e83a d49e 5c3b bcbc d03b c55c 20bb
000001f0: 96a9 d3ba 4556 063b 0ab8 003b 2fab ba3b
-0.00057819305 -0.0016795356 0.008101932 -0.0032328975 0.0014493938 0.003666536 -0.0015007906 -0.0045891358
-0.0056708953 0.0027560592 -0.0033684971 -0.0043268716 -0.00044907586 0.0005445743 -0.0003139941 0.0038992066
-0.005086042 -0.004728834 0.0027772724 -0.00027157544 -6.360591e-05 0.0018973878 -0.0005477633 0.0015815767
0.0103896735 0.0026896417 0.0017893817 -0.0007851624 0.0031124058 0.0009640133 -0.00013942394 0.0018176526
-0.00018187755 0.0026032948 0.0016052335 0.005072466 -0.0013560804 0.0028191633 0.000821903 0.0018827957
0.005236331 -0.0040355697 0.0022908263 -0.0013782813 -0.0042173434 0.010499441 0.00474653 0.002862095
0.0011844254 0.0010879642 0.0020179467 0.0033265485 -0.0036929124 0.00077116163 -6.0481943e-06 0.005782256
-0.0009702957 0.002778597 0.0002610387 0.013408437 -0.0012211764 0.0013485617 -0.0015835771 0.0028071261
-0.004180843 0.0006197637 -0.0008147462 0.002398916 0.006323225 -0.00012895068 0.003249356 0.003144521
-0.00083381135 0.002500745 0.0026462486 0.001595361 0.00070018054 -0.0055746445 0.0036946954 0.0021803062
0.0040142485 0.0030407556 0.008136956 -0.0045450777 -0.0020749054 -0.0068072923 0.003938924 0.00032342906
0.0034684986 0.00014052192 -0.00042084092 -0.0017976759 -0.0030702634 -0.0043997713 0.0013676642 -0.001977059
-0.0021036686 -0.006370013 0.005691262 0.01376017 -0.0016210222 -0.0038491453 0.0021381702 0.0012298126
0.0009986532 -0.003909359 -0.0030435186 0.00692377 -0.0006391812 -0.0041579343 -0.0066814166 0.0025265133
0.007036573 0.0026835846 0.0033138965 0.0034219208 -0.004884008 0.010749482 -0.0016871146 -0.004612037
0.0017764812 0.0033664005 0.006370155 -0.0024469357 -0.0016148563 0.0020498198 0.0019640946 0.005696676

network_body._body_endoder.seq_layers.2.weight f4 [128, 128]
00000000: 9d5b 01be 4659 52bc 1458 a9bc 8509 05be
00000010: e84f 9fbd 8dea 82bd 9ae3 14bd b04a f0bd
00000020: 42cc 2c3d 06fd 9e3d 9fe7 a33c 275c aa3d
00000030: eea5 2fbd 441a bbbd 5499 a83d 61eb 39bd
00000040: 6977 81bc 908a 5dbd 86a2 443e 8ff6 d3bd
00000050: 7605 113e ab48 c2bd fa3c 353e b1c0 2abc
00000060: 6305 eebd f87e 613c 6176 6cbc 09c8 833d
00000070: 471b 4e3e 5085 5d3c c8c1 46be 1348 46bd
00000080: fd67 0ebc 240d 1d3e 1a02 2ebe f193 39bd
00000090: 25ca 183e 6b42 32bc 406a 173d 2e9c 21bd
000000a0: b77f 2abd 56cb 103e ba7f 833b d581 803d
000000b0: e286 30bd d1f1 e63c 5913 48bd 60b1 723d
000000c0: 238a 003d 06a3 9f3a 3c18 26bd 1971 933d
000000d0: 6b69 5c3d 7504 afbd 547e 62bd 1245 bf3d
000000e0: 0d7c c93c 1432 2c3e 4e4c c5bd 878e 2d3e
000000f0: ce24 963c 690e 0f3d 3f68 ab3c bcac 423d
00000100: 2a32 a93d c595 6bbc 9298 1fbd 245c 8cbd
00000110: 881b 45bc c0be 0b3e ea4e 98bc 800d 10be
00000120: 2165 403c 045b 12be feea d7bc 8f5b 5f3c
00000130: 44d9 16be c0f9 263d e688 15be c6f6 143e
00000140: a69a 983c e980 2d3e 5ebd c83c 7ebe 19be
00000150: 5c6c 5ebb 1a5b 0dbe 645e a7bd 5975 37bd
00000160: 302b 81bd e6d0 f63d f96d e43c e7f6 6abc
00000170: 09df f4bd ea4c 043e a3bf f93d 0967 64bd
00000180: 3d0b 5a3d 6b3a 85bd 3598 0d3e 4e89 a3bd
00000190: 8cc8 873d fdf6 96bd c3be 393c cc76 79bd
000001a0: c7f7 e43c 713d ccbd 8304 b7bb cd60 9abd
000001b0: 97cf ec3b df4f 94bd d36d d83d 0229 e1bd
000001c0: cd01 2ebc 3f92 093e 3063 f0bc a44a 9a3d
000001d0: 465b 013e 7da5 0ebd 8a45 91bc ec6e cfbd
000001e0: c863 bdbd 5897 84bc da92 26bc 5079 96b9
000001f0: fa83 5bbd 3099 b6bd 4dc0 72be 9a05 1bba
00000200: b3a6 073e e6e4 c43d 63e8 8c3d 6b17 873d
00000210: 2286 dabd d5dc 38bc 3790 f13d efc1 c13d
00000220: 1a2d 01be df55 8a3b 2656 2e3e b18a 113e
00000230: ccdd 9abd 7436 e6bc 51a0 16be a921 88bd
00000240: 26c2 db3c d668 8f3d 8988 0bbe efce 93bc
00000250: bc15 703d c9fa 3e3d 3934 2a3e 8de2 603d
00000260: 3339 1abd a58e babd 9f24 64bd ef18 aa3a
00000270: 0102 45bd 44c4 38bd f595 7b3d 1ce0 b73d
00000280: 8224 1b3e 844a 9cba 0d59 47bc 709a 293c
00000290: 77ca 133b bb30 dd3d b592 46bd 27b6 803d
000002a0: 76fb 9ebd dbd5 2e3e 0e4b 81bd 1c61 03bd
000002b0: 0ee7 35bd d568 1e3e f5d4 273d 2c70 53bd
000002c0: f0db 56bd d37b 34bd e36e 3dbc 1c33 2abe
000002d0: 1d18 213d a76d 1c3d d060 d93d 148b 2dbd
000002e0: 90fe b9bd 2da3 1fbc 0f2e 923e 95b2 8fbd
000002f0: 0e5b af3d 43b8 113d 840b 273e 0560 0abe
00000300: 757f 813c c6bf 1ebd d739 69bc 2776 df3c
00000310: dd44 8d3d 448e 803d c2ad a23d 29e6 44bd
00000320: cfae 4d3c a5f1 87bd d00a 34bc 6cbc 023d
00000330: 5145 8b3d e618 87bd 970b 63bd 1eb1 fa3a
00000340: d690 b83d 600b 64be f792 da3b dcad ad3b
00000350: 1fd0 033e 9550 f33d 2cc1 b33d 9911 dabd
00000360: 33ee 12bd 4b51 4c3e 0591 ec3c eb09 ee3c
00000370: 1a22 febc a63c 913d 2018 97bd 57b7 c33d
00000380: 94f7 37bd 6c46 123e 7eb9 20be 49b9 82bd
00000390: 9c7a 82bc 8add c23c ebbd a6bd 5ffd 453d
000003a0: 39fe b0bd 1768 a53d 9d9b ffbc 8967 043e
000003b0: f624 efbd 7e09 2e3d 9aa7 11bc cfe9 22bd
000003c0: 6f4a a23d ea2d a13d 3093 863d a5d2 9b3d
000003d0: 32e6 eb3b f204 e9bd 544d 44bd 790b 80bd
000003e0: e975 943d 2854 bebc 9f38 e13d f190 89bc
000003f0: 7be2 bb3d 3943 ea3c 95f5 54bd 651f a0bd
-0.12632604 -0.012838667 -0.020671882 -0.12991913 -0.07778913 -0.06392393 -0.03634987 -0.117329955
0.042186983 0.07763104 0.020007906 0.08318358 -0.042882852 -0.09135869 0.0823237 -0.04539049
-0.01580401 -0.05408722 0.19202623 -0.10349762 0.1416224 -0.094865166 0.17699042 -0.010421918
-0.11622121 0.013763182 -0.014432521 0.06434638 0.20127593 0.013520554 -0.19409859 -0.04840858
-0.008691785 0.15337044 -0.16992989 -0.045307104 0.14920862 -0.010880093 0.036966562 -0.039455585
-0.041625705 0.14140067 0.004013029 0.062747635 -0.043097384 0.028191479 -0.048846576 0.05925119
0.031381737 0.0012179322 -0.040550455 0.07199306 0.053811472 -0.08545772 -0.055296257 0.09339346
0.024595285 0.16815978 -0.096336946 0.16948901 0.018328097 0.034925852 0.020923732 0.047528014
0.08261521 -0.01437897 -0.03896386 -0.06853512 -0.01203049 0.13646984 -0.018592317 -0.1406765
0.011742861 -0.14292532 -0.02635717 0.013632669 -0.14731318 0.040765524 -0.14603004 0.14547262
0.01862843 0.16943707 0.02450436 -0.15014073 -0.00339391 -0.13804284 -0.081723005 -0.044789646
-0.063070655 0.12051563 0.02788447 -0.014341093 -0.11956603 0.12919965 0.12194755 -0.055762324
0.053233374 -0.06505283 0.13827594 -0.07985173 0.06630048 -0.07371328 0.011336985 -0.06090431
0.02795018 -0.099726565 -0.0055852546 -0.075379945 0.007226895 -0.07241797 0.10567822 -0.1099415
-0.0106205465 0.13434695 -0.029344171 0.07533768 0.12632474 -0.03482579 -0.017733354 -0.101285785
-0.092475474 -0.016185448 -0.010166848 -0.00028700614 -0.05359266 -0.08915937 -0.2370617 -0.00059136155
0.13247184 0.096139714 0.06880262 0.065962635 -0.10670115 -0.011283119 0.11795085 0.09460818
-0.12614861 0.0042216624 0.1702505 0.14213063 -0.07561836 -0.028102137 -0.14709593 -0.06647045
0.026825976 0.07002418 -0.13626303 -0.01804301 0.058614478 0.046625886 0.16621484 0.054903556
-0.037652206 -0.091092385 -0.055698987 0.0012977401 -0.048097614 -0.04510905 0.061422307 0.08978292
0.15150645 -0.0011924063 -0.012167227 0.010351762 0.0022551098 0.1080031 -0.048479754 0.06284743
-0.07762806 0.17073767 -0.06313144 -0.032075033 -0.044409804 0.15469678 0.040974576 -0.051620647
-0.052455842 -0.0440634 -0.011562082 -0.16621059 0.039329637 0.03819051 0.10614169 -0.042368963
-0.09081757 -0.009743494 0.28550765 -0.07016484 0.08562289 0.035576116 0.16312987 -0.13513191
0.015807847 -0.03875711 -0.0142349815 0.02727802 0.068979 0.06277135 0.07943298 -0.04807106
0.012553885 -0.06637887 -0.010988906 0.031917974 0.068003304 -0.06596546 -0.055430975 0.0019126271
0.09012 -0.22269964 0.0066703516 0.0053002667 0.1287236 0.11880604 0.08777079 -0.10647888
-0.035871696 0.19952886 0.028877744 0.029057464 -0.03102212 0.07091646 -0.07377648 0.09556454
-0.044913843 0.14284676 -0.1569576 -0.063829966 -0.015927605 0.023787279 -0.08141693 0.048337337
-0.08642239 0.08076494 -0.031202132 0.1293012 -0.116769716 0.04248952 -0.008890057 -0.03977376
0.07924353 0.078700855 0.065710425 0.07608537 0.0071990723 -0.11377896 -0.04792531 -0.06252188
0.07249052 -0.023233488 0.10997128 -0.016792746 0.09174057 0.028596507 -0.051992018 -0.07818488

network_body._body_endoder.seq_layers.2.bias f4 [128]
00000000: 7eee 2c3b d43c 23bb 97b8 3cba fcc2 bd3b
00000010: 181e 933b f1d4 dbba dda0 39ba 3e60 343b
00000020: 7d0a 873a a410 35bb 5505 343b b2a3 44bb
00000030: ca7f 5bba 9f89 d0ba 9b39 5e3b b1de 96ba
00000040: 775f 7b3a 823c 653b 7919 9c3a 94a1 8abb
00000050: 7844 85ba 13f5 9eba 1071 573b dd37 0c3b
00000060: ecd9 8bb9 2758 04bb f05f c6ba 2aa4 ebba
00000070: 41bf c03b 467f 5f3b 2451 8e3b ad01 35bb
00000080: 1f58 94bb 5d4d 203b d74c fc3a afef 1f3b
00000090: 9e06 e8b7 acfb 613b 090d 3cbb 6bc4 873a
000000a0: 1d93 40bb 1802 75bb aaf6 03bb 56fd b5ba
000000b0: 4c0a 18bb 518c 713b 9765 273b 3f56 06bb
000000c0: 96e5 28bb ed0e 75bb 88cd 63bb cc7f 403b
000000d0: 5e00 413b 067f 7b3b fc54 2dbb cd46 b23b
000000e0: 478b ea39 114e 28bb 3f87 00bb 21c1 1f3b
000000f0: 999f 9d3a e8e7 5e3b 2918 d039 ab9f 88bb
00000100: e91c 5c3b 531c 00bb 38ca 65ba 20a4 2f3b
00000110: 6fc2 8239 6cce c4b8 38e2 25bb 6d05 ba3b
00000120: fcbd 243b e964 22bb 5f40 953b c843 813a
00000130: 8e97 493b f561 69ba 2d0d 883b aa9d 37bb
00000140: cc57 5a3a 70fa 5b3b bbc5 e93a 4644 68b9
00000150: 8de8 72bb a173 3a3a 526f 2d3b caa6 35bb
00000160: 03df 323b abd8 a038 982a 4938 dcd8 5d3b
00000170: 0d9f 363a 35aa 22bb 7ce4 d23a d438 3dba
00000180: 3e14 b93a 8453 813b cb09 a1ba 4ae9 33b9
00000190: d4b4 ccba e61c 7dba 85ee 893b decf 09bb
000001a0: 3f31 b1ba d11a b1ba fc8b 3e3b 5d17 7d3a
000001b0: ed4d fbba 0475 0e3b 4797 53bb 1f83 66bb
000001c0: cd08 d33a 815c b8ba 7dac 86bb 842b 2cba
000001d0: e046 223a fe59 5839 3588 52bb ea63 37bb
000001e0: 9428 7a3b efd1 7b3b dac7 9e3a 5938 023b
000001f0: 59b4 7e3a b94a 84bb cf44 af3a 3021 0cba
0.002638727 -0.0024908083 -0.0007199137 0.005791066 0.0044896714 -0.0016771836 -0.00070811604 0.0027523185
0.0010302808 -0.0027628327 0.0027468998 -0.0030004797 -0.0008373229 -0.0015910155 0.0033908847 -0.0011510459
0.00095891155 0.0034978692 0.0011909447 -0.0042306874 -0.00101675 -0.0012127481 0.0032873787 0.0021395602
-0.0002667451 -0.0020194144 -0.0015134793 -0.0017978002 0.0058821742 0.003410296 0.004343169 -0.0027619407
-0.0045271064 0.0024460175 0.0019248974 0.0024404337 -2.7659637e-05 0.0034482284 -0.0028694293 0.001035822
-0.0029384561 -0.0037385281 -0.0020136037 -0.0013884704 -0.0023199497 0.0036857317 0.002554273 -0.0020498184
-0.002577161 -0.003739293 -0.0034759957 0.0029373048 0.0029449682 0.0038375272 -0.002644836 0.005440569
0.00044735728 -0.0025681297 -0.0019611863 0.0024376588 0.0012025713 0.0034012739 0.00039690852 -0.0041694245
0.0033586568 -0.0019548133 -0.00087657897 0.0026800707 0.00024940397 -9.3844574e-05 -0.0025311839 0.0056769163
0.0025137654 -0.0024779385 0.004554793 0.0009862119 0.00307605 -0.00089028414 0.0041519613 -0.002801756
0.0008329123 0.003356602 0.0017835418 -0.00022150678 -0.003706488 0.0007112567 0.0026464057 -0.0027717822
0.002729357 7.669752e-05 4.7961803e-05 0.0033851182 0.00069664494 -0.002482069 0.0016089822 -0.0007218246
0.0014120413 0.0039467234 -0.0012286244 -0.00017157677 -0.0015617856 -0.000965549 0.004209342 -0.002102844
-0.0013518705 -0.001351202 0.0029075136 0.00096546655 -0.0019173004 0.0021737227 -0.0032286213 -0.003517337
0.0016100645 -0.0014065654 -0.0041099177 -0.00065677636 0.0006190371 0.0002063289 -0.0032124643 -0.0027983137
0.003817116 0.003842469 0.0012114004 0.0019870012 0.0009716205 -0.004037228 0.0013371947 -0.00053455215

action_model._continuous_distribution.log_sigma f4 [1, 2]
00000000: 513e 963b ba5b 113b
0.0045850654 0.0022179917

action_model._continuous_distribution.mu.weight f4 [2, 128]
00000000: 1c5c fcba cd88 c33c 6b42 10bd 4322 063c
00000010: dd44 033c 10b1 f63c 933d adbc ad16 2abc
00000020: e19d e3bc b9a5 113b 9737 9e3c 9202 98bc
00000030: be6a 91bc 8a60 dfbb 602c 953b 875e 0fbc
00000040: 4963 0bbd ae38 50bc 7454 3a3c 8d76 86bb
00000050: b0fd 573d 1690 183d bcd0 15bd 75bd dabb
00000060: 0f97 b13c bd66 bc3c 16b5 d13b fe52 f8bb
00000070: 7a37 173c 0a56 2ebc 07ca 01bd d2bd be3b
00000080: 70e8 8f3c 7511 8b3c 2c4b 9039 626c 37bc
00000090: 6ed0 023d 5f90 8b3c 3327 eabb 83e1 36bc
000000a0: c918 a5bb b583 1f3b 94f5 f139 b93e 013d
000000b0: 6799 623b 1908 31bc 2d33 ce3c b72d 373c
000000c0: a631 223d 4f51 103b 575d ae3b 48e5 023d
000000d0: 2834 b3bb c661 c03c 6f59 bd3b faae 46bd
000000e0: 8011 d63c 259e 673a ec70 00bc 2a87 26bb
000000f0: da90 48bd 0029 81bc a8f4 e63c 2687 f13b
00000100: b109 9abc 90bf 4fbc 05e4 8abc aae8 cbbc
00000110: b17f a43c c959 803c 096a a1bc ff51 2c3c
00000120: 855c 80bc 7323 d53c 42a5 adbc bb4a c3bc
00000130: 5ddf d23c af13 06bc b08a 1a3c 802a 0f3d
00000140: b9c0 543c a671 08bd 7415 0abb 848c c43c
00000150: 2af0 02bb c34a fcbb 2702 82bc 71fe 9cbc
00000160: 06c2 07bc 9d50 21bd 3823 eb3c 1fab e9bc
00000170: 05ba 8c3c d69e 65bc 8a71 b63c ce26 ab3c
00000180: 3438 ca3c 402e 6bbc 6038 c4bc db0b 393c
00000190: 591c b4bb 4f03 453c 736f 663c eb31 b7bc
000001a0: cc7f ebbc e037 733a cc9a 7db9 da9f 803c
000001b0: d0cf 853c eb3e 663c 5cdd 6bbc c528 bf3b
000001c0: a1a7 6d3b 0689 0e3a 42bb 80bb e28f bbbc
000001d0: aa55 d53c 04a3 c83c 34e8 303c 98f7 10bc
000001e0: fa11 a9bb b4e5 263c fcc7 d0ba c278 70bc
000001f0: 4c83 d6bb 358b 8c3c 6586 f9bb c80e 973c
00000200: ed89 aa3c 6529 39bb e71d dabc 300a 5d3c
00000210: e19f 023d 2925 42bc 85ee fbbc 1545 0bba
00000220: b0f7 b9bb 3fe7 a73b 92e3 dc3c c70c 1ebd
00000230: 6ff5 acbc 033f 39bc 0f9a eb39 143e 48bc
00000240: 9ba1 c1bb d23d 4b3c 588a 5f3c 090b b4bc
00000250: f62a 69bc 36c1 9abc d1d6 313c 5821 913c
00000260: 8eb4 833b 652a 32bc 7f00 5fbc 8a1f 9cbc
00000270: ad93 483b fce1 a93c 4d77 883c 12e3 02bd
00000280: 1183 49bc 137a 323c ab5a 883c 78e8 a73c
00000290: 00c9 903c ee41 bd3b 15c6 a8bb 0293 273b
000002a0: 3f90 7fbc 0e22 a4bc 6435 7bbc 8464 1ebb
000002b0: 38cd 77bc c269 d63b f4c3 ae3c c616 1abc
000002c0: 44b0 9dbc 3e94 25bd af88 0fbc d7b0 18b9
000002d0: e1e8 793b 5f4a 943c a6c1 173b a574 cc3c
000002e0: 18e5 303c 5c44 c6bc bd4c 0f3b 8314 cd3c
000002f0: 28d0 1cbc 53ab 8a3c 47f3 dd3c ed15 57bc
00000300: b7d3 383d ce68 cebc bf06 ccbc e40c ee3c
00000310: e818 78bb a4f1 ea3b e3a5 d9bc 9ca2 4439
00000320: 3ffe ff3b e830 67bb bdc0 933b 58e7 11bb
00000330: 3229 b13b 7b8a 9c3b b8ca fa3b 2fe8 5fbc
00000340: 5973 123a c170 773c ed0a 043d 904e 06bc
00000350: 847e 663b 4c22 6dbb 769c c93a 352b d2bc
00000360: ca3d 8c3c 7c14 03bd 12cd a63c 31ef b83c
00000370: f3c6 8638 0f78 9bbc c4c6 893a 3150 a2bc
00000380: 3d58 733c 5785 b43b e5f1 15bd 4e26 803b
00000390: ba56 81bb d29d d5bb 5b7a 0b3c ba40 e8bc
000003a0: 3fdf 9dbc 57af 7abc 371b 273d c6fb b1b9
000003b0: 92fc b0bb a1ca eab9 6e0d 5fbd a18b 8dbc
000003c0: e37c 403c c86d 42bc 01e1 17bb 3baf d5bb
000003d0: 82ae 253c df13 a038 7ba0 40bc 7c8e 0dbb
000003e0: cdfa 413c f365 8d3b 86bc 243d 78d9 2d3c
000003f0: 768a cb3b 8552 07bd 1b0a feb9 b42d 633a
-0.0019253525 0.023868943 -0.03521959 0.00818688 0.008012024 0.030113727 -0.021147525 -0.010381383
-0.027785243 0.0022224023 0.019313617 -0.018555913 -0.017751094 -0.0068169283 0.004552409 -0.008750564
-0.034030233 -0.012708826 0.011372674 -0.004103488 0.05273217 0.037246786 -0.036576018 -0.006675417
0.021678476 0.022998208 0.006399761 -0.007578253 0.009229535 -0.0106406305 -0.03168681 0.005820968
0.01756689 0.016976098 0.00027521828 -0.011195274 0.031937055 0.017036615 -0.007145786 -0.011162165
-0.005038355 0.0024339978 0.00046150072 0.031553958 0.0034576298 -0.010805153 0.025170887 0.011180333
0.03959813 0.002202112 0.0053211856 0.03195694 -0.005468864 0.023484122 0.0057784836 -0.048506714
0.026131392 0.0008835516 -0.007839423 -0.0025410154 -0.048966266 -0.01576662 0.028192833 0.0073708473
-0.01880345 -0.012679949 -0.016954431 -0.024891216 0.02008042 0.015667813 -0.019703882 0.010517596
-0.015669117 0.02601788 -0.021196965 -0.023839345 0.025741274 -0.008183404 0.00943248 0.03495264
0.012985402 -0.03331151 -0.0021069916 0.023992784 -0.0019979575 -0.007699342 -0.015870167 -0.019164296
-0.008286005 -0.03938352 0.028703317 -0.02852398 0.017178545 -0.01401492 0.022270937 0.020892527
0.024685003 -0.014354289 -0.023952663 0.0112943305 -0.0054965434 0.012024715 0.0140646575 -0.02236267
-0.028747462 0.00092780404 -0.00024185627 0.015701223 0.016334444 0.014053087 -0.014396038 0.0058337175
0.0036263245 0.0005437288 -0.003928573 -0.022895757 0.026041824 0.024491794 0.010797549 -0.008848093
-0.0051596137 0.010186601 -0.0015928741 -0.014677228 -0.0065464135 0.017156223 -0.007614898 0.018439665
0.020817721 -0.0028253433 -0.026625587 0.013491198 0.031890754 -0.01184968 -0.030753383 -0.0005312723
-0.0056752786 0.005124002 0.026963983 -0.038586404 -0.021113126 -0.011306527 0.00044937475 -0.012221832
-0.0059091575 0.012404876 0.013643824 -0.021977918 -0.014231434 -0.018890958 0.010854439 0.017716095
0.0040193265 -0.010874365 -0.013610958 -0.019058008 0.00306056 0.02073764 0.01665845 -0.031954832
-0.012299315 0.010893363 0.016644796 0.020496592 0.01767397 0.0057756817 -0.0051505663 0.0025569801
-0.015598356 -0.02003577 -0.015332554 -0.0024168799 -0.015124612 0.006543369 0.021333672 -0.009404844
-0.019249089 -0.040424578 -0.008760615 -0.00014561728 0.0038133191 0.01810187 0.0023156195 0.024957964
0.010796808 -0.024202518 0.0021865808 0.025034195 -0.009571113 0.016927397 0.027093543 -0.013127786
0.045123782 -0.02519646 -0.02490556 0.029058881 -0.0037856642 0.007169919 -0.026568359 0.00018752593
0.007812291 -0.0035276953 0.00450906 -0.0022263136 0.005406522 0.0047772503 0.0076535605 -0.013666197
0.0005586646 0.015102566 0.032236982 -0.008197442 0.0035170624 -0.0036183773 0.0015381712 -0.025655368
0.017119307 -0.032001957 0.020361457 0.022574993 6.426675e-05 -0.018978147 0.0010511507 -0.019813629
0.014852581 0.0055090594 -0.03660764 0.0039108163 -0.003947106 -0.006519058 0.008513059 -0.028351177
-0.019271491 -0.015300593 0.04079744 -0.00033947657 -0.0054012025 -0.00044782928 -0.054456167 -0.017278494
0.011748525 -0.011866994 -0.0023174884 -0.0065211332 0.010112407 7.633096e-05 -0.0117570115 -0.002159982
0.011839581 0.004315132 0.040218852 0.010610931 0.006211574 -0.03303768 -0.00048454184 0.0008666173

action_model._continuous_distribution.mu.bias f4 [2]
00000000: 0ec4 c7ba de02 433b
-0.0015240924 0.0029756348

exp_avg f4 [128, 41]
00000000: bc1d 8bb3 a25e 5a32 0000 0000 276c 0738
00000010: b672 0738 d29a 73b3 2fb8 9f31 0000 0000
00000020: 276c 0738 2268 0738 2314 17b3 4a1f 91b2
00000030: 0000 0000 276c 0738 a671 0738 82d4 b635
00000040: cef8 88b5 0000 0000 62c5 0538 46a4 0438
00000050: 79a8 29b3 39ed 57b2 0000 0000 276c 0738
00000060: 516f 0738 f810 0336 7377 83b5 0000 0000
00000070: ec1e 0338 b492 0238 2a15 3fb3 7a3a 02b2
00000080: 0000 0000 276c 0738 306d 0738 6654 f2b7
00000090: 0000 0000 0000 0000 0000 0000 0000 0000
000000a0: 0000 0000 248b 74b2 0416 0331 0000 0000
000000b0: 209d 27b6 3e88 27b6 dee5 53b2 68ed 002d
000000c0: 0000 0000 209d 27b6 2ab4 27b6 52f4 1eb2
000000d0: 5745 53b1 0000 0000 209d 27b6 888b 27b6
000000e0: a4a9 2133 a49b b733 0000 0000 6fb4 30b6
000000f0: 6876 2ab6 2954 25b2 d5c5 39b1 0000 0000
00000100: 209d 27b6 2e93 27b6 90fb 1732 5f29 cf33
00000110: 0000 0000 3082 2fb6 9a0b 2cb6 e01b 34b2
00000120: 194e fdb0 0000 0000 209d 27b6 5d9a 27b6
00000130: 5f35 1036 0000 0000 0000 0000 0000 0000
00000140: 0000 0000 0000 0000 265f 97b1 92a5 2b32
00000150: 0000 0000 80d6 fa36 3613 fb36 5201 b3b2
00000160: 53fc e232 0000 0000 80d6 fa36 6236 fb36
00000170: 6c22 b932 6827 89b2 0000 0000 80d6 fa36
00000180: 9c04 fb36 e954 1334 0eaa abb4 0000 0000
00000190: 3b93 0037 6356 fd36 0af3 c232 0bf8 92b2
000001a0: 0000 0000 80d6 fa36 92f0 fa36 dc7a 8834
000001b0: 27e1 adb4 0000 0000 e05c fd36 cbc6 f936
000001c0: 8a5f 3032 04d3 a0b1 0000 0000 80d6 fa36
000001d0: 3ada fa36 91bf e5b6 0000 0000 0000 0000
000001e0: 0000 0000 0000 0000 0000 0000 a2db 9ab2
000001f0: f8ae e332 0000 0000 6388 2735 8eda 2935
00000200: 2d54 0bb3 ddbd 2f33 0000 0000 6388 2735
00000210: 163a 2a35 afcf e031 70fb 0431 0000 0000
00000220: 6388 2735 3868 2935 b8d1 8b32 8a85 87b2
00000230: 0000 0000 99ac 2935 b5a7 2c35 589d 6532
00000240: 47ed a7b1 0000 0000 6388 2735 eec9 2835
00000250: a6df 8632 d401 9ab2 0000 0000 0f68 2a35
00000260: 1a74 2b35 afb5 1f31 7172 d331 0000 0000
00000270: 6388 2735 1475 2835 8871 27b5 0000 0000
00000280: 0000 0000 0000 0000 0000 0000 0000 0000
00000290: f286 0a34 2b44 ecb1 0000 0000 7264 a9b6
000002a0: 6ba1 a9b6 8af4 3c33 59cf a733 0000 0000
000002b0: 7264 a9b6 3657 a8b6 f98f a233 5373 4733
000002c0: 0000 0000 7264 a9b6 8999 a9b6 67d1 85b5
000002d0: 8b38 1235 0000 0000 041e 96b6 6a0b 8ab6
000002e0: c3d9 ca33 7ebf ed32 0000 0000 7264 a9b6
000002f0: 2a78 a9b6 73e2 a6b5 d8ce fa34 0000 0000
00000300: 993f 8bb6 cc6f 8ab6 b9fd cf33 ac2f d932
00000310: 0000 0000 7264 a9b6 a059 a9b6 2243 8536
00000320: 0000 0000 0000 0000 0000 0000 0000 0000
00000330: 0000 0000 3748 ccb3 039c 0633 0000 0000
00000340: 7e22 7e38 b834 7e38 011e beb3 1c8f d432
00000350: 0000 0000 7e22 7e38 6621 7e38 bb01 edb2
00000360: 8773 1bb3 0000 0000 7e22 7e38 fb30 7e38
00000370: 64b3 5136 fd62 dfb5 0000 0000 e0bd 7738
00000380: b01a 7738 1365 02b3 538f 0fb3 0000 0000
00000390: 7e22 7e38 462a 7e38 cca2 9a36 ace1 d2b5
000003a0: 0000 0000 b420 7138 703a 7238 1d5b 56b3
000003b0: 1465 6eb2 0000 0000 7e22 7e38 0b25 7e38
000003c0: 9ac8 63b8 0000 0000 0000 0000 0000 0000
000003d0: 0000 0000 0000 0000 8f2b 2833 19df 1cb3
000003e0: 0000 0000 ea22 3bb7 2771 3bb7 f6ed aa33
000003f0: c247 a5b3 0000 0000 ea22 3bb7 6079 3bb7
-6.4781005e-08 1.2710787e-08 0.0 3.2287233e-05 3.229334e-05 -5.6718655e-08 4.6484483e-09 0.0
3.2287233e-05 3.228349e-05 -3.517574e-08 -1.689445e-08 0.0 3.2287233e-05 3.229235e-05 1.3621905e-06
-1.0205201e-06 0.0 3.1893498e-05 3.1624244e-05 -3.9501604e-08 -1.2568585e-08 0.0 3.2287233e-05
3.229018e-05 1.9530398e-06 -9.795025e-07 0.0 3.1261632e-05 3.1131043e-05 -4.44899e-08 -7.580292e-09
0.0 3.2287233e-05 3.2288197e-05 -2.888795e-05 0.0 0.0 0.0 0.0
0.0 -1.4234306e-08 1.9075523e-09 0.0 -2.4976398e-06 -2.4964243e-06 -1.2334082e-08 7.328672e-12
0.0 -2.4976398e-06 -2.4989808e-06 -9.252362e-09 -3.0743956e-09 0.0 -2.4976398e-06 -2.4966157e-06
3.764002e-08 8.5499124e-08 0.0 -2.633107e-06 -2.5400896e-06 -9.6234e-09 -2.7033498e-09 0.0
-2.4976398e-06 -2.497061e-06 8.8465555e-09 9.646714e-08 0.0 -2.6152811e-06 -2.563675e-06 -1.0483717e-08
-1.843037e-09 0.0 -2.4976398e-06 -2.497479e-06 2.1488738e-06 0.0 0.0 0.0
0.0 0.0 -4.4054955e-09 9.991156e-09 0.0 7.4755517e-06 7.4826194e-06 -2.0838943e-08
2.6424607e-08 0.0 7.4755517e-06 7.486714e-06 2.1552488e-08 -1.5966819e-08 0.0 7.4755517e-06
7.4809195e-06 1.3721332e-07 -3.1974963e-07 0.0 7.663674e-06 7.5500443e-06 2.2695094e-08 -1.7109434e-08
0.0 7.4755517e-06 7.4785867e-06 2.5421366e-07 -3.238758e-07 0.0 7.5507996e-06 7.443921e-06
1.0266271e-08 -4.6806026e-09 0.0 7.4755517e-06 7.4759855e-06 -6.847033e-06 0.0 0.0
0.0 0.0 0.0 -1.8027837e-08 2.6505845e-08 0.0 6.2410817e-07 6.3275445e-07
-3.2440017e-08 4.0918042e-08 0.0 6.2410817e-07 6.341446e-07 6.542869e-09 1.9351454e-09 0.0
6.2410817e-07 6.3109064e-07 1.6277099e-08 -1.5776795e-08 0.0 6.320857e-07 6.431904e-07 1.336533e-08
-4.887315e-09 0.0 6.2410817e-07 6.2878723e-07 1.5701357e-08 -1.7928791e-08 0.0 6.348136e-07
6.3871414e-07 2.324082e-09 6.1539187e-09 0.0 6.2410817e-07 6.275525e-07 -6.237756e-07 0.0
0.0 0.0 0.0 0.0 1.2901344e-07 -6.876254e-09 0.0 -5.048286e-06
-5.055384e-06 4.3994568e-08 7.81426e-08 0.0 -5.048286e-06 -5.016943e-06 7.569901e-08 4.6438185e-08
0.0 -5.048286e-06 -5.0544663e-06 -9.970216e-07 5.447152e-07 0.0 -4.4738426e-06 -4.1140493e-06
9.4459686e-08 2.7677512e-08 0.0 -5.048286e-06 -5.0505814e-06 -1.2433869e-06 4.6716627e-07 0.0
-4.1499266e-06 -4.1257354e-06 9.6853405e-08 2.5283803e-08 0.0 -5.048286e-06 -5.047026e-06 3.971524e-06
0.0 0.0 0.0 0.0 0.0 -9.512626e-08 3.1341198e-08 0.0
6.0590442e-05 6.0607417e-05 -8.853022e-08 2.4745127e-08 0.0 6.0590442e-05 6.0589424e-05 -2.7591218e-08
-3.619382e-08 0.0 6.0590442e-05 6.0603936e-05 3.1247846e-06 -1.6643604e-06 0.0 5.9066224e-05
5.8914244e-05 -3.035991e-08 -3.3425135e-08 0.0 6.0590442e-05 6.059769e-05 4.6085097e-06 -1.5711898e-06
0.0 5.7489335e-05 5.775172e-05 -4.9908625e-08 -1.3876406e-08 0.0 6.0590442e-05 6.0592818e-05
-5.4307842e-05 0.0 0.0 0.0 0.0 0.0 3.9155164e-08 -3.6524487e-08
0.0 -1.1154198e-05 -1.1172414e-05 7.959527e-08 -7.696464e-08 0.0 -1.1154198e-05 -1.1174328e-05

exp_avg_sq f4 [128, 41]
00000000: 66eb 382f af8d ef2e 0000 0000 54ca ff30
00000010: 67d6 0131 955b 6e2f 442f e42d 0000 0000
00000020: 54ca ff30 b398 0231 c28b 2b2f c2b4 f12e
00000030: 0000 0000 54ca ff30 1028 0231 cd68 b12f
00000040: f5f3 5330 0000 0000 e3fd a430 e39b c430
00000050: 3794 8e2f a08f 3c2d 0000 0000 54ca ff30
00000060: 2805 0131 c40a ea2f 5a7d 2e30 0000 0000
00000070: 25df 9f30 27d2 ce30 9836 902f 7c57 3a2c
00000080: 0000 0000 54ca ff30 bd8b 0031 d085 de30
00000090: 0000 0000 0000 0000 0000 0000 0000 0000
000000a0: 0000 0000 0578 942d 8fd5 5b2e 0000 0000
000000b0: b21b 212e ede3 5c2e b82e 8e2e 137c 6d2b
000000c0: 0000 0000 b21b 212e 7c90 4f2e 3db8 872d
000000d0: 735f 5c2e 0000 0000 b21b 212e b4e9 682e
000000e0: 1e29 792e cd84 0b2e 0000 0000 e452 9c2d
000000f0: 8c4a 042e 62df 902e c986 3d2b 0000 0000
00000100: b21b 212e 04d1 432e fb47 952e a747 ac2d
00000110: 0000 0000 52f7 952d 1e2c 0f2e 0cab 902e
00000120: 7275 822a 0000 0000 b21b 212e 0504 362e
00000130: 7b3e c72e 0000 0000 0000 0000 0000 0000
00000140: 0000 0000 0000 0000 435e cd2e 1233 c12e
00000150: 0000 0000 1254 842f 8923 852f 0f60 e72e
00000160: 3808 e12e 0000 0000 1254 842f 859f 8c2f
00000170: 655b 142f fb9a 8f2e 0000 0000 1254 842f
00000180: 2d80 862f cd88 512e 8e3b a62f 0000 0000
00000190: 7dca d72e efd3 392f 452e 4f2f 6dba 202e
000001a0: 0000 0000 1254 842f c462 852f 62dd cd2e
000001b0: 5e11 832f 0000 0000 4ec5 d42e 6622 5c2f
000001c0: b892 5b2f 408e 552d 0000 0000 1254 842f
000001d0: 321a 862f bd81 bb2f 0000 0000 0000 0000
000001e0: 0000 0000 0000 0000 0000 0000 0b3a 152f
000001f0: d86e eb2f 0000 0000 1ae1 de2d b272 f22e
00000200: edde d52f ee52 442f 0000 0000 1ae1 de2d
00000210: b5a1 e42e fac8 612f b92f c82f 0000 0000
00000220: 1ae1 de2d 6962 082f c36e bb2f cfc5 822f
00000230: 0000 0000 ce06 682c 86c6 a82e b489 1c30
00000240: 119f 2f2e 0000 0000 1ae1 de2d 6008 a92e
00000250: 9c87 e12f 9b38 122f 0000 0000 99ee 642c
00000260: 8bff bb2e d121 1d30 852e 1f2d 0000 0000
00000270: 1ae1 de2d cdad 762e dac0 1330 0000 0000
00000280: 0000 0000 0000 0000 0000 0000 0000 0000
00000290: 7ba9 5230 e9ed 3831 0000 0000 af08 7530
000002a0: 47ad de30 d236 3631 7022 1730 0000 0000
000002b0: af08 7530 714f da30 5cbb 5930 5588 3531
000002c0: 0000 0000 af08 7530 0dad ed30 4550 4831
000002d0: 74eb 8930 0000 0000 3bbc d32f e10a 7830
000002e0: 206e 6831 4fab 8d2e 0000 0000 af08 7530
000002f0: 028e b630 4f46 8331 7f6c a52f 0000 0000
00000300: a5fa b92f 86f6 6e30 6d61 6631 6d35 652d
00000310: 0000 0000 af08 7530 15db 9d30 0f49 8731
00000320: 0000 0000 0000 0000 0000 0000 0000 0000
00000330: 0000 0000 c2c7 4130 04e7 9b2f 0000 0000
00000340: 9caa f031 61b0 f131 8bd9 0b30 2ef1 b72f
00000350: 0000 0000 9caa f031 8572 f631 4f7b 4330
00000360: 7e66 922f 0000 0000 9caa f031 ca08 f231
00000370: 43a7 f430 b14a 2f31 0000 0000 f03a 9d31
00000380: e494 b631 2160 7830 e1fe e42e 0000 0000
00000390: 9caa f031 ca84 f131 68de 2631 bc85 e630
000003a0: 0000 0000 3a08 9531 f70a bc31 b3a0 8230
000003b0: 5dd5 0b2e 0000 0000 9caa f031 b45d f131
000003c0: f081 d231 0000 0000 0000 0000 0000 0000
000003d0: 0000 0000 0000 0000 4336 6e30 efd3 8b31
000003e0: 0000 0000 0d97 9d30 58b2 1231 ac40 8f31
000003f0: 1dd9 4330 0000 0000 0d97 9d30 1646 0731
1.6818333e-10 1.089363e-10 0.0 1.8611197e-09 1.8893844e-09 2.167851e-10 2.594159e-11 0.0
1.8611197e-09 1.900429e-09 1.5602011e-10 1.099152e-10 0.0 1.8611197e-09 1.8940263e-09 3.2270578e-10
7.7108037e-10 0.0 1.2004729e-09 1.4305183e-09 2.5934963e-10 1.0718454e-11 0.0 1.8611197e-09
1.8774902e-09 4.2572001e-10 6.3478967e-10 0.0 1.1632194e-09 1.5048202e-09 2.6232239e-10 2.6480753e-12
0.0 1.8611197e-09 1.8705884e-09 1.6190658e-09 0.0 0.0 0.0 0.0
0.0 1.6878951e-11 4.9984513e-11 0.0 3.663176e-11 5.0224647e-11 6.465711e-11 8.43715e-13
0.0 3.663176e-11 4.719468e-11 1.5429541e-11 5.0106985e-11 0.0 3.663176e-11 5.2958263e-11
5.6652565e-11 3.172289e-11 0.0 1.7771958e-11 3.0079536e-11 6.5880426e-11 6.733334e-13 0.0
3.663176e-11 4.452351e-11 6.788522e-11 1.9585956e-11 0.0 1.7049171e-11 3.255362e-11 6.578746e-11
2.3174133e-13 0.0 3.663176e-11 4.138558e-11 9.060571e-11 0.0 0.0 0.0
0.0 0.0 9.339065e-11 8.785696e-11 0.0 2.4070396e-10 2.4217808e-10 1.0521727e-10
1.0233275e-10 0.0 2.4070396e-10 2.5579197e-10 1.3492991e-10 6.530417e-11 0.0 2.4070396e-10
2.4465532e-10 4.76426e-11 3.023754e-10 0.0 9.813037e-11 1.6900946e-10 1.8842979e-10 3.6545367e-11
0.0 2.4070396e-10 2.4262736e-10 9.361646e-11 2.38411e-10 0.0 9.675692e-11 2.0021104e-10
1.9970059e-10 1.2139234e-11 0.0 2.4070396e-10 2.439307e-10 3.4107286e-10 0.0 0.0
0.0 0.0 0.0 1.3572092e-10 4.282501e-10 0.0 2.5338443e-11 1.102526e-10
3.8902873e-10 1.7855559e-10 0.0 2.5338443e-11 1.03969645e-10 2.0535032e-10 3.6413697e-10 0.0
2.5338443e-11 1.240409e-10 3.4093803e-10 2.3787414e-10 0.0 3.297296e-12 7.67502e-11 5.694816e-10
3.9931673e-11 0.0 2.5338443e-11 7.686718e-11 4.1023618e-10 1.3298733e-10 0.0 3.2533197e-12
8.549169e-11 5.7164323e-10 9.048433e-12 0.0 2.5338443e-11 5.608829e-11 5.3752347e-10 0.0
0.0 0.0 0.0 0.0 7.66384e-10 2.691076e-09 0.0 8.914282e-10
1.6201874e-09 2.6515647e-09 5.498242e-10 0.0 8.914282e-10 1.5884166e-09 7.9210394e-10 2.6416462e-09
0.0 8.914282e-10 1.7293204e-09 2.9149458e-09 1.0034982e-09 0.0 3.8514422e-10 9.0237334e-10
3.3823042e-09 6.442368e-11 0.0 8.914282e-10 1.3282604e-09 3.820595e-09 3.0090416e-10 0.0
3.3829398e-10 8.6934226e-10 3.3524785e-09 1.3029006e-11 0.0 8.914282e-10 1.148552e-09 3.937323e-09
0.0 0.0 0.0 0.0 0.0 7.0496864e-10 2.8358482e-10 0.0
7.0043153e-09 7.034075e-09 5.087705e-10 3.3458875e-10 0.0 7.0043153e-09 7.1725617e-09 7.111582e-10
2.663007e-10 0.0 7.0043153e-09 7.044126e-09 1.7800875e-09 2.5508309e-09 0.0 4.576002e-09
5.313824e-09 9.035848e-10 1.0413515e-10 0.0 7.0043153e-09 7.0291195e-09 2.4282603e-09 1.6772712e-09
0.0 4.337406e-09 5.4727667e-09 9.504418e-10 3.1794446e-11 0.0 7.0043153e-09 7.024676e-09
6.1265766e-09 0.0 0.0 0.0 0.0 0.0 8.6661006e-10 4.0695265e-09
0.0 1.1466185e-09 2.1347173e-09 4.1692e-09 7.1249123e-10 0.0 1.1466185e-09 1.9684925e-09

exp_avg f4 [128]
00000000: 3f34 0738 eb70 28b6 7f06 fb36 face 2935
00000010: 4e4b a5b6 0bde 7d38 9a17 3bb7 c42c eab5
00000020: 2f3b a635 0057 d835 2415 51b7 41f9 8ab6
00000030: 1ad1 81b6 d94e 3038 0273 f337 bfd9 c0b5
00000040: 09e5 2ab7 8a21 beb7 546c d5b6 ea87 9db7
00000050: bcc2 c2b6 173b 1138 2788 be36 8845 4c37
00000060: 3cce 7b36 fc91 6fb7 3fcf 18b7 35bf 3ab6
00000070: b4b6 87b6 8e1d fe35 314f 13b8 4b98 8136
00000080: 090c a2b6 4c46 a037 ec53 e9b7 f213 1eb5
00000090: 4a53 1338 a6ca cdb7 c557 9f36 7059 5834
000000a0: 16d7 bfb4 a8c2 65b5 9c91 fdb5 96e4 5138
000000b0: 4066 a0b5 668b 9e37 a49d 7938 1c05 4ab5
000000c0: d02d 0e37 4c5c 1f38 5198 2437 ee5c 4c38
000000d0: aef2 4cb7 92f5 6cb7 76dc 7135 1406 9137
000000e0: 4ac4 2c35 6f4e 9637 3aa5 9f37 98ae 4738
000000f0: 7b80 9236 d1c4 fc36 80bb 33b6 2c55 0cb7
00000100: 9286 f6b4 da14 beb6 41fd 01b6 7898 be37
00000110: a18b 4e38 26d2 1d37 5c17 8cb4 b9d8 3137
00000120: a438 f537 c2ae 3cb7 429e 3cb7 96b5 4f35
00000130: 84d0 cf35 9958 1db7 01dd bdb7 3598 1cb7
00000140: 99ec 5d38 98a9 8b37 ce88 9b34 cc7a 9bb5
00000150: 6924 9936 5b3b 2837 ccae 9b36 7da8 c037
00000160: b2b0 39b6 3e48 e137 94d9 c734 de81 f036
00000170: 0463 ddb6 d618 92b6 0036 99b7 56d3 02b7
00000180: 2b5c 5a37 5630 a134 a238 46b6 58f3 9437
00000190: 4c3a 7e35 f891 21b7 048f 2b37 b359 a937
000001a0: 2050 97b7 dad4 0036 e796 11b7 f426 7737
000001b0: f7dc 3337 b5c7 4136 3ddc 94b6 77ad 99b6
000001c0: fa36 a837 0c5d 3f37 4064 4d38 5686 0338
000001d0: 2f7b 5bb6 ce87 8c37 eab7 bfb6 0034 9233
000001e0: 484b 2438 cf25 aa37 6f9f 7336 00aa cb37
000001f0: 731c f7b6 404f ddb5 78e3 7cb5 5b1b 8637
3.2235166e-05 -2.5099678e-06 7.481139e-06 6.3258597e-07 -4.92615e-06 6.0526694e-05 -1.1151564e-05 -1.7447387e-06
1.2385188e-06 1.6118574e-06 -1.2462293e-05 -4.1417375e-06 -3.868842e-06 4.2035103e-05 2.9021412e-05 -1.4368487e-06
-1.0186116e-05 -2.2665383e-05 -6.3605057e-06 -1.8779148e-05 -5.8043206e-06 3.4625726e-05 5.6782915e-06 1.21755365e-05
3.7521959e-06 -1.42795e-05 -9.108159e-06 -2.7827457e-06 -4.044583e-06 1.8933076e-06 -3.5121284e-05 3.862229e-06
-4.8293773e-06 1.910622e-05 -2.7814844e-05 -5.888861e-07 3.51251e-05 -2.453227e-05 4.748787e-06 2.0149105e-07
-3.5733018e-07 -8.559241e-07 -1.8892347e-06 5.004237e-05 -1.1950688e-06 1.889998e-05 5.951304e-05 -7.52583e-07
8.474526e-06 3.7994512e-05 9.810626e-06 4.8723938e-05 -1.2215851e-05 -1.41238725e-05 9.010031e-07 1.7288177e-05
6.436063e-07 1.7917917e-05 1.9031217e-05 4.76079e-05 4.366096e-06 7.5330977e-06 -2.6782218e-06 -8.364481e-06
-4.5918983e-07 -5.6648687e-06 -1.936991e-06 2.2720764e-05 4.9244267e-05 9.406858e-06 -2.6094028e-07 1.0600482e-05
2.9232651e-05 -1.1246362e-05 -1.12425205e-05 7.737775e-07 1.5483388e-06 -9.3785575e-06 -2.2633469e-05 -9.333763e-06
5.2910855e-05 1.6649064e-05 2.8970538e-07 -1.1584139e-06 4.563994e-06 1.00274e-05 4.639709e-06 2.2966642e-05
-2.7669998e-06 2.685573e-05 3.7224947e-07 7.167676e-06 -6.59784e-06 -4.3540304e-06 -1.8264167e-05 -7.797809e-06
1.3015272e-05 3.0023756e-07 -2.9537264e-06 1.775629e-05 9.4707207e-07 -9.630334e-06 1.0225693e-05 2.018814e-05
-1.8037914e-05 1.9197382e-06 -8.677808e-06 1.4731417e-05 1.0720679e-05 2.8875486e-06 -4.436383e-06 -4.5799493e-06
2.0052761e-05 1.1406151e-05 4.8969174e-05 3.1357944e-05 -3.2705245e-06 1.675254e-05 -5.713654e-06 6.8081135e-08
3.9170758e-05 2.0283185e-05 3.6302624e-06 2.4278648e-05 -7.3644856e-06 -1.6488848e-06 -9.4208326e-07 1.5986783e-05

exp_avg_sq f4 [128]
00000000: adef 1031 9a05 e32e f467 e92f 6092 1f30
00000010: a1f9 9331 cae8 0932 9cbe d231 6547 5a30
00000020: 33bd 462f a31b 2530 06a4 aa31 1c75 362f
00000030: 1d45 6131 b3b9 cd31 c4d0 c531 5e3d 2a30
00000040: 03cb 0331 b179 3631 6a73 6731 3abe 9531
00000050: ed55 0830 bbff 8631 3f0e 3331 c772 db30
00000060: 226e 522f 56d0 f230 0457 0031 deda b52f
00000070: 82ea 4830 e32f 9230 2845 0732 fd64 7930
00000080: b65b 4531 decb 4730 5f83 0132 827a 5030
00000090: 119a eb30 3562 9b31 e759 0130 db28 662e
000000a0: c821 fe2e d7f3 9030 530b 2c31 d07b a731
000000b0: 9ed0 0731 bd09 a930 f7e0 ed31 6d45 4d30
000000c0: 65f6 542f f81b f631 1729 8b30 0d01 2432
000000d0: 31c2 1431 090c 5f31 4c42 a330 af18 fa2f
000000e0: a8f8 1030 28ea c631 925b cc31 390f 6a31
000000f0: 7103 2431 9d73 6130 d74f 0630 b480 3631
00000100: 1ceb a830 4368 2a30 1de6 3b2f dd93 1432
00000110: 1f80 e731 f857 4731 db04 e72f 91ed 1c31
00000120: 7518 f330 90a1 a830 adad 0031 06e1 eb2e
00000130: a40d 8631 778f a430 7a2b 4132 ee29 8530
00000140: 14ed 6632 e8de 9331 dd93 d52e 2b50 7c2f
00000150: 1252 8230 1da1 1630 15f7 2e2f a9d4 5d31
00000160: 7cff 782f 42d6 5d31 dbcf 1b30 7ed2 0331
00000170: 6374 212f 88b7 1031 234b 0531 0ffa b330
00000180: 0f00 a930 6fd2 ff2e 6fc3 112e 12ef 2030
00000190: 04fa d82f 22ad fa30 0ac4 a831 e356 f230
000001a0: 7f6f 8131 3654 5230 627d 8630 e76e 6130
000001b0: de95 9f30 3935 5631 29b9 ea2e 45dd 1030
000001c0: 7750 1830 b9b5 6331 de9d ea31 cf53 c131
000001d0: 5b80 8e2f e034 6830 c6b0 0830 00a5 d230
000001e0: 7ac2 ed31 674f 3130 7ace 992f a7dc 8331
000001f0: b9b2 9e30 1b74 3431 c13d 7f2e 5ac2 ab30
2.1090998e-09 1.032376e-10 4.2456316e-10 5.8051874e-10 4.3066426e-09 8.02738e-09 6.133474e-09 7.9409396e-10
1.8075212e-10 6.0065924e-10 4.9662985e-09 1.6594409e-10 3.2781096e-09 5.987397e-09 5.7571885e-09 6.193285e-10
1.9178408e-09 2.655366e-09 3.368053e-09 4.358097e-09 4.959862e-10 3.9289865e-09 2.6056026e-09 1.5966969e-09
1.9138516e-10 1.766703e-09 1.8675914e-09 3.3079223e-10 7.309283e-10 1.0636508e-09 7.8737585e-09 9.0729185e-10
2.8719405e-09 7.268549e-10 7.538659e-09 7.5844053e-10 1.7142289e-09 4.5222586e-09 4.7057686e-10 5.2332232e-11
1.15565835e-10 1.0546682e-09 2.5035731e-09 4.8744155e-09 1.976367e-09 1.2299136e-09 6.9231834e-09 7.4677226e-10
1.9368825e-10 7.162722e-09 1.012526e-09 9.546295e-09 2.164722e-09 3.2457612e-09 1.1878654e-09 4.5492274e-10
5.2740257e-10 5.789179e-09 5.9475918e-09 3.4060135e-09 2.3867097e-09 8.201882e-10 4.8862375e-10 2.6557645e-09
1.2290431e-09 6.1993805e-10 1.7089304e-10 8.648354e-09 6.7375505e-09 2.9008316e-09 4.2022105e-10 2.2836029e-09
1.7687528e-09 1.2269528e-09 1.8725175e-09 1.0726535e-10 3.901464e-09 1.1973346e-09 1.1243964e-08 9.688941e-10
1.3441667e-08 4.3036046e-09 9.7123844e-11 2.2947748e-10 9.482071e-10 5.479864e-10 1.5912989e-10 3.2280616e-09
2.2646235e-10 3.2281524e-09 5.668405e-10 1.918266e-09 1.4684214e-10 2.1059083e-09 1.9396758e-09 1.3095035e-09
1.2296385e-09 1.1633438e-10 3.3142763e-11 5.85474e-10 3.9467818e-10 1.8239101e-09 4.9117306e-09 1.7632512e-09
3.7670698e-09 7.6517226e-10 9.785419e-10 8.2012125e-10 1.1611367e-09 3.1171352e-09 1.0673979e-10 5.270134e-10
5.5411625e-10 3.3136145e-09 6.8282437e-09 5.626567e-09 2.5920852e-10 8.447625e-10 4.972772e-10 1.5326407e-09
6.9197172e-09 6.450506e-10 2.7977248e-10 3.837687e-09 1.1546809e-09 2.6259446e-09 5.8035136e-11 1.2497126e-09
