results/firstTest/MyAgent/MyAgent-0.pt (torch, 185418 bytes, 12 tensors)

network_body._body_endoder.seq_layers.0.weight f4 [128, 41]
000000 cc 59 e2 3c 13 eb e1 bd 97 44 ca bd 33 6a 13 3e
       0.02763071 -0.11031165 -0.09876364 0.1439598
000010 04 08 1e bb f1 c1 2a be 6f 3a 6f bd 41 1a c5 bd
       -0.0024113664 -0.16675545 -0.058405336 -0.09624148
000020 0e 7a 85 be 36 74 94 bd 34 42 70 39 91 df 35 be
       -0.26069683 -0.07248728 0.00022912846 -0.17761065
000030 2e 32 ea bd d8 64 cd bd 6b 48 d7 ba c1 a1 4f 3e
       -0.11435352 -0.10029 -0.001642478 0.20276548
000040 bc b1 69 3e 8c 9a 34 3d 0f 57 6f 3d 79 60 f1 3d
       0.22821707 0.0440927 0.058432635 0.11785979
000050 48 6d ff 3c 33 a7 f7 3d a6 a3 fe bc 37 78 a1 be
       0.031180039 0.120924376 -0.031083893 -0.3153703
000060 78 5b 14 3e fb 49 86 3d d3 f1 47 3e 62 1e ad be
       0.14488018 0.065570794 0.19525842 -0.33812243
000070 d4 ba 23 3d 1e 30 8c be 7d 62 41 bd cb 20 b5 bd
       0.039973095 -0.2738046 -0.047213066 -0.088441454
000080 3a df c9 bd 70 04 4d bd c1 bb bd bd b5 dc b0 3d
       -0.0985703 -0.05005306 -0.09264327 0.086358465
000090 51 a8 6d bc 15 42 bd be e9 11 51 be 01 dd 19 be
       -0.014505462 -0.3696448 -0.20416988 -0.15025713
0000a0 a8 4c 5e bd 32 9b 39 3e 2a a0 a2 3d 0f 4a 42 bc
       -0.054272324 0.18125609 0.07940705 -0.011858477
0000b0 cb fb 7b bd 00 a3 07 be 5b 8d 55 3e bd 58 e0 bc
       -0.061519425 -0.13245773 0.20854704 -0.027386064
0000c0 c7 25 47 be 5d 3b ef bd a7 e4 8d bd d2 6d a1 bd
       -0.19448005 -0.116812445 -0.069283776 -0.07882275
0000d0 78 02 9e bd 5a 0b 11 3e 3d 33 5a be 4e d7 26 3e
       -0.077153146 0.14164487 -0.21308608 0.1629307
0000e0 6c 42 68 be ca 1d e9 3d 67 23 b5 be dd ae 22 be
       -0.22681588 0.11382635 -0.35378572 -0.15887018
0000f0 be eb c6 bd d9 18 93 3d e1 0f 1c be 47 a2 a9 be
       -0.09712933 0.07182474 -0.15240432 -0.3313162
000100 ba 99 b1 3e 35 8a 4c be e3 56 54 be 5f 81 17 3e
       0.34687597 -0.19974597 -0.2073627 0.14795445
000110 74 3b a0 bd 67 4c 4f 3e 91 36 30 be 19 76 25 3e
       -0.0782384 0.20243989 -0.17208315 0.16158332
000120 9e 12 b0 bd aa 48 d7 3d 76 ca 48 3e b2 ff b5 3c
       -0.08597301 0.105119064 0.19608483 0.022216652
000130 59 30 38 be 31 19 b9 bc eb 35 e3 bd 01 1a 1a be
       -0.17987193 -0.02259502 -0.110942684 -0.15048982
000140 71 34 99 3d 8f ed c8 3d 49 d0 d7 3d cc a6 19 3e
       0.074807055 0.09810936 0.10537774 0.15005034
000150 32 b9 86 3d 1f 21 2f be d2 4c 4b bd 86 87 b9 be
       0.06578292 -0.17102478 -0.04963381 -0.3623621
000160 96 a0 a8 bd 9a 3e 22 3e e3 c8 99 be d7 cb db bd
       -0.08233754 0.15844193 -0.30036077 -0.10732239
000170 c6 41 fa 3d b8 7e 3a bd bd cd 9c be b3 f5 01 bd
       0.122195765 -0.045531005 -0.30625716 -0.031728458
000180 5e 56 6e 3e 51 98 ee bd 27 8b d0 3d be b3 1a bb
       0.23275134 -0.11650146 0.10182791 -0.002360567
000190 6c 03 05 3e 10 2c 97 bd 84 3e 41 be 94 4d 1c 3e
       0.12989587 -0.07381451 -0.18871504 0.15263969
0001a0 73 0c 9f bd d1 24 48 3e e9 a2 65 bc e2 e3 62 3e
       -0.077660464 0.19545294 -0.014015892 0.22157243
0001b0 03 c5 85 bc 2f ab 96 be f0 58 25 3e 21 70 12 3e
       -0.016329294 -0.29427478 0.16147208 0.14300586
0001c0 3b 18 f2 bc be 4a 47 3e e0 6f f5 bc 4e 00 25 bd
       -0.02955257 0.19462106 -0.029960573 -0.040283494
0001d0 3d 29 07 be 01 53 ab 3d 6a 5d d8 3d 1f 98 1c bd
       -0.13199325 0.08365441 0.10564692 -0.03823101
0001e0 f2 29 e2 bd 70 2e 6b bb 0f f5 5a 3d f0 88 8a bd
       -0.11043157 -0.0035885833 0.053456362 -0.067644
0001f0 88 58 3c 3e d0 24 23 be 33 81 aa be 2c 7a 7a 3d
       0.18393147 -0.15932012 -0.33301696 0.06115167
000200 55 ee 83 bd a5 a1 91 bc 9e 37 04 3e 5d b5 57 3d
       -0.064419426 -0.017777273 0.12911841 0.052663196
000210 cb 19 d6 3c 3e 97 36 3d 6e 22 45 bd b2 ba 8f bd
       0.026135346 0.04457783 -0.048128538 -0.07018031
000220 cc 1f 93 be bf cc df 3c a6 12 b8 3c 5b c6 04 be
       -0.28735197 0.02731931 0.02246983 -0.12966292
000230 8e ca c4 bd 5b 7b 75 3b 3d c0 86 3e 59 94 0b 3e
       -0.09608947 0.0037457559 0.2631854 0.13630809
000240 ad 85 20 3e 40 29 1b bd f1 78 db bd 6d 06 73 3e
       0.15675993 -0.037881136 -0.10716427 0.2373292
000250 f5 3f fc bd 8e 16 4e 3e 1a 12 57 3e af 8b 23 be
       -0.12316886 0.20125791 0.21002999 -0.15971254
000260 51 56 85 3d ad eb a6 3c 18 42 f3 bc 7c eb 28 be
       0.06510604 0.02037605 -0.029694602 -0.1649608
000270 84 fb 01 3e 9e de 8f bd 06 44 af 3e 5e cf 5c bd
       0.12693602 -0.07024883 0.34231585 -0.0539087
000280 b4 d8 52 3d e8 3b 02 be 9a a9 2c 3d 45 46 67 be
       0.051476195 -0.12718165 0.042153932 -0.225854
000290 bf 92 47 3e b8 2c f4 bc 06 c5 53 bd a7 25 5d 3d
       0.19489573 -0.02980648 -0.051701568 0.053990986
0002a0 64 46 62 3e 3e 22 26 be ab ab a6 3e c7 b8 eb 3d
       0.22097164 -0.16224 0.32552847 0.11509853
0002b0 18 00 e2 3b d7 a1 9d 3d e4 37 e6 bd f2 d9 92 bd
       0.006896984 0.07696884 -0.11241129 -0.07170476
0002c0 59 2b ff 3d 24 79 91 be 6e e6 0b 3e b8 89 e4 3d
       0.1245944 -0.28412735 0.1366212 0.1115908
0002d0 03 18 2f be 0b 94 0c be 76 47 7d bd 15 69 4c 3d
       -0.17099003 -0.13728349 -0.06183573 0.0499049
0002e0 24 01 66 3e 0b 78 84 bd 93 33 66 3c ac 88 cf bd
       0.22461373 -0.06468209 0.014050382 -0.1013349
0002f0 36 a4 24 3e 58 f9 7d 3c ac 07 59 be 9f f3 2e 3c
       0.16078267 0.015501343 -0.21194333 0.010678201
000300 9e c0 b5 bd b9 53 64 3d 50 bf ea bc dd af 9b 3e
       -0.088746294 0.055743907 -0.028655678 0.3040761
000310 0e e9 3d 3d bb cd 98 3d 16 1f 3b be 01 85 2c 3e
       0.046364836 0.07461115 -0.18273577 0.16847612
000320 dd 41 20 be 9e b8 f5 bd 79 1e 4c 3e 22 23 59 be
       -0.15650125 -0.119981036 0.199335 -0.21204808
000330 55 01 6d 3d 94 8c 33 be d3 2d e7 bc f7 b1 04 bb
       0.0578626 -0.17534095 -0.028220093 -0.0020247677
000340 d7 b3 13 bd bc a8 51 be 2b aa 16 3e 46 f2 30 3e
       -0.03606018 -0.20474523 0.14713351 0.1727992
000350 d7 f6 08 3e 8c d1 4e bd 09 25 36 3d a3 a6 77 bd
       0.13375412 -0.05049281 0.044468913 -0.06046165
000360 a5 92 a6 bd 54 71 60 3d 87 05 75 3e 3d b0 8a bc
       -0.08133439 0.054795578 0.2392789 -0.01692974
000370 0f c5 cb be 46 23 3b 3e 71 6d a6 3d 91 81 85 bd
       -0.3979878 0.18275174 0.08126343 -0.065188535
000380 c1 bb 0e 3e 4d 3c 36 3d 4f bc ce 3d 3f 40 09 3c
       0.1393881 0.0444911 0.10094511 0.008377134
000390 60 04 c0 3d 29 f2 8a 3d 33 12 85 3d dd a0 bf 3d
       0.093758345 0.0678447 0.06497612 0.09356854
0003a0 77 96 62 3d d7 e6 fd 3d ef 84 35 be 73 db 54 bd
       0.055319276 0.12397545 -0.17726491 -0.051967096
0003b0 38 cd 19 3e 70 b9 d0 bb eb a4 08 bb 3b a4 c7 bd
       0.15019691 -0.006369762 -0.0020850252 -0.09748121
0003c0 e5 13 6e 3e 12 25 b3 3d 58 cc e7 bd 47 f0 21 3c
       0.23249777 0.08747305 -0.11318272 0.009883947
0003d0 66 49 2e 3d be 8e bb be f3 83 71 be bf 86 a6 3b
       0.042550467 -0.3663234 -0.23585491 0.005081981
0003e0 91 44 11 be bd 09 9a 3d a0 9e 01 bc 52 14 c3 bb
       -0.14186312 0.07521389 -0.007911354 -0.00595335
0003f0 1c c8 9f bd c9 57 2b 3d c6 84 53 3e 98 53 19 3e
       -0.0780184 0.041831765 0.20656118 0.14973295

network_body._body_endoder.seq_layers.0.bias f4 [128]
000000 00 00 00 00 00 00 00 00 00 00 00 00 00 00 00 00
       0.0 0.0 0.0 0.0
000010 00 00 00 00 00 00 00 00 00 00 00 00 00 00 00 00
       0.0 0.0 0.0 0.0
000020 00 00 00 00 00 00 00 00 00 00 00 00 00 00 00 00
       0.0 0.0 0.0 0.0
000030 00 00 00 00 00 00 00 00 00 00 00 00 00 00 00 00
       0.0 0.0 0.0 0.0
000040 00 00 00 00 00 00 00 00 00 00 00 00 00 00 00 00
       0.0 0.0 0.0 0.0
000050 00 00 00 00 00 00 00 00 00 00 00 00 00 00 00 00
       0.0 0.0 0.0 0.0
000060 00 00 00 00 00 00 00 00 00 00 00 00 00 00 00 00
       0.0 0.0 0.0 0.0
000070 00 00 00 00 00 00 00 00 00 00 00 00 00 00 00 00
       0.0 0.0 0.0 0.0
000080 00 00 00 00 00 00 00 00 00 00 00 00 00 00 00 00
       0.0 0.0 0.0 0.0
000090 00 00 00 00 00 00 00 00 00 00 00 00 00 00 00 00
       0.0 0.0 0.0 0.0
0000a0 00 00 00 00 00 00 00 00 00 00 00 00 00 00 00 00
       0.0 0.0 0.0 0.0
0000b0 00 00 00 00 00 00 00 00 00 00 00 00 00 00 00 00
       0.0 0.0 0.0 0.0
0000c0 00 00 00 00 00 00 00 00 00 00 00 00 00 00 00 00
       0.0 0.0 0.0 0.0
0000d0 00 00 00 00 00 00 00 00 00 00 00 00 00 00 00 00
       0.0 0.0 0.0 0.0
0000e0 00 00 00 00 00 00 00 00 00 00 00 00 00 00 00 00
       0.0 0.0 0.0 0.0
0000f0 00 00 00 00 00 00 00 00 00 00 00 00 00 00 00 00
       0.0 0.0 0.0 0.0
000100 00 00 00 00 00 00 00 00 00 00 00 00 00 00 00 00
       0.0 0.0 0.0 0.0
000110 00 00 00 00 00 00 00 00 00 00 00 00 00 00 00 00
       0.0 0.0 0.0 0.0
000120 00 00 00 00 00 00 00 00 00 00 00 00 00 00 00 00
       0.0 0.0 0.0 0.0
000130 00 00 00 00 00 00 00 00 00 00 00 00 00 00 00 00
       0.0 0.0 0.0 0.0
000140 00 00 00 00 00 00 00 00 00 00 00 00 00 00 00 00
       0.0 0.0 0.0 0.0
000150 00 00 00 00 00 00 00 00 00 00 00 00 00 00 00 00
       0.0 0.0 0.0 0.0
000160 00 00 00 00 00 00 00 00 00 00 00 00 00 00 00 00
       0.0 0.0 0.0 0.0
000170 00 00 00 00 00 00 00 00 00 00 00 00 00 00 00 00
       0.0 0.0 0.0 0.0
000180 00 00 00 00 00 00 00 00 00 00 00 00 00 00 00 00
       0.0 0.0 0.0 0.0
000190 00 00 00 00 00 00 00 00 00 00 00 00 00 00 00 00
       0.0 0.0 0.0 0.0
0001a0 00 00 00 00 00 00 00 00 00 00 00 00 00 00 00 00
       0.0 0.0 0.0 0.0
0001b0 00 00 00 00 00 00 00 00 00 00 00 00 00 00 00 00
       0.0 0.0 0.0 0.0
0001c0 00 00 00 00 00 00 00 00 00 00 00 00 00 00 00 00
       0.0 0.0 0.0 0.0
0001d0 00 00 00 00 00 00 00 00 00 00 00 00 00 00 00 00
       0.0 0.0 0.0 0.0
0001e0 00 00 00 00 00 00 00 00 00 00 00 00 00 00 00 00
       0.0 0.0 0.0 0.0
0001f0 00 00 00 00 00 00 00 00 00 00 00 00 00 00 00 00
       0.0 0.0 0.0 0.0

network_body._body_endoder.seq_layers.2.weight f4 [128, 128]
000000 62 c8 3f 3e 4b b2 3e 3d c3 d3 a1 bd a1 26 8a 3c
       0.18728784 0.046556752 -0.079017185 0.016864123
000010 eb bb ff bc be b6 cb bd 5a 00 c6 bd 4a 86 ba bd
       -0.031217536 -0.09946965 -0.09668036 -0.09107645
000020 af 6c 8e bd 92 e2 6b 3d 04 9e 9e 3c b2 41 21 3e
       -0.069543235 0.05758912 0.019362457 0.15747717
000030 a4 6f 54 3d e6 79 c4 bd 49 01 c1 3b f3 09 60 3e
       0.05186428 -0.09593563 0.005890046 0.21878795
000040 45 e7 2c be e3 b2 b7 3c 87 1e 05 be 6c 39 02 3d
       -0.16885097 0.022424167 -0.12999927 0.031793043
000050 a2 68 42 3e aa a0 85 bd b2 ea be 3d dd 3f 9a 3d
       0.18985227 -0.06524785 0.09322108 0.07531712
000060 b0 d4 32 be 6e 54 d2 3d 6b b2 09 3e 20 a8 c2 3d
       -0.17463946 0.1027001 0.13446967 0.095047235
000070 8e 80 19 3b 3f c7 97 bd 44 6c 4f 3d 23 88 3f bd
       0.0023422572 -0.0741105 0.05064036 -0.04676069
000080 77 a7 be bd 70 0a ec bb 0a f8 99 bd b1 70 7e be
       -0.09309285 -0.0072033927 -0.07518013 -0.24847676
000090 80 20 e9 3d 5c a1 1e 3e 22 47 f9 bd a0 f8 26 be
       0.11383152 0.15491241 -0.12171771 -0.1630578
0000a0 b4 9d 20 be 84 7b 67 bc 3c 2a 49 bd c1 d0 a7 3c
       -0.15685159 -0.0141285695 -0.049112543 0.020485284
0000b0 92 5f 19 be 4d b0 ec bd 25 8f c4 3d 42 68 53 bd
       -0.14977863 -0.11557064 0.09597615 -0.0516131
0000c0 27 4c d3 bd 44 68 3d 3d c6 98 75 bd f9 ed 4a be
       -0.10317259 0.046242014 -0.05996015 -0.19817342
0000d0 b5 4a 09 be b7 17 b7 3d 9a c4 0d 3e 18 92 8a 3b
       -0.13407405 0.0894007 0.13844529 0.0042288415
0000e0 f4 cf 14 3e a1 f9 af 3d bd eb 01 bd 85 de 1e be
       0.14532453 0.08592535 -0.03171896 -0.15514572
0000f0 68 2e fb 3d 2c 2e 22 be 0e 0e cb 3d c7 83 f9 bd
       0.12264711 -0.15837926 0.0991479 -0.12183338
000100 04 ac 00 3c 60 ee 6e 3d 0b 4c b2 3d f3 1c 7a 3d
       0.007853512 0.0583328 0.0870591 0.061062764
000110 f2 21 b2 bd 38 70 47 be 80 8f a2 bd 8e fc 0e 3c
       -0.08697881 -0.19476402 -0.07937527 0.008727206
000120 3f e4 61 3d bc 44 ac 3d 78 4f 0c 3d 82 9b 37 bd
       0.055149313 0.084115475 0.034255475 -0.04482604
000130 ae ce 1d 3d 6f 4e 3d bd 2e f3 a9 3d 8c 12 37 be
       0.038527183 -0.04621738 0.08298336 -0.17878169
000140 fd 30 87 3d 05 17 93 3d 22 4f 50 bd b9 58 90 3d
       0.06601141 0.07182125 -0.050856717 0.070481725
000150 91 38 06 bc 67 54 8a 3d 06 4e 68 3d ab 00 b4 3d
       -0.008192197 0.0675438 0.056715034 0.0878919
000160 66 a6 f4 3d c2 bb 61 bd dc 73 44 3e 44 ae 84 bd
       0.119458005 -0.0551107 0.19184822 -0.06478551
000170 03 2c 47 3e 23 87 61 bd 23 a5 4f 3d d4 48 4c 3d
       0.19450383 -0.055060517 0.050694596 0.04987414
000180 52 d1 de 3d a0 e6 58 3c 75 b9 37 bc f3 10 53 bc
       0.108797684 0.013238579 -0.01121365 -0.012882459
000190 9a 6f 89 bd db d1 cb 3d 94 05 23 3e c8 a0 70 3d
       -0.067107394 0.09952136 0.15920097 0.058747083
0001a0 fe 64 3f be 40 8f a9 3d c6 9d 89 3d 68 79 b9 bd
       -0.18690869 0.08279276 0.06719546 -0.090563595
0001b0 59 24 0c 3c 6b 3e de bc 81 f0 ba 3d e5 88 8c bb
       0.008553588 -0.027129373 0.09127904 -0.00428878
0001c0 ca bb c1 3b 1c eb 7e be 05 a4 14 bd 52 c6 ac bd
       0.005912279 -0.24894375 -0.036289234 -0.08436264
0001d0 aa ac 19 3d fd ab 34 3c 3e c1 90 3d 73 3f a6 3d
       0.03751818 0.011027333 0.07068108 0.08117571
0001e0 dd 0a 1b bd aa 4b d8 3d 6e 5e 14 3d 6f e7 12 be
       -0.037852157 0.10561307 0.036222868 -0.14346097
0001f0 88 47 0b bc 5d 63 d7 bd e3 96 5a 3d 03 e0 09 3e
       -0.008500941 -0.10516999 0.053366553 0.1346436
000200 eb b3 fe 3c 5e fc 53 bd f7 1c 01 3e 46 b0 5a be
       0.031091651 -0.051754348 0.12608705 -0.21356305
000210 12 33 ef bb 73 67 54 bb 25 be 76 3d 17 ef 10 be
       -0.007299789 -0.0032410293 0.06023993 -0.14153706
000220 29 c7 86 bd 92 8f f8 3d 74 6d 9b bb a4 6c 16 3e
       -0.065809555 0.12136759 -0.0047432724 0.1468988
000230 3d de 82 3d 2f 5b 75 3d 73 11 b6 bc e2 82 e2 bb
       0.06390045 0.059901413 -0.022225117 -0.006912575
000240 b2 e8 2b 3d 6c 07 26 3e ea f5 74 bc da fc 30 be
       0.041969962 0.16213769 -0.014951209 -0.17283955
000250 8f a6 c2 bd 5f 72 e1 bb 88 37 f9 bd 61 7c 95 bc
       -0.09504425 -0.006880089 -0.12168795 -0.018247785
000260 32 85 77 bd c4 28 b9 bb b6 c7 a6 bd 7d 96 ab bd
       -0.06042976 -0.0056506116 -0.081435606 -0.08378313
000270 c0 cf ab 3d 41 a9 d4 bc a6 56 82 3c cd 4e d8 ba
       0.083892345 -0.025959613 0.015910458 -0.0016502977
000280 87 60 22 3c 6c b4 a4 3d 7c eb b9 bd c0 8e 1d be
       0.009910709 0.08042225 -0.09078118 -0.15386486
000290 e5 3e 0a bd dd 3d 18 3e d9 05 f1 3d 88 ae 7c bc
       -0.033751387 0.14867349 0.117686935 -0.015422471
0002a0 47 5e 07 be f1 6f 99 bb cf 6e 87 3d 34 bd cf 3d
       -0.13219558 -0.004682534 0.06612932 0.101435095
0002b0 90 40 2b be 71 df 54 bd 15 6c c8 3c 6f 48 91 bd
       -0.16723847 -0.051970903 0.0244656 -0.07093894
0002c0 8e 9b ed bc 2f bf bb bd af 4a 8c 3c ec f2 fa bc
       -0.029004838 -0.09167325 0.017125456 -0.030633412
0002d0 2d b9 fb 3d 67 91 53 bd 16 14 a3 bd 32 53 09 be
       0.12291179 -0.05165234 -0.079628155 -0.13410643
0002e0 bf c3 3a be 13 5d 0d 3d f6 4a 63 bd b4 d8 ed 3d
       -0.18238734 0.03451259 -0.05549141 0.116135985
0002f0 76 6a c1 bd 8e 71 23 3d 1a 22 1f 3e d8 05 8e 3d
       -0.09444134 0.039903216 0.15540352 0.06934708
000300 0a 67 1e 3e bf 85 3d bc 4b 0b 85 3d 1d d1 34 bd
       0.15468994 -0.011567532 0.064962946 -0.04414474
000310 71 5b 43 bd fa e9 01 be 90 13 f1 bd c6 39 0c 3e
       -0.047694627 -0.12686911 -0.117713094 0.13693914
000320 ae 02 37 bd b0 63 7d 3d 71 c6 0d be 84 99 a9 3d
       -0.04468029 0.061862648 -0.1384523 0.08281234
000330 9c 02 bd bd 81 25 37 3e d7 a4 b1 3d e6 7e 64 3c
       -0.09229013 0.178854 0.08674019 0.013946271
000340 95 2b 56 bc ea 1d d0 bd 7b 49 18 bd f9 02 32 3d
       -0.013071914 -0.10161956 -0.03717945 0.043459866
000350 4c 56 07 3d f2 59 d7 bb f3 63 97 ba 91 cf 1d be
       0.033041283 -0.0065720016 -0.0011550173 -0.15411212
000360 89 57 0b be a1 f8 eb 3c 88 cd 71 ba f3 e1 5d bc
       -0.13607611 0.028805079 -0.0009224047 -0.01354264
000370 70 59 aa 3d 3f 17 4b be d4 84 8c 3d 66 91 89 bd
       0.0831784 -0.19833086 0.068612725 -0.06717186
000380 87 0e 41 bc bb b9 25 3e c7 42 4d 3c 63 94 8d 3d
       -0.011783249 0.16184132 0.012528128 0.06913068
000390 e9 cd a2 bc 82 d9 14 bd 6a d1 1e bd d4 6f 71 be
       -0.019873576 -0.036340244 -0.03877393 -0.23577815
0003a0 df ca f2 bc 24 79 98 bc 7a 4e b1 3c 0b 22 27 3d
       -0.029637752 -0.018612452 0.021643866 0.04080395
0003b0 96 c2 a6 3d 24 06 48 3e f5 c3 67 be 7d 27 2c bd
       0.08142583 0.19533592 -0.22633345 -0.042029846
0003c0 61 d3 00 3e 4f 2b b2 bd 72 9c 0e bd f1 9e bc 3d
       0.12580635 -0.08699667 -0.034817167 0.09210003
0003d0 ac e1 58 bc 05 32 9e 3c 99 2d 3a 3e ae 03 f9 3d
       -0.013237398 0.01931096 0.18181457 0.12158905
0003e0 b3 c7 cd 3d e3 2a 2b 3e 8b 00 09 3e 45 a9 d2 bd
       0.10047855 0.16715579 0.13379113 -0.10286192
0003f0 de d0 a0 3d 97 03 f7 3d c6 5e 43 bc 8c 04 80 3d
       0.07852338 0.120612316 -0.011924451 0.06250867

network_body._body_endoder.seq_layers.2.bias f4 [128]
000000 00 00 00 00 00 00 00 00 00 00 00 00 00 00 00 00
       0.0 0.0 0.0 0.0
000010 00 00 00 00 00 00 00 00 00 00 00 00 00 00 00 00
       0.0 0.0 0.0 0.0
000020 00 00 00 00 00 00 00 00 00 00 00 00 00 00 00 00
       0.0 0.0 0.0 0.0
000030 00 00 00 00 00 00 00 00 00 00 00 00 00 00 00 00
       0.0 0.0 0.0 0.0
000040 00 00 00 00 00 00 00 00 00 00 00 00 00 00 00 00
       0.0 0.0 0.0 0.0
000050 00 00 00 00 00 00 00 00 00 00 00 00 00 00 00 00
       0.0 0.0 0.0 0.0
000060 00 00 00 00 00 00 00 00 00 00 00 00 00 00 00 00
       0.0 0.0 0.0 0.0
000070 00 00 00 00 00 00 00 00 00 00 00 00 00 00 00 00
       0.0 0.0 0.0 0.0
000080 00 00 00 00 00 00 00 00 00 00 00 00 00 00 00 00
       0.0 0.0 0.0 0.0
000090 00 00 00 00 00 00 00 00 00 00 00 00 00 00 00 00
       0.0 0.0 0.0 0.0
0000a0 00 00 00 00 00 00 00 00 00 00 00 00 00 00 00 00
       0.0 0.0 0.0 0.0
0000b0 00 00 00 00 00 00 00 00 00 00 00 00 00 00 00 00
       0.0 0.0 0.0 0.0
0000c0 00 00 00 00 00 00 00 00 00 00 00 00 00 00 00 00
       0.0 0.0 0.0 0.0
0000d0 00 00 00 00 00 00 00 00 00 00 00 00 00 00 00 00
       0.0 0.0 0.0 0.0
0000e0 00 00 00 00 00 00 00 00 00 00 00 00 00 00 00 00
       0.0 0.0 0.0 0.0
0000f0 00 00 00 00 00 00 00 00 00 00 00 00 00 00 00 00
       0.0 0.0 0.0 0.0
000100 00 00 00 00 00 00 00 00 00 00 00 00 00 00 00 00
       0.0 0.0 0.0 0.0
000110 00 00 00 00 00 00 00 00 00 00 00 00 00 00 00 00
       0.0 0.0 0.0 0.0
000120 00 00 00 00 00 00 00 00 00 00 00 00 00 00 00 00
       0.0 0.0 0.0 0.0
000130 00 00 00 00 00 00 00 00 00 00 00 00 00 00 00 00
       0.0 0.0 0.0 0.0
000140 00 00 00 00 00 00 00 00 00 00 00 00 00 00 00 00
       0.0 0.0 0.0 0.0
000150 00 00 00 00 00 00 00 00 00 00 00 00 00 00 00 00
       0.0 0.0 0.0 0.0
000160 00 00 00 00 00 00 00 00 00 00 00 00 00 00 00 00
       0.0 0.0 0.0 0.0
000170 00 00 00 00 00 00 00 00 00 00 00 00 00 00 00 00
       0.0 0.0 0.0 0.0
000180 00 00 00 00 00 00 00 00 00 00 00 00 00 00 00 00
       0.0 0.0 0.0 0.0
000190 00 00 00 00 00 00 00 00 00 00 00 00 00 00 00 00
       0.0 0.0 0.0 0.0
0001a0 00 00 00 00 00 00 00 00 00 00 00 00 00 00 00 00
       0.0 0.0 0.0 0.0
0001b0 00 00 00 00 00 00 00 00 00 00 00 00 00 00 00 00
       0.0 0.0 0.0 0.0
0001c0 00 00 00 00 00 00 00 00 00 00 00 00 00 00 00 00
       0.0 0.0 0.0 0.0
0001d0 00 00 00 00 00 00 00 00 00 00 00 00 00 00 00 00
       0.0 0.0 0.0 0.0
0001e0 00 00 00 00 00 00 00 00 00 00 00 00 00 00 00 00
       0.0 0.0 0.0 0.0
0001f0 00 00 00 00 00 00 00 00 00 00 00 00 00 00 00 00
       0.0 0.0 0.0 0.0

action_model._continuous_distribution.log_sigma f4 [1, 2]
000000 00 00 00 00 00 00 00 00
       0.0 0.0

action_model._continuous_distribution.mu.weight f4 [2, 128]
000000 38 a5 9f bb 3a 35 6f 3b 00 2e 0b 3d 0d a1 df bb
       -0.0048719905 0.0036500231 0.033979416 -0.0068246187
000010 ae 66 b4 bc b9 5f a9 bc 76 8f 94 3b 20 57 61 bc
       -0.022021618 -0.020675527 0.0045337034 -0.013753682
000020 bb e0 fc bb 09 f4 80 bc 3d 01 de 3c 51 17 ba 3b
       -0.0077172196 -0.015741365 0.0271002 0.005679049
000030 6e f8 97 bc ef 75 bc bc c6 1b be bc 0e b1 06 bc
       -0.018551078 -0.023005454 -0.023206603 -0.008220924
000040 d7 ee 0b 3d d5 98 de 3c fa 24 7a bc e5 3a 7d 39
       0.034163322 0.027172485 -0.015267605 0.000241499
000050 9f 1d 11 bd 51 45 c7 3c 5e a9 23 3c ab e8 a7 3c
       -0.03542864 0.024325045 0.009989111 0.020496687
000060 a2 d9 8f 3c f7 5a 19 bd 72 1a 56 bc bb 54 16 3c
       0.01755983 -0.037440266 -0.0130678285 0.009175475
000070 1d af 8c ba 2b 05 a2 3c b7 ff 20 3c 91 3b 88 bb
       -0.001073334 0.019777855 0.009826592 -0.0041574915
000080 53 56 d6 3b 1b a5 87 3c 1f f6 80 3c 22 10 1b bc
       0.0065410524 0.01655822 0.01574236 -0.009464296
000090 90 cd e4 bb f2 2d 7f bc 7c 75 8a bc cc 2d 9d bc
       -0.006982513 -0.015574919 -0.016901724 -0.019186877
0000a0 98 55 da bc ad 68 5b bc 35 22 81 bc 7e 75 30 bd
       -0.026652142 -0.013391656 -0.015763381 -0.0430808
0000b0 53 9c 93 3c 73 8d 9d 3c 53 be 47 bc 29 51 82 3c
       0.018018877 0.019232487 -0.012191373 0.01590784
0000c0 7e 61 21 3c c9 d0 96 bb a2 b3 71 bb 26 1d 39 3c
       0.009849904 -0.004602526 -0.003688075 0.011298453
0000d0 14 a5 9a 3c f2 34 3f bc 90 1e c8 3b 40 6f c4 3c
       0.018877544 -0.011670338 0.006107159 0.02397883
0000e0 b3 34 07 3b 72 34 65 bd 93 b9 61 3b 9f 08 85 3c
       0.0020630776 -0.05595822 0.0034442886 0.016239462
0000f0 83 53 f5 3b 2f a4 11 bd 26 cd 33 3b 6c 57 08 bd
       0.007486762 -0.03555697 0.002743551 -0.033286497
000100 0b 5b 1a bc 0b ea 5f bc 47 aa 2f bb 8e 79 86 bc
       -0.00942112 -0.01366664 -0.0026804374 -0.016415384
000110 37 68 71 3c d3 38 2f bc 40 ac 0d bb 73 16 10 bd
       0.014734319 -0.0106947 -0.0021617562 -0.03517766
000120 a5 23 07 3d 9d 06 42 3b d2 d7 80 bc 6b 4c cb 3c
       0.032992978 0.0029605993 -0.015727911 0.024816712
000130 27 e6 3f bc 67 a8 16 bb 65 c9 34 3d c3 c7 02 3d
       -0.011712587 -0.002298856 0.044137377 0.03192879
000140 8d 63 10 3c c6 11 1e bc e7 b4 25 3c 93 5f cc bc
       0.008812797 -0.009647792 0.010113931 -0.024947917
000150 67 18 df bc e7 2a 14 3c 1a 8c 24 ba a3 9c c6 b9
       -0.027233316 0.009043432 -0.000627698 -0.00037882206
000160 6c 9f 2b bb a7 10 68 bb cf e5 26 3d 74 81 14 3d
       -0.0026187552 -0.0035410316 0.040746506 0.03625627
000170 ef 80 22 3c aa 14 88 bc 2e ec c3 3c f0 56 da bb
       0.0099184355 -0.016611416 0.02391633 -0.006663196
000180 e0 a5 8d bc 55 70 09 bb 95 d4 84 38 4b 61 4f 3c
       -0.01729101 -0.0020971496 6.333847e-05 0.012657474
000190 83 ea aa bc 50 53 37 3c 73 f0 ed bc d3 d2 c8 3c
       -0.020863777 0.011189297 -0.02904532 0.024514591
0001a0 37 b8 3f 3b 28 94 7a 3c 51 bd 49 3d 9d d2 9f bb
       0.0029254088 0.015294112 0.04925281 -0.004877402
0001b0 b3 9d 1b 3c 4d 24 fd bb 55 7e 41 3c bf cb 6e 3c
       0.009498048 -0.0077252747 0.011809905 0.014574944
0001c0 b7 c3 78 3c 1f c2 2b ba 75 43 f9 bb 12 75 5e 3c
       0.015183381 -0.00065520586 -0.0076069185 0.013577716
0001d0 25 0c 58 bc 5f d9 e8 bc 68 e1 3a bc cb 18 0d bc
       -0.013186489 -0.028423963 -0.01140628 -0.008611868
0001e0 d4 fa 31 3c e9 c6 35 bb 58 a0 8f bb 97 d4 31 bc
       0.010863025 -0.0027736968 -0.004383128 -0.010853908
0001f0 e0 ac 19 3c 63 f9 78 3c ab b4 00 3d ef b4 ea bb
       0.0093795955 0.015196177 0.0314223 -0.0071626822
000200 8d 78 6a bc 6c 2c 2d bb 0a e7 40 3c b5 30 08 bc
       -0.014310968 -0.0026424183 0.011773834 -0.008312394
000210 ea 9c 55 ba 05 cd 01 bc d8 35 d2 3c 27 20 73 bc
       -0.0008148687 -0.007922416 0.02566044 -0.014839209
000220 0f 56 43 3b 8a 54 55 bc 9d e6 4f bc af 99 1d bb
       0.0029805934 -0.013020644 -0.01268926 -0.0024047901
000230 07 ce d1 bb 20 74 5c bc 2b 40 e0 3c 7b e3 04 3c
       -0.006402734 -0.013455421 0.027374348 0.008110876
000240 0c 58 27 3c 9f 6f 60 bc 93 d2 01 bc 56 73 bf 3c
       0.010213863 -0.013698488 -0.00792374 0.023370426
000250 18 41 b3 3b 87 46 f0 bb 5a a4 0e 3c 93 be d0 bc
       0.0054704063 -0.0073326263 0.008706177 -0.025481498
000260 7e 68 88 3c dd 34 06 3d fd 82 3d bd 0d 4e 1c 3c
       0.016651388 0.032765258 -0.0462675 0.009540093
000270 5c 9e 12 ba cd 74 f4 bc 3b 6b 37 bc 78 40 a5 3c
       -0.00055930554 -0.029840851 -0.011194999 0.020172343
000280 f0 9a d5 bc 83 3e a3 3b 65 e3 e3 bc d7 df 77 3b
       -0.026074857 0.004981817 -0.027818391 0.0037822628
000290 f9 dd 13 3c 03 fb d4 3a 53 9c df bb d6 78 8d bc
       0.00902509 0.0016249124 -0.006824055 -0.017269533
0002a0 8f 1c c9 bb dd 44 51 3c d9 f6 19 bc 7f d9 ec bc
       -0.0061374377 0.012772766 -0.009397232 -0.028912304
0002b0 b5 99 07 3d 25 88 f7 bc 1e 03 38 bc b2 78 c1 3b
       0.03310557 -0.030216286 -0.011231212 0.0059042806
0002c0 2d 3b b5 bb 9a 1f ce 3c b7 7c 1f 3c 2f a5 23 bd
       -0.005530736 0.025161553 0.009734324 -0.039952453
0002d0 33 91 fb bb b7 8d c0 bc 70 b4 6f 39 a7 94 91 bc
       -0.007677221 -0.023505075 0.00022860034 -0.017771078
0002e0 29 77 46 bc 42 51 d1 36 aa e0 e4 3b 63 c6 be bb
       -0.012113371 6.238145e-06 0.00698479 -0.0058219894
0002f0 fb eb 69 3c d5 6a a4 3c 57 d9 0c 3d 1f 2c ad 3b
       0.0142774535 0.020070473 0.03438696 0.0052848007
000300 1b b1 f9 bc 32 1b b2 bc 5d 77 07 bd e8 8e 20 3d
       -0.030479958 -0.021741483 -0.033072818 0.039198786
000310 96 e6 01 bc 85 9a 54 bb 12 13 9b 3b ed 5d 55 bb
       -0.007928511 -0.0032440734 0.004732498 -0.0032557205
000320 e4 45 07 bd 32 56 7b bc d0 c1 92 ba 4d c9 c4 bc
       -0.033025637 -0.015340375 -0.0011196677 -0.024021769
000330 61 db 83 bb 97 7a 3b 3c f7 b5 e7 3b 42 c3 6c 3c
       -0.0040239547 0.011442802 0.0070712524 0.01445085
000340 93 db 23 bc 2d 94 65 3c 8d 13 a0 3c 8c e1 c6 3c
       -0.010001081 0.014012379 0.019540573 0.024277471
000350 3a dc f8 bb a7 d3 88 3b 5f 96 f4 39 62 25 ee 3a
       -0.0075946124 0.0041756216 0.00046651342 0.00181691
000360 48 32 a1 bc 2b fb e5 3b 4f de 01 3d 53 59 3b bd
       -0.019677296 0.007018467 0.03170615 -0.045739483
000370 7f b2 16 3d 03 53 90 bc d8 7d e9 bb 77 78 fa 3c
       0.03679132 -0.017617708 -0.0071255974 0.03057502
000380 6f 3f 53 3b 62 83 27 3c 7c b1 12 bc bb 98 30 3d
       0.0032233854 0.010224195 -0.008953448 0.043114405
000390 2b 9b 23 3c 4f 79 3f 3c a3 cc 02 bc 8b 3b c3 bb
       0.009985725 0.011686637 -0.0079833595 -0.005958026
0003a0 e5 6d 87 3a 71 af 46 3c c0 51 51 3c 65 a3 77 ba
       0.0010332434 0.012126789 0.012775838 -0.000944665
0003b0 66 21 0a 3c 6b e0 a4 3c 40 94 67 bb 33 3b db 3b
       0.008430814 0.020126542 -0.0035336167 0.0066904067
0003c0 a0 d2 07 3c b5 63 26 bd 5f a0 c8 ba c6 1b 18 ba
       0.008289963 -0.04062243 -0.0015306583 -0.00058024784
0003d0 a9 75 0f bc a3 27 17 3c d2 d9 f3 3a cf 26 a1 bc
       -0.00875608 0.009225759 0.0018604344 -0.019671826
0003e0 b8 25 53 bc ae 34 30 bd 29 36 03 3c 38 7f 4f bc
       -0.012887411 -0.04301899 0.008008518 -0.012664609
0003f0 8c eb c9 3c d1 5a ae bb ca 36 ea bb 2b db e2 3b
       0.02464845 -0.0053208848 -0.0071476446 0.0069230995

action_model._continuous_distribution.mu.bias f4 [2]
000000 00 00 00 00 00 00 00 00
       0.0 0.0

network_body._body_endoder.seq_layers.0.weight f4 [128, 41]
000000 f6 3b 7c 3e 8b 23 c2 3d 8b 87 5f 3e ab 2e 1d be
       0.24632248 0.094794355 0.2182905 -0.15349834
000010 78 30 57 3d ad 29 d0 3e 89 f5 20 be 16 72 ed 3d
       0.052536458 0.40656796 -0.15718664 0.11594026
000020 8b 3f 92 3c 49 f6 f3 be 75 c1 f2 3d 7e 68 21 3d
       0.017852565 -0.47648838 0.11853305 0.039406292
000030 0e 74 7b 3d 79 da e3 3c 0e 76 02 3e 1a 7d e9 bd
       0.061389975 0.027814137 0.12740347 -0.11400814
000040 53 fc 4c 3b 6c 92 c7 bd 0d 65 cb bb 5a fc 3d bd
       0.0031278327 -0.09744725 -0.0062071146 -0.04638324
000050 bd cc fd bd 9d e2 8d 3b 6c b7 99 3c ad d5 81 3d
       -0.12392566 0.004329993 0.01876422 0.063395835
000060 d6 2f b8 3e 96 29 f2 3d 11 88 f7 3c f9 0c 0b 3e
       0.35973996 0.11824338 0.030216249 0.13579167
000070 3e 83 45 3e de 36 c7 bd c4 21 e3 3d 67 44 79 bd
       0.19288346 -0.09727262 0.11090425 -0.06085625
000080 68 dd 63 be 65 42 87 3e bb 0d 79 3e 7f 36 84 3e
       -0.22252429 0.26417843 0.24321644 0.25822827
000090 23 1f a1 3d e5 86 21 be e7 45 09 3e ae ba 50 be
       0.07867267 -0.15774114 0.13405572 -0.20383713
0000a0 b6 df 84 3d a5 64 0f 3e 00 1c 91 be 7d 70 51 be
       0.06487982 0.14003237 -0.28341675 -0.20453067
0000b0 a8 6a 0a 3e 66 22 8b be 0c a3 c5 ba bb 5b 48 be
       0.13517249 -0.2717468 -0.0015078499 -0.19566242
0000c0 6f a1 eb bd ba 3f 4f 3e 0f e2 4e 3e a6 d7 57 3e
       -0.115054004 0.20239154 0.20203422 0.21078357
0000d0 a0 78 54 bb 15 be b3 3e bb f8 02 be 10 3f 45 3d
       -0.003242053 0.3510596 -0.12790196 0.048155844
0000e0 a3 3c 4f bc a9 cd 00 bd 20 61 9f bd 5f 28 5d bc
       -0.012648734 -0.031446133 -0.07782197 -0.013498395
0000f0 6f 0b 07 bd 56 53 38 3d 4c 69 6a be 41 3f 9e be
       -0.03296989 0.04500135 -0.2289173 -0.30907634
000100 71 87 45 be 6c 48 67 3d ae 93 06 3c 06 95 4e 3e
       -0.19289948 0.05646555 0.0082139205 0.20174035
000110 e5 83 a8 3d 15 5f 36 be ac 4d 28 3d 6b a8 2d be
       0.08228282 -0.17809708 0.0410897 -0.16958778
000120 ae 68 51 be 06 18 38 3e a5 9b 94 3c 12 63 07 be
       -0.20450088 0.17977914 0.018140623 -0.13221386
000130 70 2a c1 be 14 fe bb 3d f6 6a b1 3d 0d 47 a7 3c
       -0.3772769 0.09179321 0.08662979 0.020419622
000140 d1 46 5c 3e d6 5c 8b be 71 39 9f 3e 8d d6 22 bd
       0.2151139 -0.27219266 0.31098512 -0.039755393
000150 9b 8e 33 bb 11 ba b5 bd 88 33 42 3d 02 23 62 bc
       -0.0027398232 -0.0887338 0.047412425 -0.013802292
000160 dc d0 8e bd f0 6b 3a 3e f8 dc f9 bd 00 b2 41 3c
       -0.069734305 0.18205237 -0.122003496 0.011822224
000170 86 0d e0 bc 40 55 0b 3e 57 8a b0 bd 98 b2 3c be
       -0.027350198 0.13606739 -0.08620136 -0.18427503
000180 4f 5b 37 3e 05 24 8e 3a 39 9d d7 bc d0 99 69 bc
       0.17905925 0.0010844475 -0.026320087 -0.014257863
000190 cf 60 ff bd cc d7 b8 3c d1 13 53 3d 4a d7 55 3c
       -0.12469637 0.022563837 0.05153257 0.013051817
0001a0 d5 fc 3b bd db 2b e6 bd ce 39 27 be 28 d1 bc 3d
       -0.045895416 -0.112388335 -0.16330644 0.09219581
0001b0 ef db 94 bb e2 73 dd 3c 06 dc fa bd 03 4a 99 bd
       -0.0045428197 0.027032796 -0.122489974 -0.0748482
0001c0 b7 a3 c8 3d 54 75 ca 3d d7 17 d4 3e f1 93 9d be
       0.09796851 0.0988566 0.41424438 -0.30776933
0001d0 c2 ff 96 38 d2 7a 11 be 82 5e 99 3e 50 c7 9c be
       7.200196e-05 -0.14207008 0.29954916 -0.30620813
0001e0 81 ee 92 be 2e e8 64 bd 4e 00 fc 3d b5 22 ef bd
       -0.2869759 -0.055885486 0.123047456 -0.11676542
0001f0 14 90 a6 3e fa 9b a5 bd 3a 69 bd be ac 4d 3f 3d
       0.32531798 -0.08086391 -0.36994344 0.046704933
000200 cb 99 81 bc b0 13 d0 bc 87 79 f2 3d 0f 53 cd 3d
       -0.015820405 -0.025400013 0.11839586 0.10025608
000210 9a 88 71 3e 89 9a 3b be f9 dc 5b 3e 9b 45 4c 3d
       0.23587266 -0.18320669 0.21471013 0.04987107
000220 8a 70 5e bd 61 53 6f 3e a6 8c d4 3c 0f 2c c3 3d
       -0.054306544 0.2337165 0.025945973 0.09529888
000230 40 80 c9 bd 90 01 89 3e 76 8f 7c bd 15 87 a9 bd
       -0.09838915 0.26759005 -0.061660253 -0.08277718
000240 b0 04 0d be bd 63 87 3e 21 aa e4 bc 85 00 74 be
       -0.1377132 0.26443282 -0.027913155 -0.23828323
000250 44 4a 1d 3d a9 16 54 be 80 4f ff 3d 47 e5 0a be
       0.038400903 -0.20711769 0.12466335 -0.13564025
000260 48 7b 39 be d9 2a cb bc cc fe 6f 3e 51 7d 78 be
       -0.18113434 -0.024800705 0.23437041 -0.24266554
000270 83 66 2b bd 28 dd 95 bd 6d 2d 56 bd 2a 12 1e be
       -0.04184581 -0.07317573 -0.052289415 -0.15436617
000280 dc 7d 4c 3d 7f fe e4 3c 31 4d 66 bb 86 fe ac bd
       0.049924716 0.027953384 -0.0035141225 -0.08446984
000290 45 89 ef bd 5f ab 3c bc 4c 79 97 be 2e 2c 9a bd
       -0.11696104 -0.011515467 -0.2958473 -0.07527958
0002a0 f2 77 54 be 0f 61 08 be d7 4c a4 bc 0a 3d 24 b9
       -0.2074888 -0.13318275 -0.020056171 -0.00015662998
0002b0 e7 3f 78 3e 3b 13 cc bc 6d 66 cf bd 42 e5 b0 bd
       0.24243127 -0.024911514 -0.10126958 -0.086374775
0002c0 df 7c 71 bb 00 d9 d1 3d 54 6a fd 3d 05 f8 42 bd
       -0.003684811 0.102464676 0.12373796 -0.04759981
0002d0 7b b7 3f 3e fd 1d a1 3e 30 2d 75 bd 47 76 9b be
       0.18722336 0.31468192 -0.059857547 -0.30363676
0002e0 92 23 e4 3d 0a 8d bd 3d 8a e4 f2 bd 2b d3 94 3e
       0.11139597 0.09255417 -0.118599966 0.29067358
0002f0 eb 0f 61 bd 24 e8 8b bd 82 9d 20 be 6a 89 a7 bd
       -0.05494682 -0.06831387 -0.15685084 -0.081805065
000300 2e b6 35 be 84 74 81 3e 2f 74 37 3d 02 3c 79 3e
       -0.17745277 0.25284207 0.044788536 0.24339297
000310 44 63 78 be 6b 88 ef 3d 00 11 3c 3d 7d 32 26 be
       -0.24256617 0.116959415 0.04591465 -0.16230197
000320 f7 9d 93 3e 47 9f 84 be fa 2c 43 be 5f 8e ad 3d
       0.28831455 -0.2590277 -0.19060126 0.08474421
000330 5b 09 b3 be 39 f5 81 3e ea 02 5f 3e 9d 1d 49 bd
       -0.34968075 0.25382403 0.21778455 -0.049100507
000340 45 99 63 3d 4f 20 50 bd b7 a3 88 bd 12 89 2d be
       0.05556609 -0.050812062 -0.06671851 -0.1694682
000350 3e 59 06 be b8 ba 17 3e 00 88 fd 3d 47 41 78 be
       -0.1311998 0.14817321 0.123794556 -0.24243651
000360 c6 0d 97 bd c7 87 81 be 1e e6 58 3d 29 73 0e be
       -0.07375674 -0.25298902 0.05295383 -0.13911118
000370 8c aa ae be 4c 5a 63 be 43 1b aa bd 5d c8 8c 3d
       -0.34114492 -0.22202414 -0.08305981 0.06874154
000380 fa d3 2b bd 43 36 93 bd 78 3b fc 3c 1c 48 48 be
       -0.041950203 -0.07188084 0.030790076 -0.19558758
000390 64 9c 59 be e9 8a ee 3c fb ef 58 3c 84 82 1d 3d
       -0.21251065 0.029118972 0.01324081 0.038454548
0003a0 02 df ad 3d 96 be b7 3d 5c 86 b7 bc d3 80 58 be
       0.08489801 0.08971898 -0.022402935 -0.21142893
0003b0 db d4 e0 bd 48 6e 17 3e 76 6a 07 be 59 83 2c 3d
       -0.10978099 0.14788163 -0.13224205 0.04211745
0003c0 ea ed 3c 3e 37 ec 12 be db 30 62 3c ac 8f 3b be
       0.18450132 -0.14347921 0.013805593 -0.18316525
0003d0 14 43 e1 bd 8a 6a 30 3e 49 67 49 be 2f 31 0b 3e
       -0.10999122 0.17228141 -0.19668306 0.13592981
0003e0 d5 af b5 ba b8 c3 3f bd 7c 30 19 3d cd 80 29 3d
       -0.0013861606 -0.04681751 0.037399754 0.0413826
0003f0 e5 cd 35 be 7d 7f 00 3e ae 79 0f 3d 4c cb 01 be
       -0.17754324 0.12548633 0.035028152 -0.12675208

network_body._body_endoder.seq_layers.0.bias f4 [128]
000000 00 00 00 00 00 00 00 00 00 00 00 00 00 00 00 00
       0.0 0.0 0.0 0.0
000010 00 00 00 00 00 00 00 00 00 00 00 00 00 00 00 00
       0.0 0.0 0.0 0.0
000020 00 00 00 00 00 00 00 00 00 00 00 00 00 00 00 00
       0.0 0.0 0.0 0.0
000030 00 00 00 00 00 00 00 00 00 00 00 00 00 00 00 00
       0.0 0.0 0.0 0.0
000040 00 00 00 00 00 00 00 00 00 00 00 00 00 00 00 00
       0.0 0.0 0.0 0.0
000050 00 00 00 00 00 00 00 00 00 00 00 00 00 00 00 00
       0.0 0.0 0.0 0.0
000060 00 00 00 00 00 00 00 00 00 00 00 00 00 00 00 00
       0.0 0.0 0.0 0.0
000070 00 00 00 00 00 00 00 00 00 00 00 00 00 00 00 00
       0.0 0.0 0.0 0.0
000080 00 00 00 00 00 00 00 00 00 00 00 00 00 00 00 00
       0.0 0.0 0.0 0.0
000090 00 00 00 00 00 00 00 00 00 00 00 00 00 00 00 00
       0.0 0.0 0.0 0.0
0000a0 00 00 00 00 00 00 00 00 00 00 00 00 00 00 00 00
       0.0 0.0 0.0 0.0
0000b0 00 00 00 00 00 00 00 00 00 00 00 00 00 00 00 00
       0.0 0.0 0.0 0.0
0000c0 00 00 00 00 00 00 00 00 00 00 00 00 00 00 00 00
       0.0 0.0 0.0 0.0
0000d0 00 00 00 00 00 00 00 00 00 00 00 00 00 00 00 00
       0.0 0.0 0.0 0.0
0000e0 00 00 00 00 00 00 00 00 00 00 00 00 00 00 00 00
       0.0 0.0 0.0 0.0
0000f0 00 00 00 00 00 00 00 00 00 00 00 00 00 00 00 00
       0.0 0.0 0.0 0.0
000100 00 00 00 00 00 00 00 00 00 00 00 00 00 00 00 00
       0.0 0.0 0.0 0.0
000110 00 00 00 00 00 00 00 00 00 00 00 00 00 00 00 00
       0.0 0.0 0.0 0.0
000120 00 00 00 00 00 00 00 00 00 00 00 00 00 00 00 00
       0.0 0.0 0.0 0.0
000130 00 00 00 00 00 00 00 00 00 00 00 00 00 00 00 00
       0.0 0.0 0.0 0.0
000140 00 00 00 00 00 00 00 00 00 00 00 00 00 00 00 00
       0.0 0.0 0.0 0.0
000150 00 00 00 00 00 00 00 00 00 00 00 00 00 00 00 00
       0.0 0.0 0.0 0.0
000160 00 00 00 00 00 00 00 00 00 00 00 00 00 00 00 00
       0.0 0.0 0.0 0.0
000170 00 00 00 00 00 00 00 00 00 00 00 00 00 00 00 00
       0.0 0.0 0.0 0.0
000180 00 00 00 00 00 00 00 00 00 00 00 00 00 00 00 00
       0.0 0.0 0.0 0.0
000190 00 00 00 00 00 00 00 00 00 00 00 00 00 00 00 00
       0.0 0.0 0.0 0.0
0001a0 00 00 00 00 00 00 00 00 00 00 00 00 00 00 00 00
       0.0 0.0 0.0 0.0
0001b0 00 00 00 00 00 00 00 00 00 00 00 00 00 00 00 00
       0.0 0.0 0.0 0.0
0001c0 00 00 00 00 00 00 00 00 00 00 00 00 00 00 00 00
       0.0 0.0 0.0 0.0
0001d0 00 00 00 00 00 00 00 00 00 00 00 00 00 00 00 00
       0.0 0.0 0.0 0.0
0001e0 00 00 00 00 00 00 00 00 00 00 00 00 00 00 00 00
       0.0 0.0 0.0 0.0
0001f0 00 00 00 00 00 00 00 00 00 00 00 00 00 00 00 00
       0.0 0.0 0.0 0.0

network_body._body_endoder.seq_layers.2.weight f4 [128, 128]
000000 01 07 9a bd 4f e7 1a bd bc 80 9a 3d f8 03 96 3b
       -0.07520867 -0.03781825 0.075440854 0.00457811
000010 13 c2 ce 3d de fe f1 bd ea 2d 88 3d c6 9b 94 3d
       0.100956105 -0.1181619 0.066493824 0.07256274
000020 b5 7d 90 bd 46 03 8a bb a1 d2 a8 3d dc 0c 8c 3c
       -0.07055227 -0.004211816 0.08243299 0.017095976
000030 80 74 6d be 4e 53 d7 3d 65 ae 0e be 94 51 27 be
       -0.23188972 0.10513936 -0.13933714 -0.16339713
000040 ab 2e 4a be b0 b3 00 3e 69 a0 96 3d a5 90 88 bd
       -0.19744365 0.12568545 0.073548146 -0.06668214
000050 1e 7b 83 bd ef 82 dc bd f1 a3 01 bd d3 c2 1a 3d
       -0.06419967 -0.10767161 -0.031650487 0.037783455
000060 0d 40 3e bc 71 ba c2 3c 24 96 8d 3b 32 45 00 be
       -0.011611951 0.023770543 0.0043208767 -0.12526396
000070 6b ba 50 bd 6c 1f 5c bd e5 1a b2 3c 0e 2b 2a be
       -0.050959032 -0.053740904 0.02174134 -0.16617987
000080 9e 01 a3 bd 29 63 90 bd c6 29 98 bd 4f dd fd bc
       -0.07959293 -0.07050163 -0.07429843 -0.030989317
000090 41 03 35 bd ae 6d e0 bc a7 31 01 3e d4 e2 e6 3d
       -0.044192556 -0.02739605 0.12616597 0.11273733
0000a0 86 5d 90 bd 68 f1 ce 3d cd 1e ec 3d 4f 6d ca 3c
       -0.07049088 0.10104638 0.11529312 0.024710326
0000b0 e7 8e 05 3e 63 69 b2 bb eb f4 b9 bd cb 3a 80 3d
       0.13042794 -0.005444692 -0.090799175 0.06261214
0000c0 ce 7f 5f 3d 04 59 81 3e ba fc bf bd f5 76 00 bc
       0.054565243 0.25263226 -0.09374376 -0.007840862
0000d0 36 9a 11 3b 82 5e 57 bc 9a c2 a2 bd 63 96 89 bd
       0.002221716 -0.013145091 -0.079472736 -0.06718137
0000e0 bb 9d 84 3d b7 6e 05 3d cb 56 2b 3d 53 8b a5 bd
       0.06475397 0.03257629 0.04183082 -0.080832146
0000f0 8d bf 4f 3d da 4a 40 bd d0 24 ca bd 83 83 ad 3c
       0.050719786 -0.046946384 -0.09870303 0.021180874
000100 c8 a0 02 bd d8 4d 86 bd a1 2e 82 3c d1 7b 02 3e
       -0.031891614 -0.06557816 0.015891375 0.12742545
000110 90 d1 a3 3d d1 d4 1a be 4e 33 a1 bc 1f 05 71 bc
       0.07998955 -0.15120246 -0.019677784 -0.014710694
000120 d6 31 62 be bf 1a 35 3b a5 e0 8b bd c0 8e ec 3d
       -0.22089323 0.002763435 -0.06829957 0.11550665
000130 94 af a0 bc 0b 6a aa 3d 31 9a 1d be e3 9d 3d 3d
       -0.019614972 0.08321007 -0.1539085 0.04629315
000140 f7 63 c2 bb e6 82 b5 bd 67 36 2a 3c 5e f5 14 be
       -0.005932327 -0.088628575 0.010388947 -0.14546725
000150 fa c2 7b bb 59 6b bc bd e0 37 17 bd 74 87 36 be
       -0.0038415776 -0.092001624 -0.03691852 -0.17825109
000160 69 2c 11 be f8 5d 34 bd b0 70 99 bd 1e b8 62 bd
       -0.14177097 -0.044034928 -0.074921966 -0.05535137
000170 67 63 c5 38 68 0a f4 3d 8c ad ed bd 6d ce a8 3c
       9.412207e-05 0.11916047 -0.11605367 0.020606244
000180 37 de 02 3d 08 e2 28 3e d8 61 6a 3d f1 6d 4f bc
       0.0319502 0.16492474 0.057222217 -0.012660489
000190 db a0 0f be b3 90 f6 bd bd 42 10 3e 72 d1 0a be
       -0.14026205 -0.12039318 0.14087959 -0.1355646
0001a0 2c fd d2 bc b2 58 fc 3d f3 37 4c 3e 5b 75 36 bd
       -0.025755487 0.12321605 0.19943218 -0.044545513
0001b0 42 3b ae 3b 2d 66 2d bd da 44 a7 3d 98 9d b1 3d
       0.0053171227 -0.04233377 0.08167429 0.08672637
0001c0 55 79 57 bd c8 d9 95 3d 61 16 8a 3d b8 9c 01 3c
       -0.052605946 0.07316929 0.0674255 0.0079109
0001d0 b5 fd 5f bd 1e 33 98 3d 42 6b 05 bd da 6c 28 3c
       -0.054685313 0.07431625 -0.032572992 0.0102798585
0001e0 75 fd 5c bd 4c 8a 94 3d 7e 4b 58 3d 00 0d 82 3b
       -0.053952653 0.072529405 0.05280637 0.003968835
0001f0 3f 07 07 3d 59 fb b6 3c 68 00 93 bc 49 6e 82 3d
       0.032965895 0.022336649 -0.01794453 0.063686915
000200 ed 25 74 3c 0a af 9e 3c 4d 92 bd 3d 2a e2 18 be
       0.01490162 0.019370575 0.0925642 -0.14930025
000210 5a df 07 bc 11 06 69 bc a0 56 c3 bd 8e cb 92 3d
       -0.008292997 -0.014222638 -0.09538007 0.07167731
000220 0d 32 34 bd 87 3b c6 bd b3 67 29 3e 10 cf 15 bd
       -0.043993045 -0.09679323 0.16543464 -0.036574423
000230 4d c4 3d 3e d9 1e 77 3d 7c 3d 83 3d a3 fe d4 3d
       0.18531914 0.060332153 0.064082116 0.104001306
000240 d4 44 bd bb f8 ca d1 3d a5 5f 8b bd 09 94 d3 bb
       -0.005776027 0.10243791 -0.06805352 -0.006456856
000250 f9 61 36 3e b8 3b 18 bd 12 09 58 3b 47 7f ee bb
       0.17810811 -0.037166327 0.003296439 -0.0072783562
000260 92 02 d4 3c ca 30 a5 3d 44 3e c2 3d 45 df 9b bd
       0.025880132 0.080659464 0.094845325 -0.07610945
000270 7b 27 a1 3d ab 9c ca 3c 21 b2 47 3d 24 fd 2d bd
       0.078688584 0.024732908 0.04875386 -0.04247774
000280 86 1b 2e 3d 97 db d9 3d c6 f0 1d 3e d0 87 e0 3b
       0.042506717 0.106375866 0.15423879 0.0068521276
000290 80 9b 05 3e 4d bc 2e bd e6 3b 56 3d 7a f8 e1 3c
       0.130476 -0.042660046 0.052303217 0.027584303
0002a0 6a 9f 00 3e f9 34 4a bc 4a e8 f5 bd d2 c1 0a 3e
       0.12560812 -0.012341731 -0.12007196 0.13550499
0002b0 0f 22 57 3d 0b bf 3b be e0 4e e4 bd a9 4e fa bc
       0.052522715 -0.18334596 -0.11147857 -0.030555086
0002c0 41 3e d2 3c 7e 07 15 3e e9 3e ef 3d bc 1c 13 bd
       0.02566445 0.1455364 0.11681921 -0.035916075
0002d0 86 ca de ba a8 fa 53 bd f3 44 02 bd a1 87 1b bd
       -0.0016997613 -0.051752716 -0.031804036 -0.037971143
0002e0 f5 a5 f7 3d c6 e3 0a 3d 5e f5 76 3c e8 c0 9a 3d
       0.12092201 0.033908628 0.0150731485 0.07556325
0002f0 bb d2 03 3e 14 00 8f bd 8e c4 40 bd f0 81 08 be
       0.12873356 -0.06982437 -0.04706245 -0.13330817
000300 21 39 00 3e ca 4e ae bb 55 2e 3a 3c 17 65 8b bd
       0.12521793 -0.005319451 0.0113635855 -0.06806391
000310 36 41 04 3d 05 a6 8e 3d 70 fd a2 bd 82 06 aa 3d
       0.032288752 0.069652595 -0.079584956 0.083020225
000320 e9 c4 6c bc 87 5f a3 bd b8 5d 8c 3d 16 bd 2e bd
       -0.014451244 -0.07977205 0.06853813 -0.042660795
000330 95 32 d8 3c a7 a2 72 bc 4a 04 03 be 9c 83 74 bd
       0.026391307 -0.014809287 -0.12794605 -0.059695825
000340 24 fb fc bd 21 e4 f4 bd 8e 99 2e bd 52 a7 e1 bd
       -0.12352589 -0.11957575 -0.04262691 -0.11018242
000350 59 77 f9 bd 3e af d7 bd 68 3e ae bd 46 12 86 bd
       -0.12180967 -0.10531472 -0.08507997 -0.06546454
000360 ea d2 d9 bc 88 d4 08 3e 84 6d 81 3d f8 54 06 3d
       -0.02658983 0.13362324 0.063197166 0.032795876
000370 f6 cd 9a 3d 75 88 d8 3d c0 96 87 bb 95 8e 68 3e
       0.07558815 0.10572902 -0.004137844 0.2271064
000380 2a a4 b4 bd 3c c5 75 bd ba e3 af bc 10 b4 75 bd
       -0.08820374 -0.06000255 -0.021470893 -0.059986174
000390 d8 bf 80 3e 1b df 28 3e e3 5a 62 3d 19 ff 8b bc
       0.25146365 0.16491358 0.055262458 -0.017089413
0003a0 57 23 79 3d 4c 45 bc 3d 9c 2e 22 bd 7d 3b da bb
       0.06082472 0.09192905 -0.03959523 -0.0066599236
0003b0 b1 f2 c8 3c 9e 46 9e bd b6 58 84 bd 54 ae a2 3d
       0.024529787 -0.07728313 -0.06462233 0.07943407
0003c0 c6 10 7b 3d bc 1a a5 bd 5d ab 2a 3e c1 fa 90 3d
       0.061295293 -0.0806174 0.16666932 0.070790775
0003d0 83 f0 02 3b 7f ba 15 3c 9d bc 01 3d 59 04 5c 3d
       0.0019979782 0.009138702 0.031674016 0.053715084
0003e0 d0 e9 d2 3d b7 00 53 3d 80 ea a2 bd 0e 04 b1 3c
       0.102985024 0.051514354 -0.079548836 0.021608379
0003f0 1c 0c 20 be 54 fd 8f 3b f8 74 56 be 09 09 dd 3c
       -0.1562962 0.0043942127 -0.20943058 0.026981847

network_body._body_endoder.seq_layers.2.bias f4 [128]
000000 00 00 00 00 00 00 00 00 00 00 00 00 00 00 00 00
       0.0 0.0 0.0 0.0
000010 00 00 00 00 00 00 00 00 00 00 00 00 00 00 00 00
       0.0 0.0 0.0 0.0
000020 00 00 00 00 00 00 00 00 00 00 00 00 00 00 00 00
       0.0 0.0 0.0 0.0
000030 00 00 00 00 00 00 00 00 00 00 00 00 00 00 00 00
       0.0 0.0 0.0 0.0
000040 00 00 00 00 00 00 00 00 00 00 00 00 00 00 00 00
       0.0 0.0 0.0 0.0
000050 00 00 00 00 00 00 00 00 00 00 00 00 00 00 00 00
       0.0 0.0 0.0 0.0
000060 00 00 00 00 00 00 00 00 00 00 00 00 00 00 00 00
       0.0 0.0 0.0 0.0
000070 00 00 00 00 00 00 00 00 00 00 00 00 00 00 00 00
       0.0 0.0 0.0 0.0
000080 00 00 00 00 00 00 00 00 00 00 00 00 00 00 00 00
       0.0 0.0 0.0 0.0
000090 00 00 00 00 00 00 00 00 00 00 00 00 00 00 00 00
       0.0 0.0 0.0 0.0
0000a0 00 00 00 00 00 00 00 00 00 00 00 00 00 00 00 00
       0.0 0.0 0.0 0.0
0000b0 00 00 00 00 00 00 00 00 00 00 00 00 00 00 00 00
       0.0 0.0 0.0 0.0
0000c0 00 00 00 00 00 00 00 00 00 00 00 00 00 00 00 00
       0.0 0.0 0.0 0.0
0000d0 00 00 00 00 00 00 00 00 00 00 00 00 00 00 00 00
       0.0 0.0 0.0 0.0
0000e0 00 00 00 00 00 00 00 00 00 00 00 00 00 00 00 00
       0.0 0.0 0.0 0.0
0000f0 00 00 00 00 00 00 00 00 00 00 00 00 00 00 00 00
       0.0 0.0 0.0 0.0
000100 00 00 00 00 00 00 00 00 00 00 00 00 00 00 00 00
       0.0 0.0 0.0 0.0
000110 00 00 00 00 00 00 00 00 00 00 00 00 00 00 00 00
       0.0 0.0 0.0 0.0
000120 00 00 00 00 00 00 00 00 00 00 00 00 00 00 00 00
       0.0 0.0 0.0 0.0
000130 00 00 00 00 00 00 00 00 00 00 00 00 00 00 00 00
       0.0 0.0 0.0 0.0
000140 00 00 00 00 00 00 00 00 00 00 00 00 00 00 00 00
       0.0 0.0 0.0 0.0
000150 00 00 00 00 00 00 00 00 00 00 00 00 00 00 00 00
       0.0 0.0 0.0 0.0
000160 00 00 00 00 00 00 00 00 00 00 00 00 00 00 00 00
       0.0 0.0 0.0 0.0
000170 00 00 00 00 00 00 00 00 00 00 00 00 00 00 00 00
       0.0 0.0 0.0 0.0
000180 00 00 00 00 00 00 00 00 00 00 00 00 00 00 00 00
       0.0 0.0 0.0 0.0
000190 00 00 00 00 00 00 00 00 00 00 00 00 00 00 00 00
       0.0 0.0 0.0 0.0
0001a0 00 00 00 00 00 00 00 00 00 00 00 00 00 00 00 00
       0.0 0.0 0.0 0.0
0001b0 00 00 00 00 00 00 00 00 00 00 00 00 00 00 00 00
       0.0 0.0 0.0 0.0
0001c0 00 00 00 00 00 00 00 00 00 00 00 00 00 00 00 00
       0.0 0.0 0.0 0.0
0001d0 00 00 00 00 00 00 00 00 00 00 00 00 00 00 00 00
       0.0 0.0 0.0 0.0
0001e0 00 00 00 00 00 00 00 00 00 00 00 00 00 00 00 00
       0.0 0.0 0.0 0.0
0001f0 00 00 00 00 00 00 00 00 00 00 00 00 00 00 00 00
       0.0 0.0 0.0 0.0

value_heads.value_heads.extrinsic.weight f4 [1, 128]
000000 20 71 e3 bb 26 8b 45 3e 21 16 53 be 09 4d dd bd
       -0.006940976 0.19291362 -0.2061391 -0.10805709
000010 e4 bf 4e bd 94 48 47 3e d9 a4 d0 bd 48 c9 a2 bc
       -0.05047597 0.1946128 -0.10187692 -0.019871369
000020 c0 1a 32 be 14 a4 b3 3d 04 e4 0c bd 38 42 52 3e
       -0.17393017 0.0877153 -0.03439714 0.20533073
000030 52 67 f2 bd a2 a0 94 bd f8 74 e7 bc 08 0a b9 3d
       -0.11836113 -0.07257201 -0.028254017 0.090351164
000040 d1 12 4c be 37 18 5b be 98 2e ee 3c 60 7e af bc
       -0.19929053 -0.21395956 0.029074952 -0.021422565
000050 8c 82 86 bd a0 a9 43 3c 5c 2a 08 3e a0 16 2b 3d
       -0.065678686 0.011942297 0.13297409 0.041769624
000060 30 b9 d6 bd bc 1e fc 3d a0 ab 07 bc 00 8d aa ba
       -0.104845405 0.123105496 -0.008280665 -0.0013011992
000070 3b 26 e2 bd da f5 1b be 72 c7 26 be 9a 91 55 3e
       -0.11042448 -0.15230504 -0.1628702 0.20856324
000080 52 00 0d 3e e0 4e e1 3d 86 29 93 bd d8 f2 45 3d
       0.13769653 0.11001372 -0.07185654 0.048327297
000090 24 a9 05 3d 0e 00 18 3e a0 cf 4b 3d 98 17 8e bd
       0.03263201 0.14843771 0.049758554 -0.06938094
0000a0 24 ec 30 3e a4 1c f8 3d d2 a8 09 3e e8 9b 52 bd
       0.1727758 0.12114838 0.13443306 -0.051418215
0000b0 7e 44 06 be da 3a 21 3e d4 5c 20 be a0 a2 82 3b
       -0.13112065 0.15745106 -0.15660411 0.0039866716
0000c0 45 2f 02 be 24 fc 51 bd 0c 6b 2f be f6 46 3a 3e
       -0.12713344 -0.05126585 -0.17130679 0.18191132
0000d0 4c 03 78 bd 30 5d 9b bd 30 5b 7d 3d e8 36 40 bd
       -0.06055002 -0.075861335 0.06185454 -0.046927363
0000e0 00 4d 6e bb 80 54 aa bd 80 72 82 3b 40 85 b3 bc
       -0.0036361814 -0.08316898 0.0039809346 -0.021914124
0000f0 db c3 02 be ce 28 5c 3e a3 3f ba bd a4 1a d4 bd
       -0.12770025 0.21499941 -0.09094169 -0.10356644
000100 a0 b8 8d 3d 34 91 eb 3d c0 cf 4b 3c 30 ea 6d bc
       0.0691998 0.11502305 0.012439668 -0.014521167
000110 80 f4 2c 3b 2a 64 2a be b4 da ed 3d 58 8f ab 3d
       0.002639085 -0.16639772 0.1161398 0.0837695
000120 ee c8 23 be 84 d9 7a bd 6c 9e 4b 3e 4c 5e a8 3d
       -0.15994617 -0.061242595 0.19884652 0.08221111
000130 80 b9 ba 3d 00 7c f1 3d c0 fd c1 bb e4 1c 47 be
       0.091174126 0.11791229 -0.005920142 -0.19444615
000140 b7 1a 22 be d8 0b 5c bd 8a 5e 0a be 58 d2 2f be
       -0.15830503 -0.053722233 -0.13512626 -0.17170084
000150 cc ad f6 3d c0 b9 3a 3c c0 38 80 3b d6 d9 b5 bd
       0.12044868 0.011396825 0.003913015 -0.088794395
000160 eb 5e cb bd bc d5 5b 3e b2 67 81 bd 54 72 e3 3d
       -0.099302135 0.21468252 -0.063186064 0.11105791
000170 8c b9 fe 3d 80 95 cc bb a0 66 85 bb 65 12 14 be
       0.12437734 -0.0062434077 -0.0040710717 -0.14460142
000180 49 60 30 be 0e d4 c2 bd be df 0b be 2d 75 c7 bd
       -0.1722423 -0.095131025 -0.1365957 -0.097391464
000190 ba 95 37 be 92 66 16 3e 8c 8e 2c 3e 68 3f 10 be
       -0.1792821 0.14687565 0.16851252 -0.14086688
0001a0 90 9a 22 be c8 b4 d2 3d 94 5d 0b be 58 f3 94 bd
       -0.15879273 0.102883875 -0.13609916 -0.07272977
0001b0 80 f7 c7 3d 9d 43 36 be 18 14 3e 3d 1c 7e 85 3d
       0.09764004 -0.1779923 0.04640588 0.06518194
0001c0 60 19 c1 bb 64 c3 dd 3d 9a 98 30 3e e8 56 4a bd
       -0.0058929175 0.108282834 0.17245713 -0.049399287
0001d0 20 09 f9 3d d4 c4 35 be 00 38 06 39 8b c5 ec bd
       0.121599436 -0.17750865 0.00012800097 -0.11561116
0001e0 10 6c 55 3c 82 b5 1e 3e 9c 28 47 bd 7c 13 ce 3d
       0.013026252 0.15498927 -0.048622712 0.1006231
0001f0 83 05 39 be 74 d0 b3 3d 10 e5 23 bc 60 59 e4 3d
       -0.18068509 0.08779994 -0.010003343 0.111498594
